hddm/torch_models/049de8c23cba11ecb507a0423f3e9a4a_ddm_mic2_adj_no_bias_torch_state_dict.pt (torch, 128391 bytes, 9 tensors)

layers.0.weight f4 [100, 8]
-0.042670686 0.020675123 -0.07320934 0.48402318 0.037594453 0.029284652 0.02363957 -0.15139726
-0.19466111 0.010195379 0.334245 0.15545282 -0.8735156 0.008792109 -0.012214575 0.15504941
0.012427053 -0.028701732 -0.059437703 -0.8475932 -0.1495464 -0.20789906 0.21666361 -0.17073566
0.108161435 0.030307364 0.1359225 0.09633445 -0.12499478 0.14582394 -0.12701672 -0.19189613
-1.0129877 -0.0009366364 -0.0087040765 -0.3016474 0.082520775 -0.007325177 -0.0073504797 -0.06344858
-0.011820657 -0.0113403015 -0.94445145 -0.5664818 -0.030230474 -0.05945758 0.07278916 -0.32261795
0.0012817765 0.016176801 -0.008162554 0.54266334 0.02287661 1.284401 -4.107604 0.0040239776
-0.44011328 -0.4170467 0.0038502777 -0.17422768 -0.08119575 -0.027784301 0.01790494 -0.85371435
-0.22468878 -0.024140961 -0.016535664 -0.2998285 -0.2981638 -0.70076406 0.6365313 0.30080113
-0.0045421324 -0.003414499 -0.0100840535 -2.3587315 0.03631805 -0.06510861 0.11841656 0.07989911
0.141732 -0.013776361 -0.03249256 -0.5421743 -0.17908283 0.056300435 -0.013136664 0.09340427
-0.08619154 0.0021927417 -0.8450137 0.5120684 -0.17643829 -0.0017950429 -0.021786138 -0.3725496
0.6876296 -0.0035429823 0.003994264 0.78709173 0.06420312 0.07761976 -0.07256666 0.028277747
0.0059606703 -0.040233064 -0.036055475 -0.49374866 -0.032118455 0.0863935 -0.036940508 -0.053823385
-0.020123564 0.03916128 -0.0009872633 1.2163656 -0.10603182 0.030245274 -0.027634466 -0.107422955
0.7367002 -0.011284242 -0.9162662 -0.16205359 0.11124216 -0.0075449846 0.011706732 -0.05783476
-0.12141428 0.013267929 -0.010211808 0.6450738 -0.17872094 0.518056 -0.6102249 -0.047941767
-0.0051307934 0.035440784 0.054346073 0.48979503 -0.04435061 0.098109774 0.012603337 0.037189227
-0.07079139 -0.36065763 0.025219144 0.055210993 0.12886807 -0.09176088 0.118401855 -0.35025162
-0.06795287 0.7387648 0.01360389 0.28979987 -0.072026215 -0.037226588 0.03537484 -1.0567578
-0.299501 0.64721483 -0.01932779 0.009738394 0.32134023 -0.02154026 0.015539764 -1.5942961
-0.26669693 -0.018527286 -0.0003537909 -0.14386351 0.17811505 -0.4160197 0.5720381 -0.3446943
0.023627864 -0.13931735 0.0108376695 0.54962826 -0.12251578 -0.0037993733 0.0139950635 0.21919402
0.015231946 -0.034264967 0.002645993 -0.11684819 -0.012285015 0.07862058 0.040957626 0.24008408
-0.040873762 0.0072274404 0.0007467953 -1.5231837 -0.083238415 -0.15898678 0.056702074 0.07395964
-0.013002683 0.0122240735 -0.10919873 0.31485862 -0.012515384 0.2606906 -0.11230442 0.16402717
0.69665724 0.015610354 -0.00892166 0.6712227 0.12495458 -0.027330952 0.010205734 -0.13761789
0.09262443 -0.8759137 0.011178663 -0.11460806 -0.15059482 -0.06597135 0.06431422 -0.98136014
0.0009921306 -0.0078005656 -0.0030822437 -0.0044576093 -0.05812477 -0.46788117 0.0029653234 -0.003842724
0.03860553 -0.013389643 0.04655783 -0.63127023 0.12534086 -0.03771068 0.014005531 1.6418496
-0.054546073 -0.020277074 -0.016691474 0.15902174 -0.39367214 0.5160069 -0.5750868 0.09619425
-1.2211295 0.006169624 1.5408316 -0.046668015 0.121050924 -0.014723452 0.011779176 -0.75791
00000000: 75c7 2ebd e05e a93c c7ee 95bd e3d1 f73e
00000010: a4fc 193d 5ee6 ef3c c6a7 c13c e207 1bbe
00000020: 3e55 47be 850a 273c 2922 ab3e 062f 1f3e
00000030: b89e 5fbf c70c 103c a41f 48bc 46c5 1e3e
00000040: d79a 4b3c e51f ebbc f374 73bd defb 58bf
00000050: b122 19be 7ee3 54be 11dd 5d3e 54d5 2ebe
00000060: be83 dd3d 2647 f83c 452f 0b3e ff4a c53d
00000070: 43fd ffbd df52 153e ac10 02be 6b80 44be
00000080: 95a9 81bf 9b88 75ba 8b9b 0ebc 8771 9abe
00000090: a700 a93d 0a08 f0bb 4bdc f0bb 54f1 81bd
000000a0: 6eab 41bc accc 39bc 92c7 71bf f404 11bf
000000b0: e6a5 f7bc cb89 73bd 7c12 953d 2e2e a5be
000000c0: 4801 a83a 3685 843c 3cbc 05bc fceb 0a3f
000000d0: ba67 bb3c 4167 a43f 7e71 83c0 92db 833b
000000e0: 8756 e1be 2587 d5be f154 7c3b be68 32be
000000f0: f549 a6bd e79b e3bc 61ad 923c 068d 5abf
00000100: d114 66be 44c3 c5bc cd75 87bc 1f83 99be
00000110: eda8 98be 4665 33bf b7f3 223f 9b02 9a3e
00000120: 2bd6 94bb cac5 5fbb 9637 25bc 75f5 16c0
00000130: 3cc2 143d aa57 85bd 6284 f23d 25a2 a33d
00000140: 3222 113e 3fb6 61bc eb16 05bd efcb 0abf
00000150: 7d61 37be 499b 663d 2a3b 57bc bd4a bf3d
00000160: 3185 b0bd 1ab4 0f3b d152 58bf ea16 033f
00000170: 3dac 34be a547 ebba d878 b2bc d2be bebe
00000180: 7e08 303f 6131 68bb 51e2 823b d87e 493f
00000190: ed7c 833d 1cf7 9e3d d49d 94bd bca6 e73c
000001a0: ba51 c33b 6dcb 24bd e8ae 13bd a0cc fcbe
000001b0: a48e 03bd 13ef b03d ee4e 17bd e975 5cbd
000001c0: 2cda a4bc 9467 203d 0f67 81ba deb1 9b3f
000001d0: 3627 d9bd f0c4 f73c ad61 e2bc 9100 dcbd
000001e0: 6298 3c3f 8be1 38bc 6c90 6abf 60f1 25be
000001f0: eed2 e33d eb3b f7bb 98cd 3f3c 24e4 6cbd
00000200: 0da8 f8bd ba61 593c 6d4f 27bc 8e23 253f
00000210: 9f02 37be 519f 043f b337 1cbf 965e 44bd
00000220: 3720 a8bb 5b2a 113d fd99 5e3d 6ac6 fa3e
00000230: fca8 35bd c7ed c83d 3a7e 4e3c bb53 183d
00000240: 14fb 90bd 1ea8 b8be 6198 ce3c ec24 623d
00000250: fef5 033e 21ed bbbd ac7c f23d 2e54 b3be
00000260: e02a 8bbd b11f 3d3f dae2 5e3c a660 943e
00000270: 7b82 93bd e87a 18bd 35e5 103d d743 87bf
00000280: 3258 99be dfaf 253f 5055 9ebc c98d 1f3c
00000290: b586 a43e 3375 b0bc 7f9a 7e3c e511 ccbf
000002a0: 808c 88be 89c6 97bc 037d b9b9 f550 13be
000002b0: cb63 363e 8900 d5be 1771 123f c57b b0be
000002c0: 398f c13c 35a9 0ebe 7b90 313c 70b4 0c3f
000002d0: 8ee9 fabd e8fe 78bb 8d4b 653c 6674 603e
000002e0: 698f 793c 6c59 0cbd 6568 2d3b 1b4e efbd
000002f0: 1647 49bc d403 a13d 2fc3 273d 9ad8 753e
00000300: 3f6b 27bd 2ad4 ec3b 96c4 433a aff7 c2bf
00000310: e778 aabd 6ecd 22be 6f40 683d 2778 973d
00000320: 3509 55bc 7b47 483c 95a3 dfbd 2635 a13e
00000330: 530d 4dbc 3d79 853e dcff e5bd bdf6 273e
00000340: 2158 323f 92c2 7f3c 272c 12bc 40d5 2b3f
00000350: 30e8 ff3d 29e5 dfbc f335 273c b4eb 0cbe
00000360: e1b1 bd3d e13b 60bf b626 373c a1b7 eabd
00000370: 8735 1abe fd1b 87bd 2cb7 833d 6b3a 7bbf
00000380: 610a 823a e39b ffbb 78ff 49bb 2311 92bb
00000390: 3d14 6ebd 1f8e efbe df55 423b 36d6 7bbb
000003a0: d520 1e3d 3c60 5bbc 6cb3 3e3d ed9a 21bf
000003b0: 5b59 003e 8476 1abd 7477 653c 2128 d23f
000003c0: b46b 5fbd 1b1c a6bc 8fbc 88bc 98d6 223e
000003d0: 658f c9be 0719 043f e338 13bf 7e01 c53d
000003e0: f94d 9cbf 8f2a ca3b f839 c53f f626 3fbd
000003f0: 8ce9 f73d a23a 71bc 72fd 403c 6406 42bf

layers.0.bias f4 [100]
-0.30279166 0.668124 0.6049374 0.53816736 -0.4504193 -0.12588853 -0.29779312 0.30993286
0.0904113 0.47576162 0.78687084 -0.2215946 0.5650363 0.5860819 -0.08360154 -0.34188873
-0.0016646791 -0.6721387 0.20578146 -0.9793407 0.6865818 0.425919 -0.80170006 -0.50631243
0.29591605 -0.48776308 -0.32782307 -0.99803257 0.487603 -1.4517597 0.35999107 1.4594617
0.22102322 -0.5377822 1.1591351 0.06324325 -0.09342676 0.5723982 -1.295121 -0.30128562
1.2905097 -0.36103573 0.4752503 -0.09756957 -0.13607787 -0.3240746 -0.0008510684 0.4401514
0.3263078 -0.4634132 -0.8852811 -0.5126846 -0.001967745 -0.041219175 -0.08055047 -0.854833
-0.3336804 1.1643727 -0.73231804 -0.38827676 -0.23832154 1.069536 0.028538112 -0.21320195
0.07030506 -0.0054561067 0.305916 -0.0016257821 -0.18939579 0.21183127 -0.1870203 0.2577519
-0.52658564 -0.17689957 0.010502592 -0.40135688 0.20270081 0.21394752 0.6072785 -0.17179146
-0.0755648 -0.4011975 0.8537629 -0.37780282 -0.047326412 -0.0012224038 -0.57101357 0.008088609
0.42281348 -0.7607526 -0.2122433 -0.003718988 0.45839554 0.18245503 -0.18928646 -0.5438957
0.22435991 0.67386967 -0.230938 -0.0010536925
00000000: 8207 9bbe 2d0a 2b3f 2ddd 1a3f 56c5 093f
00000010: 5c9d e6be ece8 00be 5778 98be 85af 9e3e
00000020: 8f29 b93d 0797 f33e 5e70 493f b2e9 62be
00000030: 38a6 103f 7709 163f 4937 abbd 0a0c afbe
00000040: 5d31 daba 4811 2cbf 60b8 523e 12b6 7abf
00000050: d3c3 2f3f 0e12 da3e 373c 4dbf b19d 01bf
00000060: 4f82 973e 15bc f9be 6dd8 a7be 107f 7fbf
00000070: 1aa7 f93e 43d3 b9bf c050 b83e a4cf ba3f
00000080: e953 623e 18ac 09bf 8a5e 943f ad85 813d
00000090: 8756 bfbd b088 123f 86c6 a5bf 1c42 9abe
000000a0: 6c2f a53f add9 b8be 0254 f33e 8ed2 c7bd
000000b0: ff57 0bbe 1bed a5be 3c1a 5fba 865b e13e
000000c0: d111 a73e 7f44 edbe c8a1 62bf 4c3f 03bf
000000d0: 48f5 00bb 70d5 28bd a5f7 a4bd 56d6 5abf
000000e0: 28d8 aabe 2a0a 953f 3279 3bbf 36cc c6be
000000f0: 900a 74be 8ee6 883f c2c8 e93c 9d51 5abe
00000100: 19fc 8f3d 24c9 b2bb 06a1 9c3e 3218 d5ba
00000110: f8f0 41be 4cea 583e 4082 3fbe 0ff8 833e
00000120: 51ce 06bf 2925 35be 1013 2c3c a67e cdbe
00000130: cd90 4f3e 0f15 5b3e 9b76 1b3f 1aea 2fbe
00000140: b8c1 9abd c269 cdbe 3590 5a3f 5f6f c1be
00000150: 57d9 41bd 1139 a0ba f22d 12bf 1686 043c
00000160: 027b d83e afc0 42bf 4f56 59be 44ba 73bb
00000170: d2b2 ea3e 7ed5 3a3e 4fd4 41be c03c 0bbf
00000180: 9bbe 653e b982 2c3f 037b 6cbe 0e1c 8aba

layers.2.weight f4 [100, 100]
-0.12600577 0.06641596 0.07499678 0.14875996 -0.9167686 0.07005325 -0.122863844 -0.20687428
0.36054528 -0.079780884 0.60696423 0.08972839 1.0234668 0.07485048 -0.26712954 -0.005030455
-0.030077094 -0.31399772 -0.06664578 -0.01671806 -0.4285144 0.05382431 -0.017937453 -0.18917106
0.119074486 0.06555542 0.52596205 0.3042752 0.03486059 -0.11628284 0.14357811 0.008560668
0.034609716 -0.41763932 -0.23195833 -0.19752325 -0.057860877 0.7736717 -0.42532155 -0.8968422
0.20400083 -0.03421333 -0.21482016 0.10577885 -0.022104912 0.14774339 -0.0042440603 0.0072703604
0.41186407 -0.1436545 0.07655225 -0.11713317 0.015332965 -0.1288518 -0.06348342 -0.18915756
-0.075414345 -0.64610654 -0.1316128 -0.585619 -0.077875726 0.059681702 0.05808875 0.017953973
-0.022755872 -0.008372428 -0.022835039 0.0012831063 0.02321015 0.1787033 0.104023844 -0.13113077
-0.077531375 0.10582875 -0.07858219 -0.21972725 0.32076323 -0.058624174 0.076646924 0.6145763
0.029420966 0.1440874 0.19225663 0.008059029 0.24925934 0.010017338 0.0119291395 0.005136522
-0.016858662 -0.3745979 0.08511858 0.010027823 -0.017514307 -0.009942075 0.01564087 -0.17118807
0.06516086 -0.16861832 0.26138797 -0.035455126 0.06733555 0.0885976 0.054206155 0.1797844
-0.6386612 -0.023167826 0.31949788 -1.3595454 0.017765645 0.18422097 0.05322542 -0.23096798
0.8689445 -0.14222577 -0.16980089 0.041743606 0.12763935 0.30717212 0.2925882 -0.2829316
0.02877108 0.038667277 -0.1569019 -0.00697016 0.088547245 0.045887772 0.24308485 -0.3346001
-0.013383246 0.29199693 -0.048459135 -0.0031828042 -0.027353326 0.28416803 -0.9611509 -0.9780193
-0.11719418 0.8236011 -0.6324956 0.637587 0.9963729 -0.024786193 -0.0697546 0.2045316
0.24496399 0.08960088 0.017886778 -0.27657282 0.46267405 0.030934306 -0.065328926 0.3143017
-0.017123975 -0.10305766 -0.015349911 0.11482953 -0.26272306 -1.1321673 -0.09068623 0.057364725
0.08749163 -0.0059132436 -0.0746801 0.005224077 -0.04279106 -0.008223857 0.20290715 -0.014770452
0.045317877 0.17013882 -0.32983625 -0.21466011 -0.007366284 0.4916609 -0.007308509 -0.028738743
-0.12110003 -0.07196536 1.8728625 0.08602727 -0.35314077 -0.23508972 0.0962791 -0.03274311
0.012207509 0.0006061492 -0.051714677 -0.011235722 -0.13640581 -0.123499595 0.058839794 -0.01894604
0.3777931 -0.22513878 0.19505376 0.09757871 0.011968526 0.07280993 0.46695215 0.025551027
-0.13721915 0.014218519 -0.40577382 -0.04439397 0.14948407 -0.052079923 0.0856321 0.17383909
-0.028282769 -0.07177545 -0.27001697 -0.35644758 -0.23498935 -0.11470139 -0.55271465 0.31366217
0.052430306 0.064817525 -0.11117348 0.15846787 -0.029092312 -0.1489766 0.106582664 0.085922174
0.027721727 0.16095166 -0.22264874 0.032795653 0.024955388 0.04728934 -0.042090777 -0.36157796
-0.14646645 0.17827858 -0.18372434 0.10829541 0.12440219 0.057849538 0.5024374 -0.0658524
-0.21743035 0.14229232 -0.022961173 0.15670685 -0.48057857 0.19601515 0.008203313 -0.19063275
0.024227345 -0.03362646 -0.31861013 0.11039758 -0.0022910014 0.29246753 0.35640237 0.36387345
00000000: a807 01be 1705 883d e997 993d 8854 183e
00000010: 59b1 6abf 1478 8f3d 0aa0 fbbd dad6 53be
00000020: 6499 b83e 2964 a3bd 0262 1b3f 85c3 b73d
00000030: f600 833f 354b 993d 34c5 88be 84d6 a4bb
00000040: 3d64 f6bc 4fc4 a0be 957d 88bd 50f4 88bc
00000050: 3d66 dbbe e176 5c3d 91f1 92bc 0fb6 41be
00000060: 53dd f33d ec41 863d 73a5 063f f6c9 9b3e
00000070: fac9 0e3d b325 eebd 2406 133e 0b42 0c3c
00000080: ebc2 0d3d d2d4 d5be 7c86 6dbe 8943 4abe
00000090: 87ff 6cbd 590f 463f bfc3 d9be 7397 65bf
000000a0: 98e5 503e 4723 0cbd d1f9 5bbe 95a2 d83d
000000b0: 5c15 b5bc 0b4a 173e c211 8bbb 343c ee3b
000000c0: d9df d23e 2a1a 13be 6dc7 9c3d 84e3 efbd
000000d0: 1e37 7b3c baf1 03be 9803 82bd 85b2 41be
000000e0: d672 9abd 3d67 25bf 81c5 06be 20eb 15bf
000000f0: 4f7d 9fbd cd74 743d 78ee 6d3d 3614 933c
00000100: 866a babc 822c 09bc 8c10 bbbc e72d a83a
00000110: 3623 be3c fffd 363e 740a d53d 2547 06be
00000120: c5c8 9ebd bebc d83d b3ef a0bd 2e00 61be
00000130: 143b a43e e71f 70bd 10f9 9c3d df54 1d3f
00000140: 3d04 f13c a68b 133e ecde 443e 040a 043c
00000150: d73d 7f3e c31f 243c 7072 433c 4550 a83b
00000160: 2d1b 8abc 4ccb bfbe a652 ae3d bd4b 243c
00000170: 2a7a 8fbc 16e4 22bc 4821 803c ed4b 2fbe
00000180: 0f73 853d 48aa 2cbe a5d4 853e 6539 11bd
00000190: 39e7 893d a972 b53d 4607 5e3d 6719 383e
000001a0: 4d7f 23bf 74ca bdbc 3a95 a33e 9505 aebf
000001b0: 4289 913c 6ca4 3c3e e602 5a3d df82 6cbe
000001c0: 2673 5e3f a2a3 11be 49e0 2dbe 58fb 2a3d
000001d0: e4b3 023e aa45 9d3e 1fce 953e 69dc 90be
000001e0: 54b1 eb3c 9461 1e3d e4aa 20be f165 e4bb
000001f0: 4258 b53d d1f4 3b3d 3ceb 783e b450 abbe
00000200: 6745 5bbc 9f80 953e 167d 46bd 9896 50bb
00000210: 1514 e0bc 797e 913e fc0d 76bf 795f 7abf
00000220: 8103 f0bd 86d7 523f 3beb 21bf e738 233f
00000230: 4b12 7f3f 6a0c cbbc 80db 8ebd bb70 513e
00000240: d7d7 7a3e ab80 b73d 4b87 923c f49a 8dbe
00000250: 9de3 ec3e f169 fd3c 2ccb 85bd 27ec a03e
00000260: 9447 8cbc e50f d3bd 317e 7bbc bf2b eb3d
00000270: a383 86be dcea 90bf b4b9 b9bd 46f7 6a3d
00000280: d02e b33d e2c3 c1bb e1f1 98bd bc2e ab3b
00000290: ae45 2fbd 5bbd 06bc e4c6 4f3e c4ff 71bc
000002a0: 3d9f 393d df38 2e3e 4ce0 a8be dccf 5bbe
000002b0: de60 f1bb faba fb3e 387c efbb 836d ebbc
000002c0: 4b03 f8bd 9362 93bd f5b9 ef3f 112f b03d
000002d0: dece b4be 5cbb 70be fa2d c53d a41d 06bd
000002e0: 0102 483c fce5 1e3a c5d2 53bd 0916 38bc
000002f0: f7ad 0bbe 5bed fcbd ff01 713d ba34 9bbc
00000300: 196e c13e c88a 66be 2cbc 473e 59d7 c73d
00000310: a317 443c 5f1d 953d 5a14 ef3e 6350 d13c
00000320: 2d83 0cbe cbf4 683c 96c1 cfbe 74d6 35bd
00000330: 5a12 193e c251 55bd e25f af3d e002 323e
00000340: 44b1 e7bc 02ff 92bd aa3f 8abe 4c80 b6be
00000350: 0ca1 70be 90e8 eabd b57e 0dbf 5498 a03e
00000360: 29c1 563d 0dbf 843d ecae e3bd 6745 223e
00000370: 0053 eebc 528d 18be 0348 da3d f7f7 af3d
00000380: ad18 e33c 83d0 243e 08fe 63be bc54 063d
00000390: 3e6f cc3c 78b2 413d 6167 2cbd bf20 b9be
000003a0: 4dfb 15be a98e 363e 3c22 3cbe fcc9 dd3d
000003b0: 93c6 fe3d a3f3 6c3d bd9f 003f a0dd 86bd
000003c0: 10a6 5ebe 14b5 113e 1219 bcbc c377 203e
000003d0: 650e f6be 32b8 483e 3067 063c 3b35 43be
000003e0: 6d78 c63c e6bb 09bd de20 a3be 2018 e23d
000003f0: a024 16bb 4ebe 953e 5f7a b63e 9f4d ba3e

layers.2.bias f4 [100]
0.14141452 0.04913226 -0.58969074 -0.09280344 -0.16018608 -0.028066186 -0.35523278 0.11788397
0.06952515 0.3148992 -0.115149304 0.07682109 0.039957583 0.048880458 -0.23768759 -0.20600009
-0.06543953 -0.07656875 0.13632064 0.07197499 -0.07087423 -0.017002437 -0.21782005 -0.31844437
0.69258076 0.21153748 -0.24389446 0.078595355 -0.11831222 0.1114941 0.01827536 0.28123373
-0.1793689 0.09931059 0.09203303 0.033371147 -0.31126285 0.33521333 0.26331446 0.11898351
0.060150586 0.10357334 -0.27884892 -0.09865443 0.27925548 -0.26085714 0.17683138 0.57732636
0.19987833 -0.20195405 -0.50953764 0.17510788 -0.3987743 0.3324189 0.23493768 0.0179908
0.008310126 -0.034176826 0.3266928 0.61038333 -0.32809263 0.010720591 -0.13196768 0.20788074
-0.07895376 -0.28774375 -0.1153078 -0.8684293 0.34750074 -0.86241716 -0.15655555 -0.24142352
0.055376142 -0.08697052 -0.21512066 -0.08303987 -0.06274954 0.1090351 0.15526102 0.010317761
-0.079975195 -0.37327304 0.29205498 0.004579722 -0.96633255 -0.117576584 0.7087813 -0.25148633
0.020235527 -0.19888256 0.025497109 -0.36324847 0.49070483 0.1659678 0.025851006 -0.4743427
0.23168215 0.015139989 -0.31074345 0.20253432
00000000: f8ce 103e e93e 493d f9f5 16bf bb0f bebd
00000010: d207 24be 0feb e5bc 12e1 b5be 276d f13d
00000020: 3463 8e3d 783a a13e 66d3 ebbd 6054 9d3d
00000030: 90aa 233d e036 483d 6064 73be b0f1 52be
00000040: 2905 86bd 14d0 9cbd a397 0b3e a067 933d
00000050: 8226 91bd b248 8bbc 380c 5fbe 240b a3be
00000060: f94c 313f 489d 583e 78bf 79be 9af6 a03d
00000070: ad4d f2bd 0557 e43d 35b6 953c defd 8f3e
00000080: 7bac 37be 5a63 cb3d d07b bc3d 2fb0 083d
00000090: d85d 9fbe 15a1 ab3e 27d1 863e a0ad f33d
000000a0: 7660 763d 421e d43d 49c5 8ebe 550b cabd
000000b0: 93fa 8e3e 118f 85be 4913 353e a9cb 133f
000000c0: e8ac 4c3e 0bcd 4ebe 0f71 02bf 7b4f 333e
000000d0: 252c ccbe cf32 aa3e 8193 703e 7161 933c
000000e0: 3227 083c 00fd 0bbd 4744 a73e 1542 1c3f
000000f0: c2fb a7be 6ba5 2f3c 8922 07be b0de 543e
00000100: 82b2 a1bd 2653 93be 7f26 ecbd 6251 5ebf
00000110: 9eeb b13e 5fc7 5cbf 1950 20be ba37 77be
00000120: 18d2 623d 9a1d b2bd 9748 5cbe cf10 aabd
00000130: d582 80bd cb4d df3d bffc 1e3e d40b 293c
00000140: 09ca a3bd a51d bfbe 3b88 953e 7e11 963b
00000150: 9261 77bf fecb f0bd b172 353f d1c2 80be
00000160: fac4 a53c dfa7 4bbe 50df d03c b4fb b9be
00000170: aa3d fb3e 77f3 293e 7dc5 d33c 0cdd f2be
00000180: 163e 6d3e b70d 783c c419 9fbe 2865 4f3e

layers.4.weight f4 [100, 100]
0.020954283 -0.0852326 -0.05561219 0.03767122 -0.18442425 0.020708764 0.1377742 -0.29381147
-0.17702775 0.029321862 -0.025110519 -0.28824854 -0.27329108 0.11360705 0.14864205 -0.29047996
-0.28154364 0.38072297 -0.16268405 0.050573774 -0.08024302 -0.2468877 -0.15621792 0.1290239
0.036097713 0.13923328 0.10327357 0.063321255 0.36383718 0.11784992 0.060147654 -0.39217702
-0.33222187 -0.13135773 0.025092172 0.033501573 0.26100847 0.076237194 -0.06402957 0.0015516382
0.0010508632 0.012544869 -0.092883036 0.027885353 0.5404572 -0.16452274 -0.17688677 0.05945408
-0.044870768 0.042729445 -0.1903631 0.013095529 0.073785834 0.078720905 0.26472735 -0.20153987
0.012194078 -0.53485256 0.00946182 0.064374946 -0.5434478 0.09577072 0.022859646 0.56986713
0.13065591 0.3025333 0.38694516 0.017250335 0.31758168 -0.011362599 0.2095704 0.027154166
0.052199844 -0.19608165 -0.09105175 -0.104630865 -0.089391425 0.52088225 -0.060109925 -0.2156815
-0.04357164 0.1737789 0.08456837 -0.36009762 -0.06650664 0.20144196 0.009925321 0.13387558
0.08152522 -0.2050377 0.11914289 0.16594264 -0.03340572 0.48515445 -0.29601523 0.43161923
-0.21965691 0.04938501 0.20440727 0.1456885 0.20914677 0.006213877 0.3200565 -0.013403679
0.13550666 0.20707817 0.26849675 -0.010160421 -0.01607733 -0.19694299 0.6180089 0.07619518
-0.038955055 -0.022729326 0.1884786 -0.033487577 -0.2104259 -0.3115185 0.13570438 -0.20696555
-0.07260024 -0.15918735 -1.5965967 -0.22712192 -0.19315116 -0.018510267 0.06752032 0.06951195
-0.43184254 -0.35427353 -0.023540836 1.2354729 0.05821933 -0.27375597 -0.7118105 0.113513984
-0.019736536 -0.074694335 -0.031186666 -0.27931055 -0.33499888 -0.056521133 -0.82033855 0.114911325
-0.1614647 0.2277741 0.12478083 -0.30859 -0.17951024 0.065416604 -0.106885195 -0.021097096
0.060682748 0.3353935 0.046398245 0.2814861 -0.026819482 0.2874977 -0.09680239 -0.31071246
-0.07526894 0.089584805 -0.5030124 -0.13730663 -0.061088573 -0.13726695 -0.5154726 0.23531392
-0.39689168 0.42271066 0.103749976 0.058275767 -0.11874405 -0.17262359 0.19608214 0.14989646
-0.19645594 -0.16818027 0.27410576 -0.19766332 -0.2830987 -0.13363202 0.1950009 0.36153084
0.26481757 -0.12685163 -0.057892423 -0.10826132 -0.06461714 -0.1587022 -0.078034036 0.13775818
0.0865395 -0.13094978 -0.03413047 0.18192579 0.16522904 0.25461876 -0.010226423 -0.2641956
-0.36091077 0.12629256 0.04066912 0.09522015 0.11552767 0.1920377 0.30881464 -0.09646555
0.14891815 -0.43232664 0.10144997 0.3267095 0.40274292 -0.22790438 0.2302511 -0.35489726
0.061408687 -0.1767567 -0.19768445 -0.20150648 -0.13923474 -0.13480106 -0.17958272 0.12378646
-0.38202587 -0.007970362 0.041964233 0.02221404 -1.0320225 0.056375727 -0.31218427 0.5169443
-0.0066032205 -0.20975874 -0.21305417 0.09913398 0.19603896 -0.32999998 -0.123009875 -0.074386925
-0.3297444 -0.017136622 -0.22413085 0.050462313 -0.08445712 -0.3115257 -0.09928237 -0.41779366
-0.37394348 0.002939719 0.26010722 -0.05671568 -0.08726974 0.29805076 -0.15140614 0.3651851
00000000: 51a8 ab3c 6e8e aebd 9cc9 63bd 234d 1a3d
00000010: b6d9 3cbe 6da5 a93c ae14 0d3e 756e 96be
00000020: c346 35be 6734 f03c 93b4 cdbc 5095 93be
00000030: cfec 8bbe d0aa e83d 9f35 183e cab9 94be
00000040: 7d26 90be 1fee c23e a696 26be 7226 4f3d
00000050: 7456 a4bd 21d0 7cbe 97f7 1fbe d71e 043e
00000060: 32db 133d 2b93 0e3e 1881 d33d 93ae 813d
00000070: de48 ba3e 4d5b f13d 635d 763d 6dcb c8be
00000080: fc18 aabe a482 06be 198e cd3c f238 093d
00000090: e7a2 853e 3f22 9c3d ef21 83bd 5760 cb3a
000000a0: 1ebd 893a ff88 4d3c 7639 bebd d36f e43c
000000b0: 675b 0a3f a678 28be ce21 35be 1f86 733d
000000c0: 69ca 37bd 1205 2f3d 8bee 42be a18e 563c
000000d0: 071d 973d 6d38 a13d 588a 873e 7860 4ebe
000000e0: acc9 473c 19ec 08bf c005 1b3c 03d7 833d
000000f0: 651f 0bbf 7023 c43d 2744 bb3c d0e2 113f
00000100: aaca 053e a5e5 9a3e ad1d c63e 9350 8d3c
00000110: 119a a23e 322a 3abc 9f99 563e 6a72 de3c
00000120: 81cf 553d a1c9 48be 5779 babd b548 d6bd
00000130: da12 b7bd 8a58 053f d335 76bd 9cdb 5cbe
00000140: 2d78 32bd 19f3 313e 2e32 ad3d b75e b8be
00000150: a234 88bd cd46 4e3e d09d 223c ae16 093e
00000160: b2f6 a63d 67f5 51be 3001 f43d deec 293e
00000170: 70d4 08bd 2a66 f83e 4f8f 97be 32fd dc3e
00000180: beed 60be f047 4a3d 2450 513e 5e2f 153e
00000190: 922a 563e c79d cb3b 72de a33e 1b9b 5bbc
000001a0: 42c2 0a3e 4d0c 543e 6878 893e e577 26bc
000001b0: 9bb4 83bc 6cab 49be d535 1e3f 380c 9c3d
000001c0: 568f 1fbd da32 babc 8900 413e 452a 09bd
000001d0: e379 57be 5a7f 9fbe 17f6 0a3e c7ee 53be
000001e0: 6faf 94bd 0202 23be 485d ccbf a692 68be
000001f0: 6bc9 45be d8a2 97bc 1848 8a3d 485c 8e3d
00000200: 771a ddbe 5763 b5be b6d8 c0bc fa23 9e3f
00000210: 6477 6e3d be29 8cbe 3739 36bf 057a e83d
00000220: 84ae a1bc 58f9 98bd 2e7b ffbc cb01 8fbe
00000230: f984 abbe b482 67bd b501 52bf a156 eb3d
00000240: 0157 25be 9d3d 693e 188d ff3d 82ff 9dbe
00000250: 88d1 37be 24f9 853d a0e6 dabd d1d3 acbc
00000260: 798e 783d b2b8 ab3e 160c 3e3d f21e 903e
00000270: 88b4 dbbc e632 933e 5540 c6bd b415 9fbe
00000280: 9a26 9abd 3d78 b73d 6cc5 00bf 1c9a 0cbe
00000290: 0338 7abd b58f 0cbe 03f6 03bf 22f6 703e
000002a0: 6335 cbbe 886d d83e de7a d43d 92b2 6e3d
000002b0: 1530 f3bd 3dc4 30be c2c9 483e 757e 193e
000002c0: bf2b 49be 7337 2cbe 9757 8c3e 4168 4abe
000002d0: 50f2 90be d5d6 08be 51ae 473e 921a b93e
000002e0: 2b96 873e 65e5 01be 9b20 6dbd 1cb8 ddbd
000002f0: fe55 84bd d482 22be 4fd0 9fbd 7b10 0d3e
00000300: 9f3b b13d b317 06be 64cc 0bbd c14a 3a3e
00000310: cd31 293e 645d 823e ba8c 27bc a544 87be
00000320: 4cc9 b8be d652 013e aa94 263d c802 c33d
00000330: c599 ec3d 88a5 443e f41c 9e3e bb8f c5bd
00000340: 007e 183e eb59 ddbe 00c5 cf3d 7846 a73e
00000350: 5234 ce3e c45f 69be f2c6 6b3e 18b5 b5be
00000360: ad87 7b3d b5ff 34be cb6d 4abe b757 4ebe
00000370: 8d93 0ebe 4a09 0abe 88e4 37be c183 fd3d
00000380: e598 c3be 1f96 02bc b0e2 2b3d 38fa b53c
00000390: 5019 84bf 3cea 663d 9ed6 9fbe 7656 043f
000003a0: d45f d8bb ffca 56be df2a 5abe c206 cb3d
000003b0: 70be 483e c2f5 a8be 9aec fbbd 2c58 98bd
000003c0: 42d4 a8be 1a62 8cbc 8f82 65be 92b1 4e3d
000003d0: dbf7 acbd 4c80 9fbe 8e54 cbbd 0de9 d5be
000003e0: 8575 bfbe 4da8 403b c62c 853e b34e 68bd
000003f0: 7aba b2bd 1c9a 983e 360a 1bbe 8bf9 ba3e

layers.4.bias f4 [100]
0.17368956 -0.35302907 -0.48830357 0.2930873 0.10103734 -0.27890477 -0.21350323 -0.083880685
-0.14431621 -0.08406101 -0.103776924 -0.10198994 0.44755295 0.1642008 -0.017672054 -0.20556015
0.29252145 -0.21084984 0.12890229 -0.34328178 -0.26349613 0.20095561 -0.2970203 -0.2976193
-0.56123185 -0.33849728 -0.043816518 0.18375 0.2523762 0.14902301 -0.2375916 0.47116935
0.21122617 -0.17164631 -0.6046628 0.38934156 0.17728989 -0.12898368 0.19012547 0.225778
0.43747365 0.12753099 0.38342455 0.031671263 -0.2216974 -0.18838835 -0.27732146 -0.05180614
-0.12784873 0.02954634 -0.06720504 -0.14201027 0.30949324 0.17191894 0.46077585 0.09265122
-0.15091483 -0.094229475 -0.28154024 -0.05265088 -0.04524763 0.13581711 0.028838916 0.4497608
0.15172154 0.2523017 0.10100573 -0.07090523 0.20397393 -0.0944417 -0.10740192 0.10127416
0.12158443 -0.14927351 0.077684894 -0.04220964 0.28802833 -0.23560378 0.26148042 -0.018323258
0.3230461 0.17614472 -0.121769615 0.2545536 -0.24316317 0.06976418 0.080525555 -0.3634291
-0.13443358 0.23676202 -0.074164964 0.24325806 0.15418217 -0.19842708 -0.23839201 0.8432105
0.044126853 -0.014271168 -0.21653675 -0.19100428
00000000: addb 313e 3ac0 b4be ed02 fabe 8a0f 963e
00000010: aaec ce3d 9bcc 8ebe 97a0 5abe a3c9 abbd
00000020: a1c7 13be 2e28 acbd ff88 d4bd 1ae0 d0bd
00000030: a925 e53e 4124 283e fcc4 90bc 5c7e 52be
00000040: 5fc5 953e 05e9 57be f6fe 033e a1c2 afbe
00000050: f7e8 86be 4fc7 4d3e 0b13 98be 8f61 98be
00000060: e4ac 0fbf 844f adbe f378 33bd f628 3c3e
00000070: 7437 813e 7d99 183e 364b 73be 1c3d f13e
00000080: ac4b 583e 0dc4 2fbe 2ecb 1abf c757 c73e
00000090: 7b8b 353e 4c14 04be 40b0 423e 5932 673e
000000a0: 8cfc df3e 7c97 023e 3950 c43e bab9 013d
000000b0: a504 63be e0e8 40be 14fd 8dbe ad32 54bd
000000c0: c7ea 02be 2b0b f23c cca2 89bd 246b 11be
000000d0: e675 9e3e 850b 303e d0ea eb3e ecbf bd3d
000000e0: 6b89 1abe 62fb c0bd 0b26 90be 73a8 57bd
000000f0: 9455 39bd a413 0b3e 973f ec3c 0c47 e63e
00000100: e45c 1b3e b02d 813e 18dc ce3d c336 91bd
00000110: 8bde 503e a66a c1bd 8af5 dbbd d468 cf3d
00000120: 4201 f93d 28db 18be 4219 9f3d 04e4 2cbd
00000130: 7378 933e 1e42 71be c3e0 853e a81a 96bc
00000140: 4c66 a53e 485f 343e 5962 f9bd d954 823e
00000150: c4ff 78be 86e0 8e3d 95ea a43d 6113 babe
00000160: f5a8 09be be71 723e cde3 97bd a418 793e
00000170: eee1 1d3e 7830 4bbe 091d 74be a5dc 573f
00000180: 5cbe 343d 9ed1 69bc cfbb 5dbe a096 43be

layers.6.weight f4 [100, 100]
-1.3402584 0.14777505 0.065826215 -0.22106709 -0.24392928 0.108135685 0.27172047 1.227973
-0.7369732 0.53391135 0.17940153 -1.0684779 -0.55134815 -0.031240806 -0.06637743 0.45066738
-0.24786142 0.61204773 -0.89920956 1.2639767 0.55175465 -0.76527256 0.40897745 0.63315606
0.3161014 0.12716168 -0.13651893 -1.1177568 -0.51614654 -1.0219806 0.3683621 -0.07525686
-1.0565732 0.63383436 0.15031183 -0.6097694 -1.017131 0.8718641 -1.081159 -0.7284649
-0.4242294 -1.0690472 -0.4328133 -1.3828247 0.16592242 0.99130464 0.9527414 0.32803005
-0.20484608 -2.4567072 1.528834 0.41233477 -0.14841375 -0.56168485 -0.037469678 -0.82400316
0.69115627 -0.021907534 0.24913327 0.68168616 -0.12373381 -0.3691551 -0.6498565 1.4931959
-0.918435 -0.047518604 -1.1943285 0.8327946 -0.107783765 -0.08642774 -0.16669989 -1.0446408
-1.2292511 0.5444364 0.3074392 1.1387647 -0.6216813 1.224384 -0.32016623 0.23446196
0.009763126 -0.6168922 0.012075587 0.90235555 0.3475663 -1.012736 -0.9667664 0.13290228
0.7617754 0.8370299 0.92429465 -0.1758746 -0.29331553 -0.17327459 -0.8116236 -0.1908494
0.6231144 -0.8159833 0.38632858 0.46225873 -0.21179788 0.3222853 0.33524266 -0.8524004
-0.13865615 0.089109086 0.43914822 -0.050862238 -0.45919418 -0.018741803 1.0436877 -0.23258065
-0.16584717 0.07764558 0.027474415 0.3530372 -0.22642921 0.0016868302 0.043002896 0.3370199
-0.22752284 -0.25089502 0.37201744 -1.4559134 0.1998198 0.26493385 0.3315681 0.034667164
-0.25160587 -0.009473862 0.2010594 -0.17184158 0.12687717 0.121327356 0.24636185 -0.31077895
0.060240615 0.21441518 0.022932334 -0.13083561 -0.24825464 0.1234386 -0.16943361 0.049413282
0.27077034 0.33941922 0.19798379 0.26234502 -0.2508853 0.014691217 0.19581084 0.07625711
-0.16886722 -1.1456956 -0.1528623 -0.35395834 0.37392256 0.2235149 0.5851548 0.28621694
-0.24597703 0.55560225 0.048506532 0.20018072 -0.21192451 0.03212883 0.54423785 -0.35462922
-0.1186294 -0.21280164 -0.1744265 0.026357286 0.118738495 0.20559157 -0.2648448 -0.13879009
0.007329531 0.30838406 -0.15364678 -0.07193433 -0.21425289 -0.17872171 -0.027932853 0.34319034
0.15925515 0.24754608 0.07937532 0.16007301 0.30108798 0.46879342 -0.06221111 -0.14068028
-0.7265479 0.17614745 -0.03282755 -0.21535552 -0.03670954 -0.8995478 0.51481104 -0.09481015
1.3811167 -0.024961768 0.03032489 0.096970506 0.3758361 0.028697591 -0.19933213 -1.3835481
0.6293301 -0.8188948 -0.25902337 1.1849546 0.8962118 -0.025793407 0.399263 -0.43440464
0.11558092 -0.761666 1.3249085 -1.3806487 -0.913889 0.68758374 -0.46537688 -0.5484352
-0.38837257 -0.1720593 -0.5029162 1.3441968 0.508638 1.1070094 -0.33575004 0.023798378
1.255456 -0.6104552 -0.17553173 0.66786164 1.4041781 -0.8177009 1.029694 0.8296955
0.43148977 1.2498615 0.35609075 1.3568823 -0.06042145 -0.79798204 -0.8943001 -0.30915707
0.3580285 2.849103 -1.5874945 -0.6704675 -0.07947071 0.14963059 0.018347565 0.94150084
00000000: 968d abbf 5852 173e e5cf 863d 695f 62be
00000010: 99c8 79be 3e76 dd3d f21e 8b3e 382e 9d3f
00000020: 47aa 3cbf 6aae 083f 09b5 373e e2c3 88bf
00000030: 2725 0dbf b8ec ffbc e4f0 87bd e0bd e63e
00000040: 62cf 7dbe 29af 1c3f 9932 66bf fdc9 a13f
00000050: cb3f 0d3f e7e8 43bf 7e65 d13e 8416 223f
00000060: 0bd8 a13e ac36 023e 9ecb 0bbe a812 8fbf
00000070: 2e22 04bf 43d0 82bf f599 bc3e 4520 9abd
00000080: ca3d 87bf f842 223f 58eb 193e d919 1cbf
00000090: 5931 82bf 7c32 5f3f 6b63 8abf ad7c 3abf
000000a0: 9934 d9be 8ad6 88bf b499 ddbe 6600 b1bf
000000b0: 91e7 293e 24c6 7d3f dce6 733f 8ef3 a73e
000000c0: 2cc3 51be b13a 1dc0 d5b0 c33f 8b1d d33e
000000d0: c6f9 17be 94ca 0fbf ce79 19bd dff1 52bf
000000e0: 9eef 303f 6e77 b3bc cb1c 7f3e fc82 2e3f
000000f0: 2768 fdbd e601 bdbe ff5c 26bf 0b21 bf3f
00000100: 8e1e 6bbf dea2 42bd c2df 98bf 0732 553f
00000110: bcbd dcbd 0701 b1bd 60b3 2abe cab6 85bf
00000120: 1a58 9dbf 2f60 0b3f ac68 9d3e 0bc3 913f
00000130: 8126 1fbf 9db8 9c3f d4ec a3be cc16 703e
00000140: 85f5 1f3c a6ec 1dbf afd8 453c c600 673f
00000150: 36f4 b13e 55a1 81bf 017e 77bf 8917 083e
00000160: b603 433f 9747 563f 939e 6c3f 7918 34be
00000170: 742d 96be e56e 31be 90c6 4fbf 066e 43be
00000180: 6d84 1f3f 48e4 50bf dccc c53e 2dad ec3e
00000190: 8be1 58be 9402 a53e eda4 ab3e ea36 5abf
000001a0: e1fb 0dbe d37e b63d 09d8 e03e ec54 50bd
000001b0: 801b ebbe 6988 99bc 8f97 853f 9f29 6ebe
000001c0: d7d3 29be a504 9f3d 0612 e13c 4bc1 b43e
000001d0: 0fdd 67be a118 dd3a ce23 303d df8d ac3e
000001e0: bffb 68be 5075 80be 1279 be3e 5f5b babf
000001f0: 909d 4c3e 69a5 873e 4bc3 a93e 28ff 0d3d
00000200: 7cd2 80be 4238 1bbc 84e2 4d3e 3df7 2fbe
00000210: 17ec 013e 7a7a f83d 4846 7c3e 6b1e 9fbe
00000220: ddbe 763d a78f 5b3e 97dc bb3c c5f9 05be
00000230: 7736 7ebe 60cd fc3d 0180 2dbe 9565 4a3d
00000240: 69a2 8a3e 5bc8 ad3e 43bc 4a3e 1652 863e
00000250: 0a74 80be 6eb3 703c a382 483e b02c 9c3d
00000260: 87eb 2cbe 27a6 92bf ef87 1cbe 073a b5be
00000270: c772 bf3e 17e1 643e b4cc 153f 078b 923e
00000280: 67e1 7bbe f33b 0e3f c9ae 463d 2dfc 4c3e
00000290: bd02 59be 8599 033d 2c53 0b3f f691 b5be
000002a0: f9f3 f2bd ace8 59be dc9c 32be 3ceb d73c
000002b0: 2b2d f33d 9986 523e bd99 87be fd1e 0ebe
000002c0: 902c f03b 84e4 9d3e 9555 1dbe 4e52 93bd
000002d0: 1c65 5bbe d302 37be 70d3 e4bc a5b6 af3e
000002e0: c813 233e b87c 7d3e 878f a23d 2eea 233e
000002f0: 3428 9a3e b105 f03e 14d1 7ebd 7e0e 10be
00000300: 0bff 39bf ff5f 343e 2e76 06bd 2886 5cbe
00000310: be5c 16bd c448 66bf a8ca 033f d32b c2bd
00000320: 6fc8 b03f 9f7c ccbc e76b f83c 7998 c63d
00000330: 976d c03e 3617 eb3c b91d 4cbe 1b18 b1bf
00000340: c71b 213f 17a3 51bf b69e 84be 98ac 973f
00000350: 236e 653f b24c d3bc 336c cc3e 496a debe
00000360: b0b5 ec3d 8bfc 42bf 9a96 a93f 19b9 b0bf
00000370: a1f4 69bf 7d05 303f e145 eebe 4066 0cbf
00000380: c5d8 c6be 5030 30be 1ebf 00bf a40e ac3f
00000390: 1a36 023f 7cb2 8d3f 6ee7 abbe d1f4 c23c
000003a0: c8b2 a03f cb46 1cbf 97be 33be fbf8 2a3f
000003b0: 1cbc b33f d954 51bf 03cd 833f ed66 543f
000003c0: 3aec dc3e 76fb 9f3f 8751 b63e 52ae ad3f
000003d0: 7b7c 77bd 8d48 4cbf daf0 64bf d649 9ebe
000003e0: 834f b73e b457 3640 0533 cbbf c2a3 2bbf
000003f0: 8ac1 a2bd c338 193e a24d 963c 3306 713f

layers.6.bias f4 [100]
-0.08001849 -0.3565029 -0.011031113 -0.043039575 0.29597402 0.100209475 -0.09715034 -0.21744993
-0.33425573 0.28932634 -0.22456014 0.44915506 0.13781084 0.06452701 -0.0667788 -0.2823981
-0.05992922 0.40287045 -0.04197492 0.005566546 0.19883953 -0.12785266 -0.17564787 -0.0065893508
0.3201672 -0.45952332 0.3258936 -0.06199477 -0.18116981 -0.08390531 0.40065545 -0.15893804
-0.026039772 0.28225157 0.13720322 -0.40123028 0.345321 -0.1818666 -0.35668984 0.22103329
-0.14241679 -0.29007906 0.109345034 -0.35059273 0.41168028 -0.19484246 -0.09098692 0.41789335
-0.43448183 -0.5622564 0.5726082 -0.36678168 0.27534655 0.21921095 -0.13189277 -0.32734993
0.19879107 -0.3470586 0.31496295 -0.32255504 -0.36893934 -0.42961094 -0.3360635 -0.08395403
0.45350724 -0.24929973 -0.091643 -0.104509816 -0.22370994 -0.14736187 0.10175083 0.16198485
0.42885223 0.6423476 -0.33413967 0.25058824 -0.2890703 0.35262215 -0.0747402 0.30147582
-0.29687318 -0.09802139 -0.027115893 0.20240664 0.01147315 -0.32532334 0.1645941 -0.4031782
0.22313929 -0.044469886 -0.12201866 0.155603 0.37310547 0.13922575 -0.57342434 0.078575425
0.069235615 0.037028328 -0.400819 0.24925381
00000000: bce0 a3bd 8c87 b6be d7bb 34bc 444a 30bd
00000010: e889 973e a03a cd3d c2f6 c6bd 32ab 5ebe
00000020: 9123 abbe 9522 943e 18f3 65be a7f7 e53e
00000030: 491e 0d3e bd26 843d 53c3 88bd 7c96 90be
00000040: 5778 75bd 0945 ce3e e5ed 2bbd 9367 b63b
00000050: 979c 4b3e cfeb 02be 09dd 33be 7beb d7bb
00000060: f5ec a33e a446 ebbe 87db a63e 3aee 7dbd
00000070: 9484 39be 8cd6 abbd b622 cd3e a7c0 22be
00000080: 5c51 d5bc 4783 903e 007f 0c3e 0e6e cdbe
00000090: eacd b03e 3d3b 3abe 0da0 b6be 8d56 623e
000000a0: b5d5 11be 3e85 94be 4af0 df3d e480 b3be
000000b0: c2c7 d23e c884 47be 5a57 babd 1ef6 d53e
000000c0: 6774 debe 09f0 0fbf 7396 123f cfca bbbe
000000d0: 39fa 8c3e d678 603e e60e 07be 699a a7be
000000e0: e38f 4b3e aab1 b1be d342 a13e ef25 a5be
000000f0: 9ee5 bcbe f7f5 dbbe 8410 acbe 17f0 abbd
00000100: 1a32 e83e 6e48 7fbe 53af bbbd 3e09 d6bd
00000110: 3814 65be 08e6 16be bd62 d03d 5bdf 253e
00000120: 8592 db3e e470 243f 5b14 abbe 1a4d 803e
00000130: 0601 94be e48a b43e 6411 99bd 0a5b 9a3e
00000140: c3ff 97be 70bf c8bd 2622 debc b043 4f3e
00000150: e1f9 3b3c c890 a6be 5b8b 283e 5f6d cebe
00000160: a07e 643e 0e26 36bd ebe4 f9bd 6556 1f3e
00000170: ae07 bf3e 3291 0e3e f0cb 12bf 27ec a03d
00000180: 67cb 8d3d 04ab 173d 2638 cdbe 643c 7f3e

layers.8.weight f4 [1, 100]
0.15459898 0.10136347 -0.19389392 0.1524271 -0.14590716 0.21900466 -0.14690953 0.14922473
0.1513376 -0.055935245 0.05622434 -0.111948274 0.11715957 -0.17618923 0.19349936 0.15317705
-0.2592979 -0.19677377 -0.2179589 0.19219732 -0.16332497 0.18650647 0.18941665 -0.13519977
-0.14448257 0.2002313 -0.22131373 -0.14033887 0.031112708 0.25133795 -0.19182375 0.13533545
0.08661204 -0.10196463 -0.09139085 0.1941566 -0.16422148 0.058127675 0.14782353 -0.108991936
0.084496774 0.16408703 0.23106508 0.23989491 -0.14541754 0.25256193 0.16248304 -0.16027564
0.12099759 0.18101397 -0.22855595 0.19861567 -0.19162498 -0.065984175 0.18337853 0.14988281
-0.109326646 0.11927971 -0.2231511 0.19233741 0.12534665 0.18138261 0.18519738 -0.26632625
-0.19262649 0.12303502 -0.011154021 0.16174293 0.1161329 0.18839508 -0.2107123 -0.077164985
-0.20435758 -0.19405574 0.043958437 -0.14556733 0.10685008 -0.14325534 0.23402198 -0.14853868
0.10613618 -0.20632191 0.1963535 -0.1627442 -0.27164483 0.19292575 -0.26346388 0.22250833
-0.089909665 0.27135032 0.054415803 -0.13931836 -0.24227653 -0.17912263 0.18688495 -0.18830033
-0.2750131 -0.25013393 0.13267373 -0.14652462
00000000: 324f 1e3e a797 cf3d 218c 46be da15 1c3e
00000010: b068 15be c242 603e 746f 16be 5ece 183e
00000020: 3ef8 1a3e 5b1c 65bd 7e4b 663d 2345 e5bd
00000030: 5bf1 ef3d f36a 34be b224 463e 72da 1c3e
00000040: b2c2 84be 107f 49be 9e30 5fbe 60cf 443e
00000050: a93e 27be 8dfb 3e3e 70f6 413e cf71 0abe
00000060: 3df3 13be 6f09 4d3e 11a0 62be feb4 0fbe
00000070: 14e0 fe3c 5eaf 803e 726d 44be 6095 0a3e
00000080: a761 b13d d5d2 d0bd 202b bbbd fdd0 463e
00000090: ad29 28be 4917 6e3d 0d5f 173e 2a37 dfbd
000000a0: a50c ad3d 6e06 283e 539c 6c3e 03a7 753e
000000b0: 56e8 14be cc4f 813e f461 263e 4c1f 24be
000000c0: 96cd f73d ba5b 393e 920a 6abe e861 4b3e
000000d0: 5739 44be b622 87bd 95c7 3b3e e17a 193e
000000e0: a6e6 dfbd ec48 f43d b981 64be 19f4 443e
000000f0: df5a 003e 5dbc 393e 62a4 3d3e ea5b 88be
00000100: e13f 45be c9f9 fb3d 5bbf 36bc f09f 253e
00000110: 16d7 ed3d a4ea 403e f7c4 57be ad08 9ebd
00000120: 1d43 51be 8cb6 46be c30d 343d 9a0f 15be
00000130: 37d4 da3d 87b1 12be 75a3 6f3e 861a 18be
00000140: ed5d d93d 0d46 53be e410 493e 6aa6 26be
00000150: 0815 8bbe 548e 453e bde4 86be 39d9 633e
00000160: 8f22 b8bd 6eee 8a3e 1be3 5e3d 79a9 0ebe
00000170: 5717 78be ec6b 37be c55e 3f3e cdd1 40be
00000180: 84ce 8cbe 8e11 80be 9fdb 073e 8d0a 16be
