hddm/torch_models/0d9f0e94175b11eca9e93cecef057438_lca_no_bias_4_torch_state_dict.pt (torch, 125007 bytes, 7 tensors)

layers.0.weight f4 [120, 11]
00000000: c475 bbbe f537 a9be 3f90 d83e f7df 043f
00000010: 9301 4abe 0473 353d 507e d1be e634 97be
00000020: 6f15 cb39 438f 313c 5645 97bd 8590 aabd
00000030: 90ef a6bd d64f b1bd 7bfb 98bd f2ff d43e
00000040: 247e d6bf 4d5f ec3e 174c e43f 4b8d d5bb
00000050: 487b 74bb 4946 e63a b2b4 94bc ed20 573b
00000060: 0b77 2ebd 7d7e c6ba 47df a4be 1d39 343f
00000070: 137e b83b c0a3 833d 122b 5a3f 3018 67bf
00000080: 4824 70bc 7b96 f0bc db6c e5bd 2185 04be
00000090: cbd6 e8bc 9a73 8c3e fb38 613e 0150 cf3e
000000a0: ed03 de3e 2a48 1e3f 7d3a 18bf aa32 56bd
000000b0: 1010 943e 475d a1be eef6 0dbf 78ae e13e
000000c0: 475a 313e dd9a 29bd 2d76 843e 6336 7e3e
000000d0: 4bab 063b 46aa 20bb 013c 65bc 89fb 3f3d
000000e0: 56ea 72bd 8685 5abd f3cf 08bd 1caa fd3d
000000f0: e7ed 0dbf 7c6b af3d d5ee fa3d 746a 4a3f
00000100: c359 47bf f5de cd3d 648b aebd 6276 afbe
00000110: fd79 243f bf17 6abe 8e54 b73e 02e5 743d
00000120: 0f67 d73d ce95 683d e580 a43c 8cdf 71bc
00000130: 012d 113d 6d48 753e 656d 3b3c 17fd 953d
00000140: 2fe2 373d 55e5 4ebe 0cf8 69be f3c2 ee3d
00000150: 0139 b0bd 6af7 6bbd 79a3 4f3c 257c 09bc
00000160: 7039 703e 5603 8c3e 837a 7d3e 0fd2 6fbf
00000170: 9c74 3a3d 1141 3abd 79bc 2c3e fcae 603e
00000180: 72d8 debc a08f c53c bab7 30bc a60c b0bd
00000190: 85f1 85bc fe0d a23c f196 bebc ebbe 4f3e
000001a0: 6412 6bbf d41a 05bc b892 883d db31 4c3f
000001b0: 8431 4fbf 81c7 af3c 915b 343d 3727 b7bd
000001c0: abb3 05be 39b1 2dbd 95c8 013e 5ef6 b9bd
000001d0: 3c61 253c f968 773d 3511 11bf 3b00 0c3f
000001e0: a319 eb3a c3f0 1dbe 6740 3d3e 0188 c93d
000001f0: 0da4 8bbd 12bf d6bc 7867 463d d7b2 9dbd
00000200: a9c8 36be 60a4 863d 7c5e 22bd 452d f03e
00000210: 33a4 eb3c 6b3b c2bc d6a8 c7bd 4fa4 363d
00000220: 2ebe 593e 91ff d2bd 7dd4 313e 3ac6 82be
00000230: 8d65 083f b9b9 11bf 9c9e e5bc f474 463f
00000240: 5e68 a0be 488e 85be f4e5 76be 3232 313d
00000250: 8bf2 a7bc 18ad a63e fe1b 31bd c1da ac3b
00000260: f2ae 0fbc a467 a33c b830 81bc eb98 e0bc
00000270: 0c4e 803b 7498 bebb f2ff 2dbc 29fc 203f
00000280: 6cd8 02bc c96b 57bc 4040 73bf 68cd 753f
00000290: 5b9a bfbd 27ca ed3c 23d1 073a b3b9 a03d
000002a0: ed21 d8bd 4f64 c8bd cd50 13be ecf5 7cbe
000002b0: 567f 96bb dbf5 9a3b 9675 723a 4ae1 b0be
000002c0: f54d 3e3d b824 c63d ba9e 1e3d 5832 8ebc
000002d0: 4a8e dbbd 27e2 2bbf 9a39 99bd 3143 79be
000002e0: 97c8 963e ff23 8cbe 8019 f9bd 457a bd3d
000002f0: 7a88 52bf aae5 643e 7b00 333e 7187 9f3e
00000300: c175 67bd 70e6 f73e 8c55 9d3e 8857 f0ba
00000310: 7160 a8bb b8b3 18bb d78c d83b 724d c2bb
00000320: 21f7 a4bc 8d38 c9bc 6db5 db3d c68b 88be
00000330: ec79 b23d 7460 c43d f954 643f 857c 5dbf
00000340: af12 b8bd 1a71 7cbd 5b2e 063e 9516 9a3d
00000350: 4dae 2f3e 51cc 45bd e5f9 6dbe 7a98 4bbe
00000360: be02 f4bd 48bb bebb d3fb b93c da0e 75be
00000370: b8aa a73d 8ec1 193c 7bfc 7abc 9e0d 47bd
00000380: d78e 833d bb12 293f 810e 213e a6d2 cbbd
00000390: 2a16 783d 486a 0fbd 6b5b 213e 601f 08be
000003a0: c9a2 303d 54a7 bb3c 732b b2bd dabb a33e
000003b0: 2026 d0be 74c0 603e 9c8c 4a3e 82d3 963e
000003c0: c6f8 88be dbea 3e3e 7ad6 d4bd febe e13c
000003d0: b187 25bc f483 163c 6129 033e 98be 713f
000003e0: 0c25 9b3d ecfc c7bc 6431 8e3d 9950 cabc
000003f0: 1ac5 44be a7dc 90bc dcab 343d 58f7 a6bb
-0.36613286 -0.33050504 0.4229755 0.51904243 -0.19727163 0.04429914 -0.4091668 -0.29532546
0.00038735147 0.010837379 -0.07386272 -0.08328346 -0.08151162 -0.086578056 -0.07469841 0.4160152
-1.6757245 0.4616646 1.7835721 -0.0065170876 -0.0037304927 0.0017568554 -0.018152568 0.0032826022
-0.042593997 -0.0015143898 -0.32201597 0.7039965 0.0056302636 0.06427717 0.8522197 -0.9027128
-0.014657088 -0.02936863 -0.11202403 -0.1294141 -0.028422734 0.27431947 0.21994393 0.40490726
0.4336237 0.61828864 -0.59464246 -0.05229441 0.28918505 -0.31516477 -0.5545491 0.44078422
0.17319594 -0.041407455 0.2587141 0.24825434 0.0020548876 -0.0024515553 -0.013991357 0.046870742
-0.05930551 -0.053349994 -0.03340144 0.123859614 -0.55441135 0.08565423 0.12252585 0.79068685
-0.7787134 0.10052291 -0.085226804 -0.34270006 0.6424864 -0.22860621 0.35806698 0.05978871
0.10517704 0.05678349 0.020080993 -0.01476277 0.03544331 0.2395341 0.011439656 0.07323664
0.04489344 -0.2020467 -0.22848529 0.11658277 -0.08604623 -0.057609 0.012673252 -0.008391415
0.2345941 0.27346295 0.24753766 -0.936799 0.045521364 -0.04547221 0.16868772 0.21941751
-0.027202819 0.024116337 -0.010785991 -0.085961625 -0.016350517 0.019782063 -0.023265334 0.20287673
-0.91824937 -0.008124072 0.066686094 0.79763573 -0.8093493 0.021457436 0.044032637 -0.089430265
-0.13056819 -0.04240534 0.12674172 -0.09080194 0.010093983 0.060402844 -0.5666688 0.5468785
0.0017936717 -0.15423875 0.18481599 0.09840394 -0.068183996 -0.026214156 0.04843852 -0.077001266
-0.17849983 0.06574321 -0.03964089 0.46909538 0.02876482 -0.023709973 -0.09749 0.04459029
0.21263954 -0.10302652 0.17366214 -0.2554186 0.53279954 -0.56924015 -0.028029732 0.77522206
-0.31329626 -0.26085114 -0.24111158 0.04326076 -0.020501396 0.32553935 -0.043239586 0.005275101
-0.008769738 0.01994688 -0.015770301 -0.027416667 0.003915554 -0.0058165137 -0.010620104 0.62884766
-0.007986169 -0.013148257 -0.9501991 0.9601655 -0.09355613 0.029027058 0.0005181005 0.07847919
-0.10553346 -0.09784757 -0.14386292 -0.24703187 -0.0045928163 0.0047290153 0.0009249089 -0.34546882
0.046461064 0.09674972 0.038725592 -0.01735799 -0.10720499 -0.67141956 -0.0748169 -0.24342038
0.29449913 -0.27371213 -0.12163067 0.09251837 -0.82239497 0.22353235 0.17480652 0.3115802
-0.056508783 0.48417997 0.3072933 -0.0018336633 -0.00513845 -0.002330048 0.0066085863 -0.0059296424
-0.020137371 -0.024563098 0.107279636 -0.2666914 0.08714661 0.095887095 0.8919216 -0.86518127
-0.089879386 -0.0616313 0.1310362 0.075238384 0.17156334 -0.048290554 -0.23239858 -0.19882384
-0.119145855 -0.0058206655 0.022703087 -0.23931447 0.08186859 0.009384526 -0.015318985 -0.04859697
0.06423729 0.66044205 0.15728189 -0.099522874 0.060568012 -0.035013467 0.1575753 -0.13293219
0.043123994 0.022906937 -0.086996935 0.31979257 -0.40654087 0.21948415 0.197802 0.29458243
-0.267523 0.18644278 -0.10392471 0.027556892 -0.010103152 0.0091867335 0.12808754 0.9443145
0.075754255 -0.024412595 0.06943014 -0.024696635 -0.19215813 -0.01768334 0.04410921 -0.0050954036

layers.0.bias f4 [120]
00000000: 25df 03be 35e7 fa3e 9355 dbbc 2ded 213e
00000010: a977 823e 892d 533e 4fb0 843e 9968 bc3d
00000020: 4166 4bbf 9d0a 463e 340f 793e 3b85 163e
00000030: 1c00 2bbe 54a7 b13d 9bd5 73be 861f 5b3f
00000040: 3850 0f3f 63dc db3e abf8 8f3e 3b8e ea3d
00000050: c76f 6cbf f236 a4be 4439 1abf 7308 86be
00000060: 9523 973f c470 253e 2f0c c03e fbe4 013e
00000070: bd38 063f 2d7a f4be b55a 32bf c02f 093f
00000080: 0650 64be e76b 9ebf c547 21be e966 023f
00000090: 5b6c aa3e 5951 d2be 490d bb3e 1a19 9dbe
000000a0: 287d 73bf 3d51 a7be 01ba a63e 0f74 d73f
000000b0: 3b85 76be 18a0 b73f 4642 a13e e85b 0a3e
000000c0: fcd0 c03f a47b 26bf 22aa 4e3e 4625 d53e
000000d0: 3a88 3ebf 63bf 8c3f b6bc b9be b60b 0ebe
000000e0: 0c82 bdbe e15d 003f 8ef7 aabd 6507 f43e
000000f0: 7dba 30bf 12df 3dbf 903c 04bd ab06 edbe
00000100: e9cb b33d e0f6 80bf e298 29bf 9011 eb3e
00000110: 27e5 583e da76 963d 2665 2e38 1390 2e3f
00000120: 5d68 903d 5c02 cfbe 8ead 4bbf c903 453f
00000130: 0ab9 b23d d186 76bf 04cd a53f 25ec ebbe
00000140: f515 93bd 2c08 dfbe 32f6 a4bc 1e20 503f
00000150: a86d ea3d a49a 983f cc82 adbd e29f 943e
00000160: ccff a4bd c5c5 6fbf 6eeb 763f 6893 29bc
00000170: 6f83 30be 3e27 b63e 8b6e 283e 457b 5b3f
00000180: 347d c93e 3fa2 5dbd 3363 ac3f bff9 c63e
00000190: 77cd 84be 5bef 773f 611a 75bf 6f2f 4ebe
000001a0: 6337 273f a6ed 48be 3a84 b2bd 93b8 743c
000001b0: 6f2a 9e3d db0d 20bb 5d55 4f3f 7faf cd3c
000001c0: 2c0b 97bf c7f1 cabd 5342 8d3e bb78 37bf
000001d0: be93 813c 3b4f e1be 71f7 87be f817 a3be
-0.12878092 0.49004522 -0.026774203 0.15813132 0.25481918 0.20622839 0.25915763 0.09199638
-0.794529 0.19339986 0.24322206 0.14699261 -0.1669926 0.086744934 -0.23811953 0.85594976
0.5598178 0.4294158 0.28119406 0.114529096 -0.9235806 -0.3207317 -0.6024363 -0.2617832
1.1807734 0.16156298 0.37509295 0.12685005 0.52430326 -0.47749463 -0.6966966 0.53588486
-0.22296152 -1.2376679 -0.15750034 0.5093828 0.33285794 -0.41077688 0.36533573 -0.30683213
-0.9511285 -0.32679167 0.32563785 1.6832293 -0.24074261 1.4345732 0.31495875 0.13511622
1.5063777 -0.6503241 0.20182088 0.4163 -0.74426615 1.0995907 -0.36276788 -0.13871655
-0.3701328 0.5014325 -0.083479986 0.47661892 -0.6903456 -0.74168503 -0.03228432 -0.4629415
0.08779127 -1.007534 -0.66248906 0.45911837 0.21181165 0.07346888 4.1579035e-05 0.6818859
0.07051156 -0.40431488 -0.795617 0.769589 0.087267 -0.96299464 1.2953191 -0.460786
-0.07181922 -0.43560922 -0.020136926 0.81299007 0.114466965 1.1922193 -0.08472213 0.2902823
-0.08056602 -0.9366115 0.9645299 -0.010350086 -0.17237638 0.35576814 0.16448419 0.8573497
0.39353335 -0.054109808 1.3467773 0.38862416 -0.25938007 0.968496 -0.95743376 -0.20135282
0.6531889 -0.19621906 -0.087166265 0.014936584 0.07722937 -0.002442232 0.8098963 0.025108097
-1.1800284 -0.099093966 0.27589664 -0.71668595 0.01581752 -0.4400576 -0.2655597 -0.31854224

layers.2.weight f4 [120, 120]
00000000: b8d3 a8be a0f6 3cbe 5c4f 7c3d 7900 23be
00000010: 07e7 323f 8d12 36be ba0d c83d 771b 363e
00000020: ef5b 40bf ab74 d6bd 337a 0cbe 5cdc 17be
00000030: 6e2c acbd 5cc7 b43e 199d 9c3e 4bb1 183e
00000040: cc23 c6bd 4d40 0a3f 8143 a8bd 318e 46be
00000050: 62b0 9a3e 7bfc fa3d 09e3 413d 4c33 b23e
00000060: 446f f6bd 585c 3dbe 7314 5cbd a613 a0be
00000070: a038 93be 3873 4ebd e8f7 6cbe b0ed 70be
00000080: 61e3 1cbe 736a 3bbf 8237 723e 6088 933d
00000090: 3b88 a4bc 3fcb 8bbd 4424 adbe cb4d 433d
000000a0: 7178 8ebd 8597 43be eb96 dc3d 4179 a4bd
000000b0: 0b87 9abe 9e40 70be 4a5e 5dbc bb32 623d
000000c0: 3b14 073d 1de3 06bd eb16 a8bc 0951 27bd
000000d0: 16c9 31be c0c1 f43d 01d6 14be 7c56 143e
000000e0: 437d d23d 3d75 1abe 617b c83e 46d2 363f
000000f0: b335 043e 9c31 fdbe 12d6 2bbc ca13 233d
00000100: 9282 d33e 3705 aa3e 0918 a83b e9a3 343e
00000110: 44b5 843e a77a 223d fef6 9b3e ac16 913e
00000120: e5aa dfbe fa22 98bd 7f63 c13e 0b6c ee3e
00000130: f494 68bd 4c28 14bf 8738 a4bd 3bf1 72bf
00000140: 5498 d83d 55a4 4e3d eab6 263f 0e45 cc3e
00000150: 0bf6 af3d a794 a3be f01e 08bf 1450 543f
00000160: 19f3 11bf 9dda cd3e f8c3 f23c c89f 003d
00000170: 5b93 f03d a131 183f a55f 0fbd 9ff8 aebd
00000180: dda7 92be 653a a33c 0242 57be a156 fdbd
00000190: 39e8 b53d 9fd2 023e 6d54 34be 7cc4 16be
000001a0: 37ea 1bbf 9544 87bd a89f 89be 34ab 823e
000001b0: d90f 88bd c244 043c c2b1 0bbe fd91 d33c
000001c0: be0a 9f3e 51b1 8dbe 5689 c9be bcf5 943e
000001d0: b524 d93d 78d0 113e 804d 023e 0452 c13e
000001e0: 648f 8cbd 1340 e63e dfd3 193f 2a92 873c
000001f0: 1f70 0e3d 63a9 0540 8481 193e 263e e3bd
00000200: 2712 393c 4466 183f ff4f 6a3d b3a4 973c
00000210: 35e5 ff3d c329 6e3d 6eff 0bc0 803c 93bd
00000220: 3289 273e 91fc 823d 46c1 8b40 ffad 8d3d
00000230: ad17 96be 5172 423e 1023 90be 413c a13d
00000240: 7db6 5d3d 4bbc 06be 435d 893d f453 9d3d
00000250: 3d8d b43d 80f1 f1bd 18f3 3d3f ca7e 183e
00000260: d295 47bd 46e5 ca3e ca90 e23c 4f50 6ebe
00000270: 8166 9fbe 309a cbbd 0bba a43f 8bfa 00bd
00000280: 65ac 963e 929a 0abd a813 9a3e eeb6 9e3d
00000290: 557e fe3c 0005 5ebc ff2f e4bc 9609 c73b
000002a0: 43cb c7be 872a 7ebe d791 353f b24c f2bd
000002b0: daa9 ed3d 0903 cf3e 69be 9e3e 25c6 903e
000002c0: 6600 3840 5017 09be dff0 3f3d 68d9 0cbd
000002d0: 6452 16be a92e 1fbe 686d 073f f134 a43d
000002e0: d681 603c 275e 83be dbc6 543d 9fe4 2c3f
000002f0: d1e0 163f c5e6 c1bd 1716 abbc 8e44 bb3d
00000300: d075 a43e 5c19 f23a 09be acbd b28f 923e
00000310: 7b81 05bf 2422 8cbd c1fe 083d 69a6 473d
00000320: 7d67 a4bd 1b9a ef3d 1497 a4be 3cb2 0ebe
00000330: a200 883c 9132 0e3f eb3b 46bd be20 acbd
00000340: d3e9 74bb e5b9 cdbe 2f9a 283b 99ac 23bd
00000350: eddb 8ebe 408c 163c cc39 ae3c d483 62bd
00000360: 70ed 6d3e d2c3 d93d ff81 00bd 64fd 973e
00000370: c27b 28bf 3536 893d c5c8 4cbe 563e 83bf
00000380: a90a 173e 4dce 5fbe acfd ea3d 1437 ffc0
00000390: 34de 1e3e 1a7a 8abc 455b f4bd b227 54be
000003a0: 99cc 093d 9cb7 6e3d 8b68 113e 8a65 36bd
000003b0: f348 51bd ecd4 46be 5580 d3bd fd24 9cbe
000003c0: 0c8e 28bd 78d7 d73d 393b ea3d b616 283d
000003d0: 64e1 3ebd 3111 e73f db2c a53d 95a8 aa3a
000003e0: 5e6b 4bbd 2c90 6d3f b993 abbd e355 1a3e
000003f0: e370 11be 216e 61bd 6ed9 10c0 c9d7 c1bc
-0.3297403 -0.18453455 0.06159912 -0.15918149 0.6988377 -0.17780514 0.09768243 0.17783915
-0.7514028 -0.104714714 -0.1371849 -0.14830154 -0.08406912 0.3530835 0.30588606 0.14911382
-0.096747965 0.54004365 -0.08216 -0.19390179 0.30212694 0.12255188 0.04733566 0.3480476
-0.12032941 -0.18492258 -0.05373044 -0.3126499 -0.2875414 -0.05040285 -0.23141444 -0.2352817
-0.15321113 -0.73209304 0.23653987 0.07203746 -0.020084491 -0.068258755 -0.3381673 0.04768161
-0.06956566 -0.19100769 0.10770973 -0.0803094 -0.30181155 -0.2346215 -0.01351125 0.05522416
0.032978278 -0.032931436 -0.02051874 -0.040848766 -0.17361864 0.119510174 -0.14534761 0.14486116
0.10277798 -0.15083785 0.3915663 0.714146 0.1291111 -0.4945191 -0.01048805 0.039813794
0.41310555 0.33207104 0.0051298183 0.17640652 0.25919545 0.03966775 0.30461878 0.2833761
-0.4368507 -0.07428546 0.37771222 0.46566805 -0.056782678 -0.5787399 -0.08018594 -0.9489934
0.10575929 0.050449688 0.65122855 0.39896435 0.08591851 -0.3194935 -0.53172207 0.8293469
-0.5701156 0.4020585 0.02963446 0.03140238 0.11746856 0.5945073 -0.035003323 -0.085435145
-0.28643695 0.019925306 -0.21021274 -0.12370039 0.088821836 0.12775658 -0.17610331 -0.1472339
-0.6090426 -0.06604878 -0.2687962 0.25521243 -0.06643648 0.008073034 -0.13642028 0.025826449
0.31062883 -0.27674344 -0.39362592 0.2909373 0.106027044 0.14239681 0.12724876 0.37757885
-0.06863287 0.4497076 0.60088915 0.016549189 0.034774896 2.0884635 0.14990813 -0.11095838
0.011295832 0.59531045 0.057205196 0.018511152 0.1249489 0.058145296 -2.1874652 -0.07189274
0.1636093 0.063958295 4.367343 0.06917953 -0.29314938 0.18988921 -0.2815175 0.07872821
0.054129113 -0.13157766 0.067072414 0.076820284 0.088160016 -0.118136406 0.74199057 0.14892116
-0.048726864 0.39628047 0.027656931 -0.23272823 -0.31132892 -0.09941518 1.2869276 -0.031488936
0.29428402 -0.033838816 0.30093122 0.07749735 0.0310661 -0.013550997 -0.027854918 0.006074141
-0.39022264 -0.2482091 0.7092566 -0.11831035 0.11604662 0.40432003 0.31004646 0.28276172
2.8750243 -0.133878 0.046860572 -0.034387022 -0.14679867 -0.15545143 0.52901316 0.0801791
0.01370283 -0.2565777 0.051947456 0.6753635 0.5893679 -0.09467844 -0.020884557 0.09143935
0.32121134 0.0018470692 -0.08434684 0.28625256 -0.52150697 -0.06842449 0.033446077 0.048742685
-0.08027551 0.11699315 -0.32146513 -0.13935179 0.016601864 0.5554591 -0.048396986 -0.084046826
-0.0037370815 -0.4018089 0.0025726666 -0.039959524 -0.27902165 0.009188712 0.021267794 -0.055301502
0.23235106 0.10633053 -0.031373974 0.2968551 -0.6581384 0.06699792 -0.19998462 -1.0253398
0.1475016 -0.21856041 0.11474165 -7.9754734 0.15514451 -0.016903926 -0.11931471 -0.20718268
0.033642385 0.058280572 0.14200036 -0.04453043 -0.05109496 -0.19417161 -0.10327212 -0.3049697
-0.04115109 0.10539144 0.11437077 0.041037284 -0.046601668 1.8052121 0.08065196 0.0013020212
-0.04966294 0.92798114 -0.08377785 0.15071826 -0.14203219 -0.055036668 -2.2632709 -0.023662465

layers.2.bias f4 [120]
00000000: 9526 7abe 07ed a33b b96a 1d3e 07f5 84be
00000010: 5f68 823e 276c ed3e 315f 093c 6158 443b
00000020: 503c 90be 6b5d 003e 4446 90bd 7526 c1bd
00000030: 07dd 273e 943a a33d 7e26 c8bc 4c7f a1be
00000040: cf2a 2f3d 5aac 4ebe 0d8b 013f af62 8abe
00000050: f644 e8be a889 a93e eee8 01bf f080 c6bd
00000060: b3ad aebc 3bcf 09be b91e 71be eab8 b03c
00000070: a931 b0bd cead e03c 69e0 42be 0b60 07be
00000080: 6675 bebe 102f eabd cfc2 6f3e cf89 3c3e
00000090: 4633 18be 4760 c9be b5d4 91be 5933 86be
000000a0: 587e c3be fc27 b63c a995 91be 2515 91be
000000b0: c18e a2bd f52d 2a3e 0ca9 f1bc 8185 343e
000000c0: 48bc 05bc 5623 6abd a8bc 7d3e e8c8 1cbc
000000d0: 716e 0fbf 3209 263d b18e cc3e 9331 cebe
000000e0: 2ac6 513d b994 8dbd f711 523e 0674 b53e
000000f0: e2c2 333c f712 0c3f 1bc8 c43e 5106 e3bd
00000100: 9912 383e 194a f63e 86ef a9bd 96e9 203d
00000110: a47c 99be 6146 ef3e ef01 ce3e 34ba bebd
00000120: 037a 9abe 919d 17be f3ab ddbd e91c c3bd
00000130: b623 7bbe 9420 96be 15e0 b4bc d1f8 1e3d
00000140: 3e0f 81be f44b 0cbe fc36 7b3e cf5c 05be
00000150: baa8 3abe 7cd0 36bd 8b86 803d 3115 3b3e
00000160: d8a9 2f3e 7f1f 03bf a308 9c3d c9ae 3c3e
00000170: a9cd 6a3e ae90 873e 5c03 20be 76f8 d0be
00000180: 9c18 cf3d 3e66 acbe 707f 583e b6a4 21be
00000190: 8506 08be bc4f 9ebe bd8c 8a3e cb46 333f
000001a0: 12c3 58bc 8d60 e83d 8471 613e 87ca c7be
000001b0: ed81 ae3e 370a ab3e 4cb3 95be eca5 d83e
000001c0: 78de 043e 8654 17be ebec 973e ec17 debd
000001d0: 1edf 2abd b802 23be 480c 4c3e 5298 1dbf
-0.2442878 0.005002621 0.15372743 -0.2596819 0.25470254 0.46371576 0.008384512 0.0029959904
-0.28171015 0.12535636 -0.07044652 -0.09431163 0.16392909 0.07970157 -0.024432417 -0.31542432
0.042765435 -0.20182934 0.506028 -0.27028415 -0.45365113 0.33112836 -0.5074605 -0.096925616
-0.02132306 -0.13457958 -0.23546876 0.021572549 -0.08603222 0.027426627 -0.19030918 -0.13220231
-0.37198943 -0.11434758 0.23414157 0.18411945 -0.1486331 -0.39331266 -0.28482595 -0.2621105
-0.3818233 0.022235863 -0.28434494 -0.28336444 -0.079373844 0.16619094 -0.029499553 0.17629053
-0.0081625655 -0.057162605 0.24778998 -0.009569384 -0.56027895 0.040536113 0.39952615 -0.40272197
0.051214375 -0.06913132 0.20514666 0.3544008 0.010971757 0.5471644 0.38433918 -0.11085189
0.17975844 0.48103407 -0.082976386 0.039285265 -0.29977906 0.46733382 0.4023585 -0.09312859
-0.30171213 -0.148062 -0.10823812 -0.095269985 -0.24525341 -0.2932173 -0.022079507 0.03881151
-0.2520694 -0.13700849 0.24532694 -0.13023685 -0.18228427 -0.04463242 0.06275662 0.18269803
0.17154634 -0.51219934 0.07618835 0.1842605 0.22930016 0.2647757 -0.15626281 -0.4081456
0.10112116 -0.33671755 0.21142364 -0.15785488 -0.13283737 -0.30920208 0.270605 0.70029896
-0.013230102 0.113465406 0.22015959 -0.39021704 0.340835 0.3340623 -0.29238355 0.42314088
0.1297549 -0.14778337 0.29672942 -0.108444065 -0.041716687 -0.15919006 0.1992656 -0.6156055

layers.4.weight f4 [120, 120]
00000000: 09dc a3bd de2b ec3d f653 85bd 6eeb da3c
00000010: 5771 9a3c dc2b 6abc 1c9e 703e 96d1 d63d
00000020: 37fb 313e 0e2e 87be 2977 c3bd 71c2 773c
00000030: bf94 6a3d 9944 1abb 2422 413d 3df5 103e
00000040: f47d eeba 6667 45be 069c ffbd fbc4 17be
00000050: c164 8fbd 3b71 c0bc f237 b43d 99d9 00bd
00000060: 24a5 b3be 9851 6ebd f302 8ebd 84d7 03be
00000070: 57e7 e6bd f43d 84bd e426 c23d 3971 3b3e
00000080: be31 29be 840a 853d aa60 0ebe 9463 993c
00000090: 7ff4 a03e 7c22 f23c f0f7 f3bd 782d ac3c
000000a0: cf0d 123e 3dbb 013e 0a02 e0bd 347c f53d
000000b0: 46ea 92be 269e c33d 39c3 7e3d a712 db3d
000000c0: 4b04 113e c5b6 36be dea9 683e e3ae 843e
000000d0: 5262 013d c348 07be 2650 c43e 88bb c6bc
000000e0: d9ce c0be be39 19be 3172 05be 3157 3d3e
000000f0: aca6 08bf 41ed debc e95b 64bd 6d65 1bbe
00000100: 62b5 83be 4e61 18bb 7a38 31be f0d9 eabd
00000110: 05eb 3f3d 4d17 ddba ae25 d23e 4a90 97bd
00000120: 11e5 b23d 0979 a3bd c32d 8d3e 89e6 ffbe
00000130: 1548 1fbd 5ef0 9fbd 396b 67be 4862 37be
00000140: 9570 8fbe 0e9a 403b 4b32 a8bd 9c1d 1ebf
00000150: f9ab cabe 9d79 3a3c cc8d 443e 5c67 733e
00000160: 367f c1bd 2088 a43d 42c2 b13d 06d0 a73d
00000170: 5c00 343c 67f4 b3bd 3884 243d 4994 b03e
00000180: b213 31bd ff29 8d3d 266f 603e 3bea 8d3e
00000190: ce83 f53d 348c 2a3d 183b efbd 0bb6 56be
000001a0: 0814 30bd 08c0 083e bb44 163e 0d06 de3d
000001b0: 9898 b13e 001d 35bc 2f93 16bd bddd a5bc
000001c0: 0230 cd3e bd23 7e3d 329a 03be 2914 37bd
000001d0: ed88 41be 4860 26be d72b 083e 9989 0d3e
000001e0: 1709 5c3e 9101 013e 6ad0 893e e7f5 c53d
000001f0: 88c4 823d 44a1 9cbd 6175 0cbd 86a0 1fbf
00000200: 0829 a0be 7922 0bbd 7eaf 28be 256b a1be
00000210: c4b8 abbe 0254 f1be 1f06 f13e ff98 273d
00000220: f473 c23d bd54 29be caf6 5d3c aa51 503b
00000230: 2466 453e 7186 283b c43e e1bc 847c 753d
00000240: 093a d03c b03a 4f3d fbcf 96be 48a6 f0be
00000250: 7744 053e df97 80be ae76 29be 8da5 d33c
00000260: 6811 86bd 7bd3 0cbe caaf b8be ef7b acbd
00000270: 77a6 933e 4f26 303e 123d b5be 6fc8 55bf
00000280: 0345 1a3e f876 913e 3d27 b4be 369c 6fbe
00000290: c2da bcbe 1e44 263d 043c c2bd a5d6 003f
000002a0: 27f1 1dbc 5fbc 203f 8a7e 2c3f bb48 1bbf
000002b0: 02ea 123e 74a7 b73d a866 c3be 4592 353f
000002c0: 2160 14bf 28e9 f7bc e38b 15bd 5925 4f3f
000002d0: b267 873f c0fe e1bd c2ea 2d3d 3b1c 95bf
000002e0: 175f c5be 445a 9abe c2f3 0e3d f5d3 96bc
000002f0: 040f cbbd 35c8 8b3d 7d3d f9be f6fe bc3e
00000300: bd6c 16bd c943 d93e 1a8f 76be 377f f03e
00000310: 384a 3d3e d07f 42bf e35b 98be c362 d1be
00000320: 35fd ddbe f081 e03d cefd 2bbe 4456 d3be
00000330: b282 edbe 93ed df3d 3a74 e8be 4986 d83f
00000340: bed1 023e 53f9 483d 11d9 2abe 95a7 fabb
00000350: 24a9 3e3e 4cbb 0bbf 4730 503e 8585 903e
00000360: a120 20be 5b35 7a3e aae8 00be fcb6 49bd
00000370: 30b7 47bd 521b 01be 3f14 143f 0700 edbe
00000380: 963d 823e e2e9 443f 6d7d 8dbe 9222 3e3e
00000390: 6595 7b3e 771c b93c 6d2d 9e3e 1045 d2bd
000003a0: 6970 20be 2da6 c9bd f3ae 20bf f364 a03d
000003b0: e92b c83e a01f edbe 51e1 52be dedc 373e
000003c0: 4e14 da3d 25cc 483d 0823 8e3d af08 14bc
000003d0: 81b3 fc3e c842 813d 8767 f23d 740e 253e
000003e0: 03d4 573c c25a 48bd b8ac fcbd 7a3d 923e
000003f0: 87d1 21be 3a5f aebb 400d 0fbe e3b9 5bbd
-0.08000953 0.115318045 -0.06510155 0.02672359 0.018852873 -0.014292683 0.23497814 0.10489194
0.17380987 -0.26402324 -0.09544212 0.015122042 0.05727076 -0.0023539423 0.0471517 0.14156051
-0.0018195496 -0.19277725 -0.12480931 -0.14821236 -0.07001639 -0.023491492 0.08799733 -0.031457517
-0.3508693 -0.058183283 -0.06934156 -0.12875181 -0.11274593 -0.06457129 0.09480074 0.1830491
-0.16522881 0.06496146 -0.13904062 0.01872424 0.31436536 0.029557459 -0.11912525 0.021017775
0.1426308 0.12669082 -0.10937889 0.119865805 -0.2869436 0.09551649 0.062197898 0.10696917
0.14161794 -0.17843159 0.22721049 0.25914678 0.031587906 -0.1321135 0.38342398 -0.024259344
-0.37657812 -0.14963433 -0.13031842 0.18490292 -0.5337932 -0.02721274 -0.055751715 -0.1517541
-0.25724322 -0.0023251357 -0.173067 -0.114673495 0.04685499 -0.0016867906 0.41044372 -0.07400568
0.08735097 -0.0798207 0.27573976 -0.49980572 -0.038887102 -0.07809518 -0.22599496 -0.17908585
-0.2801558 0.0029388699 -0.082127176 -0.6176393 -0.3958433 0.011381534 0.19194716 0.23769897
-0.09448092 0.08033776 0.0867963 0.08193974 0.010986414 -0.087868504 0.040165156 0.34488133
-0.043231674 0.06892776 0.219174 0.27717766 0.119880304 0.041637614 -0.11681193 -0.20967881
-0.042987853 0.13354504 0.14674656 0.10840998 0.34686732 -0.011054277 -0.03676146 -0.020247335
0.4007569 0.0620458 -0.1285179 -0.04469696 -0.1889989 -0.16247666 0.13297974 0.1382202
0.21487843 0.12598254 0.2691682 0.09666043 0.063851416 -0.076479465 -0.03429163 -0.62354314
-0.31281304 -0.033968423 -0.16473195 -0.31527057 -0.33539402 -0.47134405 0.47074983 0.040917393
0.094947726 -0.16536231 0.013547609 0.0031786957 0.19277245 0.00257149 -0.02749575 0.0599332
0.025418298 0.050593078 -0.29455552 -0.47001863 0.13014399 -0.25115868 -0.16549179 0.025835777
-0.06546289 -0.13752548 -0.36071616 -0.08422076 0.2883794 0.17202114 -0.35398155 -0.8350896
0.15065388 0.28411078 -0.35186186 -0.23399433 -0.3688565 0.040592305 -0.09484103 0.5032752
-0.009640015 0.6278743 0.67380583 -0.6065785 0.1434708 0.08967486 -0.38164258 0.70926315
-0.5795918 -0.030262545 -0.03651036 0.80916363 1.057852 -0.11034918 0.04246021 -1.164924
-0.3854911 -0.30146992 0.034900434 -0.018411616 -0.099149734 0.06825296 -0.48679724 0.3691327
-0.036724795 0.42434528 -0.24078026 0.46972057 0.18485343 -0.75976276 -0.29757604 -0.40895662
-0.43357244 0.109622836 -0.16796038 -0.41276753 -0.46388775 0.109339856 -0.45401174 1.691598
0.12775323 0.0490659 -0.16684367 -0.007649372 0.1861921 -0.5458267 0.20330916 0.28226867
-0.15637447 0.24434416 -0.12588754 -0.049246773 -0.048758686 -0.12608078 0.57843393 -0.46289083
0.2543761 0.76919377 -0.27634755 0.18567875 0.24568708 0.02259658 0.30894032 -0.10267079
-0.15667881 -0.09846149 -0.6276695 0.078317545 0.39096 -0.4631319 -0.20593764 0.17955348
0.10648404 0.049022812 0.069402754 -0.009035273 0.493557 0.06311566 0.118361525 0.16118795
0.013173106 -0.04891468 -0.12337631 0.28562528 -0.15802585 -0.0053214105 -0.13969898 -0.053644072

layers.4.bias f4 [120]
00000000: c4b9 edbc c520 61be 91bf ea3c 793a 953e
00000010: 56bc de3d 176d a8be fe5a 193d 0e39 41be
00000020: c9b6 fbbd 7361 3f3e 6f47 16bd 4bfd 91be
00000030: fcc5 8b3e 0bc9 30bb ca49 6ebd 5c6f 23be
00000040: f9b8 03be ffd7 553e d6da 42be 50ab 9bbe
00000050: 2663 b33c b011 4a3e e456 cdbd 12cd a33d
00000060: c551 bfbb b36f 543e 0221 af3d d3a7 713e
00000070: 10d1 7a3e b4dd 21bd 653b 693e e123 8d3d
00000080: 82ae e53d 2fc0 6abe 5daf 40be 0117 6bbe
00000090: 7cd9 003e a508 27be f360 463e 0c24 2c3e
000000a0: 5da5 f13d 6192 f43d e14f 853e 5956 bbbd
000000b0: a46e 813d 9221 e93d 6add 0d3e 22b2 5b3d
000000c0: 4021 9fbe e699 6f3d 8ede 50be d072 843e
000000d0: 6ce7 f53d c9c1 84be 672e c2bd 5764 223e
000000e0: 1bb6 1abe 60ed fdbd ef1b c1be fa95 eabd
000000f0: 2585 983d 0360 5d3d 00ee 78be b428 3a3e
00000100: 9ae5 65bd 1ab2 0f3e b7a7 9bbe 980a dfbd
00000110: 101a 02be 1336 50be 00a4 933e 7565 803d
00000120: 9053 8d3d 5ae7 17bf a913 613d 83f4 94be
00000130: d5ad 833e 3d2d 03be 5908 03be 22a2 c7bd
00000140: b797 d3bd 0b25 b5bd 5c49 963e c6eb 7e3e
00000150: a30a 44be b465 673e 9e95 9f3c 9f6c 263e
00000160: 8cc3 70be 7bb9 5bbe 8ee0 4e3e 5273 26be
00000170: 586d 333e 1f8c f2bc a9d4 27be 90df 80be
00000180: 8517 b2bd fec3 d93d 5108 83be d337 803e
00000190: cc23 f8bd 0b23 343e 11d4 f1bd bc3a fc3d
000001a0: 62e1 30bd f659 5dbd 79de 733e 55bc fc3d
000001b0: 4afd 773e a592 03be 635b 9bbe ccb6 62bd
000001c0: 8e1c 9c3d f910 883e b0d8 ccbe fd14 ce3d
000001d0: b2c1 0ebe 32ad 50be 5bbf 7b3e c601 00be
-0.029019244 -0.21985157 0.0286558 0.29146174 0.10875766 -0.3289573 0.037440293 -0.18869421
-0.12290723 0.18689518 -0.036689218 -0.2851356 0.27299488 -0.00269753 -0.05817584 -0.15960449
-0.1286353 0.20883177 -0.19028792 -0.3040414 0.021897864 0.1973331 -0.10026339 0.079980984
-0.005838605 0.20745735 0.085512176 0.23599176 0.24493814 -0.039518073 0.22776563 0.06891609
0.11214925 -0.22924875 -0.18816896 -0.22957994 0.12582964 -0.16311891 0.1937292 0.16810626
0.11799119 0.11941982 0.26037505 -0.09147329 0.06319931 0.11383356 0.13853994 0.053636678
-0.31080055 0.05849638 -0.20397398 0.25868845 0.12007031 -0.25929096 -0.09481507 0.15858589
-0.1510853 -0.12398791 -0.37716624 -0.11454387 0.0744727 0.054046642 -0.2430954 0.1817959
-0.05612717 0.14032784 -0.30401394 -0.108906925 -0.12705255 -0.20333128 0.2883606 0.062693514
0.06900704 -0.5933739 0.05495039 -0.29092798 0.2571856 -0.12810226 -0.12796153 -0.09747721
-0.10331672 -0.08844956 0.29352844 0.24894628 -0.19144683 0.2259739 0.019480523 0.16252373
-0.23512095 -0.21457474 0.20202848 -0.16254929 0.1752218 -0.02960783 -0.16389717 -0.25170565
-0.08695892 0.10633086 -0.25592282 0.2504259 -0.12116203 0.17591493 -0.118080266 0.1231589
-0.04318369 -0.05404087 0.23815335 0.12340609 0.24217716 -0.12848909 -0.3034316 -0.05535011
0.07622634 0.2657545 -0.4000907 0.10062597 -0.13941076 -0.20378569 0.24584715 -0.12500677

layers.6.weight f4 [1, 120]
00000000: dd1a 043e 62af 7e3e 4bc1 91bd fa73 afbe
00000010: 26e0 69be c96d 1f3f e852 8fbc d3bb 573e
00000020: f7dd db3d 725f 84bd 22eb 1c3e 1e71 fd3e
00000030: dd63 79be 305b 0fbe 2f43 bfbe e02a b03e
00000040: 902f 873e 62e6 82bd 2358 923e cb06 4a3e
00000050: 0d24 21bf e1ce 18bf ad95 653e 4c68 88be
00000060: 1503 9b3c 05e3 87be 7f03 1abe c594 afbe
00000070: 611f 50be 3850 133e b507 b6be d592 3cbf
00000080: 4b77 fdbc d430 5a3d 8c70 ff3d 921a a03e
00000090: e153 57be da26 f13e fa3e 62be 7e60 94be
000000a0: b82b 01be 024a 38bd a148 7fbd 948f 323e
000000b0: 25f4 81bf 3f65 17be 400a 37bd 9adf d8bd
000000c0: bb3d d83e aa24 e63d 66a8 aa3e 2b23 8ebe
000000d0: 7a34 bdbd b463 553e fd0f b73e 6db9 ecbe
000000e0: 4c2d 073d 0d64 4a3d c146 543f 2269 133f
000000f0: 35b1 ffbe a941 083f df9b ce3e 6c06 91be
00000100: f34f 10bf 566e 2bbe 5848 a63e 20e1 8b3d
00000110: 3b38 723e 939b 6b3d 9a6d d5bd a6d1 5dbc
00000120: 0cca 72bd d875 cc3e a4c0 4abd 5a83 a83e
00000130: e19c 5dbe 5e30 3a3e 79fb b73d 363d 013f
00000140: 62f2 723e f437 1a3e 09d5 b4be 6f7a 613f
00000150: 3941 ac3e 70f5 88be 0c5d ee3e 3332 34bd
00000160: 12d4 1ebf 566a 633e 8cb4 8ebe 7143 e53d
00000170: 2c1a ddbd 9d11 ce3d 597c a43e 23dc 903e
00000180: 7b7b 303d d9ad b0be b209 4abf 63e3 84be
00000190: 4a63 733e 7933 b7be eeb6 a83e 174f 2bbe
000001a0: 7f6d 06bf f97d f63e 163e 97be 83e6 94be
000001b0: bb92 99be b5e6 d03d 72ca 003e e773 c0b6
000001c0: 31f3 4bbc 69b8 9cbe 9980 883f 4122 8fbe
000001d0: c684 a73e 3848 843e 1521 85be bd05 af3e
0.12900873 0.2487159 -0.07116946 -0.3426817 -0.22839412 0.62276894 -0.017495587 0.21067743
0.10735696 -0.06463517 0.15324071 0.49500364 -0.24354501 -0.13999629 -0.37355945 0.3440771
0.26403475 -0.06391598 0.28582868 0.19729154 -0.62945634 -0.5969067 0.22420378 -0.26642072
0.018922368 -0.2654039 -0.15040396 -0.3429319 -0.2032447 0.1438607 -0.35552755 -0.7366155
-0.030940672 0.053269222 0.124726385 0.31270272 -0.21028091 0.47099954 -0.22094336 -0.28979868
-0.12614334 -0.044992454 -0.062325124 0.17437583 -1.0152632 -0.14784716 -0.04468751 -0.105895236
0.42234597 0.11237462 0.33331603 -0.27761206 -0.09238525 0.20838815 0.35754386 -0.4623522
0.033002183 0.049411822 0.8292046 0.57582295 -0.49939886 0.5322519 0.40353295 -0.28325212
-0.5637199 -0.16741309 0.3247707 0.068300486 0.23654263 0.057521414 -0.104212955 -0.013538754
-0.05927472 0.39933658 -0.049500123 0.32912713 -0.21641876 0.18182513 0.089835115 0.50484025
0.23725274 0.15060407 -0.35318783 0.88077444 0.3364351 -0.26749754 0.46555364 -0.043993186
-0.62042344 0.22208533 -0.2787212 0.11194504 -0.107960075 0.10061953 0.3212612 0.2829295
0.04308651 -0.34507635 -0.78921044 -0.25954732 0.23768345 -0.35781458 0.32952064 -0.16729389
-0.5251083 0.48142985 -0.29539555 -0.29082116 -0.2999476 0.10200254 0.12577227 -5.7355387e-06
-0.012448118 -0.30609444 1.0664245 -0.2795582 0.32718486 0.2583635 -0.26001802 0.34184065
