hddm/torch_models/122c7ca63cc411eca89b3cecef05595c_ddm_mic2_adj_angle_no_bias_torch_state_dict.pt (torch, 128839 bytes, 9 tensors)

layers.0.weight f4 [100, 9]
0	0x3ee1face	0.4413666
1	0xbe16e691	-0.14736392
2	0xb90a16f2	-0.00013169253
3	0x3df977c7	0.12181049
4	0x3d9a6e4c	0.07540569
5	0xbc097acc	-0.008391093
6	0x3d234b74	0.03986688
7	0x3b758697	0.0037464255
8	0x3f95a5f3	1.1691269
9	0xbe4f52ff	-0.20246504
10	0xbb827078	-0.0039806925
11	0x3f5e0ca9	0.8673807
12	0x3d713368	0.058886915
13	0xbc715ad2	-0.014731126
14	0x3b8114bf	0.0039392407
15	0x3cd25a6c	0.025677882
16	0xbc265173	-0.010151255
17	0xbca238b0	-0.019802421
18	0x3f209207	0.6272282
19	0xbb0b945b	-0.0021298144
20	0xbc22419b	-0.009903337
21	0x3e1b9a9f	0.15195702
22	0x3cfc9178	0.030831084
23	0x3d0f0cc8	0.0349243
24	0xbf819fa3	-1.0126842
25	0xbd2089fe	-0.0391941
26	0x3dcc13a0	0.09964681
27	0x3c02edf4	0.007991303
28	0xbd4ac6db	-0.04950605
29	0x3b003d0d	0.001956764
30	0x3e0db072	0.1383684
31	0x3e6eae6a	0.23308721
32	0x3d9dfcb8	0.07714218
33	0xbd9241a9	-0.0714143
34	0xbca81444	-0.020517476
35	0x3d1052d0	0.035235226
36	0x3c7b317b	0.015331621
37	0x3b107bd3	0.0022046461
38	0x3da3389e	0.07969783
39	0xbece7546	-0.40323848
40	0x3cb3fde5	0.021971652
41	0xbecbf434	-0.3983475
42	0x3ee748a8	0.4517262
43	0x3ed08053	0.40722904
44	0xbe4ed43b	-0.20198147
45	0x3dffaab5	0.12483732
46	0xbc66d076	-0.014087787
47	0x3b8f7d3f	0.004378944
48	0xbf6e90d2	-0.9318973
49	0x3e6e5c11	0.23277308
50	0x3f268ebf	0.65061563
51	0xbf367709	-0.71275383
52	0xbf241c51	-0.6410571
53	0x3c8d6b32	0.017263029
54	0x3d77513d	0.06038021
55	0xba172c50	-0.0005766796
56	0x3bf86a90	0.0075810626
57	0xbed9f4aa	-0.42569476
58	0x3ca91422	0.020639483
59	0xbd360970	-0.044442594
60	0xbfdc61fc	-1.7217402
61	0x3d074f2b	0.033034485
62	0xbc765c53	-0.01503666
63	0xba6c9dad	-0.0009026181
64	0xbc62b1c0	-0.013836324
65	0xbb247105	-0.002509178
66	0xbdcdd811	-0.10050977
67	0xbeef3afc	-0.4672469
68	0x3c8f06cc	0.017459296
69	0x3e27230d	0.16321965
70	0x3c39454c	0.011308026
71	0xbc03eda1	-0.008052261
72	0x3f09df9c	0.53856826
73	0xbc0545bd	-0.008134303
74	0xbc2b5559	-0.01045736
75	0x3cc425a1	0.023943724
76	0xbf307625	-0.68930274
77	0xbcd9b19d	-0.02657395
78	0x3dd17558	0.1022746
79	0x3d04d1d4	0.03242667
80	0xbe478eb2	-0.19488028
81	0x3df1239d	0.11774371
82	0xbc110754	-0.008851845
83	0x3b043dd2	0.002017845
84	0xbd744e9e	-0.059645288
85	0xbce9c0ad	-0.028534258
86	0x3d0c9fd1	0.0343321
87	0xbf6c0919	-0.9220138
88	0xbc1b9357	-0.009495578
89	0xbdd69e65	-0.1047943
90	0x3d178f30	0.03700179
91	0xba1a7b97	-0.000589305
92	0x39adf3cd	0.00033178777
93	0x3d858c76	0.065209314
94	0x3e8ae76d	0.2712969
95	0xbd86a92b	-0.06575235
96	0x3f5f73c2	0.8728601
97	0x3d0f7540	0.035023928
98	0xbc1ddafb	-0.009634729
99	0xbd207943	-0.039178144
100	0xbbe5e684	-0.007016005
101	0x3c8b0453	0.016969835
102	0x3e814a84	0.25252163
103	0xbdd06565	-0.101755895
104	0xbc55a206	-0.013039118
105	0x3f4e7bf8	0.8065791
106	0x3c327d1b	0.010894085
107	0xbde28d33	-0.11062088
108	0x3dbbf845	0.09178213
109	0xbc811368	-0.015756324
110	0x3d516c50	0.051128685
111	0x3d5c5ca0	0.05379927
112	0xbe30fad9	-0.17283191
113	0xbecc931d	-0.3995599
114	0xbf02aa2f	-0.5104093
115	0x3e8dff34	0.27733767
116	0x3d793498	0.060841173
117	0x3be1a9d4	0.0068867
118	0x3aef7376	0.0018268663
119	0x3be075ec	0.006849995
120	0xbf01498e	-0.5050286
121	0x3e1497a9	0.14510979
122	0xbf21487a	-0.63001215
123	0x3d4cbba6	0.049983643
124	0x3eda2aaa	0.42610675
125	0x3dabda05	0.08391193
126	0xbd6bbb54	-0.057551697
127	0xbb8d4ee2	-0.004312382
128	0x3dd84cbb	0.1056151
129	0x3eabbbda	0.33541757
130	0x3dd82d4d	0.105555154
131	0x3f000675	0.5000985
132	0xbe63247c	-0.22181886
133	0xbef651b7	-0.48109218
134	0x3cedb8fa	0.029018868
135	0x3d8476fe	0.064680085
136	0xbad991a8	-0.0016599195
137	0x3ba085fa	0.0048987838
138	0xbea40283	-0.32033166
139	0x3d0c82f9	0.034304593
140	0xbe704ead	-0.23467512
141	0x3f7c3648	0.98520327
142	0x3dc1a7f6	0.09455864
143	0xbddf40e7	-0.10901051
144	0x3f4c8b97	0.799005
145	0x39989f17	0.0002911023
146	0xbc3f7a34	-0.01168685
147	0x3e0ccafb	0.13749306
148	0x3dbd01a0	0.092288256
149	0x3d795a6f	0.06087726
150	0x3e889cd5	0.26682153
151	0xbd6216f1	-0.05519766
152	0x3ccae29a	0.024766255
153	0xbd379366	-0.044818304
154	0xba860feb	-0.0010228133
155	0xbd3acf09	-0.0456076
156	0x3e6fc961	0.23416664
157	0xbe0dfa36	-0.13864979
158	0xbc64cbed	-0.013964635
159	0x3ed00b71	0.4063373
160	0x3cb6ab98	0.02229862
161	0x3ebbad54	0.36655676
162	0x3b7c9159	0.0038538782
163	0x3d0273ba	0.031848647
164	0x3b68ca6a	0.0035521039
165	0x3e91866a	0.28422862
166	0xbd8d39af	-0.06895768
167	0x3c212235	0.009834816
168	0xbe27a3c6	-0.16371068
169	0x3afd257d	0.001931354
170	0xc00efe5a	-2.2342744
171	0x3c29158e	0.01032008
172	0xba126ad2	-0.00055853755
173	0x3b47b715	0.0030474116
174	0xbf8e24d4	-1.1104989
175	0x3c3fd485	0.011708383
176	0xbf02a261	-0.5102902
177	0xbde4364f	-0.11143171
178	0x3eb31142	0.34974104
179	0x3bef654c	0.0073057767
180	0x3dd6ec2c	0.10494265
181	0xbbace455	-0.0052762427
182	0xbb9b342f	-0.0047364454
183	0xbdeb9435	-0.115028776
184	0xbd01368c	-0.03154616
185	0x3c9b656f	0.018969266
186	0xbf5c26e8	-0.85996866
187	0xbc224e5d	-0.009906379
188	0x3e86eaab	0.26350912
189	0xbe8407f1	-0.2578731
190	0xbb9193f3	-0.0044426857
191	0xbbca7e4c	-0.0061796065
192	0x3f491709	0.78550774
193	0xbcc353f7	-0.023843748
194	0xbda6a32e	-0.08136593
195	0x3e481897	0.1954063
196	0x3db53470	0.08847892
197	0xbe617bef	-0.22019933
198	0xbb58d255	-0.0033084352
199	0xb8821ac0	-6.2038656e-05
200	0x3b189691	0.0023283104
201	0xba857c65	-0.0010184167
202	0x3ba61322	0.005068199
203	0x3bcd4276	0.0062640263
204	0xba173f51	-0.0005769628
205	0xbaa1c26f	-0.0012341271
206	0xb7867896	-1.6030197e-05
207	0x3d39a7aa	0.045325913
208	0xbc4c944c	-0.012486529
209	0xbb2174dc	-0.0024636304
210	0x3ebd2821	0.36944678
211	0x3d91bed2	0.07116474
212	0x3f1b2590	0.6060419
213	0xbeb3f331	-0.35146478
214	0xbf0dbfc8	-0.5537076
215	0xbe297182	-0.16547206
216	0x3df7dad8	0.12102288
217	0x381edeb9	3.7877562e-05
218	0xbc1b4d2e	-0.00947885
219	0x3d939a9d	0.072072245
220	0x3e4ff49d	0.20308156
221	0x3cae3d0f	0.02126935
222	0xbfd49dcf	-1.6610659
223	0x3cde2b52	0.027120266
224	0xbd2fc6bf	-0.04291415
225	0x3e1b85aa	0.15187708
226	0xbf331586	-0.6995472
227	0xbb54cb70	-0.003246989
228	0xbc58704b	-0.0132103665
229	0xbd19259b	-0.03738938
230	0x3c855882	0.016277555
231	0x3e534a8d	0.20633908
232	0xbcc70373	-0.024293637
233	0x3f137e8e	0.5761498
234	0xbf0536f0	-0.5203695
235	0x3baa334a	0.0051941024
236	0xbb52fe4c	-0.003219503
237	0x3f2934fd	0.6609648
238	0x3bf7ea9e	0.0075658103
239	0x3da435d7	0.08018082
240	0xbb8c5996	-0.0042831404
241	0xbdba41ae	-0.09094559
242	0x3d1baf97	0.038009252
243	0x3eafcb15	0.34334627
244	0x3efb89bc	0.4912852
245	0xb9d1f9eb	-0.0004004979
246	0xbd5847b4	-0.052802756
247	0xbe29d857	-0.16586433
248	0x3b9b3788	0.0047368445
249	0x3d204f20	0.03913796
250	0xbcb5829e	-0.02215701
251	0x3f3b16da	0.73081744
252	0x3cf26a94	0.029591836
253	0x3b8dbc6f	0.0043254416
254	0xbcad9ba3	-0.021192377
255	0xbde7072f	-0.11280667

layers.0.bias f4 [100]
0	0xbf0d46d7	-0.5518622
1	0xbecf430a	-0.40480834
2	0x3edf243c	0.43582332
3	0xbea4493c	-0.32087123
4	0x3c5b014a	0.013367007
5	0xbeddce7c	-0.43321598
6	0x3e9456f8	0.28972602
7	0x3e6ad64e	0.22933313
8	0x3f06e41f	0.52691835
9	0x3f2fd61e	0.6868609
10	0xbf4a6123	-0.7905447
11	0xbef7c0dd	-0.4838933
12	0x3e807b42	0.25094038
13	0x3dea81f9	0.114505716
14	0xbded407c	-0.11584565
15	0x3da33b0c	0.07970247
16	0x3fa1320c	1.2593398
17	0xbf906d0e	-1.1283281
18	0x40288142	2.6328893
19	0x3ea9e51f	0.33182618
20	0x3e9db7d6	0.30804318
21	0xbe964035	-0.2934586
22	0xbb7bc5aa	-0.0038417378
23	0x3eb07819	0.34466627
24	0xbed2e872	-0.41192967
25	0xbe969981	-0.2941399
26	0xbedd48b9	-0.43219545
27	0x3d4fcc1c	0.050731763
28	0x3f37ef15	0.71849185
29	0xbeb50ffa	-0.35363752
30	0x3f2c23ee	0.67242324
31	0xbe47367a	-0.19454375
32	0xbebd6268	-0.3698914
33	0xbf8dca44	-1.1077352
34	0xbf3f251f	-0.7466602
35	0xbe10e86c	-0.14151162
36	0xbf4fadfe	-0.81124866
37	0x3e4efcb9	0.20213594
38	0xbec5c8d7	-0.3862979
39	0xbeb00fa4	-0.34386933
40	0xbbbea971	-0.005818539
41	0x3f700550	0.93758106
42	0x3e580a4c	0.21097678
43	0x3df9d392	0.12198557
44	0x3df09859	0.11747808
45	0x3eda56ec	0.4264444
46	0xbe840a63	-0.25789174
47	0xbe4fa5da	-0.20278111
48	0x3e6ffc61	0.23436119
49	0x3ec4ae9c	0.38414466
50	0xbe7ada8a	-0.24497429
51	0x3b476948	0.0030427743
52	0x3de59b0d	0.11211214
53	0xbf4a5010	-0.79028416
54	0xbec08560	-0.37601757
55	0xbece8448	-0.40335298
56	0x3d47d2c6	0.048784994
57	0xbc2e4fbf	-0.01063913
58	0x3d36fdab	0.04467551
59	0xbf8bc624	-1.0919843
60	0x3ea3f466	0.320224
61	0x3f23c241	0.6396828
62	0x3f894913	1.0725425
63	0x3d2e7f5e	0.042601936
64	0xbef0546f	-0.46939418
65	0xbe418265	-0.18897398
66	0xbef41b49	-0.47677067
67	0xba8c3e55	-0.0010699729
68	0xbe02eb04	-0.12784964
69	0xbf0920eb	-0.53565854
70	0xbeacd5b9	-0.33756807
71	0xbe20de5e	-0.15709826
72	0xbd90a04f	-0.070618264
73	0xbf990a37	-1.1956242
74	0xbf03b518	-0.514482
75	0x3dae6277	0.085148744
76	0x3d8499af	0.06474625
77	0xbd6204b8	-0.05518028
78	0xb8acf2ac	-8.2468e-05
79	0x3e9ad997	0.30244133
80	0x3d1bef47	0.03806999
81	0x3db9b67f	0.090680115
82	0xbeb20fef	-0.3477778
83	0x3e6735b7	0.22579084
84	0xbde418e5	-0.11137561
85	0x3e159f99	0.14611663
86	0x3f0a3569	0.5398775
87	0xbf09a534	-0.53767705
88	0xbe8e1da2	-0.27756983
89	0x3e6709ed	0.2256238
90	0xbf855eee	-1.0419595
91	0xbcccda47	-0.025006426
92	0x3e12eafa	0.14347449
93	0xbf57ce35	-0.8429902
94	0xbed26c78	-0.4109838
95	0xbef80783	-0.4844323
96	0x3f438f9f	0.76391023
97	0xbe73a6d2	-0.23794106
98	0x383256e1	4.251942e-05
99	0xbe6a85c7	-0.22902595

layers.2.weight f4 [100, 100]
0	0xbd642fca	-0.055709638
1	0xbd60f453	-0.054920506
2	0x3ea54311	0.3227773
3	0xbc84d680	-0.016215563
4	0xbe6e4391	-0.23267962
5	0xbdad2da3	-0.0845597
6	0xbcd6a28d	-0.026200557
7	0xbbc72059	-0.006076854
8	0x3d3c0598	0.045903772
9	0x3e84e5fd	0.25956717
10	0xbe8aec73	-0.2713352
11	0xbc7835bb	-0.015149529
12	0x3dd8831e	0.105718836
13	0xbdf3ce85	-0.11904625
14	0x3d24adf1	0.040204946
15	0xbed86c28	-0.42270017
16	0x3e799011	0.24371363
17	0xbe3bee99	-0.18352737
18	0x3de3a8bb	0.11116167
19	0xbe460098	-0.19336164
20	0xba433ee8	-0.00074480334
21	0x3e328490	0.17433381
22	0x3b3a5e20	0.002843745
23	0x3e5c51a6	0.21515521
24	0xbc962325	-0.018327305
25	0xbd6dd57d	-0.058064926
26	0x3e1a23be	0.15052697
27	0xbdaf4173	-0.08557405
28	0xbd8b05a7	-0.067881875
29	0xbe13cdfd	-0.14434047
30	0x3cd9116f	0.02649757
31	0xbd6b289f	-0.057411786
32	0xbda34bc3	-0.07973435
33	0xbd3ed9fc	-0.046594605
34	0xbb6729aa	-0.0035272636
35	0x3c2a027d	0.01037657
36	0x3de67f92	0.11254801
37	0x3f0c0dce	0.54708564
38	0xbca330f4	-0.019920804
39	0x3cf6347d	0.030054325
40	0xbe14b40b	-0.14521806
41	0x3d202449	0.039097104
42	0x3b256db4	0.002524239
43	0x3d9d4b90	0.07680428
44	0xbc3916e3	-0.0112969605
45	0xbedff32e	-0.4374022
46	0x3c4d59fc	0.012533661
47	0xbe9745ed	-0.29545537
48	0x3be98404	0.007126333
49	0x3e03a299	0.12854995
50	0x3e9eecaa	0.31039935
51	0xb8cdbd91	-9.810471e-05
52	0xbc56ba1c	-0.013105895
53	0x3f06323c	0.524204
54	0xbd5a3863	-0.05327643
55	0xbe2c8463	-0.16847377
56	0xbd643e6a	-0.055723585
57	0x3f62f15f	0.88649553
58	0xbcb559c8	-0.022137538
59	0x3defedc9	0.11715276
60	0x3d4099a4	0.047021523
61	0xbe8df3bb	-0.27725014
62	0x3e1b148e	0.1514456
63	0x3e20981e	0.15683028
64	0xbce7cb1a	-0.028295089
65	0xbe81afb0	-0.2532935
66	0x3bbcd68e	0.0057628816
67	0x3bad92bc	0.005297033
68	0x3eb24159	0.3481548
69	0x3e218b73	0.15775852
70	0x3def2d56	0.11678569
71	0x3c44e222	0.012016805
72	0x3d34ef1a	0.044173338
73	0xbc014c23	-0.007891688
74	0x3e8063ce	0.25076145
75	0xbdde94f4	-0.10868254
76	0xbd1cb640	-0.038259745
77	0x3d61a279	0.055086587
78	0xbb7e2d65	-0.0038784381
79	0x3ebfe3d8	0.37478518
80	0xbcc0034b	-0.02343907
81	0xbf23f0c8	-0.6403928
82	0x3d50fedc	0.051024303
83	0x3e598837	0.21243368
84	0xbe3c81a5	-0.1840883
85	0x3ed3e7e9	0.4138787
86	0x3db2a533	0.087229155
87	0x3e347ef5	0.17626555
88	0x3d801edf	0.06255888
89	0x3ec15d01	0.3776627
90	0x3dc50c05	0.09621433
91	0xbdad058b	-0.08448323
92	0x3dc823c9	0.097724505
93	0xbd13927b	-0.036028367
94	0x3e0049d0	0.12528157
95	0xbec6d7b0	-0.38836432
96	0xbcfd5cee	-0.030928101
97	0xbd81515d	-0.06314347
98	0x3b87ddc9	0.004146312
99	0x3da43ad7	0.08019035
100	0x3e493e94	0.19652778
101	0xbeae19a8	-0.3400395
102	0xbe8cc241	-0.27491954
103	0x3e35e1d1	0.17761923
104	0x3de51389	0.11185367
105	0xbdd24806	-0.10267644
106	0x3e42f0a9	0.19037117
107	0x3af08ed0	0.0018353108
108	0x3d3e366a	0.046438612
109	0x3ee979e0	0.45600796
110	0x3e8920bd	0.2678279
111	0x3e006589	0.12538733
112	0x3dab1e7a	0.08355422
113	0xbccabaf7	-0.024747355
114	0x3e0e6fed	0.13909884
115	0x3d957a2e	0.072986946
116	0x3ca6eeb4	0.020377494
117	0xbd73c974	-0.059518293
118	0xbf0be0c6	-0.5463985
119	0xbe4ce029	-0.20007385
120	0xbe3e2cf8	-0.18571842
121	0xbca93838	-0.02065669
122	0x3ce6cf8d	0.02817514
123	0xbd23971c	-0.03993903
124	0x3b5d29c4	0.0033746818
125	0x3ec11007	0.3770754
126	0xbcfc0fdf	-0.030769287
127	0x3e7ff3e2	0.24995378
128	0x3ed01a76	0.40645188
129	0xbec26d91	-0.37974218
130	0xbe399cb1	-0.1812618
131	0x3e52d74d	0.20589943
132	0x3dd4d7a6	0.10392694
133	0x3daa119c	0.0830414
134	0xbec5d82f	-0.38641497
135	0x3cfc8303	0.03082419
136	0xbe89154e	-0.26774067
137	0xbf07087c	-0.5274732
138	0x3df612ba	0.120152906
139	0xbf25221a	-0.6450516
140	0x3d4b001f	0.049560662
141	0xbe3fe9bc	-0.18741506
142	0x3e3fe702	0.18740466
143	0xbd33bd86	-0.043881916
144	0x3e01d0eb	0.12677352
145	0x3d17c869	0.03705636
146	0xbe3a4ce4	-0.18193394
147	0x3eab2831	0.334291
148	0x3db9292f	0.09041058
149	0x3e261025	0.16217096
150	0xbe1bfb7c	-0.15232652
151	0xbc722de9	-0.014781454
152	0xbdf6f710	-0.12058842
153	0x3d23a3d9	0.03995118
154	0x3dcdeabd	0.100545384
155	0x3d7079ee	0.05871003
156	0xbe2c9bca	-0.16856304
157	0x3ef11bba	0.47091466
158	0x3e074e70	0.13213515
159	0xbeb37269	-0.35048226
160	0xbd101d94	-0.035184458
161	0xbe664f0a	-0.22491089
162	0x3e014d55	0.12627156
163	0x3d964288	0.073369086
164	0xbe020417	-0.12696873
165	0xbe23402c	-0.15942448
166	0xbe70896c	-0.23489922
167	0xbac42a58	-0.0014966233
168	0xbec66a27	-0.38752863
169	0x3e00ae2d	0.12566443
170	0xbc5f9855	-0.013647159
171	0x3e5cd9bd	0.21567436
172	0x3f0ab8bf	0.5418815
173	0x3dc51929	0.096239395
174	0x3c11abac	0.008891027
175	0x3f087b31	0.53312975
176	0x3e4934cd	0.19649048
177	0xbd0f85cb	-0.035039704
178	0xbc383d60	-0.011245102
179	0xbe24b027	-0.16082822
180	0xbd6fded0	-0.0585621
181	0xbe1b2ad8	-0.15153062
182	0x3e0227a7	0.12710439
183	0xbdbc58e6	-0.091966435
184	0xbe87670c	-0.26445806
185	0x3dbbc5c4	0.0916858
186	0xbe10cd80	-0.14140892
187	0x3deb60d1	0.11493076
188	0xbb66c9f1	-0.0035215581
189	0x3ea067e3	0.3132926
190	0x3e56db54	0.20982105
191	0xbd1ca6fc	-0.038245186
192	0xbe1b622e	-0.15174171
193	0xbe8548c1	-0.2603207
194	0x3d91ce5d	0.07119439
195	0x3d9ed61a	0.077556804
196	0xbd9a69ae	-0.07539688
197	0x3ce9a46b	0.028520783
198	0xbd012d79	-0.031537507
199	0x3e3c8600	0.18410492
200	0xbe76ace1	-0.24089386
201	0xbde0eed7	-0.10983055
202	0xbe425993	-0.18979482
203	0xbdae8d60	-0.08523059
204	0x3e2154f1	0.15755059
205	0x3cce982b	0.025219044
206	0xbd24cb3b	-0.04023288
207	0x3dcf380d	0.10118113
208	0xbb5e442a	-0.003391514
209	0x3e336dc8	0.17522347
210	0xbec36e70	-0.38170195
211	0x3eaff05f	0.34363076
212	0x3caf5ee4	0.021407552
213	0xbc2af416	-0.010434171
214	0x3e480df4	0.19536573
215	0x3e8e958f	0.2784848
216	0xbeb0eeb0	-0.34557104
217	0xbff78c2f	-1.9339656
218	0x3f98facd	1.1951538
219	0xbd220409	-0.03955463
220	0xbd670e0b	-0.056409877
221	0x3d765050	0.060135186
222	0x3c5b9d9a	0.013404274
223	0x3ec74d42	0.3892613
224	0xbce4c9e4	-0.0279283
225	0xbe027684	-0.12740523
226	0x3e895212	0.26820427
227	0xbc6df079	-0.014522665
228	0x3e9860f8	0.2976148
229	0xbdc2b2ac	-0.09506735
230	0x3f8d7695	1.1051813
231	0x3d0eb230	0.0348379
232	0x3e19bbc1	0.15013029
233	0xbe2062f9	-0.15662755
234	0x3da6329c	0.08115122
235	0x3d5b9850	0.053612053
236	0xbee5d128	-0.44886136
237	0x3dce1502	0.10062601
238	0xbdf64ef3	-0.12026777
239	0xbe90e14a	-0.28296882
240	0xbe4364c9	-0.19081415
241	0x3d8dd3eb	0.06925186
242	0xbcf95d73	-0.030440068
243	0x3e1c059a	0.15236512
244	0xbe304a4c	-0.17215842
245	0xbe569dbf	-0.20958613
246	0xbd65e454	-0.056125954
247	0xbcd3e236	-0.025864702
248	0xbbabf7ff	-0.0052480693
249	0x3e656169	0.2240044
250	0x3d755cde	0.05990302
251	0x3cdff837	0.027340038
252	0x3e1df2ac	0.15424603
253	0x3d807256	0.06271808
254	0x3ec9a358	0.39382434
255	0xbd228ee5	-0.039687056

layers.2.bias f4 [100]
0	0x3dea7d13	0.11449637
1	0xbe0816f1	-0.13290001
2	0x3df35159	0.1188075
3	0xbe5ff847	-0.21872054
4	0x3e62397f	0.22092246
5	0x3e00a954	0.12564594
6	0xbceedb00	-0.029157162
7	0x3e739c65	0.23790129
8	0x3dc32026	0.09527616
9	0x3eed2460	0.46316814
10	0x3deff5b6	0.117167875
11	0x3d5f33a3	0.054492604
12	0x3d7daa12	0.06192977
13	0xbd4b9a3d	-0.04970764
14	0xbe20983a	-0.1568307
15	0x3e4b078f	0.19827102
16	0x3e13783b	0.14401333
17	0x3ef5b2db	0.47988018
18	0xbe6f3200	-0.23358917
19	0xbe065873	-0.13119678
20	0xbed6c197	-0.41944572
21	0x3e6f3162	0.23358682
22	0x3f1707a7	0.5899605
23	0x3e2d13bb	0.16902058
24	0x3f2268b7	0.6344103
25	0x3e211d4e	0.15733835
26	0xbdbbd960	-0.0917232
27	0x3ea50e79	0.32237604
28	0x3f3de271	0.7417365
29	0xbe5c4e58	-0.21514261
30	0x3f1a9e3e	0.6039771
31	0xbdb6fe94	-0.08935276
32	0xbeb99cea	-0.36252528
33	0x3e52c3d5	0.20582516
34	0x3c395b96	0.01131334
35	0x3e91483d	0.28375426
36	0x3e652139	0.22375955
37	0x3e1ca22b	0.15296237
38	0x3e08bb99	0.13352813
39	0x3d8cfdf5	0.06884376
40	0xbf08d006	-0.5344242
41	0x3ea10c54	0.31454718
42	0x3d1032cd	0.035204697
43	0x3e3cdd98	0.18443906
44	0xbd306511	-0.043065134
45	0xbc0ddbb5	-0.008658339
46	0xbe5d844b	-0.21632497
47	0xbe9c5416	-0.30532902
48	0x3e57a449	0.21058764
49	0x3f44f21d	0.76931936
50	0xbe0bb30d	-0.13642521
51	0xbe23a418	-0.15980566
52	0x3e164c35	0.14677508
53	0x3eebcce9	0.46054772
54	0xbe4aed18	-0.19817007
55	0x3e8721d9	0.2639301
56	0xbe118332	-0.14210203
57	0x3eabb593	0.33536968
58	0x3e6151b0	0.22003818
59	0xbdf084ad	-0.11744056
60	0xbed0fcf8	-0.40818
61	0xbcab96be	-0.020945903
62	0x3e64d115	0.22345383
63	0xbe4d7253	-0.20063142
64	0x3ec4d9ae	0.38447326
65	0x3f38b0d8	0.7214484
66	0xbe846e4b	-0.25865397
67	0xbec78e4b	-0.38975748
68	0xbe6e966b	-0.23299567
69	0xbe089362	-0.13337472
70	0xbc065ec7	-0.008201308
71	0xbeeef2f9	-0.46669748
72	0xbd9b145a	-0.07572241
73	0x3e82e0ea	0.2556222
74	0x3ee4f221	0.4471598
75	0x3e5e19c5	0.21689518
76	0x3e1571b7	0.1459416
77	0xbde8f43a	-0.113747075
78	0x3d28f229	0.041246567
79	0x3dd24663	0.102673315
80	0xbe85818c	-0.260754
81	0xbc323f9e	-0.010879425
82	0xbd6782df	-0.056521293
83	0xbcc0b59a	-0.023524094
84	0xbf4815c2	-0.781582
85	0xbe81ad22	-0.25327402
86	0xbe571a8e	-0.21006224
87	0xbf19a8fe	-0.60023487
88	0x3e50c2b6	0.20386776
89	0xbde66032	-0.112488165
90	0xbeb0b91c	-0.34516227
91	0xbed3112a	-0.41224033
92	0xbda47df8	-0.08031839
93	0xbe6dcfc2	-0.23223785
94	0xbe0e838c	-0.13917369
95	0xbe5ec7b5	-0.2175587
96	0xbde3e476	-0.1112756
97	0x3d98aa61	0.07454372
98	0xbe30fe29	-0.17284454
99	0x3de3cca3	0.11123016

layers.4.weight f4 [100, 100]
0	0xbe18d7c5	-0.1492606
1	0xbd7350be	-0.059403174
2	0xbe4cf7ca	-0.20016399
3	0xbf216b28	-0.6305413
4	0x3e06f8f0	0.131809
5	0x3e898663	0.2686034
6	0xbf69c7f7	-0.9132075
7	0xbbf57d2e	-0.007491729
8	0x3dcd3544	0.10019925
9	0xbf6c1a3f	-0.9222755
10	0x3f12f04a	0.573979
11	0xbe89516d	-0.26819935
12	0x3ef45945	0.47724357
13	0x3d32b969	0.043633852
14	0x3e196add	0.14982171
15	0x3e0acb81	0.13554193
16	0xbe0c26ed	-0.13686724
17	0x3d014b9b	0.031566244
18	0x3de15e14	0.11004272
19	0xbd1c14c3	-0.038105737
20	0x3da44bfc	0.08022305
21	0xbd9cabbb	-0.076499425
22	0xbe5f9f60	-0.2183814
23	0x3e1dfb25	0.15427835
24	0xbd045b66	-0.032313727
25	0xbe8def0c	-0.2772144
26	0xbe8ba8ec	-0.27277315
27	0xbd84bc02	-0.06481172
28	0xbe6f0642	-0.23342231
29	0xbf571089	-0.84009606
30	0xbda7bc9c	-0.08190271
31	0xbf31cb5b	-0.6945092
32	0x3df83db3	0.12121143
33	0xbd164b47	-0.036692884
34	0x3eb886af	0.36040255
35	0x3dc24861	0.094864614
36	0x3d98fd8a	0.07470234
37	0xbd9dc4ee	-0.07703577
38	0xbf92d16b	-1.1470159
39	0xbe9c03b3	-0.30471572
40	0x3e73c414	0.23805267
41	0xbd8b8860	-0.06813121
42	0xbe098e0a	-0.1343309
43	0x3d5035e0	0.05083263
44	0x3eb5e16f	0.35523555
45	0x3d96bd0e	0.07360278
46	0x3e86ab3d	0.2630252
47	0xbdf0220e	-0.117252454
48	0xbbdb0e05	-0.006685021
49	0xbe748569	-0.23879017
50	0xbfbb462c	-1.463079
51	0xbe7aef4e	-0.2450535
52	0xbd044290	-0.03229004
53	0xbe82dde0	-0.25559902
54	0x3e1c8264	0.15284115
55	0xbde0247a	-0.10944457
56	0x3e156fa2	0.14593366
57	0xbf082028	-0.53174067
58	0xbeb404c1	-0.35159877
59	0xbe736543	-0.23769097
60	0x3ef4aeb0	0.47789526
61	0x3e8a61cf	0.27027747
62	0x3e4d5eae	0.20055649
63	0x3dbace0f	0.09121334
64	0xbe1d202b	-0.15344302
65	0xbe2f5383	-0.17121701
66	0xbda2fcfd	-0.0795841
67	0x3e9bb4b9	0.30411318
68	0x3f0520d1	0.520032
69	0x3dc09483	0.09403326
70	0xbeab3bf8	-0.3344419
71	0xbd125f64	-0.035735503
72	0x3e9f1cda	0.310767
73	0xbece5ec4	-0.40306675
74	0xbe6e10d3	-0.23248605
75	0x3eb8185a	0.3595608
76	0x3e10698d	0.14102764
77	0x3dc7088e	0.097184286
78	0xbe148678	-0.14504421
79	0x3eaeb6bd	0.34123793
80	0xbe3fd2bc	-0.18732733
81	0x3e8cd0cd	0.27503052
82	0xbe5856b2	-0.21126822
83	0x3ea21d0f	0.31662795
84	0x3e905d2a	0.2819608
85	0x3f3f9d9c	0.7484987
86	0xbd3589bf	-0.044320818
87	0x3e968f74	0.2940632
88	0x3df21e71	0.118222125
89	0x3de012df	0.109410994
90	0xbdcda619	-0.10041446
91	0x3f70a75a	0.9400536
92	0xbe3debea	-0.18547025
93	0x3edd5aab	0.43233237
94	0xbe4d0ccf	-0.20024417
95	0x3b8b3dcc	0.00424931
96	0x3dce7a93	0.10081973
97	0x3ea73595	0.32658067
98	0xbe038e22	-0.12847188
99	0xbea36101	-0.31909946
100	0xbe04e476	-0.12977776
101	0xbe10dde7	-0.14147149
102	0xbd969c1b	-0.073539935
103	0xbc30a4af	-0.010781451
104	0xbc1ddbcc	-0.009634923
105	0x3d308d41	0.04310346
106	0x3e106bc6	0.14103612
107	0xbe938de9	-0.28819206
108	0xbf0a1de2	-0.5395185
109	0x3d9b904e	0.07595883
110	0x3d955c76	0.07293026
111	0xbee273e1	-0.44229034
112	0xbcc2b258	-0.023766682
113	0x3e492af3	0.1964529
114	0xbe8ec2b4	-0.27882922
115	0xbd5802ee	-0.05273717
116	0x3ee79382	0.45229727
117	0xbc1e43a3	-0.009659681
118	0xbf533139	-0.8249698
119	0x3d95a231	0.07306326
120	0x3cf74e8e	0.030188825
121	0x3dbf0fdd	0.093291976
122	0x3e8722e6	0.26393813
123	0xbefe28e5	-0.49640575
124	0xbe050140	-0.12988758
125	0xbe045f98	-0.12927091
126	0x3d8bca64	0.06825712
127	0x3f021ec4	0.50828195
128	0xbdeef5da	-0.11667986
129	0x3d585a2b	0.052820366
130	0xbdade73c	-0.0849137
131	0x3ddc47fe	0.10755919
132	0x3cc129bc	0.02357947
133	0xbcf5e41a	-0.030015994
134	0xbc6b20f2	-0.0143511165
135	0xbe01a0ba	-0.12658969
136	0xbdb41ad3	-0.08794179
137	0xbc7d65a9	-0.015466132
138	0x39b32d54	0.00034175313
139	0xbcf920eb	-0.030411204
140	0xbe3a6b00	-0.1820488
141	0x3f22d0e0	0.6359997
142	0xbe3c9af6	-0.18418488
143	0x3d3a25ed	0.045446325
144	0xbccf4a44	-0.025303967
145	0xbe1f36de	-0.15548274
146	0x3d296b3a	0.041362025
147	0xbe31d5dd	-0.17366739
148	0x3f05bdad	0.5224255
149	0xbcd19cfe	-0.025587555
150	0x3e1a6d80	0.15080833
151	0xbd499e01	-0.04922295
152	0xbdc5bc19	-0.096550174
153	0x3e37cacc	0.17948455
154	0xbdbf2d37	-0.09334796
155	0x3ce5ef1b	0.028068116
156	0x3df94c67	0.12172776
157	0xbbc8dd10	-0.0061298683
158	0xbdb6e45c	-0.08930275
159	0xbdb7fa18	-0.089832485
160	0xbe73a3ff	-0.23793028
161	0x3d74995f	0.05971658
162	0x3e6d070a	0.23147216
163	0xbe319553	-0.17342119
164	0x3e87632b	0.26442847
165	0xbd63d539	-0.055623267
166	0xbd46f4df	-0.04857337
167	0x3e3174c5	0.173297
168	0x3d7f1d29	0.06228367
169	0x3e3c82fd	0.18409343
170	0xbcc77998	-0.024349973
171	0xbe2d4a22	-0.1692281
172	0x3db2d01e	0.087311015
173	0xbcbe5fbb	-0.023239007
174	0x3e4e63d6	0.20155272
175	0x3cd09354	0.025460877
176	0xbbd27a92	-0.006423303
177	0x3e2db2e3	0.16962771
178	0x3e5e494a	0.21707645
179	0xbc3515ea	-0.011052588
180	0xbe225880	-0.15854073
181	0x3d753737	0.05986711
182	0x3d040c4c	0.03223829
183	0x3dd1e016	0.10247819
184	0x3e1008b0	0.14065814
185	0xbf470e31	-0.7775603
186	0x3d332bf9	0.043743107
187	0x3e2983af	0.1655414
188	0xbd93fefc	-0.07226369
189	0x3e01bb42	0.1266909
190	0x3c848455	0.016176382
191	0x3d1ec23f	0.038759466
192	0x3ea73e2f	0.3266463
193	0xbdfa841c	-0.12232229
194	0x3d8e88bd	0.069596745
195	0xbe60415e	-0.21899936
196	0xbd91eb0b	-0.07124909
197	0xbcb22d59	-0.02175014
198	0xbe3f8b13	-0.18705396
199	0xbd30e3b8	-0.04318592
200	0xbc884003	-0.016632086
201	0x3d26e3fc	0.040744767
202	0xbdc005ed	-0.0937613
203	0x3e3334b9	0.17500581
204	0xbe029424	-0.12751824
205	0x3c8b7f80	0.01702857
206	0xbdace21a	-0.08441563
207	0xbf1e4887	-0.6182942
208	0x3db1f858	0.08689946
209	0x3b74b5ea	0.0037339875
210	0xbcb21831	-0.021740051
211	0xbbb1051d	-0.005402221
212	0x3d1df09c	0.03855954
213	0x3db52410	0.08844769
214	0xbdb44ffe	-0.0880432
215	0xbc12f314	-0.008969087
216	0xc0141da9	-2.3143103
217	0xbd609ef0	-0.054839075
218	0x3dc809ff	0.097675316
219	0x3de6c32f	0.11267697
220	0x3cd327f2	0.025775883
221	0x3d8b2c16	0.06795518
222	0x3c865f91	0.016402991
223	0x3d67d2a8	0.05659738
224	0xbc26e9f4	-0.010187615
225	0xbc5a80b4	-0.013336349
226	0x3e63ef2d	0.22259207
227	0xbfb5e3af	-1.4210109
228	0xbe845efd	-0.2585372
229	0xbbdd574c	-0.0067547914
230	0xbe275d0a	-0.16344085
231	0xbe87d59e	-0.26530164
232	0x3def35f1	0.116802104
233	0xbd915eb8	-0.07098144
234	0x3c9b6ecf	0.018973736
235	0x3ceedfd7	0.02915947
236	0x3c986e9f	0.018607436
237	0xbcfe6759	-0.03105514
238	0x3cab4cc7	0.020910634
239	0x3dbdc656	0.09266345
240	0xbce11b2e	-0.02747878
241	0xbf9a2d44	-1.2045064
242	0xbce5ee69	-0.028067784
243	0xbe28a957	-0.16470848
244	0x3cb5ddbb	0.022200456
245	0x3de6e90b	0.11274918
246	0x3e0194cd	0.12654419
247	0x3d8b9b92	0.06816782
248	0xbebd41c1	-0.3696423
249	0xbdefc0a1	-0.11706663
250	0xbd1a77b0	-0.0377118
251	0xbd60f08b	-0.0549169
252	0x3ed47f3f	0.4150333
253	0xbcb8dbce	-0.022565749
254	0x3ecfd9b4	0.40595782
255	0xbe6330ad	-0.22186537

layers.4.bias f4 [100]
0	0xbea0be3d	-0.3139514
1	0xbd0c0029	-0.03417984
2	0xbe376302	-0.17908862
3	0x3d57a678	0.05264899
4	0x3e2125ca	0.15737072
5	0xbc12bc86	-0.00895608
6	0xbeb3be37	-0.3510606
7	0x3dad64cc	0.08466491
8	0xbe3bccef	-0.18339895
9	0xbe25b6a3	-0.16182952
10	0xbeb3d35a	-0.35122186
11	0x3ce4504e	0.027870324
12	0xbead3091	-0.33826116
13	0xbdd419af	-0.10356461
14	0xbe8263f4	-0.25466883
15	0xbe65d479	-0.22444333
16	0x3e8dc2cf	0.2768769
17	0xbcd6b8f8	-0.026211247
18	0x3eddb38b	0.43301043
19	0x3c6b2830	0.014352843
20	0x3de0a2f0	0.10968578
21	0x3dfbcf3d	0.12295387
22	0xbe29b6e6	-0.16573676
23	0xbe0c5586	-0.137045
24	0xbd4f4e33	-0.050611686
25	0xbe3bb770	-0.18331695
26	0xbd3c7d4f	-0.04601794
27	0x3e216e0f	0.1576464
28	0x3dbeffc4	0.09326127
29	0xbe5c155c	-0.21492523
30	0x3d9deba5	0.07710961
31	0xbe685689	-0.2268926
32	0x3e94a76b	0.2903398
33	0x3d52b090	0.051437914
34	0xbeba0f89	-0.36339977
35	0xbd42133d	-0.04738163
36	0xbdd81b57	-0.1055209
37	0x3da34bbb	0.07973429
38	0x3eb0584f	0.34442374
39	0xbe319c68	-0.1734482
40	0x3e635898	0.22201765
41	0x3e4799d4	0.19492275
42	0xbe2941bd	-0.16528983
43	0xbe41d3b3	-0.18928413
44	0x3e3f159e	0.1866059
45	0x3ea29552	0.31754547
46	0x3e22df74	0.15905553
47	0xbe4e3497	-0.20137249
48	0xbea8088e	-0.32819027
49	0x3d9871f0	0.07443607
50	0xbedca0a0	-0.43091297
51	0x3df75955	0.120775856
52	0xbe1e864a	-0.15480915
53	0x3e7b28b4	0.24527246
54	0xbe2162f5	-0.15760405
55	0x3d8c0194	0.068362385
56	0x3dec18fd	0.11528204
57	0xbf1ac5be	-0.6045798
58	0xbe7f8e16	-0.24956545
59	0x3ec03ff1	0.37548783
60	0xbe34de33	-0.17662887
61	0x3d1eaa33	0.038736533
62	0x3dc8a377	0.097968034
63	0x3e7a323c	0.24433225
64	0x3e98f34b	0.29873118
65	0x3e5bfeb5	0.21483882
66	0xbe8b04f1	-0.27152207
67	0x391b6712	0.00014820349
68	0xbdee78dc	-0.11644146
69	0xbd965547	-0.07340484
70	0x3cb982f0	0.022645444
71	0x3d6e0900	0.05811405
72	0xbde90f58	-0.1137988
73	0xbe4846e6	-0.19558296
74	0xbd4dc0b8	-0.05023262
75	0x3e7de660	0.24794912
76	0xbdf46add	-0.11934445
77	0xbe0c401b	-0.1369633
78	0x3eaa6ea1	0.33287528
79	0x3eed5615	0.46354738
80	0xbe3bacdd	-0.18327661
81	0x3e3d80b7	0.18506132
82	0xbc43691b	-0.011926915
83	0xbef2e903	-0.474434
84	0x3d4d513c	0.0501263
85	0xbc230132	-0.009949015
86	0x3e194467	0.149675
87	0xbedfefd7	-0.4373767
88	0x3d95cfb8	0.0731501
89	0xbe320813	-0.17385893
90	0x3e7116bc	0.23543829
91	0x3e0775ad	0.13228483
92	0xbea46d2f	-0.3211455
93	0x3dee03ab	0.11621793
94	0x3e50536f	0.20344327
95	0xbeb7e81c	-0.35919273
96	0x3e8b3025	0.2718517
97	0xbe944c16	-0.289643
98	0x3eab1cfc	0.3342055
99	0x3e2a77f0	0.16647315

layers.6.weight f4 [100, 100]
0	0x3e2cdfad	0.168822
1	0xbe1b23b2	-0.15150335
2	0x3c91746b	0.017755708
3	0xbf19da17	-0.60098404
4	0x3e2765ac	0.16347378
5	0xbe64d3dc	-0.22346443
6	0x3e8c425c	0.27394378
7	0xbdeba039	-0.115051694
8	0x3d9163a6	0.070990846
9	0x3f38bed0	0.72166157
10	0x3e7d58f5	0.24740966
11	0xbe05143b	-0.12995999
12	0xbe764a26	-0.24051723
13	0x3d4ee068	0.05050698
14	0x3c2ee849	0.010675498
15	0x3e2ae9cc	0.16690749
16	0xbeab01e0	-0.33399868
17	0xbee1535e	-0.44008917
18	0xbed8292c	-0.42218912
19	0xbddc40af	-0.10754525
20	0xbcb24f76	-0.021766406
21	0xbd334836	-0.043770038
22	0x3e30640c	0.17225665
23	0x3e1ddb79	0.15415753
24	0xbde1acbd	-0.11019275
25	0x3d93945d	0.072060324
26	0xbdd0ec46	-0.102013156
27	0xbe491b54	-0.19639331
28	0x3e47149a	0.19441453
29	0x3e9f21be	0.3108043
30	0x3e971b5b	0.29513058
31	0x3eaf4ee6	0.34239882
32	0xbf5f0076	-0.8711008
33	0x3ed382d2	0.41310745
34	0x3ee0b103	0.4388505
35	0xbe19497b	-0.14969437
36	0xbdb504db	-0.08838817
37	0xbf13b48d	-0.57697374
38	0xbdea5b8f	-0.11443245
39	0xbf319820	-0.6937275
40	0xbd646dd2	-0.055768795
41	0xbeed0cc5	-0.46298805
42	0x3ee06218	0.4382484
43	0x3e76ba39	0.24094476
44	0x3e75c3ac	0.24000424
45	0xbea208f2	-0.3164745
46	0xbe1888b8	-0.14895904
47	0x3de1b51c	0.11020872
48	0x3e40e18e	0.18836042
49	0xbf090434	-0.5352204
50	0xba4e80d0	-0.0007877471
51	0xbe9c69b3	-0.30549392
52	0x3d830d9e	0.06399082
53	0xbe032957	-0.12808739
54	0x3da94d92	0.082667485
55	0x3c209e0e	0.009803308
56	0x3e40a72c	0.18813771
57	0x3db9e598	0.09076995
58	0xbddc6510	-0.10761464
59	0xbe028b68	-0.12748492
60	0xbe954476	-0.29153794
61	0xbe313dea	-0.17308775
62	0x3e87612d	0.26441327
63	0xbe695e3c	-0.22789854
64	0xbe23d06e	-0.15997478
65	0xbddeda28	-0.10881454
66	0xbe0eda05	-0.13950355
67	0x3e8d7389	0.2762721
68	0x3f40c60b	0.7530219
69	0x3c56b463	0.013104531
70	0xbf5b6ad0	-0.8570986
71	0xbe2a4198	-0.16626585
72	0x3e5b16bc	0.21395391
73	0x3ebf986f	0.37420985
74	0x3e3a311b	0.18182795
75	0x3d864b67	0.065573506
76	0x3e043224	0.12909752
77	0x3cc3e625	0.023913452
78	0x3c2d092a	0.010561267
79	0xbe38b783	-0.18038754
80	0x3ecc6572	0.39921147
81	0xbe277331	-0.16352536
82	0xbdb32c06	-0.08748631
83	0x3e75a7a0	0.23989725
84	0x3e79555e	0.24348971
85	0x3e7b6572	0.24550417
86	0xbeb026d1	-0.34404615
87	0x3e6f6d1e	0.23381469
88	0xbd1acc79	-0.037792657
89	0x3e213f50	0.15746808
90	0xbe0e153d	-0.1387529
91	0xbdd11be9	-0.102104016
92	0x3dae6c4f	0.08516752
93	0xbe65eaaf	-0.22452806
94	0xbe02a9e2	-0.12760118
95	0x3f421f1d	0.75828725
96	0xbe4f5e6a	-0.2025086
97	0x3ee958d5	0.45575586
98	0x3e6dc60c	0.2322008
99	0xbead5010	-0.33850145
100	0xbedcf6f2	-0.43157154
101	0xbe641e38	-0.22277153
102	0x3f378114	0.7168133
103	0xbdbd75e7	-0.09251004
104	0x3e82b455	0.25528207
105	0x3e9db2a9	0.3080037
106	0x3e17af74	0.14813024
107	0xbd1ded1d	-0.038556207
108	0xbcc69b21	-0.024243893
109	0xbf55e75b	-0.83556145
110	0xbde3d233	-0.11124077
111	0xbe8bed5e	-0.27329534
112	0x3ead49a3	0.33845243
113	0x3c97b81b	0.018520406
114	0x3e07d4c0	0.13264751
115	0x3dfc5e15	0.12322632
116	0x3d1056de	0.035239093
117	0x3f998ff0	1.1997051
118	0x3ec4bbb3	0.38424453
119	0x3ec388ba	0.38190252
120	0x3e97c677	0.29643604
121	0xbe25284d	-0.16128655
122	0x3d45e90d	0.048317958
123	0xbb6b9ff9	-0.0035953505
124	0xbe735949	-0.23764528
125	0x3dee450a	0.11634262
126	0x3d0dddb2	0.034635253
127	0xbe7fdb93	-0.24986105
128	0x3ddeafa0	0.108733416
129	0x3e695b44	0.22788721
130	0xbe8d1f6a	-0.2756303
131	0xbd48fd66	-0.049069785
132	0x3e857172	0.26063114
133	0x3ea4d6e2	0.32195193
134	0xbd8e5360	-0.06949496
135	0x3d7b4aa1	0.06135047
136	0x3e0f534d	0.1399662
137	0xbe80001f	-0.25000092
138	0x3afc7144	0.001925983
139	0xbe82d03b	-0.25549492
140	0xbc6697e8	-0.014074303
141	0xbe9a887f	-0.30182263
142	0x3d70ecf5	0.05881973
143	0x3ca1b259	0.019738363
144	0x3c5c91db	0.013462509
145	0x3df3d556	0.11905925
146	0xbe85d50f	-0.26139113
147	0xbeb88fde	-0.36047262
148	0xbdf29ac8	-0.118459284
149	0x3d3bb11f	0.045823213
150	0xbe6d6ebb	-0.23186772
151	0xbe04f899	-0.12985457
152	0xbd26413b	-0.040589552
153	0xbebcda29	-0.36885193
154	0xbcebabdd	-0.028768474
155	0x3fcaab68	1.5833559
156	0xbc3957c1	-0.011312426
157	0xbeb5431d	-0.35402766
158	0xbeb01a1a	-0.34394914
159	0x3ef62baf	0.48080203
160	0x3dffdd57	0.12493389
161	0x3df29728	0.11845237
162	0xbe34fed5	-0.17675336
163	0x3e95732f	0.2918944
164	0x3ea8854c	0.32914197
165	0x3e8288a0	0.25494862
166	0xbeeb2b81	-0.45931628
167	0xbcbee5a5	-0.023302862
168	0x3ea80ec2	0.3282376
169	0xbebb0cd9	-0.3653324
170	0xbe6a0978	-0.22855175
171	0x3e54f452	0.20796326
172	0xbe4ad2d9	-0.19806994
173	0xbcc30167	-0.02380438
174	0xbe3293d4	-0.17439204
175	0xbe489156	-0.19586691
176	0xbdd15522	-0.10221316
177	0xbf14c81d	-0.5811785
178	0x3e7723ef	0.24134801
179	0x3c6dcc36	0.01451402
180	0x3e9d0fb4	0.30676043
181	0x3e60f1e2	0.21967271
182	0xbedade73	-0.4274784
183	0xbe195138	-0.14972389
184	0xbdc04379	-0.093878694
185	0x3e13549d	0.14387746
186	0x3c32d6c3	0.010915461
187	0xbeb0c5aa	-0.34525806
188	0xbe6d918e	-0.23200056
189	0x3e00692d	0.12540121
190	0x3c993fe2	0.01870722
191	0x3dc0ffdb	0.094238006
192	0xbe934623	-0.28764448
193	0xbe5bff33	-0.2148407
194	0x3dcb647a	0.09931274
195	0xbcfdc72a	-0.030978758
196	0xbec586f2	-0.38579518
197	0x3dd62acb	0.10457381
198	0x3e137c5a	0.14402905
199	0x3dfb66b9	0.12275452
200	0xbedef6de	-0.4354772
201	0xbf73838c	-0.951226
202	0x3f8fd810	1.1237812
203	0x3feb2975	1.8372027
204	0x402d839e	2.7111583
205	0x3f525d70	0.82173824
206	0xbf918a8f	-1.137041
207	0x3f07638b	0.52886266
208	0xbfb847ec	-1.4396949
209	0xbf77f069	-0.9685121
210	0xbfeb7b72	-1.8397048
211	0x3faafc2c	1.3358207
212	0x3fed7b7c	1.855331
213	0xc05cfe3a	-3.4530168
214	0xbf1b4c24	-0.60663056
215	0xbe91899e	-0.28425306
216	0x3efdc573	0.49564704
217	0x3f7d9532	0.9905578
218	0x3edb873a	0.42876607
219	0x3f8abc6b	1.0838751
220	0xbfd3d7ee	-1.6550272
221	0x403eaab0	2.979168
222	0xc02ecdf8	-2.7313213
223	0xbec92514	-0.392861
224	0x3fe52345	1.7901388
225	0xbf47eb09	-0.7809301
226	0x3f778878	0.9669261
227	0x3f3ecde7	0.7453293
228	0x3f0b6483	0.54450244
229	0x3d613887	0.05498555
230	0xbf676271	-0.90384585
231	0xbee41eab	-0.44554648
232	0x3e84d4ed	0.259437
233	0xbf140737	-0.5782351
234	0xbf3e1856	-0.74255884
235	0xc02aca80	-2.6686096
236	0xbf5c499c	-0.8604982
237	0x3f6d8e3f	0.92795175
238	0xc08c8067	-4.390674
239	0xbf133f21	-0.575182
240	0x3f83e91d	1.0305516
241	0x3f9b65c4	1.2140431
242	0xbfcac2c9	-1.5840694
243	0xbf2d9748	-0.6780896
244	0x400468de	2.0689006
245	0x3ebf4c59	0.37362936
246	0x3f6b4d9b	0.9191529
247	0x3e461853	0.19345216
248	0xbdea898f	-0.114520185
249	0x3fbd1b37	1.477393
250	0xbf1d1223	-0.613558
251	0x3f374a7a	0.7159802
252	0xbfac9a3d	-1.348457
253	0x3f27b343	0.65507907
254	0xbec5f62a	-0.3866437
255	0x3f68f998	0.9100585

layers.6.bias f4 [100]
0	0xbe17bcf0	-0.14818168
1	0x3f12d927	0.573626
2	0x3da14947	0.07875305
3	0x3de69763	0.112593435
4	0xbd067b58	-0.032832474
5	0xbd15a0fb	-0.036530476
6	0x3d9947f4	0.07484427
7	0xbe19c591	-0.15016772
8	0x3e8c07f6	0.27349824
9	0x3ea9c00a	0.33154327
10	0xbe8588f0	-0.26081038
11	0xbee992c2	-0.4561978
12	0x3eb6ada2	0.35679346
13	0x3e42d53d	0.19026656
14	0x3e14de53	0.14537935
15	0xbe3e8617	-0.18605839
16	0xbead413c	-0.33838832
17	0x3e12a8a0	0.14322138
18	0xbc8175a3	-0.015803164
19	0xbedd09d5	-0.43171564
20	0xbe2e1a6f	-0.17002271
21	0x3e64bd74	0.22337896
22	0x3e99c8bf	0.3003597
23	0x3e9d031d	0.30666438
24	0x3e9a4fee	0.30139107
25	0x3e0eebe5	0.13957174
26	0xbe844eab	-0.2584127
27	0xbebcf6bf	-0.36907002
28	0xbddfacec	-0.10921654
29	0xbed17e13	-0.409165
30	0xbe14c87f	-0.14529608
31	0x3e83fddc	0.25779617
32	0x3e2e5285	0.17023666
33	0x3bd71f54	0.006565014
34	0xbe7cd20f	-0.24689506
35	0xbdbfc6c2	-0.09364082
36	0xbe9ddbec	-0.3083185
37	0xbbb1fb25	-0.00543155
38	0x3ebb1df9	0.36546305
39	0xbd83d1b2	-0.064364806
40	0xbdf9f5c4	-0.12205079
41	0x3e19a51b	0.15004389
42	0xbdf43d29	-0.11925728
43	0x3dde7c6e	0.10863577
44	0x3e79b48b	0.24385278
45	0x3c211427	0.009831465
46	0xbddf284f	-0.1089636
47	0xbda8afd6	-0.08236663
48	0x3d912ab4	0.07088223
49	0xbc2b6249	-0.010460445
50	0xbeb9961b	-0.36247334
51	0x3e0aefdd	0.13568063
52	0xbee5e981	-0.44904712
53	0xbde76713	-0.11298957
54	0xbe17f6a0	-0.14840174
55	0x3e2c6579	0.16835584
56	0x3df3752c	0.11887583
57	0xbe9fde20	-0.31224155
58	0xbf02098e	-0.5079583
59	0xbee4e443	-0.447054
60	0x3e882dc1	0.26597407
61	0x3d4b46a0	0.0496279
62	0xbe5a0b0b	-0.21293275
63	0xbc0d7aeb	-0.008635263
64	0xbe8e1d16	-0.27756566
65	0x3e90302b	0.2816175
66	0x3e8a6634	0.270311
67	0xbebad284	-0.36488736
68	0x3cad8c34	0.021185018
69	0x3dc85f7b	0.097838365
70	0x3e2eeed3	0.17083292
71	0x3e84dece	0.25951236
72	0x3e9117b5	0.283384
73	0xbdefa030	-0.11700475
74	0xbe88ee32	-0.2674423
75	0x3e19b91e	0.15012023
76	0xbe5c44c8	-0.21510613
77	0xbe64be6a	-0.22338262
78	0x3e60a524	0.21937996
79	0x3e9c092d	0.3047575
80	0x3e0a1fd4	0.13488704
81	0x3ea13c4c	0.31491315
82	0xbd06af15	-0.032881815
83	0x3e11edff	0.14250945
84	0x3e92cdc1	0.28672603
85	0xbea28af3	-0.31746635
86	0xbe214f22	-0.15752843
87	0x3e72da10	0.23715997
88	0xbe8ffd9c	-0.28123176
89	0x3ea46745	0.32110038
90	0xbeb092ba	-0.34486943
91	0x3ef2baa2	0.47408015
92	0xbc1707be	-0.0092181545
93	0x3e835bd9	0.25656012
94	0x3e9f781c	0.31146324
95	0x3eaa6e60	0.33287334
96	0x3e336d30	0.1752212
97	0x3ea3bd1a	0.3198021
98	0x3df0fd00	0.11767006
99	0xbdc02ced	-0.09383569

layers.8.weight f4 [1, 100]
0	0x3dd66eb1	0.104703315
1	0xbe17ab5c	-0.14811462
2	0xbe8c5dbc	-0.27415264
3	0xbdd61226	-0.1045268
4	0x3d9aaa0c	0.07551965
5	0x3e8fa9cb	0.2805923
6	0xbe734b51	-0.237592
7	0x3e0c9337	0.13728033
8	0xbdcbdf30	-0.09954679
9	0xbe179a37	-0.14804922
10	0x3dc70b28	0.09718925
11	0x3e1833e2	0.14863542
12	0xbe2118f0	-0.15732169
13	0xbda8bc68	-0.08239061
14	0xbe0c35b8	-0.13692367
15	0x3d8f9b69	0.07012064
16	0x3e15b4f5	0.14619811
17	0xbe02f24f	-0.12787746
18	0xbe77a0b0	-0.24182391
19	0x3e8f98b9	0.28046206
20	0x3e18c289	0.1491796
21	0xbe1125a6	-0.14174518
22	0xbe10c96d	-0.14139338
23	0xbe1cf92f	-0.15329431
24	0xbdce0d90	-0.100611806
25	0x3a08e945	0.0005222748
26	0x3dd416cf	0.10355913
27	0x3e2c17aa	0.16805902
28	0x3e55072e	0.2080352
29	0x3dc6dc7e	0.09710024
30	0x3dc0bb60	0.09410739
31	0xbde27e8e	-0.11059295
32	0xbea5dda2	-0.32395655
33	0x3def85a9	0.116954155
34	0x3e2db642	0.16964057
35	0x3d6a0340	0.057132006
36	0x3db85a4f	0.090016
37	0x3e8fabc2	0.28060728
38	0xbdec19f1	-0.115283854
39	0x3e86a763	0.2629958
40	0x3e8625d2	0.2620073
41	0xbe850cb4	-0.25986254
42	0x3db367ef	0.08760058
43	0xbe2ee622	-0.17079976
44	0xbe1b80e7	-0.15185891
45	0xbe98dc78	-0.29855704
46	0x3dce323a	0.10068174
47	0x3e431b86	0.19053468
48	0xbea3e233	-0.32008514
49	0xbe8806c2	-0.26567656
50	0x3e540af8	0.20707309
51	0xbeab5215	-0.3346106
52	0x3e4592cb	0.19294278
53	0x3e13ee61	0.14446403
54	0x3dd3cec1	0.103421696
55	0xbe8c2088	-0.2736857
56	0xbe77eeef	-0.2421224
57	0x3df68ed9	0.12038965
58	0x3e1a5181	0.15070154
59	0x3e218ba6	0.15775928
60	0xbdc8b82a	-0.098007515
61	0xbe419348	-0.1890384
62	0x3e321fdc	0.17394966
63	0xbe9154ac	-0.28384912
64	0x3e0f9a6f	0.14023755
65	0xbd6f6741	-0.05844808
66	0xbe173dfe	-0.14769742
67	0x3e286d66	0.16447982
68	0xbe3dc802	-0.18533328
69	0xbe809765	-0.25115505
70	0xbdfb344e	-0.12265836
71	0xbe3189e6	-0.1733776
72	0xbe179d94	-0.14806205
73	0x3ea2cb43	0.317957
74	0x3dcc6fee	0.099822864
75	0xbdf80191	-0.12109674
76	0x3d6d4916	0.05793103
77	0x3d62888c	0.055306002
78	0xbe0b5269	-0.13605656
79	0xbe45ad0e	-0.19304296
80	0xbdb5ed6d	-0.08883176
81	0xbdf1574c	-0.11784229
82	0x3e715808	0.23568738
83	0xbe3efeb0	-0.18651843
84	0xbda01dfc	-0.07818219
85	0x3e23d2d4	0.15998393
86	0x3da70839	0.08155865
87	0xbe000ad3	-0.12504129
88	0x3e3f91ef	0.18708013
89	0xbe81c61c	-0.25346458
90	0x3e16c7c5	0.14724644
91	0xbe1f2613	-0.15541868
92	0xbeaabe80	-0.33348465
93	0xbde18e0e	-0.11013423
94	0xbe350bb6	-0.17680249
95	0xbe0b7adb	-0.13621084
96	0xbe47b3c5	-0.1950217
97	0xbe1b92cf	-0.15192722
98	0xbde29993	-0.11064448
99	0x3dc8a69d	0.09797404
