hddm/torch_models/151a6c363ccc11ecbf89a0423f3e9b68_ddm_mic2_adj_weibull_no_bias_torch_state_dict.pt (torch, 129223 bytes, 9 tensors)

layers.0.weight f4 [100, 10]
000000 f8 9d 0a 3c 66 86 4b 3b a6 cd 20 3a 69 1e 24 3e
       0.008460514 0.003105545 0.00061341596 0.16027226
000010 83 26 07 bd 8c 81 d0 be 76 bd 7d 3e 64 b7 86 bf
       -0.032995712 -0.40723836 0.24779305 -1.0524716
000020 36 f3 df 3e dd 88 82 bc 24 e6 b6 3b 65 54 9f bb
       0.43740243 -0.015934402 0.005581634 -0.0048623555
000030 9a 48 4e bc e4 4b 95 be 60 6b c2 bd 2a 91 c0 3e
       -0.012590552 -0.29159462 -0.094931364 0.3761075
000040 2c 1b a7 bd 86 52 05 3d 08 b7 c7 be f0 9d 00 3e
       -0.081594795 0.032549404 -0.3900683 0.12560248
000050 04 6c c2 b9 e5 c2 38 ba 72 0e b6 38 d4 8d 8f bd
       -0.0003708304 -0.00070480845 8.681127e-05 -0.070094734
000060 c7 4e ca 3b a5 3e 62 3f 5d 4d 3f be db 55 11 40
       0.006173942 0.8837684 -0.18681855 2.2708652
000070 d6 9b 61 bf 0b 6e be 3b 05 7a 37 bf 84 02 2c bc
       -0.8812841 0.005811458 -0.7167056 -0.010498647
000080 9d 22 d0 bb 29 38 ae be c1 c0 2a bd 06 11 c5 bd
       -0.0063517825 -0.34027222 -0.04168773 -0.096223876
000090 35 64 06 bd 98 3d 0c 3c 3b e1 da 3d 44 82 f6 bd
       -0.03281041 0.008559607 0.106874906 -0.12036565
0000a0 de 89 d6 bc a5 82 a3 ba b9 c9 42 bb 6b 74 4b bd
       -0.026188787 -0.0012474848 -0.0029722287 -0.04967157
0000b0 59 39 16 3c 31 a6 5e 3f 77 9c 4f 3e 4d 40 62 bc
       0.009168946 0.8697234 0.2027453 -0.013809276
0000c0 2f e0 56 bf 46 c0 43 3c 26 ef a4 3b 52 1d 2f 3a
       -0.83935827 0.011947697 0.0050333915 0.0006680089
0000d0 cd d7 6d 3a 37 b7 2c 3b d1 f5 c1 bb 54 bd 96 ba
       0.00090729893 0.0026354322 -0.005919196 -0.0011500516
0000e0 7c e9 21 ba e5 84 3a 3b 00 1b 92 3a 05 07 c0 3b
       -0.00061764545 0.002846056 0.0011146963 0.005860212
0000f0 45 b0 57 bc 69 e6 7a 3f e9 64 10 3a 23 c6 a8 bc
       -0.0131645845 0.9800783 0.0005508201 -0.020602291
000100 55 db 15 bd 32 e0 fe 3c db 1c 58 bc 1d bb 83 bc
       -0.036586124 0.031112764 -0.013190473 -0.016080434
000110 e8 67 0c bd 17 0d bc 3f 96 70 0c bd b8 08 a4 ba
       -0.03427878 1.4691495 -0.034287058 -0.0012514805
000120 21 3e 58 3f 13 6d 9c 3c 57 8b 38 bd 04 a4 c5 3c
       0.844698 0.01909498 -0.04505476 0.02412606
000130 8f 92 02 ba e9 11 af bb c1 69 c7 bc 34 d5 60 be
       -0.00049809454 -0.005342711 -0.02434242 -0.2195633
000140 88 b4 0b 3e 60 42 0b 39 c8 07 bd 3c c1 01 c5 3e
       0.13643086 0.000132808 0.023075 0.384779
000150 30 92 43 3e 3e 40 34 bd c2 30 3d bd ec f9 20 bd
       0.19098735 -0.04400658 -0.046189077 -0.039300844
000160 14 13 31 3d 21 8e 63 be 6a 85 0c bf d9 d3 d5 3a
       0.043231085 -0.22222187 -0.54891074 0.0016313746
000170 cb 92 3b bb 7a 76 1d 3f 9b 8f e8 bd 4f 05 4d 3e
       -0.002862143 0.61508906 -0.113555156 0.20021556
000180 54 b8 ae 3c 9b 14 de bb 89 9b 45 be 97 2f 18 3e
       0.021328129 -0.0067773587 -0.19297613 0.14861904
000190 18 ae 26 3c 7e f0 37 3a cc cf 4f 3a d8 68 1d be
       0.010173343 0.0007016732 0.00079273875 -0.15372026
0001a0 01 c2 dd bc 67 21 88 3f 86 ec af 3d f2 cb 4e bd
       -0.027070047 1.0635194 0.08590035 -0.050487466
0001b0 32 4a 99 bf 33 0c 81 bc 24 29 8f 3b 16 4b 9d bb
       -1.1975768 -0.015752887 0.004368918 -0.0048002107
0001c0 26 8f 6b bb aa d1 c9 be 0c cc f9 bb 7d 89 39 3c
       -0.0035943477 -0.39417773 -0.0076232012 0.011324284
0001d0 16 e6 26 3f a7 93 95 bd 00 4f 97 bc c1 ee aa 3b
       0.65194833 -0.07303553 -0.018470287 0.00521645
0001e0 3a 08 f1 3d ac 70 09 3c 26 bc bd 3d 3b 0f 98 bd
       0.11769147 0.0083886795 0.09264402 -0.0742478
0001f0 9b e0 83 3e ad 95 52 bd 97 7c 91 3c 47 87 23 3c
       0.25757298 -0.051412273 0.017759604 0.009980983
000200 3d b1 7c 3d fd b5 fe be 8e 06 27 3c 8e 4d ff 39
       0.061692465 -0.4974822 0.010194434 0.00048695173
000210 f3 f9 93 bb 59 3e 5e 3e 83 f9 a9 3c c6 eb 8d bf
       -0.0045158803 0.21703471 0.02074886 -1.1087577
000220 c0 1b 82 3e df c5 d2 3e ff 6f 81 3f 71 f3 1c bd
       0.25411797 0.4116659 1.0112303 -0.0383181
000230 a1 d8 c8 bc ef b7 19 3d 5a b4 db 3c 81 5a c2 3e
       -0.02451736 0.03752893 0.026819397 0.37959674
000240 b9 25 ed bd e6 f0 86 3c 8b 8b 9b 3c 47 10 48 3d
       -0.11579461 0.016472291 0.018987438 0.04884365
000250 4b 2c 7f 3a ad d2 52 bc 9c b3 de bc 10 e6 bb 3b
       0.0009734078 -0.012867612 -0.027185254 0.0057342127
000260 d2 61 0b bc 40 49 28 3f 4e 7e 60 3d 1a 08 37 be
       -0.008507209 0.6573677 0.054807954 -0.17874184
000270 ad 3c 3f be 53 c8 5c be bb 23 86 3e f3 ee 1e 3d
       -0.1867549 -0.21560793 0.26199135 0.0388021
000280 5d ab e2 bc cf 3a 63 3a 12 c1 cd 3c e0 c4 e3 3e
       -0.027669603 0.0008668126 0.025116477 0.4448614
000290 87 33 e3 bf 49 12 71 3d 91 e1 26 3b 23 25 33 3c
       -1.77501 0.05885533 0.0025464038 0.010934147
0002a0 17 56 6f bd 1d 8a 9c bd 3f 84 aa bd 29 ab 22 bf
       -0.05843171 -0.076435305 -0.08326005 -0.6354242
0002b0 1d 70 63 3b 0c 89 f6 be 2e e8 6a 3e 88 7d 44 be
       0.0034704276 -0.48151433 0.22940132 -0.19188511
0002c0 80 e2 12 bd 92 1e ff bc 83 41 36 3e c0 1b b8 bf
       -0.03586054 -0.031142507 0.17798428 -1.4383469
0002d0 c6 9d 3b bb 14 79 1c 3c 4f 65 72 bb 3f fa 17 bf
       -0.0028627976 0.009550352 -0.0036986654 -0.5936622
0002e0 a5 71 45 3d e9 25 17 c0 8d 5e 19 3d 1a b8 e0 3c
       0.048204083 -2.3616889 0.037443686 0.027431536
0002f0 fa 09 4a 3d 2c 44 59 3c 06 9d 56 bc b0 53 2c 3b
       0.04932592 0.013260882 -0.013098961 0.0026294999
000300 b6 75 dc bb 7c 91 93 bc 0e 95 44 3e 4b 8e 25 bc
       -0.0067278994 -0.018013708 0.19197485 -0.010104726
000310 e6 19 d0 3d 9d 6a ad bd 6d e0 f2 3d 00 0e f5 3d
       0.1016119 -0.084676005 0.11859212 0.11965561
000320 a5 81 a5 3c 4f cd 73 3f f6 97 d6 bb b7 f8 cc b7
       0.02020342 0.9523515 -0.006548877 -2.4434512e-05
000330 b0 f1 91 3c 3c b9 1c 3c 85 b5 bc b9 bd 58 87 bb
       0.01781544 0.009565648 -0.00035993397 -0.0041304515
000340 27 26 16 bc d0 8b 33 be 47 f1 5e 3c 7e a0 17 bd
       -0.00916437 -0.17533803 0.01360733 -0.03701829
000350 ab 04 10 bb 71 f0 ea be c6 4c e2 3d ff a7 4b be
       -0.0021975439 -0.45886567 0.110497996 -0.19888304
000360 9b 75 a1 bc ad f8 47 bd c7 13 26 3e 3b 04 9d 3e
       -0.019709399 -0.04882114 0.16218482 0.3066729
000370 e5 04 a0 3c b9 12 1d 3b d2 c2 e0 3b 6b 71 b9 bd
       0.019533584 0.0023967458 0.006859162 -0.09054836
000380 92 9d 97 bd 34 a2 c0 be ef 7f 29 be 58 c5 f6 bc
       -0.07403101 -0.3762375 -0.16552709 -0.030123398
000390 12 24 c2 3e 4b 2a 0e be 6f e9 d2 3b 46 82 dc b9
       0.37918144 -0.13883321 0.006436519 -0.0004205873
0003a0 2d 00 6e 3b ee 58 5f 3e 1a 0a 90 be 83 e1 75 bf
       0.0036316023 0.21811268 -0.28132707 -0.9604723
0003b0 8e 0d 77 bc c4 ae 3b 3c f1 b3 78 3f 3b 27 af bd
       -0.015078915 0.011455242 0.9714957 -0.085524045
0003c0 00 0a e4 3c 01 df c1 bb a2 a2 fb bb e3 f8 6c 3e
       0.0278368 -0.0059164767 -0.0076792995 0.23141818
0003d0 50 c6 b9 3d da 40 2f 3d 9b a8 83 3c 16 ea 17 c0
       0.09071028 0.042786457 0.016071608 -2.3736625
0003e0 24 be d1 bd 2f cc 87 bd 3a 78 c1 bc c0 6e 70 ba
       -0.102413446 -0.06630742 -0.023616899 -0.00091717765
0003f0 b3 99 d9 39 d7 fc 12 bf 28 23 ca 3d ac cd f6 be
       0.0004150398 -0.57417053 0.09869987 -0.4820379

layers.0.bias f4 [100]
000000 15 c8 02 bf 61 01 b9 3e e9 5a dd 3e 97 e8 3a bf
       -0.5108655 0.36133865 0.4323342 -0.73011154
000010 b0 2b 01 bf 4f 55 9f 3b f7 7a 31 3f ec 49 7f 3d
       -0.50457287 0.0048624645 0.69328254 0.062326357
000020 64 cb d0 bd de ce 11 3e 24 ca db 3d 7e c0 e9 3d
       -0.10195044 0.1423907 0.10731915 0.11413668
000030 67 19 55 3f 0a 62 d0 be 8b b5 26 bf c3 f4 1a 3d
       0.83241886 -0.40699798 -0.6512076 0.03783108
000040 a8 33 0c bf c9 85 64 bf ed d5 28 bc e7 24 03 bf
       -0.5476632 -0.8926664 -0.01030491 -0.51228184
000050 e8 69 f1 be 14 fe 67 3e 38 c8 9a 3e 84 d8 a1 3e
       -0.47151113 0.22655517 0.3023088 0.316105
000060 40 88 ee be 38 fa 1d bf 28 3c 3f 3d db c2 93 3d
       -0.46588326 -0.6170993 0.04668823 0.072149
000070 70 0e f8 3e b6 16 d6 3e 38 8a 4f bf b1 c4 01 3f
       0.48448515 0.41814202 -0.8107028 0.5069075
000080 46 da f6 3d 66 8a c0 3e 5b 48 61 3c 44 6c b9 be
       0.12053351 0.3760559 0.013750161 -0.36215413
000090 0b 5a cd 3d ec 7a 5c bf 50 3e d6 be 18 1c f8 3c
       0.1002694 -0.86125064 -0.41844416 0.030286834
0000a0 f7 1b e4 be 4d a9 5d 3f 96 cb 73 3f ce ef 85 bf
       -0.44552585 0.8658646 0.9523252 -1.0463808
0000b0 c6 7a 53 bf f6 8c 50 3f 14 04 88 bb d1 c0 7e bd
       -0.8260921 0.8146509 -0.004150877 -0.062195603
0000c0 f0 0f c7 be dd 95 9b 3b 88 02 f5 3e 28 29 09 be
       -0.38879347 0.0047480897 0.47853494 -0.13394606
0000d0 c7 9d e4 3e 02 dd a9 be 01 87 50 be 06 5f f4 3e
       0.44651625 -0.33176428 -0.20364 0.47728747
0000e0 cd e4 7f 3e 28 4a 0e bc 03 24 3c 3f a9 03 31 3e
       0.24989624 -0.008684672 0.7349245 0.17286552
0000f0 05 50 0c 3e 29 c5 d5 be b3 ce 75 3d 8a 62 be 3c
       0.137024 -0.41751984 0.060011577 0.023240346
000100 2e 2a b0 be 44 71 2b 3f 6d fb c7 3b 4a 27 96 3d
       -0.3440718 0.66969705 0.0061029703 0.073317125
000110 b8 42 7c 3e 21 a5 23 3f de 11 91 bd 07 63 ac be
       0.24634826 0.6392384 -0.07083486 -0.33669302
000120 1d 68 5c 3f 28 95 e2 3f 4e 24 e7 be ac 08 9d bf
       0.86096364 1.7701769 -0.45144886 -1.2268271
000130 1e 46 42 3e 4c 9e 10 be 8b 8c 94 3d 58 d8 2a bd
       0.1897206 -0.14122885 0.07253369 -0.041710228
000140 46 7f 88 3e b8 68 c3 be 63 bb fb bd 99 90 88 3f
       0.26659602 -0.38165832 -0.122916006 1.0669128
000150 ac ce 20 be f0 4e 95 3f 5e 24 ed 3e fb 5e 7e 3d
       -0.15703839 1.1664715 0.46316808 0.0621023
000160 4f 40 a0 be fe 18 8d be 63 5a 97 be 13 dc 71 3b
       -0.31299064 -0.2755813 -0.29561147 0.0036904856
000170 e8 6e e2 bc db 7e 3e 3f f7 69 17 3f 1f b0 99 3e
       -0.027640775 0.74412316 0.59146065 0.30017182
000180 29 51 85 be 16 6f 10 bf ea 71 e3 be f9 4d 13 3e
       -0.26038483 -0.56419504 -0.44422847 0.14385213

layers.2.weight f4 [100, 100]
000000 36 96 d1 bc 5c f7 e6 bd c1 36 5f 3e 01 5f 65 be
       -0.025584321 -0.11277649 0.2179823 -0.22399522
000010 a0 fb b6 3d df 90 88 bb 43 eb a2 bd b8 3c 2b 3d
       0.089347124 -0.0041676606 -0.07955029 0.041805953
000020 8c 92 2b 3e 8c a4 00 bd 64 a1 2d 3e 2c c3 ae bd
       0.16755122 -0.031406924 0.16956097 -0.0853332
000030 92 e8 3c bd 07 ff 7c be 42 fe b4 3d 3a f6 8a 3d
       -0.046120234 -0.2470666 0.08837558 0.06785245
000040 a3 f2 ef bc 52 f7 8e 3d 4c a2 ae bd ff 65 24 3e
       -0.029290503 0.06980766 -0.085270494 0.16054533
000050 75 8a fd 3c 48 bb bf bd f4 71 e3 bd f1 ac f4 bd
       0.03094981 -0.09361893 -0.11105719 -0.119470485
000060 94 79 0e bd 77 90 84 be 9f 1b 92 3d 01 bf 81 bb
       -0.034783915 -0.25891468 0.071341746 -0.003959537
000070 e9 3d 76 3d cb dc fd 3c de 67 37 3e ba 5d 99 bc
       0.060117636 0.030989071 0.17910716 -0.01872145
000080 be dc 96 3d ae 91 eb bc 61 0c bc 3d 76 f6 a5 bd
       0.07366322 -0.028755989 0.091820486 -0.08103649
000090 40 69 7b 3d e5 e1 39 3e 00 5b 14 be bb f0 0c 3e
       0.06137967 0.18152578 -0.14487839 0.13763706
0000a0 62 20 de 3d 63 ea 37 bd 74 4b 87 bd 74 41 7e 3d
       0.1084602 -0.044901263 -0.066061884 0.06207414
0000b0 9a ba 6f 3e 71 d6 d5 be 51 cb bb 3d 8d 60 b3 3d
       0.23411027 -0.41765168 0.09169639 0.0875865
0000c0 b5 5b 08 3e 6c 05 6f 3e 7c d7 dc bd a9 1f 9d bd
       0.13316233 0.23341912 -0.10783288 -0.07672054
0000d0 8e da 08 be 11 be 21 3c 90 c5 6f 3c 03 4c 06 bb
       -0.13364622 0.0098719755 0.014634505 -0.0020492084
0000e0 2f ae e4 bd 2b 2e 05 bd 20 14 99 3d 0a 29 f7 bb
       -0.111660354 -0.032514732 0.07474542 -0.007542734
0000f0 3b 37 f8 bd 57 50 63 be fb 29 38 3e ce 63 8d 3d
       -0.121199094 -0.22198616 0.17984764 0.06903802
000100 54 9a 9a 3e b8 ba 07 3c 51 58 44 be 0c 73 16 be
       0.30195868 0.008284263 -0.19174315 -0.14692324
000110 1f dd c2 3d 2a c2 43 3d 11 0b c8 bd 7e 35 09 3e
       0.09514832 0.04779259 -0.09767736 0.13399312
000120 7e 04 ef 3d cc 51 8e be fc 4e 90 bd bb 09 67 be
       0.11670779 -0.2779678 -0.07046315 -0.22562306
000130 2a c2 cb be 4b 94 27 be 02 7c 66 bd 28 a1 fd 3d
       -0.39796573 -0.16365163 -0.056270607 0.12384254
000140 9c ab 67 3d 7d b1 12 3f 6a 9b 7a bd 55 38 62 be
       0.056560144 0.57302076 -0.06118337 -0.22091801
000150 33 0a ad 3d 75 58 6a be 65 55 84 3e b4 ed cf 3d
       0.08449211 -0.22885306 0.258464 0.1015276
000160 17 53 0a 3d a3 2c 90 be 4c 36 a5 3e 41 7f 1e bb
       0.033770647 -0.28159055 0.32267988 -0.0024184736
000170 ea 2e 90 bd 12 79 de bd 56 70 69 be 59 dd 8e bd
       -0.07040198 -0.10862936 -0.22796759 -0.069758125
000180 23 4b c9 3c ba 8a 68 3c 32 95 90 3e cb 05 5c 3e
       0.02457196 0.014193231 0.28238827 0.21486585
000190 de e0 23 bd 85 5a 83 be da ce 93 3e a1 aa 97 bf
       -0.040009372 -0.25654998 0.28868753 -1.1848947
0001a0 75 9c 0d 3e d3 4f 6a 3b c5 b4 00 bf 31 da b4 3e
       0.13829215 0.0035753145 -0.5027583 0.35322717
0001b0 6f 41 37 3c 94 31 2a bf 17 7b b3 be d6 e4 44 3d
       0.011185034 -0.664819 -0.35054848 0.048069797
0001c0 f3 70 0b 3e c8 00 b4 3d 42 93 91 be 0f 71 9f be
       0.13617305 0.087892115 -0.2843266 -0.31140944
0001d0 26 64 ee bd cd 0d 8a 3e 04 98 01 bd fe 05 89 be
       -0.116401955 0.26963654 -0.031639114 -0.26762384
0001e0 73 f3 2e 3f fc a7 2b be 12 85 33 3e 3f 17 8d bc
       0.68340224 -0.167633 0.17531231 -0.017222999
0001f0 8e 6d 21 3e 4f a2 db 3d e2 9b 08 bd 06 26 fd bd
       0.15764448 0.10724317 -0.033351786 -0.12360768
000200 5a 64 e5 3e 17 67 84 3d 1c eb 9d bd f8 31 7b 3a
       0.44803125 0.06464975 -0.07710859 0.0009582336
000210 a3 92 09 3e ad 97 81 be da 67 9d bd da 6b bb bc
       0.13434844 -0.25311032 -0.07685824 -0.022878576
000220 bc 93 d1 3c d8 7e 87 be 04 3b ab 3d dd 0b 0b 3d
       0.02558314 -0.26463962 0.08360866 0.03394686
000230 a7 c9 12 3d 13 90 02 bf d7 db 36 bf e4 42 2b 3f
       0.035836842 -0.5100109 -0.714292 0.6689894
000240 30 e0 21 3f 1c 7a d4 3d b9 29 8b 3c 2b 98 82 3e
       0.6323271 0.10374853 0.016987668 0.2550672
000250 70 ac a4 3e 56 0b 70 3d f0 3d 71 3d 04 eb 56 3e
       0.3216281 0.05860456 0.05889696 0.20988089
000260 e8 f1 be bd 9a ef b3 bd 6b 34 d3 bc 45 8c c2 be
       -0.09323484 -0.08785935 -0.02578183 -0.37997642
000270 f1 18 64 3e d1 f3 93 3e 47 74 53 bc 4c 96 43 be
       0.2227514 0.28896955 -0.012906141 -0.19100302
000280 04 a2 94 3d dc ec 74 be ed 0c 9a 3e 03 15 07 3e
       0.072574645 -0.2391848 0.30087987 0.13191609
000290 03 d5 a3 be de cb 21 be 04 e0 21 3d a3 26 7c bd
       -0.31998453 -0.15800425 0.03952028 -0.061560284
0002a0 77 20 09 be 8c 9e 9d be 8d 6f 9c bd e6 63 bc 3c
       -0.1339129 -0.30785024 -0.07638464 0.022996854
0002b0 2e 65 d0 be bc fd a0 be 39 94 a0 be 0f e1 4a bf
       -0.40702194 -0.31443584 -0.31363085 -0.7924966
0002c0 b3 39 c1 bd b0 ef 85 3e b6 76 9b 3d f5 dc 92 3d
       -0.094348334 0.2615943 0.07591002 0.071710505
0002d0 ee a4 00 be 89 50 8e 3e 73 7d 9c be 2a 7f 64 bd
       -0.12562916 0.27795818 -0.3056446 -0.055785336
0002e0 19 82 1a 3d 7c bc 21 be 5d b0 3b 3d c4 54 f8 3e
       0.037721727 -0.15794557 0.04582249 0.4850217
0002f0 d4 ce 79 bb f4 df bc bd e6 42 57 3e e2 18 b7 bb
       -0.0038117664 -0.09222403 0.21021613 -0.005587683
000300 f8 0f 8b 3e 1f ce 8e be 55 41 e4 3c b0 df ab 3e
       0.2716062 -0.27891633 0.027863184 0.33569098
000310 f2 6e d8 3d 8d 8d 22 3e 50 cf a6 3e ca 56 ef bc
       0.10568036 0.1587431 0.32580042 -0.029216189
000320 9d fc 74 bd ed 57 4c 3d 1d 68 e6 be 23 80 3f 3e
       -0.059811223 0.04988854 -0.45001307 0.18701224
000330 0f ee fc bd a6 2d f3 bc b8 39 40 bd c8 1a 17 bf
       -0.123500936 -0.029684853 -0.046930045 -0.5902524
000340 48 a9 09 3f 05 ee bd be 35 df 04 be e7 94 8a 3c
       0.5377393 -0.37095657 -0.12975772 0.016916705
000350 a9 c8 88 3e ec 0e f7 bd 76 08 e6 3d 20 ef 42 3e
       0.26715592 -0.12063393 0.112320825 0.19036531
000360 32 7e 3d 3e 12 21 cd 3d c2 53 7f 3d 32 bb cb 3c
       0.18505171 0.10016073 0.062335737 0.024869535
000370 7b ac 95 3f 2e be 93 be 27 da c3 3d b7 44 a1 3d
       1.1693262 -0.28856033 0.09563094 0.078744344
000380 e2 57 8c 3e da 78 00 3e 82 36 ad 3d 9b 75 0e be
       0.274108 0.12546101 0.08457662 -0.1391205
000390 35 ae 9b 3d 0e af 0c 3e 08 a6 81 be 00 99 86 3d
       0.07601587 0.13738653 -0.25321984 0.06572151
0003a0 bf 8b d3 3e 5b 59 65 3d 78 5c 2a be b5 c8 6e bd
       0.41317555 0.05599342 -0.16636837 -0.058296878
0003b0 6b 99 2c be 26 c7 b9 3e 1c 4c 23 be cf 80 61 3e
       -0.168554 0.3628475 -0.15947002 0.22021793
0003c0 b7 bc 92 bd 05 01 cf 3d c5 10 e8 bb 5a 3b 74 3f
       -0.07164901 0.10107616 -0.007082077 0.95403063
0003d0 35 b9 3a be 64 f2 c8 3d 6a 83 1a 3e 06 d8 18 be
       -0.18234713 0.09811857 0.15089193 -0.14926156
0003e0 9e 51 7e be bb 26 c7 bc f8 02 cc be b6 05 25 3b
       -0.24835822 -0.02431046 -0.39846015 0.0025180406
0003f0 4b 8d 81 be 54 cc 11 bd 5d e4 a8 3d 35 70 54 bf
       -0.2530311 -0.035595253 0.08246682 -0.82983714

layers.2.bias f4 [100]
000000 7f 20 d3 3c 5b a9 af bd 3e e2 9b be ff 0a b6 3d
       0.025772331 -0.08577224 -0.30446047 0.08888816
000010 72 c4 9b 3e 42 1f a7 bd 56 5f c3 3d 49 71 11 be
       0.30423313 -0.08160259 0.09539668 -0.14203371
000020 08 15 b4 bd f2 3d a6 be 10 15 35 3e a0 6e 42 bd
       -0.08793074 -0.32469136 0.17683816 -0.04746878
000030 43 1c 10 be c9 96 ea 3d 4b 76 b5 3d 1b c6 c1 bb
       -0.14073281 0.11454541 0.08860453 -0.0059135086
000040 47 73 b4 3d 6b 87 c2 be 32 82 5a be b7 5b 74 3e
       0.0881105 -0.3799394 -0.21338728 0.23863111
000050 0e bd 97 be 38 a2 14 be 9f 91 4c 3e 66 b3 42 ba
       -0.29636425 -0.14515007 0.19977425 -0.0007427245
000060 f8 02 87 3d af 55 4f be 98 72 a2 3e f3 ae 19 bf
       0.06592363 -0.2024753 0.31728053 -0.60032576
000070 a6 90 ad 3d fd e7 58 3e 59 06 c0 bd 7e 9f ce be
       0.08474855 0.21182247 -0.09376211 -0.40356058
000080 9b e0 77 3d 9f 9d 06 3e b2 a2 2c 3e d5 aa 28 bd
       0.060516935 0.13146065 0.16858938 -0.041178543
000090 c2 f9 f9 3d 7c 11 29 be b3 da 22 bc 9b ab b4 bd
       0.12205841 -0.16510576 -0.009939837 -0.08821794
0000a0 5a 5f c3 3d b7 b5 03 bc 93 c4 d3 3d 5f 8f b3 3c
       0.09539671 -0.00803893 0.10340228 0.02191895
0000b0 36 f9 5d 3e ba 8e b9 3d 53 a5 95 3e 8f 90 db bd
       0.21677098 0.09060426 0.29227695 -0.10720932
0000c0 25 10 d6 bd 84 e3 0c bf 5c 2a 58 ba b7 30 af be
       -0.10452298 -0.5503466 -0.0008246058 -0.34216854
0000d0 d6 1a 84 be d8 11 ae bd ef a1 e8 3d ed ed 68 3d
       -0.25801724 -0.08499497 0.113590114 0.05686753
0000e0 8e 9c 43 be e9 0a 56 3d 5c 75 d0 3d 21 ce 93 bc
       -0.1910269 0.0522565 0.101786345 -0.018042626
0000f0 2c d9 61 3e ca 74 ce ba cc ea 36 3e 11 bc ba 3e
       0.22055501 -0.0015751359 0.17863005 0.36471608
000100 c7 de d6 bd 66 38 90 bc ae 77 10 bf ac 63 ac 3d
       -0.1049171 -0.017605018 -0.56432617 0.084174484
000110 c4 cb eb 3d f2 6e 88 3e 34 a0 3e bf c2 a3 48 be
       0.115134746 0.26647145 -0.744632 -0.19593719
000120 d7 38 f4 be d1 86 19 3e 1f 12 d2 bd fb a8 35 3e
       -0.47699615 0.14992835 -0.102573626 0.17740242
000130 78 b6 cc 3e 41 0e ef 3c 1b 7d c4 3d a4 06 9f bd
       0.39982963 0.029181601 0.095941745 -0.077649385
000140 ba fa 99 be a6 88 df be d1 a6 46 3e 94 67 2f 3d
       -0.30074102 -0.43658942 0.19399573 0.04282339
000150 0f 17 0d 3e 5d 66 00 bf bf cb 3e 3e 15 5e 95 bd
       0.13778327 -0.50156194 0.1863241 -0.07293335
000160 af 88 40 3d b3 b8 65 3e 90 52 09 3e 35 70 6d bd
       0.04700535 0.22433738 0.13410401 -0.057968337
000170 70 cc 57 3d 20 ee b4 3e 97 16 aa be 3d 47 7a be
       0.0526852 0.35337925 -0.3322036 -0.24441238
000180 03 d0 30 3e b8 6e c8 3c 77 26 81 3e dc ed 0a be
       0.1726685 0.024466857 0.2522466 -0.13567299

layers.4.weight f4 [100, 100]
000000 25 84 a4 be 54 67 10 be 65 35 03 be 40 34 1b 3e
       -0.32132068 -0.14101917 -0.12813337 0.1515665
000010 e0 9a 8e 3b c0 3c 8a 3e 43 a7 ee 3d 6d bd a7 bd
       0.0043519586 0.26999474 0.116529964 -0.08190427
000020 24 15 1c 3e c6 0f 1b 3f fc 4a 8b 3b 0e f4 04 3f
       0.1524244 0.60570943 0.004250882 0.519349
000030 e6 a6 01 bc 4c 0f 29 3c 1a 28 78 be 51 94 c3 3e
       -0.007913327 0.010318588 -0.24234048 0.38199094
000040 ff 21 11 3d 93 9b e2 bd 69 c3 36 3e f9 b9 31 bd
       0.03543281 -0.1106483 0.1784798 -0.043390248
000050 1d 3b 2a be 0f 91 20 bd cc 54 f1 bd 70 3c 8d be
       -0.16624112 -0.03920084 -0.11783752 -0.27585173
000060 ba dc f2 bd e1 61 d4 3c 24 0c 57 3e 96 f6 3f bc
       -0.118585065 0.025925579 0.21000725 -0.0117165055
000070 b5 88 33 be a0 fb 39 3e 1a 6e 93 be a9 fa f5 bd
       -0.17532618 0.18162394 -0.28794938 -0.120107
000080 24 50 81 3e ef 13 00 bf 86 7e 01 be f6 fb 8b 3d
       0.25256455 -0.50030416 -0.12645921 0.06835167
000090 d8 d4 1c be 4f 44 0a be 53 9d 37 bd 76 b4 7e 3e
       -0.15315568 -0.1350262 -0.04482777 0.24873528
0000a0 1a 72 2c be 63 4f fa be 03 04 01 bd 94 06 82 bd
       -0.16840401 -0.48888692 -0.031497966 -0.06348911
0000b0 27 32 d6 3e af 7c c1 3d d4 ad 5d 3e 46 18 33 3d
       0.41835138 0.0944761 0.21648341 0.04372432
0000c0 e5 08 a1 3d 32 84 c3 bd bb 4c 35 be 8c ca 22 be
       0.078630246 -0.09546699 -0.17705052 -0.15897578
0000d0 35 15 c2 3d 2d 1c a7 bd ee 8c 8a 3e 66 4a f2 bd
       0.09476701 -0.08159671 0.27060646 -0.118305966
0000e0 94 3a 3f 3d 49 84 7b 3e e3 c7 76 3e e6 cc 4b 3e
       0.046686724 0.24562182 0.24099688 0.19902381
0000f0 8e d6 54 be 22 53 21 be 69 89 10 3e 03 59 58 3e
       -0.20784971 -0.15754369 0.14114918 0.21127705
000100 65 c9 67 3d 77 4a 95 3e 20 b7 29 bd fd a4 4c 3d
       0.05658855 0.29158375 -0.041434407 0.049962033
000110 a9 90 0d be 0e f5 65 3c 58 52 ec 3b e0 ca 1c 3f
       -0.13824715 0.014035476 0.0072119646 0.6124706
000120 67 86 2c bd 9a 80 26 be de 4e 22 be 3a 7d 6a 3d
       -0.042120364 -0.16259995 -0.15850398 0.05724833
000130 e8 a3 5d 3e 56 ef 84 bd 86 db 07 3e 03 91 a9 3e
       0.21644557 -0.06490962 0.13267335 0.33118448
000140 bc c0 27 be 61 97 a6 bd 7b fe fb be af c0 81 3e
       -0.16382116 -0.08134342 -0.4921759 0.25342318
000150 be c0 26 be 4b 1e 52 3b 67 a5 65 3e b7 05 e3 bd
       -0.16284463 0.0032061513 0.22426377 -0.110850744
000160 67 cf ed 3e d7 a3 4d be e2 d1 9f be 00 fd 94 be
       0.46447298 -0.20082031 -0.31214815 -0.29099274
000170 86 38 04 3e 7b 20 59 3e 1d 2e 3b bd 71 3e 7a be
       0.12912187 0.21203797 -0.045698274 -0.24437882
000180 e2 ea 5d bd 26 ba c1 3e ad bf 42 3e ee 45 29 3e
       -0.05417908 0.37837332 0.19018431 0.16530582
000190 ed b3 61 3d 2a 09 07 3e 1f 2b 53 bd 60 73 9e 3c
       0.05510323 0.1318709 -0.051554795 0.019342124
0001a0 fd 82 11 bd 98 94 52 3c 15 84 e6 bd c5 ca d5 3d
       -0.03552531 0.01285281 -0.112556614 0.10439066
0001b0 19 d2 e4 bd 36 b7 94 3d 28 c9 61 be e6 e7 da 3e
       -0.111728854 0.07261507 -0.22049391 0.4275505
0001c0 6c 88 9e bd b5 39 dd 3d fa 87 b4 be 1a 91 d1 3c
       -0.07740864 0.10802022 -0.35259992 0.025581885
0001d0 83 9d 8a 3d 02 02 ae 3d fb fb 1c be 5d a5 75 3e
       0.06768324 0.08496477 -0.15330498 0.23988862
0001e0 6f 5d 15 ba 35 ca a0 bd 27 50 c9 3a 12 2f 71 bd
       -0.00056978216 -0.07851068 0.001535897 -0.05888278
0001f0 9b 07 ce 3d 35 41 bd be 4f a9 cc 3c 9f 4d 87 3e
       0.100600444 -0.36963812 0.024983076 0.26426408
000200 e8 66 f2 bc 20 6d 53 be bd d8 27 bf c8 42 b1 bd
       -0.029590085 -0.20647097 -0.6556509 -0.08655316
000210 4c 2d 8c 3d 7b a8 94 3d b5 6e 5f bb 23 d7 f8 bd
       0.06844577 0.072586976 -0.0034093086 -0.12150409
000220 f8 68 55 be 07 e9 5c 3c ec d2 87 be 1e 36 c2 be
       -0.20840824 0.013483292 -0.26528108 -0.37931913
000230 38 68 ef 3b 98 d8 e1 3d e1 f5 c3 bd 43 a1 c7 3e
       0.007306125 0.1102764 -0.09568382 0.3899022
000240 35 bb 1c be fa 4b 4d 3e 4f 0d 33 be 64 63 57 3d
       -0.15305789 0.20048514 -0.17485546 0.05258502
000250 3f 66 4f be 64 3d 4d 3e 5a 57 53 bd c8 85 a2 bd
       -0.20253848 0.2004295 -0.051596977 -0.07935673
000260 43 b9 39 be 0e 57 29 bf ff d5 bd bd a6 af 15 bd
       -0.18137078 -0.6614846 -0.09269332 -0.036544465
000270 0a f7 30 be 5a 74 b6 bd f9 9f 44 3e 15 36 22 3e
       -0.17281738 -0.08908911 0.1920165 0.15840943
000280 6f 96 95 bd 46 49 2a 3e 10 3f 59 be ca 6f 1e be
       -0.073040836 0.16629514 -0.21215463 -0.15472332
000290 0d 27 66 bd 93 ec 18 be c5 db 9e bd d9 4b dd 3d
       -0.056189585 -0.14933996 -0.077567615 0.108054824
0002a0 1d 4e 1b 3e 76 fc 21 be 68 59 2e 3e c7 26 32 3c
       0.15166517 -0.15818962 0.17026293 0.010873503
0002b0 a6 b7 f0 be 0a 60 6e be c4 a7 da 3e 7c a5 20 bc
       -0.47015113 -0.23278823 0.4270612 -0.00980508
0002c0 1f 98 61 be db 69 c9 3d 0b 60 20 be ca 86 16 3e
       -0.22030686 0.098346435 -0.15661637 0.14699855
0002d0 a1 25 d3 3e 02 e5 9b 3d c8 c6 b3 3d 9d 82 06 be
       0.41239646 0.07612039 0.08778149 -0.13135763
0002e0 68 28 2a bd c5 99 a8 3d f0 d4 cc bb 62 49 46 3c
       -0.04154244 0.08232454 -0.00625097 0.012102457
0002f0 89 a5 67 3e c6 88 47 bd 1d 6f f6 3d 5c fd e1 3d
       0.2262174 -0.04871442 0.12032912 0.110346526
000300 c8 97 bf 3d 7a 30 b7 3d 2b 4b d2 3e 11 1e 99 3b
       0.09355122 0.08944793 0.41072974 0.0046727736
000310 2c d5 b8 3d a8 e1 8b bd 72 c3 bf bd 3e ef 97 3d
       0.09025034 -0.0683015 -0.0936345 0.07418679
000320 04 ae 7d 3e 13 22 80 3e e6 bf d7 bd 2e d7 c1 bd
       0.24773413 0.25025997 -0.105346486 -0.094648704
000330 bc ad fb bd 7c 0d 06 3e e6 2b 76 3d 8a dc 7e bd
       -0.122889966 0.13091081 0.06010046 -0.06222204
000340 a6 6d eb 3d 17 44 34 3e 68 d4 ea 3d 98 24 77 be
       0.11495523 0.17604099 0.114662945 -0.24135053
000350 06 f0 57 3d c3 69 a7 be 68 34 d5 bb 9b f4 04 be
       0.05271914 -0.32697877 -0.0065064915 -0.12983935
000360 0e 93 3f be 6c 6e 1a 3c 52 ad 16 3e 20 ae b9 be
       -0.1870844 0.009425741 0.14714554 -0.3626566
000370 2d 74 1b 3e 8e 2a dd 3b 76 f9 2c 3d 33 fd 32 3e
       0.15181036 0.0067494577 0.042230092 0.174794
000380 a4 14 f9 bd 96 d6 6d 3c b5 43 68 3d 3f 12 96 bd
       -0.1216214 0.014516493 0.056705195 -0.07327699
000390 e3 60 86 bd 58 b6 7b 3d da 28 81 3e e1 f9 81 3e
       -0.065614484 0.061453193 0.2522648 0.25385955
0003a0 1e ee fd 3d be f3 83 be 19 5d 55 3e c1 e6 25 bd
       0.12398933 -0.25771898 0.20836295 -0.040503267
0003b0 4c f0 5d bd e1 b2 7d be 60 5a 3b 3e f3 6a 7e 3e
       -0.054184243 -0.24775268 0.18296194 0.24845485
0003c0 95 41 22 be f2 02 aa 3d 6a 67 ce 3d b1 85 35 3c
       -0.1584533 0.08301343 0.100783184 0.011079238
0003d0 68 37 91 3e 90 1c ea 3d b1 5a 16 bd 2c de 3c be
       0.28362584 0.11431229 -0.036707584 -0.18444127
0003e0 54 62 d4 3e a5 50 53 be ec db 45 3c de 25 9c bd
       0.41481268 -0.20636232 0.012076359 -0.0762441
0003f0 27 9c 76 bd a6 40 23 be 47 78 84 3e 52 51 d5 3d
       -0.060207512 -0.1594263 0.25873014 0.10415901

layers.4.bias f4 [100]
000000 6e 7e 97 3c e0 f2 67 be ff 98 27 3e 65 e5 7f bd
       0.018492904 -0.22651243 0.16366957 -0.062474627
000010 6e 00 8d 3e 23 8b c5 3d 6d 34 d0 3a 8d ff c9 bd
       0.2753939 0.09645679 0.0015884765 -0.098631956
000020 e7 3a 61 3e 33 f4 df 3e 78 f6 bf 3e 9a 37 bb be
       0.21995126 0.43740997 0.37492728 -0.36565858
000030 7d 7b ea 3c b6 bb 24 3c 32 be 83 3e c0 ce 93 be
       0.028623337 0.010054519 0.25731045 -0.28868675
000040 3a d0 35 3d 86 19 16 3d 2d 4a 15 be 50 7c 04 be
       0.044388033 0.036645435 -0.14579077 -0.12938046
000050 ac 08 dd bd 0a f3 04 be 07 fb e4 be 07 e5 5c be
       -0.1079267 -0.12983337 -0.4472277 -0.21571742
000060 46 24 89 3e ed 97 ca bd ce 34 4a bb 01 d0 65 3c
       0.26785487 -0.09892259 -0.0030854228 0.014026643
000070 41 d2 78 be 85 34 79 bd 16 dd 6b bd 23 a8 07 3e
       -0.24298956 -0.060841102 -0.05758389 0.13247733
000080 97 f6 88 3d 31 47 2a be 31 53 47 be 88 dd 54 be
       0.06687658 -0.1662872 -0.19465329 -0.20787632
000090 84 da e1 3e 6d 50 af ba 4f fe 7f 3e da 25 ed bb
       0.44112027 -0.0013375409 0.24999355 -0.0072371783
0000a0 ab 12 a2 3e 83 12 bd 3e 6a 4c 2e 3e c4 ba 42 bd
       0.31654868 0.36928186 0.17021337 -0.047541395
0000b0 e6 b4 49 3e 98 35 86 be 21 e1 65 bd a5 09 a4 3c
       0.19697914 -0.26212764 -0.056122903 0.02002413
0000c0 1d f2 ba 3e 4f cd e4 3d 34 f3 46 be d3 49 22 3e
       0.36512843 0.11171972 -0.19428712 0.15848474
0000d0 32 ec a1 3d 48 07 59 3e 80 85 45 be 4d 84 94 3e
       0.07906379 0.21194184 -0.19289207 0.29007187
0000e0 df f3 04 3f fb 23 50 be a3 cc e9 3c 3f 97 18 be
       0.5193462 -0.20326225 0.028539961 -0.14901446
0000f0 de fd 0f 3e a8 d5 e0 bd 93 02 29 3d da 9d 87 3d
       0.14061686 -0.10978252 0.04126222 0.06621905
000100 cf 41 29 bf 96 cc 4f 3e 3b b9 49 be eb 6f 1d be
       -0.6611604 0.20292887 -0.19699566 -0.15374725
000110 b8 1e 28 3e a9 d4 2c 3e 81 8b a7 3e 2e 81 93 3e
       0.16417968 0.16877998 0.3272362 0.28809494
000120 04 20 59 be 9f 9e 97 bd d6 c1 26 3e 2b 62 12 3e
       -0.21203619 -0.074033014 0.1628488 0.1429526
000130 4b 00 48 be 9b 1a d4 bd c3 df 89 3e b8 7b 08 3e
       -0.19531362 -0.10356637 0.2692853 0.13328445
000140 55 d6 33 bd be 7c 84 3e 72 6e 90 bd 03 84 a1 3c
       -0.043905575 0.2587642 -0.07052316 0.019716268
000150 f4 79 ef 3d e9 3c 0b bf 96 8c e1 3d b5 9c 42 3d
       0.116931826 -0.54389817 0.11013143 0.04751273
000160 aa 22 9e bb 31 d3 0a be 92 20 8d 3d 05 d3 bb 3d
       -0.0048259096 -0.13557126 0.06890978 0.09171108
000170 e6 0f 1d 3a 5d c7 de be b8 96 ee bd 24 07 2b be
       0.0005991444 -0.43511477 -0.11649841 -0.16701943
000180 c3 4a b9 bc c1 f8 c5 bd 5f e1 2c be ab fd 88 3d
       -0.022618657 -0.09666587 -0.16882847 0.06689008

layers.6.weight f4 [100, 100]
000000 67 72 3a 3f b1 f5 68 bf 1f d4 21 be 3f d7 de 3d
       0.72830814 -0.90999895 -0.15803574 0.10880899
000010 b8 62 0c 3f 1a 87 3e 40 e3 32 11 40 e6 0b f4 bf
       0.5483813 2.976996 2.2687309 -1.9066131
000020 fe 60 71 3d 99 71 97 3e 35 3c c4 3f db f8 90 3f
       0.05893039 0.29578856 1.5330874 1.1325945
000030 e3 d0 b0 bc f3 e2 87 be 15 aa 97 bf e4 60 d4 3f
       -0.02158398 -0.26540336 -1.184878 1.6592069
000040 b6 38 6e 3c 50 46 93 bd 46 b0 08 c0 c3 43 de bf
       0.014539888 -0.071911454 -2.1357589 -1.7364429
000050 01 96 dd be 03 39 a5 bf a0 51 a7 bf 8a e9 38 c0
       -0.43278506 -1.2908024 -1.3071785 -2.889254
000060 ca 20 3e 3f 3b 09 a3 bf 1f c8 ff be ae 47 04 bf
       0.7426878 -1.2737192 -0.49957368 -0.51671875
000070 31 8c b7 be 3a 3d 7f 3e bd 2e 0f 3f 07 c5 3c 3e
       -0.35849145 0.249257 0.5593069 0.18434535
000080 20 b0 86 be bb 4f 4c bf c5 3a 56 bf 72 2d 93 3c
       -0.26306248 -0.7980916 -0.83683425 0.017966006
000090 57 c6 32 3e ba c0 83 40 49 21 86 3f a0 21 14 40
       0.17458473 4.117276 1.0478908 2.3145523
0000a0 e2 96 85 3e b7 3f a9 3d 42 4a 17 be 67 be d3 be
       0.26091677 0.08264106 -0.14774421 -0.41356203
0000b0 e2 8a 05 40 08 92 a5 be 9b f3 52 bf 56 b9 48 3f
       2.0866017 -0.32337976 -0.8240296 0.784078
0000c0 6e b4 a3 3f 6a 4e dd 3e 96 24 20 bd 76 7e 75 bf
       1.2789438 0.43223888 -0.03909739 -0.9589609
0000d0 04 bf 08 40 a9 e8 2c be cd e7 03 bf ab ba 77 3e
       2.1366587 -0.16885628 -0.51525575 0.24192302
0000e0 5a 04 8a 3f 79 0f d5 3e ed b8 84 bf ea be ff 3d
       1.0782578 0.41613367 -1.0368935 0.12487586
0000f0 df 94 ce bc 55 e3 f9 bf c5 f0 8e 3f 9b 1e 2e 40
       -0.025217472 -1.9522501 1.1167227 2.720618
000100 e0 77 0f bf 37 29 01 c0 da db 3f 3f 8c 28 54 c0
       -0.5604229 -2.0181406 0.7494484 -3.3149748
000110 3e ed c7 bd 01 fd 6a 3f be f5 5c 3e 0c eb c8 bf
       -0.09762047 0.91792303 0.21578118 -1.5696731
000120 f1 b1 33 bd 15 d2 e7 bf 82 e7 cc 3e b0 a8 94 3e
       -0.04387087 -1.8110987 0.40020376 0.29034948
000130 ad e1 44 bf 15 83 0d 3f 3f 40 1d 3d 57 44 29 3e
       -0.76906854 0.5527814 0.038391348 0.16529976
000140 25 3d 11 bf b7 8e 6f 3b 2b 39 da 3f dc 9c 51 bf
       -0.56733924 0.003655357 1.7048696 -0.81879973
000150 5e 60 82 3f bf 3e b0 be 95 36 be bf 9f 9f 1e 3f
       1.0185659 -0.3442287 -1.4860407 0.6196231
000160 74 73 0f c0 5c 48 29 be ea db 67 3d e0 5f 5c 3f
       -2.2414217 -0.16531509 0.05660621 0.86083794
000170 60 0d 8a 3f e3 25 37 bf bf 1f 73 3e c6 7e 8c 3f
       1.0785332 -0.71542186 0.23742579 1.0976188
000180 81 ee 81 3d 3b 7c 96 bf bd 98 f7 be 2a 7d 92 3f
       0.06344319 -1.1756662 -0.48358718 1.1444447
000190 4f 9a d4 3d 19 81 e9 3e 84 50 20 be 10 de 9f 3e
       0.103809945 0.45606306 -0.15655714 0.31224108
0001a0 b5 6e f1 bd 09 f6 f3 bd 87 cc ce be dc 14 81 3d
       -0.11788694 -0.11912162 -0.40390417 0.06302807
0001b0 b4 af 2b be e6 5e 75 be 97 cd 3f be 37 72 d2 3c
       -0.16766244 -0.23961982 -0.1873077 0.025689228
0001c0 7d 19 db be 5b 49 2c 3e e1 ff a4 3d 37 69 2e 3d
       -0.42792884 0.16824858 0.080566175 0.04258081
0001d0 5a f5 6b bd 72 7b 2a bd a2 e9 70 3e 82 80 7b bc
       -0.057607032 -0.041621633 0.23526624 -0.015350463
0001e0 98 06 df 3c f7 63 79 be 50 3d a1 3d b1 5b 8d be
       0.027224824 -0.2435454 0.078730226 -0.27609017
0001f0 01 c0 30 be 51 40 fc 3c 89 2e 2c 3f af 70 d6 3c
       -0.17260744 0.030792387 0.67258507 0.026176779
000200 fa 28 80 bd 8f 08 b7 bd 24 7b 83 bd 2b 8f 03 be
       -0.06257816 -0.08937179 -0.064199716 -0.12847583
000210 fc 5a 5c be b1 ce c5 3e ca ff 9c be d5 61 a2 3d
       -0.21519083 0.38634256 -0.30663902 0.07928816
000220 4b c0 23 bd 10 fb 9c be 69 03 81 be 47 a5 84 3e
       -0.039978307 -0.30660295 -0.25197914 0.25907347
000230 cb 8f fd bd 3f e8 10 be 4d fd c2 3d da 47 51 3f
       -0.12380942 -0.14151095 0.095209695 0.8175026
000240 27 20 1d be 47 61 64 bd 2a d2 81 3d 48 5d 69 be
       -0.15344296 -0.055756833 0.06338914 -0.2278949
000250 b1 bb 2f bd 3c 9e 1b bf 65 a7 d8 3d 30 ca 36 3e
       -0.042903606 -0.6078832 0.10578803 0.17850566
000260 47 e7 a9 be 7b 6b 96 bc 97 2a 6a 3e c5 0b 26 be
       -0.33184263 -0.018361798 0.22867809 -0.16215427
000270 87 86 f8 bb d8 2f 13 3f 7a c6 cc 3e 68 34 91 3e
       -0.0075843963 0.5749488 0.39995176 0.28360295
000280 6c 7a 40 be 9c 96 9d be 21 1f 86 be da 57 11 be
       -0.187967 -0.30778968 -0.26195624 -0.14193669
000290 43 04 06 3d d6 a0 c0 bd c4 fc 68 bc 9a a7 76 3e
       0.032718908 -0.09405677 -0.01422042 0.24087372
0002a0 bf bd 7a bc f4 de 20 3e 62 60 24 3d 0c 14 10 3e
       -0.015304028 0.1571005 0.04013098 0.14070147
0002b0 f5 d0 de 3e 7a cf 04 3e 72 b5 a2 be 56 75 08 be
       0.43518797 0.12969771 -0.31779057 -0.1332601
0002c0 2c 2c c5 bd 1b 9e 54 be 2f e6 68 be b9 35 a5 3c
       -0.09627566 -0.20763437 -0.22744058 0.020167219
0002d0 06 3a ca 3b 39 eb 14 be a0 5c e8 be 5e 6d 23 bf
       0.0061714677 -0.14542855 -0.45383167 -0.63838756
0002e0 09 df b6 be e9 47 e2 3d 10 4c 22 3d 04 8f 27 3d
       -0.35717037 0.11048872 0.03962332 0.040907875
0002f0 2a d7 ec 3c 2a 3e 15 3f f7 96 0d 3f 6a 80 15 3f
       0.028911192 0.5829798 0.5530848 0.5839907
000300 92 d0 e1 3d 06 cf 9f bb fc 72 71 be eb 3d 5d bd
       0.1102611 -0.004876974 -0.2357902 -0.054014128
000310 c4 60 28 3e f4 d5 a4 3c f0 ec d9 3e 6f a7 19 bf
       0.16443163 0.020121552 0.4256358 -0.6002111
000320 f3 db 32 be 8c fd 8a be 75 f7 da 3e f2 4d 31 bd
       -0.17466716 -0.27146566 0.4276692 -0.043287225
000330 0c 12 84 be ab 73 03 3e 02 09 36 bd e8 42 8d bd
       -0.2579502 0.12837093 -0.044442184 -0.06897527
000340 48 b2 6b 3e 13 cf 5d be ab ca 0a be 8a 24 a1 be
       0.23017228 -0.21661024 -0.13553874 -0.3147319
000350 60 46 3f bf f2 5f e9 3c cd 92 24 3e ff ff 61 bd
       -0.7471676 0.028488133 0.16071625 -0.055175778
000360 89 43 d5 bd c7 23 0e bd da 74 8b 3e 25 94 19 3d
       -0.10413272 -0.03470209 0.27237588 0.037494797
000370 06 e4 3c bc a3 65 df 3d e8 85 87 3e 37 73 9f bd
       -0.011528974 0.109080575 0.2646935 -0.07785647
000380 e8 c3 78 be 8f b2 62 be a0 b4 24 3d fd 54 26 bd
       -0.24293482 -0.22138427 0.04021132 -0.040608395
000390 a9 82 50 3e 80 c2 d1 bd 0c fc b3 be e1 b4 87 bd
       0.20362343 -0.10242176 -0.35153234 -0.06626297
0003a0 b8 a9 eb be c2 52 14 3e fb 60 fb 3d 97 67 31 3e
       -0.46027923 0.14484695 0.12274357 0.17324673
0003b0 7e 82 5c be 9f 83 3d be ab b8 83 be 2e 86 b5 bd
       -0.21534154 -0.1850724 -0.25726828 -0.08863483
0003c0 7b 7e ae be dc da 87 be 32 a5 ba 3d 88 28 8e 3e
       -0.34080872 -0.26534164 0.0911354 0.27765298
0003d0 87 12 b1 3e cb c6 0c 3e 69 df 7c bd 7f a5 bc bd
       0.34584448 0.13747708 -0.061736498 -0.092112534
0003e0 7c c4 78 be 42 59 c2 3c ff 17 4f 3e a6 65 90 3e
       -0.24293703 0.023724202 0.20223998 0.28202552
0003f0 36 fc 97 be 17 40 a2 be 8e 42 8b be aa d8 ad be
       -0.2968461 -0.31689522 -0.27199215 -0.33954364

layers.6.bias f4 [100]
000000 09 d2 80 3e 6d 29 41 be a6 f6 88 be ca 07 36 3e
       0.25160244 -0.18863459 -0.26750678 0.17776409
000010 b9 a3 91 3e 78 53 15 3e 90 54 38 be 0a ff bc be
       0.28445223 0.14582622 -0.18001008 -0.3691333
000020 4a 03 f2 3d e6 ec d6 be 3b 2d b3 3e 72 e9 be be
       0.118170336 -0.41977614 0.34995446 -0.3728748
000030 5a 3c 68 be e5 a8 31 3e 2f 0c d5 3d 60 8c 0b 3f
       -0.22679272 0.17349584 0.104027145 0.5451107
000040 a3 d1 ea bd ca 8f 4d be 27 0b 26 3e e9 d9 41 3e
       -0.11465766 -0.20074382 0.16215192 0.18930782
000050 7e d9 f4 3e f3 e2 2c 3e b0 98 91 3e cf b3 86 be
       0.47822183 0.1688345 0.28436804 -0.26309058
000060 d6 91 e5 3e e4 ea 9f be 4c 45 5a 3e b2 a2 19 3e
       0.44837826 -0.31233895 0.21315497 0.1500347
000070 a8 26 64 b8 0c a4 a3 be 72 08 90 be dd 3a 20 be
       -5.4395437e-05 -0.31961095 -0.28131443 -0.15647455
000080 0c 2f 60 3e 12 af a4 3e 52 19 66 3e 08 9b 48 3d
       0.21892947 0.32164818 0.22470596 0.048975974
000090 6d f7 0f bd 9e 77 97 3e 63 ce fc 3d 18 f6 0c be
       -0.035148073 0.29583448 0.12344053 -0.13765752
0000a0 5d e7 63 3e d2 70 58 3e 6c 75 6a be b7 c3 89 be
       0.22256227 0.21136788 -0.22896355 -0.2690713
0000b0 da 12 ae 3d 7a 69 2e bd 95 95 a8 3d 3f 17 fa 3d
       0.084996894 -0.04258106 0.082316555 0.12211465
0000c0 a2 6e 70 3e 8f 4a 99 be 9a 84 37 3c 1d 6e 28 be
       0.23479703 -0.29939696 0.011201048 -0.16448255
0000d0 b7 2c 1b be 90 bb 1f bf f7 03 fa be 59 eb 90 be
       -0.15153776 -0.6239557 -0.4883115 -0.28304556
0000e0 72 7e 4e be 5c 2b ae bd 86 b9 13 3e d5 57 83 3e
       -0.20165423 -0.08504364 0.1442624 0.25652948
0000f0 10 46 5e 3e 47 5a a5 be a6 b9 26 be 74 26 85 be
       0.21706414 -0.3229544 -0.16281757 -0.260059
000100 cd c6 d1 bd 2a 05 85 3e ab 82 c6 be 58 0c bf be
       -0.10242996 0.25980502 -0.38771567 -0.37314105
000110 37 e0 e1 bd f6 a1 1a 3e 0f be 33 be c5 10 35 be
       -0.11029094 0.15100846 -0.1755297 -0.17682178
000120 14 6c b0 bd 8b 76 96 be bc 84 4c be 85 ed 96 bd
       -0.08614364 -0.29387316 -0.19972509 -0.07369522
000130 34 0d 35 3e 22 12 39 3d 61 bb a7 be bb c5 ec bd
       0.17680818 0.04518331 -0.32760146 -0.115611516
000140 34 90 bb be ed c1 18 be 77 97 d7 bd a5 64 d9 3e
       -0.36633456 -0.14917727 -0.105269365 0.42459598
000150 94 f6 98 3b b3 19 0a 3e e2 5f ab 3e 99 d8 65 3e
       0.0046680663 0.13486366 0.3347159 0.22445907
000160 e2 6c 5d 3e 14 b8 96 3e d6 98 e0 bc d4 90 34 3e
       0.21623567 0.29437315 -0.027416628 0.17633373
000170 e8 e4 7e be 9c 4c 5d 3e 9b fb cc be c7 e3 80 be
       -0.24892008 0.21611255 -0.4003571 -0.2517378
000180 1e ab fb 3d 14 8a 83 be 34 22 56 be 02 56 40 be
       0.122884974 -0.25691283 -0.20911485 -0.1878281

layers.8.weight f4 [1, 100]
000000 46 01 7f be a6 d7 15 3d 8a 61 4c 3d ee b4 1c be
       -0.2490283 0.03658261 0.049897708 -0.15303394
000010 70 f5 da bd cc 2e 80 be 7e a3 8e 3d 3f 31 0f 3e
       -0.10691345 -0.25035703 0.069647774 0.1398363
000020 25 6b 82 bd 00 52 50 3e 9e 88 90 be cd 72 48 3e
       -0.063680924 0.2034378 -0.2822923 0.19575043
000030 29 6c 0d 3e 32 71 3a be 3a fc 0d be 30 be 4b be
       0.13810791 -0.18207243 -0.13865748 -0.1989677
000040 03 af cf 3d e5 bd ea 3d 12 db 4a be 81 c6 48 be
       0.10140803 0.11462001 -0.19810131 -0.19606973
000050 f8 fa 44 be aa 9b 6d be 59 aa 4c be 25 98 56 3e
       -0.19236362 -0.23203912 -0.19986857 0.20956476
000060 eb c3 b2 be 24 11 2f 3e 49 6e b2 bc 29 59 bf bd
       -0.349151 0.17096382 -0.021781104 -0.09343178
000070 3b bc 47 be 04 13 4a 3e 61 7a 21 3e 9a 6c 14 3e
       -0.19505398 0.19733816 0.1576934 0.14494553
000080 cc 65 a4 bd 7a d5 96 be 17 88 3a be 17 95 cb bd
       -0.08027229 -0.29459745 -0.18215977 -0.09940546
000090 17 42 bb 3d 56 1a f0 bd 8a d6 57 be 22 83 09 3e
       0.09143465 -0.11723773 -0.21077934 0.1342893
0000a0 94 d3 e3 bd 96 58 9b be 27 a5 1a 3e 39 d3 20 3e
       -0.1112434 -0.30341023 0.15102063 0.15705575
0000b0 de 0f 32 bd 31 20 3e be 76 17 32 be b7 00 fd bd
       -0.043472163 -0.18566968 -0.17391762 -0.12353652
0000c0 dd b7 f8 bd 0b 84 55 3e ff 1a 66 be a3 9a 09 3d
       -0.12144444 0.20851152 -0.22471236 0.03359474
0000d0 fb 07 63 3e ff c4 5c 3e 0c ae 2c 3e fa 23 fe 3d
       0.22171013 0.21559523 0.16863269 0.12409206
0000e0 c9 c2 d1 3d d0 c6 aa 3d e5 df 5e be ed d8 ac bd
       0.102422304 0.08338702 -0.21765096 -0.08439813
0000f0 c4 a2 43 be 3a 50 20 3e 3a 62 6e 3e d6 5a 05 3e
       -0.19105059 0.15655604 0.23279658 0.13022932
000100 41 03 0c 3d 7a 85 05 be d9 b7 4e 3e 2f db 22 3e
       0.03418279 -0.13039199 0.2018732 0.15903924
000110 c0 af 79 3e 00 2a 46 bd 66 57 93 3d f7 9c d7 3d
       0.2438345 -0.048379898 0.07194404 0.105279855
000120 da 81 4e 3e 7a 7d 1d 3e c1 d4 15 3e 43 e0 8f 3e
       0.20166722 0.15379897 0.1463194 0.28100786
000130 14 45 3b be 5e bd 80 3e 65 5d 5a 3e 06 fe 39 3e
       -0.1828807 0.25144476 0.2132469 0.18163309
000140 9c ee 6a 3e 28 5a 34 3e 48 95 99 3d 93 4b 1e be
       0.22942585 0.17612517 0.07499176 -0.15458517
000150 82 09 80 be ff 68 3e be 18 fe ff bd fa d6 18 be
       -0.25007254 -0.1859474 -0.124996364 -0.14925757
000160 39 63 62 be 32 21 32 be 7b 28 4d 3e 46 25 b7 bd
       -0.22108163 -0.17395476 0.20034973 -0.08942656
000170 48 5f 0d 3e d8 f6 53 be 8c e8 39 3e 9e fe 7b 3e
       0.13805878 -0.20699632 0.18155116 0.24608847
000180 52 85 3c be 4c 58 1c 3e 3c 9f fc 3d 41 af fc 3d
       -0.18410233 0.15268058 0.12335059 0.123381145
