hddm/torch_models/179c5a6e175111ec93f13cecef056d26_race_no_bias_angle_4_torch_state_dict.pt (torch, 191119 bytes, 7 tensors)

layers.0.weight f4 [150, 10]
000000 a7 ab 85 bd 80 eb 58 bd 36 e9 33 bd 5a 38 aa bd
       -0.06526881 -0.052958965 -0.04392358 -0.083115295
000010 1d f4 5e bd eb 6b b5 3d 98 96 e1 be 6a 45 02 3b
       -0.054432023 0.08858474 -0.44060206 0.00198778
000020 a6 06 09 3f 6d 9c 6c 3d 8f e1 63 bd 47 cd ec 3b
       0.5352577 0.057766367 -0.05563503 0.0072266194
000030 14 92 98 3c 59 12 93 3d 1d 68 13 be ca 9f 53 be
       0.018624343 0.07181234 -0.14395185 -0.20666423
000040 58 76 50 bf 20 b1 23 be fa cc 42 3f 93 1f a1 3b
       -0.8143058 -0.15985537 0.7609402 0.004917094
000050 82 31 4b bb f9 1d f2 bb 67 6d e7 3a af 24 f8 bb
       -0.003100485 -0.007388827 0.0017656506 -0.0075727324
000060 0d 68 3e 3a ea f5 10 3b 9a 4a 65 3b ed 99 47 3b
       0.00072634296 0.0022119232 0.0034987093 0.0030456737
000070 09 17 a5 bb 88 22 a4 3a b2 c3 39 be d4 55 8a be
       -0.0050381464 0.0012522498 -0.18141058 -0.27018607
000080 63 04 1c be 2f f2 16 3f bd 4d 3c 3e 10 83 f6 be
       -0.15236048 0.5896329 0.1838903 -0.48146868
000090 0a 32 42 bc 32 45 97 3e 46 c8 23 bc 4e af 4c 3d
       -0.011852751 0.2954498 -0.009996479 0.04997187
0000a0 fe 67 d1 be 9a 1c 28 3e 38 de 0f 3e 5e f7 63 bc
       -0.40899652 0.1641716 0.14049613 -0.013913957
0000b0 ae 35 be 3e 20 c1 f5 be ab 17 34 3e e8 3d ab 3e
       0.3715033 -0.47998905 0.17587154 0.33445668
0000c0 58 ed da bd a5 17 f7 bd ce fd 94 3d 62 56 f4 3c
       -0.10689801 -0.12065057 0.07274972 0.029826347
0000d0 d5 2c 89 3d 2e 88 12 bc d2 75 40 be f4 ca ac 3d
       0.06698004 -0.008943601 -0.18794945 0.08437148
0000e0 e3 68 29 bf f4 70 7a be e8 8d 3a 3f 67 f1 24 3d
       -0.6617567 -0.2445715 0.7287278 0.04026928
0000f0 f1 7f 73 3b ac a3 14 3b b0 b8 5a 3a a5 4e ec 39
       0.0037155116 0.0022680564 0.00083435606 0.00045072022
000100 c7 c5 a1 38 9f 1b 0b 3c 60 0c ad 39 fd 06 df 3a
       7.713917e-05 0.008490472 0.0003300635 0.0017015632
000110 24 9a ad bb 54 4b 26 bb 02 19 82 bd f6 f6 98 3d
       -0.005297916 -0.002537449 -0.06352426 0.07468979
000120 d7 a1 ab 3c 6e b9 90 bd 6d 38 e3 3d bb fb e9 bc
       0.020951195 -0.07066618 0.11094747 -0.028562417
000130 db 10 1a 3f f7 7e ba 3d 0a 17 08 bf 22 9b 39 be
       0.6018197 0.09106248 -0.53160155 -0.18125585
000140 c2 87 75 bd b4 de a3 3a 37 a2 fc bb 83 25 f1 3a
       -0.059943922 0.0012502284 -0.007709767 0.001839802
000150 bf 42 3d 3d 26 90 d2 3c 3d e5 2b be d5 98 df bc
       0.046206232 0.025703501 -0.16786666 -0.027294556
000160 0a c0 f1 bd 67 06 38 3c 2f 9b 7d be 67 17 f5 bd
       -0.11804207 0.011231995 -0.24766229 -0.11967354
000170 91 db 7c 3e 9c 44 6c bd 4a e9 1a 3f 26 15 3f 3f
       0.24693133 -0.05768262 0.6051222 0.74641645
000180 c5 0a 9f 3e c0 67 a6 3d 70 a7 aa be c7 b9 24 bc
       0.31062904 0.081252575 -0.3333087 -0.010054058
000190 ac ac 88 bb 0a f4 f4 bd 1c d7 27 be 24 ce 1d 3c
       -0.0041709747 -0.11960609 -0.16390651 0.009631667
0001a0 30 ab cb bc 69 79 b5 3e 0d 01 2d 3f 08 2f 86 3e
       -0.024861902 0.3544419 0.6757973 0.26207757
0001b0 64 d0 33 bf 9d a9 9c bb fe ea ee 3d 46 51 e8 bd
       -0.70239854 -0.0047809617 0.11665915 -0.11343627
0001c0 3e 51 56 3d 63 c7 f4 bd 02 a7 f4 3d b7 0c 40 bd
       0.052323572 -0.119520925 0.11945917 -0.046887126
0001d0 75 ed 26 3f ef 93 09 be 4b ea 1f bf a4 fc e9 3d
       0.6520608 -0.13435338 -0.6246688 0.114251405
0001e0 99 7a 50 3e 87 65 d5 3b a1 82 9f bc 8b 5d 18 be
       0.20359267 0.006512347 -0.019471468 -0.14879434
0001f0 c4 b7 8c 3d 08 58 4d 3e 9d 05 47 bd eb 8c fc 3d
       0.06870988 0.20053113 -0.048589338 0.123315655
000200 62 bb 6a 3d bc 89 0c be 4e 59 ed 3d 5b 7f fc 3d
       0.05730761 -0.13724416 0.11589299 0.12328979
000210 aa cf 40 be de 43 df bd 5c f5 41 3d 96 b4 19 3f
       -0.18829218 -0.109016165 0.047353134 0.6004118
000220 e1 a2 ee bd e6 e0 db be 12 3c d5 3d 20 d9 4b 3e
       -0.116521604 -0.4294502 0.10411848 0.19907045
000230 20 bb 2e 3e b6 13 86 3e c6 c7 f3 3c 10 5b 6c be
       0.1706357 0.26186913 0.029758345 -0.23081613
000240 d7 a2 40 be 76 21 d1 be 59 1b c3 3e 75 9f 56 be
       -0.18812118 -0.4084584 0.38106802 -0.20959266
000250 a3 79 c4 be 16 ec 9b 3d 6b b7 7b 3f 31 25 39 3f
       -0.3837405 0.07613389 0.9832675 0.72322375
000260 b2 22 3e 3f f1 03 3a 3f 79 a2 f4 bd 5a cf 9c 3f
       0.7427169 0.72662264 -0.11945052 1.2250779
000270 8d 97 eb 3b 57 38 52 40 bb dd 21 be 94 96 98 3d
       0.007189697 3.2846887 -0.1580724 0.074505955
000280 aa 03 4f 3c 1a 7c 32 3d a2 7f f0 3c f2 c9 d5 3c
       0.012635151 0.043575384 0.029357735 0.026097272
000290 d7 0d e9 3d 4a 92 51 3e d3 d8 58 bd e5 09 19 3d
       0.11379593 0.20465961 -0.052941155 0.03736295
0002a0 60 c0 8b 3d 8f c5 a0 3b b9 ae fb 3a 3e a9 73 3d
       0.06823802 0.0049063633 0.0019201852 0.059487574
0002b0 f4 7b 34 3d 23 3e 79 3c dc 17 0a be f1 96 49 be
       0.044063523 0.015212568 -0.13485664 -0.19686486
0002c0 03 b0 48 3f d0 9d 6b be 7e e3 48 bf d5 02 51 bd
       0.7839357 -0.2300942 -0.78472126 -0.05102809
0002d0 10 0f 4c 3d d6 f3 0c be e4 5e cd bd 1a b2 34 3c
       0.049819052 -0.13764891 -0.100278646 0.011028791
0002e0 df df bb 3e 43 75 19 3f b0 fc 01 3f ad 0c 53 be
       0.36694238 0.5994455 0.50776196 -0.20610304
0002f0 43 e3 08 bf 81 9f 23 3e 51 14 a5 bd c2 81 f1 bc
       -0.53471774 0.15978815 -0.08060516 -0.029480819
000300 a1 7e 17 3d 26 01 d5 3d 88 a0 15 3e 0e 3a ca be
       0.036985997 0.1040061 0.14612019 -0.39497417
000310 80 42 28 bf 33 e5 63 be 24 b2 31 3f 10 34 8b bd
       -0.6572647 -0.22255401 0.69412446 -0.067970395
000320 f6 55 65 bc f7 d7 98 bc 5f 5b 8f bc 10 54 26 bc
       -0.0139975455 -0.018657668 -0.017499624 -0.010151878
000330 09 6b e1 bc ed fe f7 bc f5 eb c5 bb c7 1e 2e bc
       -0.027516859 -0.030272925 -0.006040091 -0.010627455
000340 d3 1d 89 bc 2d be 41 bc 6d fe 8b bd 9a 73 b1 bc
       -0.016737854 -0.011825127 -0.06835637 -0.021661568
000350 9f 0b 14 be d0 90 d7 3e a1 67 b4 3d 2b b3 c4 3e
       -0.14457558 0.4210267 0.08808828 0.38417944
000360 8a b2 94 3d 73 5a 79 3e bd 12 1e bd 11 fd bf be
       0.07260616 0.2435091 -0.03859209 -0.37497762
000370 4c d4 8e 3d 3a 87 c2 3d ad 49 3a 3e 3e c6 71 be
       0.06974086 0.09498449 0.18192168 -0.2361078
000380 e2 14 3c bd 42 f2 e5 39 ea 46 cd 3e 15 52 bc 3d
       -0.045918353 0.0004385878 0.40093166 0.091953434
000390 bb 52 e0 be 8f 6f 9c be 0f a1 ba b9 63 5f 0b be
       -0.43813118 -0.30553862 -0.00035596683 -0.13610606
0003a0 08 99 61 3d d4 74 b3 bd c2 ae b2 3c 56 cd 19 3e
       0.055077583 -0.087625176 0.021811847 0.15019736
0003b0 ca 73 35 bf 0c da 25 bd e9 ff 37 3f 6f 86 e0 bd
       -0.70879805 -0.04049115 0.7187486 -0.10963141
0003c0 20 90 4f bd d4 24 52 be f4 be da 3d 12 74 80 3e
       -0.050674558 -0.20521861 0.10680953 0.25088555
0003d0 5d 81 f7 3d 07 7e 8d bc 10 46 20 3d a9 26 3d 3c
       0.12085221 -0.017272009 0.039129317 0.011544862
0003e0 15 98 a6 bd 32 6e cc 3d 87 b8 c1 3d 50 37 16 3e
       -0.08134476 0.099819556 0.09459024 0.14669538
0003f0 ac e1 34 3e f0 b9 df be f2 7b 9e be b3 1a 73 bf
       0.17664212 -0.43696547 -0.30953938 -0.94962615

layers.0.bias f4 [150]
000000 12 be 0f 3e 60 c0 0c 3f 8c 35 8c 3b 29 f1 37 3f
       0.1403735 0.5498104 0.004278844 0.71852356
000010 0f 7f 16 ba 6d 8c 09 3e c5 ff c1 bb 13 a8 71 3d
       -0.0005740979 0.13432474 -0.0059203827 0.05899818
000020 ff 8c 97 3e 18 36 40 be 26 f8 94 bd 4b 55 03 be
       0.2959976 -0.18770635 -0.07273893 -0.12825505
000030 3f 2e 55 be 3e 06 bc be 9d c0 e3 3e 39 26 b7 3e
       -0.20818423 -0.36723512 0.4448289 0.3577135
000040 75 51 07 bf 47 a9 26 3f df af 18 bf 43 11 85 3e
       -0.5285867 0.65102047 -0.5964336 0.25989732
000050 8c 33 44 3e cc cc be be 7e 40 d0 3e 02 13 7b 3e
       0.19160289 -0.37265623 0.40674204 0.2451897
000060 a0 1e e9 be 7f f6 0e be fa 09 2d be 44 c3 97 be
       -0.45531178 -0.13961218 -0.16898337 -0.29641163
000070 e4 6c 2a bc 56 82 26 ba bf 09 ee 3e ba 46 31 3b
       -0.010401938 -0.0006351819 0.4649181 0.0027050213
000080 e7 09 37 3e ce 17 b1 3c 93 04 33 be f2 ec 21 3f
       0.17874871 0.021617796 -0.17482214 0.63252175
000090 41 1a 2f 3e d8 a8 2b 3f e9 8b 70 3f d4 94 0c 3f
       0.17099859 0.6705451 0.93963486 0.54914594
0000a0 c4 f7 7b 3f a8 1e 25 bf 67 1c a1 be b8 80 41 3e
       0.98424935 -0.644999 -0.31466982 0.18896759
0000b0 1b 65 30 3f ec 39 a3 3e c6 2b af 3e 37 d7 a4 be
       0.68904275 0.31880128 0.34213084 -0.32195446
0000c0 91 0c 78 3e b1 a1 a8 3e 26 9b 92 3e b6 de 78 be
       0.24223544 0.3293586 0.28633994 -0.24303707
0000d0 9b 61 cc 3f a8 46 06 3e f9 c0 f5 bd a7 44 a6 3e
       1.5967287 0.1311289 -0.11999697 0.32474253
0000e0 df 98 7e 3e a5 bf 38 3f 0d 0d 09 3e cd e8 0c 3f
       0.24863003 0.72167426 0.13383885 0.55042726
0000f0 88 a3 39 3e 8d d8 51 bc 3d 74 b6 3d cc c1 eb be
       0.18128788 -0.012807977 0.089088894 -0.46046293
000100 55 6b de be 57 e4 97 3d 04 ef 96 3e b7 78 d5 ba
       -0.43441263 0.07416599 0.2947923 -0.0016286586
000110 5c 42 17 3f d0 37 e4 bd 97 b9 05 bf 29 e2 6f be
       0.5908563 -0.11143458 -0.5223631 -0.23426117
000120 69 2b 52 3e 10 61 b1 3c 54 e0 25 bf 22 ae 25 bf
       0.20524372 0.021652728 -0.6479542 -0.6471883
000130 5e 9a 03 bf df ba 08 bc 42 01 5f be 06 c5 2e 3f
       -0.5140742 -0.008345335 -0.21777824 0.68269384
000140 19 b0 8f be 51 f0 f5 be b2 52 1f bf 9a b5 4c be
       -0.2806404 -0.4803491 -0.6223556 -0.1999115
000150 64 c2 25 bf 84 89 84 3d 3f 9f 2f be e3 4c 91 be
       -0.6474974 0.064715415 -0.17150591 -0.28378972
000160 fc 77 ce be 5f fd 08 3f d6 f3 1e bc 7b 71 92 be
       -0.40325916 0.53511614 -0.00970169 -0.28602204
000170 5f 3c 60 be 50 2f e9 be ad 4d 4e 3e 8f 95 a6 bf
       -0.2189803 -0.4554391 0.20146818 -1.3014392
000180 24 9e bf bd 23 3d bd bd 8e bd 1b be f2 14 f6 3c
       -0.09356335 -0.092401765 -0.15209028 0.030039284
000190 31 52 65 3f f1 8a 41 3c f3 23 07 3f eb 9e 2e bb
       0.8957854 0.011812911 0.5278923 -0.0026645015
0001a0 1f c8 42 3e 96 d8 66 3e fc 12 75 be a8 1f 4e be
       0.19021653 0.22543558 -0.23933023 -0.20129263
0001b0 95 31 72 3f 15 ed dd 3f 7a 65 20 3e 6d 88 9c 3e
       0.94606906 1.7337977 0.1566371 0.30572835
0001c0 96 e8 b9 3f fa c6 66 3f 6c c0 db bd 42 25 85 3e
       1.4524105 0.90147364 -0.10730061 0.26004988
0001d0 69 26 97 bc c1 76 7b 3e c8 81 ed be 2e 6f 59 bc
       -0.018450933 0.2455702 -0.46388078 -0.013271136
0001e0 22 1a 4c be e6 fd f4 be 8c 86 9c 3d 20 fa fd be
       -0.19931844 -0.4784996 0.0764285 -0.49604893
0001f0 a6 12 eb 3d c0 6b a5 3f c8 5f 63 bd 73 10 0c bf
       0.11478166 1.2923508 -0.055511266 -0.547126
000200 06 d6 38 3b f3 ee a5 3d b0 2a c0 be 77 9b 9d bf
       0.002820374 0.081022166 -0.37532568 -1.2313069
000210 c7 f3 b0 3e b0 7d 00 c0 d3 f4 7b be 90 a7 3d 3e
       0.34560987 -2.0076714 -0.24605112 0.18520951
000220 64 66 55 be 0e 8b e3 3e 2b e9 c6 bf f2 22 ec bd
       -0.2083984 0.44442028 -1.5539907 -0.11530103
000230 7d 6f 4b be 79 e6 5f bd 2b 4d 98 bd 51 fc be be
       -0.19866748 -0.054663155 -0.074365936 -0.37301877
000240 4c 1b 95 be 8a d2 59 be 2c 9d f2 bd 98 2e 92 3e
       -0.29122388 -0.2127172 -0.118463844 0.28551173
000250 3e f9 4c 3f 9f 4d 1d bf
       0.80067813 -0.61446565

layers.2.weight f4 [150, 150]
000000 8c 40 f6 3d 61 de 25 bf 41 71 c3 3a 00 5c c9 bd
       0.1202403 -0.6479245 0.0014911072 -0.09832001
000010 be 61 87 be 8b a0 48 bf 83 65 a7 bc 4b 98 08 3e
       -0.2644176 -0.7836997 -0.020434147 0.13339345
000020 bc 2c 47 3e 61 e3 de be c0 79 05 3f 57 5c bc bd
       0.19450659 -0.4353285 0.521389 -0.091973
000030 e6 d5 6d 3d 68 be 19 be dc 4a 96 bc 85 a7 99 be
       0.058065318 -0.1501404 -0.018346243 -0.3001062
000040 12 23 95 3d da c3 d2 bf db ec af 3e 45 23 23 3e
       0.0728208 -1.6466019 0.34360394 0.15931423
000050 17 af 37 3e 9e d9 96 bd 80 30 ce 3d 93 7b fb 3e
       0.17937885 -0.07365726 0.100678444 0.49117717
000060 5e 2f 07 be 1e ac e0 3e b8 a5 0a 3f 91 f5 1a 3e
       -0.13201663 0.43881315 0.54159117 0.15132739
000070 fa 7e 28 bb 36 3e 3c bd 81 96 e0 3c eb 6e f8 bc
       -0.002571045 -0.045957766 0.027415516 -0.030326327
000080 13 8a 96 39 b3 12 b5 3c 40 60 a9 3d fe 60 71 be
       0.00028713103 0.022103643 0.08270311 -0.23572156
000090 38 fd 03 3d 4d 12 90 3d dc 92 6c be 61 e4 85 bf
       0.03222391 0.070347406 -0.23102897 -1.0460321
0000a0 7b b1 24 bf 7a 0f ab 3e 39 10 04 3f 58 12 04 bf
       -0.64333314 0.33410245 0.51587254 -0.5159049
0000b0 fa 76 af bf ef a2 f0 bd 44 55 50 bd b1 94 33 be
       -1.3708184 -0.11749827 -0.050862566 -0.1753719
0000c0 e1 d7 5c be bc 8b ca 3e f6 46 3e 3c db 48 df bd
       -0.21566726 0.39559734 0.011613598 -0.10902568
0000d0 5c db 5f be 44 1c cb be c2 f0 86 3e 3a a3 86 3d
       -0.21861023 -0.39670002 0.2635556 0.06574102
0000e0 67 5c 18 3c 20 51 bc bd af 99 3f 3c e0 17 bc bf
       0.009299374 -0.09195161 0.011694356 -1.4694786
0000f0 5e 10 b6 be 34 b5 1a 3e ba a6 95 bd 43 7b 12 be
       -0.35559362 0.15108186 -0.07307191 -0.14304833
000100 a1 09 35 3e f8 91 1d be 1b 4d 70 3e 83 0a af 3b
       0.17679454 -0.15387714 0.23466913 0.0053418293
000110 91 e3 13 bf 4c 03 55 bf 1c cc 2b bd ef 6e 67 3f
       -0.57769114 -0.83208156 -0.0419427 0.90403646
000120 6f c2 23 bd 87 ed 90 bc d3 a1 63 3f 0f 97 b5 3d
       -0.03998035 -0.017691387 0.889188 0.08866703
000130 14 47 01 3d 4a 6b c2 bc 70 1a 34 bd 31 15 17 be
       0.031561926 -0.0237328 -0.043970525 -0.14754178
000140 1d 2c 21 bb 28 fd 82 bb 7d f5 72 3f 8f ff e2 be
       -0.0024592944 -0.0039974637 0.94905835 -0.443356
000150 ec f8 eb 3e bb 2b fa 3e 0a a7 29 be 2b f9 a2 3e
       0.4608835 0.4886149 -0.16567627 0.31830725
000160 f6 77 23 3e 35 f7 5f bc 86 21 ef 3c 51 f3 8c 3d
       0.1596373 -0.013669779 0.02919079 0.068823464
000170 da 43 6c bd 2e 70 3e be d0 c4 23 3d b6 3a a4 3f
       -0.057681896 -0.1859748 0.039982617 1.2830417
000180 30 bb b0 bd c9 b4 4a 3e 72 80 ff bd 07 25 3b 3e
       -0.08629453 0.19795527 -0.12475671 0.18275844
000190 e6 02 6c bf 84 38 55 3c a3 ba 46 3d 5c de a4 bc
       -0.9219192 0.013013963 0.048517834 -0.02012556
0001a0 60 ba c8 3d 4e b6 72 bf b8 bc d2 3b b6 a3 72 be
       0.09801173 -0.94809425 0.0064311884 -0.23695263
0001b0 17 5d 44 be 73 b0 27 be 36 e4 e7 be 4d cf 4d 3e
       -0.19176136 -0.16375904 -0.452913 0.2009861
0001c0 eb 78 9f be 2f d6 67 be 6a 02 6d be fe 74 07 3f
       -0.3114694 -0.22640298 -0.23145452 0.5291289
0001d0 91 15 04 ba f2 ca 90 bf 16 d3 c8 ba 64 b8 35 bd
       -0.0005038614 -1.1311934 -0.0015321698 -0.0443653
0001e0 af a8 98 bd e4 fe d8 bd ed 91 70 bf 1a 87 16 bd
       -0.07454049 -0.105954915 -0.93972665 -0.036749937
0001f0 06 5c c6 3e cc 0a 42 bf d1 24 b6 be a5 48 02 3f
       0.38742083 -0.75797725 -0.35574964 0.50892097
000200 f2 87 09 bc ee ab 24 be 75 85 29 3d 5a e0 6c 3f
       -0.008394228 -0.16081211 0.04138704 0.92529833
000210 cc 53 16 3e f4 21 b0 3e 08 d2 01 bf da d7 31 3d
       0.14680403 0.34400904 -0.5071111 0.043418743
000220 d2 03 81 bc 74 86 2f 3d c8 ed 81 3e 70 29 94 3e
       -0.015748892 0.042852834 0.25376725 0.28937864
000230 1b 3e ed 3c cf c2 65 bd 39 2e 9d 3e 3b b2 01 be
       0.028960278 -0.056093987 0.30699328 -0.12665646
000240 35 ea 84 3e e0 35 af 3c e3 8a e7 bd ae b8 52 3d
       0.25959936 0.021387994 -0.113057874 0.051445656
000250 d4 b1 7f bf 68 b0 32 3d fb 48 33 3c aa c9 ff bd
       -0.9988072 0.043625265 0.010942693 -0.12489636
000260 14 7e 44 3c 86 22 c6 bd b1 a6 84 3b e4 88 1f 3e
       0.01199295 -0.096745536 0.0040481915 0.15579563
000270 3b 96 5a 3b 1d dd a3 3e bf a7 57 be 1a 01 83 be
       0.0033353704 0.32004634 -0.21060084 -0.25586778
000280 e7 b9 27 3e 70 a4 a8 3d dc 10 03 3f 11 70 ed 3a
       0.1637951 0.08234489 0.511976 0.0018115063
000290 24 d2 c8 bb 50 59 6a be e8 64 ab 3d be f7 bd 3d
       -0.0061285663 -0.22885633 0.08368856 0.09275769
0002a0 6b 1c 29 be 15 9c 81 bd ba 34 9d bc ac 84 ab 3e
       -0.16514747 -0.063285984 -0.019190181 0.33499658
0002b0 2e 1f 2f 3e 32 5d 1e 3e d4 41 26 bf 1a 92 72 3c
       0.17101738 0.15465239 -0.64944196 0.014805341
0002c0 79 b5 0f bf 24 d9 8c 3e ce b3 15 bc b5 20 a1 bc
       -0.5613628 0.27509415 -0.009137107 -0.019668916
0002d0 a3 dd d5 3d ea fb 47 b9 16 fb 9f bd 30 44 1b bd
       0.104426645 -0.00019071964 -0.07811563 -0.037906826
0002e0 7d 3b 58 bc 67 7d bd bd 15 d3 65 bd 41 43 2f bd
       -0.013197777 -0.09252434 -0.056109507 -0.042788748
0002f0 22 30 90 3d 8c 3a 1a 3f ea 44 b7 bc 8e 05 72 3e
       0.070404306 0.60245585 -0.022371728 0.23634931
000300 3e ab 27 3d 77 b8 18 3f b4 5e 39 bf fa ab be 3c
       0.040934794 0.5965647 -0.7241013 0.023275364
000310 e2 ca 8f be 74 50 ab 3d 01 9e c6 be a5 f3 61 3e
       -0.28084475 0.083649546 -0.38792422 0.220656
000320 6a da 76 be bd ea b7 3e 34 09 40 be 41 94 cf be
       -0.24106756 0.3592128 -0.1875351 -0.40542796
000330 d0 79 c7 3d f1 45 2a be 0c 99 28 bd f5 b6 12 3f
       0.09740031 -0.16628243 -0.041161582 0.5731042
000340 51 15 05 be 92 4c 46 be d2 aa 3e bf e4 8c fe bd
       -0.12996413 -0.19365147 -0.744794 -0.124292165
000350 5c dc 8a bd ae 38 6d be 6d 2e 09 bf 0e 0a d4 3d
       -0.067803115 -0.23166153 -0.53586465 0.1035348
000360 0a 63 b0 bd a2 c1 a4 3d 05 a6 ee 3d 26 97 7f 3e
       -0.0861264 0.08044745 0.116527595 0.24960002
000370 a2 79 aa be cf 98 92 ba fb ea 82 3e 05 0e c2 bf
       -0.33295923 -0.0011184457 0.255699 -1.5160528
000380 58 66 8f be 39 c7 77 bd dc 65 33 bc 75 2d 12 3c
       -0.2800777 -0.060492728 -0.010949578 0.008921971
000390 57 bc ed be 9b 88 5d be 43 19 32 3d aa 30 6e be
       -0.46432754 -0.21634142 0.043481123 -0.23260751
0003a0 17 38 82 bd 83 38 ee bd 2a 93 85 be 2c 54 21 3e
       -0.063583545 -0.116318725 -0.2608884 0.15754765
0003b0 e1 00 cf 3b 4c 3d 75 3e 71 7b a3 be 59 c6 57 bd
       0.0063172434 0.23949164 -0.31930116 -0.052679393
0003c0 79 57 c5 3c 24 9e c8 bd f7 2a 6d 3e a7 7f 22 be
       0.024089562 -0.09795788 0.23160921 -0.15869008
0003d0 16 fa 9a bd e1 0a c2 3c ca 50 8c 3f 40 16 0c bf
       -0.07567231 0.023686828 1.0962155 -0.5472145
0003e0 8f 98 d9 3e a3 fa b2 3e 50 37 e3 bd 71 35 a8 3b
       0.42499205 0.34956846 -0.110945344 0.005133324
0003f0 3b 55 34 3d 58 31 db bb d2 26 a8 be 5f 14 69 be
       0.044026595 -0.006689232 -0.32842118 -0.22761677

layers.2.bias f4 [150]
000000 a1 62 48 be 4b a0 8f be 47 c5 8c 3d a9 fb 1e 3e
       -0.19568874 -0.2805198 0.06873565 0.15525688
000010 fd 34 0c be 7f 5a fd bd 0b 96 1f bd 88 0d 75 3e
       -0.13692088 -0.123707764 -0.03896145 0.23930943
000020 41 68 e1 3d 67 f8 7b 3e 5f e5 b8 be 25 fa 15 bf
       0.11006213 0.24606477 -0.36112496 -0.58584815
000030 44 a4 b6 bc 2f b3 40 3f 41 1d c9 3b fb fd af bd
       -0.022295125 0.7527341 0.0061375205 -0.08593365
000040 9a 24 8f 3e ff 92 23 3e 0d b8 88 be 13 70 64 3e
       0.27957612 0.15974043 -0.2670292 0.22308378
000050 47 9d 06 bc b8 e4 9a be e9 e4 6f bd 93 7d 7e bd
       -0.008216209 -0.30252624 -0.058567915 -0.062131476
000060 d9 88 b3 3e cf 2a 4b bd 12 ee 49 be 4b c0 8b 3d
       0.35065344 -0.049601372 -0.19719723 0.06823786
000070 b4 91 fb bd c6 53 b7 be e6 43 aa be f7 81 c4 3d
       -0.1228365 -0.35806102 -0.33254927 0.09595101
000080 e0 b4 88 be 86 6a 80 be 58 4f cb be 41 9c a3 3e
       -0.26700497 -0.2508127 -0.39708972 0.3195515
000090 d9 6a 1c 3f ef 4a 0b 3f 06 7f 5b be 00 ce 43 3d
       0.61100537 0.54411215 -0.21435174 0.04780388
0000a0 29 03 74 3e b4 fe 45 3e 57 2e 05 be a6 d8 67 3d
       0.2382933 0.19335443 -0.13005958 0.056603096
0000b0 1b f8 37 3e b4 1c 26 be 6a 03 96 3d 35 c0 be 3e
       0.17965738 -0.16221887 0.0732487 0.37256017
0000c0 d1 8e 59 bd b5 32 0c bf 3c 87 34 3e f8 5b 0b 3f
       -0.053114716 -0.5476487 0.17629713 0.5443721
0000d0 33 70 a8 3d 19 dc 8d 3e b1 b3 31 be 85 3b d3 3b
       0.08224525 0.27706984 -0.17353703 0.0064463043
0000e0 73 8d 15 be af f2 59 3e 9d 31 d4 bd 05 a2 ca 3e
       -0.1460474 0.21283983 -0.103610255 0.39576736
0000f0 86 73 8b 3e 74 c0 b0 3e 75 93 4d be 1a c3 88 be
       0.27236575 0.3452183 -0.20075782 -0.2671135
000100 d7 2b f9 bd 15 6b a6 3c 48 19 e6 bd db bd 19 3e
       -0.12166565 0.020314733 -0.11235291 0.1501383
000110 1b 0d f7 3d 59 37 8b 3e b4 3e ce bd 92 d0 00 3f
       0.120630465 0.27190664 -0.100705534 0.50318253
000120 5f 63 79 3e 8f 14 ff bd ea 78 17 3e f3 32 f1 bb
       0.24354313 -0.12455093 0.14792219 -0.00736081
000130 8f 12 90 3d 37 bb 35 be 83 1e 54 be 2b 96 ee 3d
       0.0703479 -0.17747198 -0.20714764 0.11649736
000140 d5 61 3b 3f 49 96 6f be a6 fb c4 bd 52 45 c9 3d
       0.73196155 -0.23397173 -0.09618311 0.09827675
000150 ef 70 cc bd 43 d5 e6 bd f2 ab 1a be 29 4e 13 be
       -0.09982478 -0.11271145 -0.15104654 -0.14385284
000160 2a 82 28 be 44 36 c0 3e 11 06 58 be 72 23 5a be
       -0.16455904 0.375414 -0.21096064 -0.21302584
000170 4f 2e 76 3e eb ef 3c 3c 0c 95 16 3e bd c3 07 bf
       0.24041103 0.01153181 0.14705294 -0.5303305
000180 b6 eb ce 3c 9e 87 a5 be 2c 14 1e be 00 d3 86 3b
       0.02525888 -0.3233003 -0.15437382 0.0041145086
000190 06 74 c9 3b f1 5a 9f bc de 81 00 3d 8a e0 73 be
       0.0061478643 -0.019452544 0.03137385 -0.23816124
0001a0 2e 85 89 bd b2 eb 37 be 70 37 1d be fe 19 4e be
       -0.06714855 -0.17961004 -0.15353179 -0.20127103
0001b0 50 b0 5d be 36 8f 06 3e d8 46 fd 3e 08 fd 51 be
       -0.21649289 0.13140568 0.49468112 -0.2050668
0001c0 83 a7 32 3e 9c 38 6a 3e ff 0e cc be 5d a1 1b bd
       0.17446713 0.22873157 -0.3985519 -0.037995685
0001d0 4e f0 d7 3d 3f 2c 95 be 77 ce c1 3d 4e c6 1b bd
       0.10543881 -0.2913532 0.09463208 -0.038030915
0001e0 38 05 92 be 5f fd b2 bb db d1 0d 3e 76 76 9a bd
       -0.28519607 -0.005462333 0.13849585 -0.07542126
0001f0 0b 07 1b 3e fc 5b 32 bd 33 6f ba bd 43 d5 4d 3e
       0.15139405 -0.043544754 -0.09103241 0.20100884
000200 09 68 24 be d4 b3 26 3f 88 ff 5a 3e f1 0e 21 bf
       -0.16055311 0.65118146 0.2138654 -0.62913424
000210 4c dc d6 be fe 67 5a be 75 dc 0f 3e 1a da bb 3d
       -0.41964948 -0.21328732 0.14048941 0.09172459
000220 2c f8 4f 3e c7 90 82 be 0e 0c 8c bd 3c bf f3 3e
       0.20309514 -0.2550108 -0.06838237 0.47606838
000230 85 0b 0c be 05 72 f6 3e fe b8 e4 3e 38 7f 25 3e
       -0.1367627 0.48133865 0.44672388 0.16161811
000240 76 99 f8 3e d4 19 36 3d 19 59 44 3e b9 99 d1 be
       0.4855458 0.044458225 0.19174613 -0.40937594
000250 e5 e6 4e 3e 30 0f dc bd
       0.20205267 -0.10745084

layers.4.weight f4 [150, 150]
000000 29 a9 60 3f 9e 51 71 be f0 ea 82 3f 32 8a 40 bd
       0.8775812 -0.2356629 1.0227947 -0.047006793
000010 a4 be 71 3f 6c 4f 17 bf b6 cf 72 3f e2 a8 c8 3f
       0.9443152 -0.59105563 0.9484819 1.5676539
000020 3a 57 96 3d d7 49 32 3f b0 10 4d bf 79 d6 2a bf
       0.07340856 0.6964392 -0.8010359 -0.6673351
000030 0f c2 52 3f 1f 44 22 3f 9b 03 98 bf 5f c6 0d bf
       0.8232736 0.63385195 -1.18761 -0.55380815
000040 9b 3e cd bf 56 02 e9 3f b3 41 4b be 62 55 16 3f
       -1.6034731 1.8203838 -0.19849281 0.58724034
000050 d1 5f f8 3e da ef a7 bf 9c de 9f 3f 43 c8 86 3f
       0.48510602 -1.3120072 1.248981 1.0529865
000060 50 e7 7e 3e 7f af 8e bf 55 5d 70 be ca 60 83 bf
       0.24892926 -1.1147307 -0.23473103 -1.0263913
000070 8a de 94 3f 3a e4 30 be 46 be cd be d2 19 a9 3d
       1.1630414 -0.17274562 -0.4018423 0.08256878
000080 0d bd 31 bf 40 e6 00 bf 7f 7f bb be b9 2d fd 3e
       -0.69429094 -0.50351334 -0.3662071 0.49448946
000090 84 1b a9 3f db a5 38 3f d5 6a 4f 3f 5c cf 98 bc
       1.3211522 0.72128075 0.8102239 -0.018653564
0000a0 86 46 26 3f 76 f4 17 bf 90 6a 7b 3f e2 d8 81 3f
       0.6495136 -0.5935739 0.98209476 1.0144312
0000b0 82 b8 d1 be 54 ca e5 be 31 a5 c2 bf 07 38 3e 3f
       -0.4096108 -0.44880927 -1.5206662 0.7430424
0000c0 2f ef 0f 40 2e 86 37 40 91 9d 5c bf d1 61 a0 3f
       2.2489736 2.8675647 -0.8617793 1.2529851
0000d0 ce 9c 14 bf 5e 01 d5 bf 0e 0d b4 3f 02 85 17 3f
       -0.58051765 -1.6641042 1.4066484 0.5918733
0000e0 9d ce 58 3d 22 40 9b 3f 69 1f 2c bf 82 d2 2a be
       0.052931417 1.2128947 -0.6723543 -0.16681865
0000f0 a2 80 38 3f b1 09 4b 3f 2e bf 29 bf 67 f1 39 40
       0.7207128 0.7931166 -0.6630734 2.905359
000100 1e c9 4e be c2 f8 8a bf e8 05 fd 3f 9b 8f 02 be
       -0.20193908 -1.0857165 1.9767427 -0.12750094
000110 5f 26 dc 3c 06 06 91 be d9 d8 31 bf ec 60 72 3f
       0.026873766 -0.28324908 -0.6947151 0.9467914
000120 d8 12 7b bf 57 dc 80 3f d8 ea 3e 3f 43 59 0b 3f
       -0.9807563 1.0067242 0.74577093 0.5443308
000130 bf 92 dc bf 7b cf a6 bf 86 59 b8 3f ea 1d b0 bf
       -1.7232283 -1.3032068 1.440232 -1.3759129
000140 d5 dd 6b 3f 8d 4a 9c bf 76 0f 85 3f a0 68 ee be
       0.92135364 -1.2210251 1.0395343 -0.46564198
000150 09 f0 4a 3f 29 a0 51 bf 4c 23 3c 3f 5e 4f 1c bf
       0.79272515 -0.8188501 0.7349136 -0.61058605
000160 44 48 8f 3f 9a f4 33 3f 67 e6 a6 3f 5d 95 c6 be
       1.1193929 0.7029511 1.3039063 -0.3878583
000170 62 50 36 3f 6f 8d f0 be 02 08 16 c0 b8 2c 2a bf
       0.71216404 -0.46982905 -2.3442388 -0.66474485
000180 fd 2a 45 bf 58 4d 08 40 4e b4 82 be cd 3b b9 3e
       -0.7701872 2.1297207 -0.25528187 0.36178437
000190 5f d8 49 be a3 0e 11 3f d1 00 b1 be e6 0a 4f bf
       -0.19711445 0.5666296 -0.34570935 -0.80876005
0001a0 99 92 61 3f 77 dc 97 3e cc 96 07 bf b2 ec f4 be
       0.88114315 0.2966039 -0.5296447 -0.47836834
0001b0 78 e7 1d bf 35 e7 93 bf 67 5d 35 3f 22 fe 98 bf
       -0.6168132 -1.1554934 0.70845646 -1.1952555
0001c0 0c e5 81 bf 77 bc 22 3f 5b 7d 2e bf b7 9d 14 40
       -1.0148025 0.63568825 -0.6816003 2.3221262
0001d0 15 69 2a be 55 44 5d 3e d7 70 f7 bf e6 1f 05 bf
       -0.16641648 0.21608098 -1.9331311 -0.520018
0001e0 70 5c 45 bf bb f9 bb be 0c 2e ef 3e b4 0e b9 3e
       -0.77094173 -0.36713967 0.46714818 0.3614403
0001f0 70 bb 9a bf cc 90 8c 3e 75 32 e8 3e 8e dd 4a 3f
       -1.2088451 0.2745422 0.45350996 0.79244316
000200 a6 ec fe 3e 53 84 2e 3f fb 36 3d be 8f e2 cc bd
       0.49789923 0.6817066 -0.18478005 -0.1000415
000210 9a 55 c9 3f 38 36 06 40 e4 8a 97 bf b0 74 20 bf
       1.5729249 2.0970592 -1.1839261 -0.6267805
000220 4c f5 08 40 ae 48 db 3f ad f0 6d 3f 3b 36 40 3f
       2.1399717 1.7131555 0.9294537 0.7508275
000230 26 ec f2 bd 1a 8f 35 3f e3 27 55 3f 87 d6 fb 3e
       -0.11861448 0.7092148 0.8326399 0.4918711
000240 35 8e 34 bf 4d 75 01 c0 4c 0f df be 40 54 20 bf
       -0.7052949 -2.0227845 -0.43566358 -0.62628555
000250 ff c5 52 3e 7d ca 7c 3f c8 ba cd be 9f a0 eb 3e
       0.20583342 0.9874647 -0.40181565 0.46020982
000260 06 cf 99 3d 64 a6 4e 3e 48 0c 3e 3d f6 ee 6f 3e
       0.0751019 0.2018066 0.04639843 0.23431
000270 90 50 ce be 9f b5 b6 3b ab 5d 24 bf 5f 1e d7 be
       -0.4029584 0.00557585 -0.64205426 -0.4201536
000280 db e8 ad ba e2 31 95 3e 41 c6 3d 3d 84 f6 82 be
       -0.0013268249 0.2913962 0.046331648 -0.25578701
000290 74 29 94 bc ae 66 67 3e 2e 8f 1e 3d 1a 14 03 3e
       -0.018086173 0.22597763 0.038710766 0.12800637
0002a0 07 58 0c 3c 72 98 0c be 16 87 b2 3e 0a dc 87 3d
       0.008565909 -0.13730028 0.34868687 0.06633766
0002b0 39 9a 16 bf 04 d8 35 be 2e c3 7c bf 13 a5 63 be
       -0.58829075 -0.17758185 -0.9873532 -0.2223094
0002c0 b4 2d e4 3e 22 75 1c 3f 7d 96 ba 3d ac 82 6b 3e
       0.4456612 0.6111623 0.091107346 0.22999066
0002d0 99 bf 8c 3e af bd 26 3e 4e 36 a4 3d e1 86 b4 bc
       0.27489927 0.16283296 0.0801817 -0.022036972
0002e0 93 d9 89 3e b6 2f df be 84 76 8d bd ab 32 2d be
       0.26923808 -0.43591088 -0.06907371 -0.1691386
0002f0 81 a3 3e bf 2e 3d 0b 3f 5a bd 84 be ef 1e 89 bd
       -0.7446824 0.5439023 -0.25925714 -0.06695353
000300 2a 61 05 bf 86 f0 9e bc e4 a6 a7 be 96 28 ba 3d
       -0.52101386 -0.0194018 -0.32744515 0.090897724
000310 ef 02 33 bd e1 33 23 be fe bc bd 3c 6b 3b cf be
       -0.04370397 -0.15937759 0.023161408 -0.4047502
000320 56 75 6d 3d 93 e8 9e 3e a2 a1 0b 40 6b b3 da 3e
       0.05797323 0.31036815 2.1817403 0.4271501
000330 ad 04 00 3d 60 f5 86 3d 5e d0 90 bc 51 6a 25 be
       0.03125446 0.0658977 -0.017677482 -0.16153838
000340 ac a7 66 bc 97 41 66 bf 76 8a 20 be 08 2f 3b be
       -0.014078062 -0.8994383 -0.15677819 -0.1827966
000350 24 cd 52 3e 01 61 94 bf 2d 6a dc 3d 43 c4 b4 bd
       0.20586067 -1.1592103 0.10762439 -0.088264965
000360 a3 a6 c7 be b7 47 a2 be 1d 53 3a bd ee 7c 58 be
       -0.3899432 -0.3169534 -0.04548942 -0.21141407
000370 5e 89 93 3e 5c fe 55 be a7 5b 64 3e 9a e0 0e be
       0.2881574 -0.20897812 0.22300588 -0.13952866
000380 8c 67 19 be 3b b5 29 bc 55 36 b3 3e b5 4d d7 3d
       -0.14980906 -0.01035815 0.3500239 0.10512868
000390 fe 20 6f be 5b ea db 3e 96 b4 05 be e5 b0 24 3e
       -0.2335243 0.42952237 -0.1305717 0.16083105
0003a0 9a fc c5 be fe 3c 72 3e 2e 48 99 bd 20 14 5b 3f
       -0.38669282 0.23656079 -0.0748447 0.85577583
0003b0 b5 f8 f9 be d1 a8 d7 3d 03 bc 95 be ed 6d 6d be
       -0.4882256 0.10530246 -0.29245004 -0.23186465
0003c0 ad 8c bb bf 6d 30 b9 3e 00 dd 45 be 4b ae 05 3f
       -1.4652306 0.36169758 -0.19322586 0.52219075
0003d0 ec 1b 87 3f f6 cb 13 3e 38 02 a2 3e 88 17 81 be
       1.0555396 0.14433274 0.31642318 -0.25213265
0003e0 0a 8f 82 3e a7 13 25 bd e9 3e 0f 3e 05 16 9d 3e
       0.25499755 -0.040301945 0.13988842 0.30680862
0003f0 92 6b 1f be ef 1d 81 3d a9 1e 0e be 0b 29 b7 be
       -0.15568379 0.063045375 -0.13878883 -0.357735

layers.4.bias f4 [150]
000000 23 02 14 3f 39 88 14 be 4c 09 97 bc de 31 d1 bd
       0.5781576 -0.1450509 -0.01843705 -0.102145895
000010 12 f8 74 3d 89 e9 27 be 72 60 a2 be 66 7c 14 bf
       0.05980689 -0.1639768 -0.31714207 -0.58002317
000020 1e e2 d3 be 21 df b5 3e 0e 5b 77 be 17 b0 02 bd
       -0.4138345 0.35521796 -0.24155828 -0.031906214
000030 be 88 47 3e d0 26 29 3f 7d 4f 10 3d 2f c3 76 be
       0.19485757 0.6607485 0.035232056 -0.24097894
000040 84 24 85 be 86 c2 8f 3d 31 e7 5a be 00 a7 9c 3d
       -0.26004422 0.07019524 -0.21377255 0.0764904
000050 82 4f bb 3d e7 59 10 3e da 22 c5 3e 5f f6 7b bf
       0.09146024 0.14096795 0.38503152 -0.9842281
000060 27 94 ce 3d d0 57 db bd 21 a5 78 3e e5 86 1e 3f
       0.100868516 -0.10710108 0.24281742 0.6192458
000070 b0 2f c1 3c b5 09 1a 3f b3 dd 03 bd cb 73 e9 3e
       0.02358231 0.6017106 -0.03219385 0.45596156
000080 88 de ae bd b3 9a 8f 3d 60 0c 3d be 4b ba 04 bf
       -0.08538538 0.070119284 -0.18461752 -0.5184676
000090 9f 1b dd 3d fb 22 80 be cc 4e f1 bc 18 c9 97 be
       0.10796284 -0.25026688 -0.029456519 -0.2964561
0000a0 41 94 10 3d cd 9e d6 bb 6e d5 ad 3e d1 dc 06 3f
       0.035297636 -0.0065496922 0.33951896 0.5268069
0000b0 c9 39 12 3f 0a 8c f6 b9 86 42 a1 be 3f a1 94 3e
       0.57119423 -0.00047025114 -0.31496066 0.2902927
0000c0 d2 1e be bd 6b 35 43 3e ae 41 0e 3e a9 64 c8 3e
       -0.09283222 0.19063346 0.13892242 0.39139298
0000d0 0f 98 57 3e 66 63 98 be 47 8a 31 be 03 4e 8b bd
       0.210541 -0.29763335 -0.17337905 -0.06801989
0000e0 a7 ef ae be 01 81 a7 bd 11 be a1 be 78 47 34 bf
       -0.34167215 -0.081789024 -0.31590322 -0.7042155
0000f0 1a 03 02 3d f8 0b 75 be f3 96 89 be e0 8a 37 3d
       0.03174124 -0.23930347 -0.26872978 0.044810176
000100 fe 82 b8 bc 71 84 13 3d 6d 00 3b 3e 45 2c b7 3c
       -0.0225234 0.036014978 0.18261881 0.022359977
000110 25 9e e8 bd c5 1b 8c 3d 38 3f cf 3e 7f 60 a8 3d
       -0.11358289 0.06841234 0.4047792 0.0822153
000120 4d 08 8f be 24 04 6f be c6 c7 b5 be f9 24 c1 be
       -0.2793602 -0.23341423 -0.35503978 -0.3772352
000130 9c 16 da 3d a3 0c 23 3d 58 1c 47 be a2 a3 a0 3d
       0.10648844 0.039806973 -0.19444406 0.078437105
000140 42 72 c0 3e 76 be 07 3c 3b 03 04 be aa 22 98 3d
       0.37587172 0.0082851555 -0.12891857 0.07428487
000150 b7 8a c0 be 8c ab 3c bc f8 4a 22 3d 5d d1 d6 3e
       -0.3760583 -0.011515509 0.039622277 0.41956607
000160 d0 c2 50 3d 99 e4 40 bd 7e ac 83 bd f5 80 e9 bd
       0.050967038 -0.047093008 -0.06429385 -0.1140155
000170 32 db 90 be 68 d7 82 be 4b 7e ae 3e 18 61 10 3d
       -0.28292233 -0.25554967 0.3408073 0.035248846
000180 ea 3e 83 bc f8 7e 2a be 6b 02 86 3e 60 3a 21 bd
       -0.01602121 -0.16649997 0.2617372 -0.03936231
000190 3b dc 23 3e 4b 35 4e 3d c3 3e a8 bc eb 01 86 3e
       0.1600198 0.050343793 -0.02053774 0.26173338
0001a0 85 fe ce be b2 3c 80 bc 8d ec d2 bd 18 5d bc bd
       -0.40428558 -0.015653942 -0.10299025 -0.09197444
0001b0 b9 a2 1a bf 79 52 a9 3d 94 dd a1 be 0e 31 54 3e
       -0.60404545 0.082676835 -0.31614363 0.20721838
0001c0 7f d7 eb 3e f1 9a 8c 3e 8d 7d 99 3d 6e 31 e8 3e
       0.46062848 0.2746196 0.0749465 0.45350212
0001d0 ea 41 4b bb 83 a6 fd bb f9 d5 88 bc 72 62 a7 bd
       -0.003101463 -0.007740797 -0.016703593 -0.08173074
0001e0 6f 87 1e 3f 7f 37 a5 3e ef 95 a7 bc 2d 8b 9d 3e
       0.61925405 0.32268903 -0.020457236 0.30770245
0001f0 f7 20 a8 3c 46 0a 97 be 67 ff e6 3e 9a a9 8d 3e
       0.020523531 -0.29500026 0.45116732 0.27668458
000200 39 db f6 3e 1e 12 3e bc cd 68 1b 3e 78 fd d6 3d
       0.4821413 -0.011600999 0.15176697 0.10497564
000210 ec a2 c2 be 4a 08 fe 3e fd dd 58 3e 22 5e 4c bc
       -0.38014925 0.496157 0.21178432 -0.012473615
000220 95 ce ac be 7f a5 60 3e a9 00 82 be d1 21 b0 be
       -0.3375136 0.21938132 -0.2539113 -0.344008
000230 5a f4 5c 3e 35 d5 40 bf 9f fa 08 3f 52 30 e0 be
       0.21577588 -0.7532533 0.5350742 -0.43786865
000240 9d 4e d9 3e 02 b9 15 bf b1 c2 49 3e 5b 5c 68 be
       0.4244279 -0.58485425 0.19703175 -0.22691481
000250 6f 94 00 3e 69 16 b0 bd
       0.12556623 -0.085980244

layers.6.weight f4 [1, 150]
000000 17 59 00 bf dd 6e 11 3e ae 50 7f bd ca 78 84 3c
       -0.5013594 0.14202447 -0.0623328 0.016170878
000010 69 bf c7 bd f0 ae d3 3c 8f ff 36 3e 8d d7 d5 3e
       -0.097533055 0.025840253 0.17870925 0.41766015
000020 18 a5 e8 3d 95 42 83 be 38 95 f7 3d 80 5b 5f bf
       0.11359614 -0.25636736 0.12089008 -0.8724899
000030 d9 08 09 be 7e 0b 8c bd 32 a5 63 bd b5 7f 74 3e
       -0.13382281 -0.068381295 -0.055577464 0.23876841
000040 bf cc a9 3d 12 73 15 bd e1 c9 6a 3e f5 ff 14 bf
       0.08291005 -0.036486693 0.22928573 -0.5820306
000050 d1 7e 0c bd b1 aa 62 bd ac f4 12 bd bf 2d 15 3e
       -0.03430063 -0.055338565 -0.03587787 0.14568232
000060 b4 1d a7 bc b6 ae d8 3c 58 85 43 be 78 53 00 bf
       -0.020399906 0.026450496 -0.19093835 -0.50127363
000070 8f 2b 7d 3d 84 57 d0 bd 99 13 e5 3e 41 d2 30 be
       0.06180912 -0.10172942 0.44741514 -0.17267706
000080 14 3f 58 3e 6b f8 30 bd a6 2c c4 3d ee 09 ae 3e
       0.21117812 -0.04320566 0.095788285 0.3399195
000090 a0 c4 dd bd a4 45 5d 3e 2e fc e4 3d 6f ee 1b 3e
       -0.10828519 0.21608597 0.11180912 0.15227674
0000a0 6f 4e 4d be 0a 74 c5 39 98 9b 71 bf 36 84 8c be
       -0.20049451 0.00037661224 -0.9437804 -0.2744462
0000b0 8e e8 e3 be 84 ec 1f 3e a4 30 b0 3e e4 db 60 be
       -0.44513363 0.15617567 0.3441211 -0.21958882
0000c0 7b 1c c9 3d 5c f3 98 be a2 92 8e bd 0c be 4d be
       0.09819885 -0.29873168 -0.06961562 -0.20092028
0000d0 16 a3 a2 bc 5c b0 95 3e e8 ac 2a 3d 09 13 bd 3d
       -0.019853156 0.29236114 0.041668802 0.09232146
0000e0 f3 a4 02 3e b3 d6 4e 3c 9d 9b 82 3e 39 c7 ad 3e
       0.12758236 0.0126244305 0.2550935 0.33941057
0000f0 ac 88 a6 3e ef 8a 32 3e 39 44 8c 3e 4a cf 87 be
       0.32526147 0.17435811 0.273958 -0.26525337
000100 51 9d 14 be bf 52 18 bd a3 53 09 be 59 e0 d9 3e
       -0.14513136 -0.037188288 -0.13410811 0.42553976
000110 6e 20 23 3f 14 ff 45 3d 2c 8b 1b be c9 62 5c bd
       0.6372136 0.048338965 -0.15189809 -0.053805146
000120 b3 5a 48 3e c2 48 e8 3d cf 0e d5 3e 07 aa 38 3e
       0.19565849 0.113420025 0.4161286 0.1803361
000130 92 d4 13 be 88 c8 f5 3e 85 f7 5a 3e 6f 95 2a 39
       -0.14436558 0.48004556 0.21383484 0.00016268132
000140 93 ac 56 be 19 2e 9e 3e 8b 1f 36 3d e1 48 e0 bd
       -0.2096427 0.30894545 0.044463675 -0.109514005
000150 2f 8c 54 3e c1 b9 46 3a 61 fb 5a 3f 3c 63 16 be
       0.20756601 0.000758078 0.85539824 -0.14686292
000160 1f 11 f7 39 4c 18 1f bf c2 29 41 3d 90 4a fd bd
       0.00047124267 -0.6214645 0.047158964 -0.12367737
000170 03 60 1c 3e 4d 4f 2c 3e d7 47 94 be 53 26 15 be
       0.15271 0.16827126 -0.2896106 -0.14565401
000180 77 9e 4b 3d ad b2 e5 3e 51 53 e3 bd 64 78 79 39
       0.04971167 0.4486288 -0.11099876 0.0002379134
000190 59 b5 3e be 80 d2 d0 b9 69 5a 04 bc 3b 62 a5 bd
       -0.18623866 -0.00039829686 -0.008078196 -0.080753766
0001a0 fe e7 85 3e a5 3c d9 3d 35 14 85 bf 32 24 9c 3e
       0.26153558 0.1060727 -1.0396792 0.30496365
0001b0 46 b8 cf 3e 33 f5 08 be f9 cd 2c 3e 27 c2 9b bd
       0.40570277 -0.13374786 0.16875447 -0.07605391
0001c0 64 a0 30 be 76 0c 4b be 6c 1c 1b be 44 b7 3c be
       -0.17248684 -0.19828972 -0.15147561 -0.18429285
0001d0 1a ec e4 3d 27 3b ad 3e 56 c1 24 3e a2 76 07 3d
       0.11177845 0.33834192 0.16089377 0.03307212
0001e0 8a f7 12 bf 22 f0 5d be b5 63 f7 39 d1 e1 db bd
       -0.57408965 -0.21673635 0.000471858 -0.107364304
0001f0 73 c0 91 be 7e 25 d5 3d ff 59 0e be a5 db 08 be
       -0.2846714 0.10407542 -0.13901518 -0.13365038
000200 be 21 e7 bd 01 5e 16 bf b1 ad 50 bd f1 f6 d7 bc
       -0.11285733 -0.5873719 -0.050946895 -0.026362868
000210 52 a8 26 3e f3 e8 ab be ef 27 f2 bd 3e e4 a1 3e
       0.16275147 -0.33576164 -0.11824023 0.31619447
000220 6c e3 69 3e 39 dd 23 be 72 73 55 3e 28 28 16 3f
       0.22840661 -0.16002358 0.2084482 0.58655024
000230 7f 74 54 be 69 aa 2b 3e 3f 19 b7 be 8a 86 b8 3d
       -0.20747565 0.16764225 -0.3576145 0.09010036
000240 8f 88 28 be 85 a6 b0 3e 8a 81 4c be 75 4a 42 3f
       -0.16458343 0.34502044 -0.1997129 0.7589486
000250 26 ab e8 bd c5 40 73 3d
       -0.11360769 0.05938794
