hddm/torch_models/1f496b50127211ecb6943cecef057438_ornstein_torch_state_dict.pt (torch, 87055 bytes, 7 tensors)

layers.0.weight f4 [100, 7]
0	0xbab9379d	-0.0014130954
1	0xbd268799	-0.04065666
2	0xbcf0cbd7	-0.029394073
3	0xbd9ee2df	-0.07758116
4	0xc079394e	-3.8941226
5	0x40fc072e	7.8758764
6	0xbb41a927	-0.0029550286
7	0xbeec2853	-0.46124515
8	0xbf477d12	-0.7792522
9	0x3f6f3b69	0.9345003
10	0x3daeaf31	0.08529509
11	0xbe11d285	-0.14240463
12	0x3cb1bf99	0.021697806
13	0xbf012164	-0.50441575
14	0xbf73bb89	-0.9520803
15	0xbecb648d	-0.39725152
16	0xbf500215	-0.81253177
17	0xbed9e170	-0.42554808
18	0xbd48a828	-0.04898849
19	0x3d8d31fc	0.068942994
20	0x3e686737	0.22695623
21	0xbb75649c	-0.0037444
22	0xbda26056	-0.07928531
23	0xbe3b0e09	-0.18267073
24	0x3e0fb88a	0.1403524
25	0xbdc74829	-0.0973056
26	0x3d90b80d	0.07066355
27	0xbd202c45	-0.03910472
28	0xbca58e05	-0.020209322
29	0xbeb0c0a6	-0.3452198
30	0x3e8c15ab	0.2736028
31	0xbe758b38	-0.23978889
32	0x3fd6288f	1.6731128
33	0xbfd7222b	-1.6807302
34	0xbd6f2c8e	-0.0583921
35	0x3dfc0ace	0.12306748
36	0x3d1ff508	0.03905204
37	0xbf73da41	-0.95254904
38	0xbece957d	-0.40348426
39	0x3ee1324c	0.43983686
40	0xbedc159e	-0.42985243
41	0xbd509041	-0.05091882
42	0xbf61ec11	-0.88250834
43	0xbf7f07e2	-0.99621403
44	0xbd6124d3	-0.05496676
45	0x3d8b1048	0.06790215
46	0xba0e1389	-0.0005419781
47	0x3ca5dddf	0.020247398
48	0x3e28e9f0	0.1649549
49	0xbdcccf55	-0.10000483
50	0x3f3ffe65	0.7499755
51	0xbf98fb30	-1.1951656
52	0x3f09ec2c	0.53875995
53	0x3dd1bfec	0.10241684
54	0xbdaba508	-0.083810866
55	0xbdaa6f01	-0.083219536
56	0x3b55e5b1	0.0032638127
57	0xba4c44a3	-0.000779221
58	0x3c2a8d42	0.010409655
59	0x3ba6b913	0.0050879805
60	0xbbc3f28b	-0.005979841
61	0xba5aa75e	-0.00083409797
62	0x3abc1148	0.0014348412
63	0xbe45a3c3	-0.19300751
64	0x3e3a3bce	0.18186876
65	0x3e8cb227	0.2747967
66	0xbcaa5ea3	-0.02079708
67	0x3e95c3e8	0.29251027
68	0xbe9fdeeb	-0.3122476
69	0xbf65e25f	-0.8979854
70	0xbb28c546	-0.002575235
71	0x3ba626df	0.0050705518
72	0xbc653832	-0.013990449
73	0xb9083883	-0.00012991023
74	0x3a808ea6	0.0009808138
75	0x3ad2eef1	0.0016092939
76	0xb9a2e461	-0.00031069203
77	0x3d9b5c3b	0.07585951
78	0x3d4570e8	0.04820338
79	0x3e7c0b02	0.24613574
80	0x3df60370	0.120123744
81	0xbf7c21f6	-0.9848932
82	0xbc805061	-0.015663328
83	0xbcf7199f	-0.030163584
84	0x3e46cb4c	0.19413489
85	0xbeff4a28	-0.49861264
86	0x3f615eac	0.8803508
87	0x3e82f241	0.2557545
88	0xbf15488e	-0.58313835
89	0x3f1c7089	0.61109215
90	0x3e748234	0.23877794
91	0xbdcc8346	-0.09985976
92	0x3f2f04d9	0.6836677
93	0x408c5e66	4.3865232
94	0x3e2d4fbb	0.16924946
95	0x4067ee67	3.623926
96	0xbc5fb0c6	-0.013652986
97	0x3f8e0245	1.1094443
98	0x3dd2ff48	0.10302597
99	0xbf376fdd	-0.71655065
100	0xbf470eaf	-0.7775678
101	0x3dc97161	0.098360784
102	0xbe6e429c	-0.23267597
103	0x3e9d86d9	0.30766943
104	0xbf307a41	-0.68936545
105	0x3c8a6f40	0.016898751
106	0xbcc09d89	-0.023512619
107	0x3fe03c7f	1.7518462
108	0xbe72c539	-0.23708047
109	0x3f4aa835	0.79162914
110	0xbf4b4807	-0.7940678
111	0xbe2672bb	-0.16254704
112	0x3ef4c595	0.47806993
113	0xbecd0e14	-0.40049803
114	0xbf0e11e3	-0.5549604
115	0xbdd7996b	-0.10527309
116	0xbe41dd58	-0.18932092
117	0x3f18c81f	0.5968036
118	0x3e736428	0.23768675
119	0x3f3c6d97	0.7360472
120	0x3ec96437	0.3933427
121	0xbee9fdd9	-0.45701483
122	0xbe9e9e30	-0.30980062
123	0x3dc3537c	0.09537408
124	0xbe4876c2	-0.19576553
125	0x3ee6dc68	0.45090032
126	0x3c8bceb0	0.01706633
127	0x4029e859	2.6548064
128	0xbca9ffb3	-0.02075181
129	0xbdc0ca36	-0.09413569
130	0x3d728372	0.059207387
131	0xbdb0e842	-0.0863805
132	0xbc0270b5	-0.007961442
133	0x3af7eee0	0.0018915795
134	0xbc4f41ae	-0.012649937
135	0xbecaf7fc	-0.39642322
136	0x3ce14737	0.027499778
137	0x3dd13376	0.102148935
138	0x3a8fe426	0.0010978028
139	0x3bdd9337	0.006761934
140	0x3f8dbb66	1.1072814
141	0xbdcf45e5	-0.10120753
142	0x3dc74496	0.097298786
143	0xbf19854a	-0.5996901
144	0xbe0bdc6f	-0.13658307
145	0x3e0ef394	0.13960105
146	0xbe5002a3	-0.20313506
147	0x3b5cfcca	0.003372001
148	0xbaba46dc	-0.0014211792
149	0xbbb01868	-0.005374003
150	0x3ca8752b	0.020563683
151	0x3c0e9ec7	0.008704848
152	0x39d2d38a	0.0004021193
153	0x3bf0452b	0.007332464
154	0x3f135241	0.57547385
155	0xbf6f762b	-0.93539685
156	0xbd44940e	-0.04799276
157	0x3cb23ac6	0.021756541
158	0xbd62970d	-0.055319835
159	0x3d3a0391	0.045413557
160	0x3f95164f	1.1647433
161	0x3e01510d	0.12628575
162	0xbe89f989	-0.26948193
163	0x3f1eea91	0.6207667
164	0xbe6bfa87	-0.23044787
165	0xbf825ae0	-1.0183983
166	0x3f78beca	0.9716612
167	0xbf410347	-0.75395626
168	0xbe0eb10a	-0.13934723
169	0xbf3a726a	-0.7283083
170	0xbf4eab53	-0.8073017
171	0xbe9edf1a	-0.31029588
172	0xbf0e4f55	-0.555898
173	0x3f074edd	0.5285471
174	0xbeb80e5e	-0.3594846
175	0xbec7fa35	-0.3905808
176	0x3fa90cb8	1.3207006
177	0xbf047956	-0.51747644
178	0xbc50687a	-0.012720222
179	0x3e4f8e81	0.20269205
180	0xbe3aa771	-0.18227936
181	0x3d096821	0.03354657
182	0xbd439a60	-0.047754645
183	0xbf81bb8c	-1.013536
184	0x3da1758d	0.07883749
185	0xbf77682a	-0.96643317
186	0xbd853078	-0.06503385
187	0x3dea99b7	0.114551
188	0xbc520de8	-0.012820698
189	0x3eb335af	0.35001895
190	0xbec1b1fc	-0.37831104
191	0x3f0faa56	0.56119287
192	0x3e9bba36	0.30415505
193	0x3dd83e39	0.10558743
194	0xbdaa452a	-0.08313973
195	0xbe7f0e2e	-0.24907753
196	0xbd1aa4ed	-0.03775494
197	0x3cd7213e	0.026260968
198	0x3edcb222	0.43104655
199	0xbdd89004	-0.10574344
200	0xbfa8e3ab	-1.3194479
201	0x3fae69ed	1.3626076
202	0xbd5e50fb	-0.054276448
203	0x3f9e21d1	1.235407
204	0x3e5f18b7	0.21786772
205	0x3dede57a	0.11616035
206	0xbcfc75f6	-0.030817967
207	0x3d64cbb3	0.055858325
208	0xbd929041	-0.071564205
209	0xbe14d4e8	-0.14534342
210	0xbbfcfe0b	-0.007720714
211	0x3f1d9152	0.61549866
212	0xbee395e7	-0.44450304
213	0x3ef89d84	0.48557675
214	0xbdadc8eb	-0.08485588
215	0x3e03039f	0.1279435
216	0xbf5cbe95	-0.86228305
217	0x3d6265a1	0.055272702
218	0x3eb86ec0	0.36021996
219	0xc033f63e	-2.8119044
220	0xbddf5fec	-0.109069675
221	0xbdda3922	-0.106554285
222	0x3c40d216	0.011768838
223	0xbeecbc6f	-0.46237513
224	0x3e1658b5	0.14682277
225	0xbf15ae0f	-0.5846872
226	0x3f61319a	0.8796631
227	0xbe2cefc6	-0.16888341
228	0xbeb9530a	-0.36196166
229	0x3eb2bb1f	0.34908387
230	0x3ee52371	0.44753602
231	0xbc433012	-0.011913316
232	0x3e56d068	0.20977938
233	0x3e8378da	0.2567814
234	0xbe216ae6	-0.15763435
235	0xbe040f24	-0.128964
236	0x3f364266	0.71195066
237	0xbdf9bbaa	-0.12193997
238	0xbeebc45a	-0.46048242
239	0x3da1f85d	0.079087
240	0xbf15ba94	-0.5848782
241	0xbeb1f421	-0.34756568
242	0xbe49c48f	-0.19703887
243	0x3e144e94	0.144831
244	0xbf1f80d0	-0.6230593
245	0x3d0b7181	0.034043793
246	0x3e994196	0.2993285
247	0x3fa2111d	1.2661473
248	0x3eb64626	0.35600394
249	0xbdae1944	-0.08500913
250	0x3cfdd770	0.030986518
251	0x3f295295	0.66141635
252	0xbce65794	-0.028117932
253	0x3f828fa9	1.0200092
254	0x3e970a88	0.29500222
255	0xbdf3d095	-0.11905018

layers.0.bias f4 [100]
0	0x3e92f361	0.28701308
1	0x3ef6d9bf	0.48213002
2	0xbf5af71d	-0.85533315
3	0x3e11d2ac	0.14240521
4	0xbe3f82cb	-0.18702237
5	0x3ea08a82	0.31355673
6	0x3dd4ac0c	0.10384378
7	0x3cc8cdfc	0.024512284
8	0xb9d6723e	-0.00040902378
9	0xbdcc54da	-0.09977122
10	0x3bece7b9	0.007229772
11	0x3e5526ab	0.20815532
12	0xbea84770	-0.32867002
13	0x3f6602e4	0.8984816
14	0x3f16169a	0.5862824
15	0xbf09d2ee	-0.5383748
16	0x3f349c39	0.70550877
17	0xbc5d2f2f	-0.013500019
18	0xbf57fb5f	-0.84367937
19	0x3dd93ab7	0.10606902
20	0xbe55f71d	-0.20895047
21	0xbb33891f	-0.0027394963
22	0xbde7ad45	-0.113123454
23	0xbdeace17	-0.1146509
24	0x3ed132db	0.40859112
25	0x3e752103	0.23938374
26	0xbe7bf506	-0.24605188
27	0x3f8cda67	1.1004151
28	0xbe19782a	-0.14987245
29	0xbed37932	-0.41303402
30	0x3ca27ce0	0.019834936
31	0x3e1db630	0.1540153
32	0xbed2e6f6	-0.41191834
33	0xbef8710d	-0.4852375
34	0xbf7c68d0	-0.9859743
35	0xbe958601	-0.292038
36	0xbf41de16	-0.757295
37	0xbf23371d	-0.6375597
38	0x3f25fe84	0.64841485
39	0x3f033bcf	0.51263136
40	0xbf42c95e	-0.7608851
41	0xbf352a44	-0.7076762
42	0x3d8f324b	0.069920145
43	0xbf870c20	-1.0550575
44	0x3d94762e	0.072491035
45	0xbbc071dc	-0.005872948
46	0x3ea07d8f	0.31345794
47	0x3c2b0844	0.010438982
48	0x3f86c49e	1.0528753
49	0xbc20de3e	-0.009818612
50	0xbed745d4	-0.42045462
51	0x3c31f6f7	0.010862104
52	0xbbd3a2b9	-0.006458607
53	0xbf003182	-0.5007554
54	0x3ee303a0	0.44338703
55	0xbe254ea1	-0.16143276
56	0x3f178925	0.5919364
57	0x3edd8c54	0.43271124
58	0x3ee6df28	0.4509213
59	0xbf9401a4	-1.1563001
60	0xbfc3de31	-1.5302182
61	0xbe448a64	-0.19193417
62	0x3e6f7624	0.23384911
63	0x3e9fac94	0.31186354
64	0xbea0e209	-0.3142245
65	0xbf4cbdc6	-0.7997707
66	0xbf00679c	-0.50158095
67	0xbfa23d28	-1.2674913
68	0xbedd3551	-0.4320474
69	0xbd920e18	-0.071315944
70	0x3dd23d5c	0.102656096
71	0x3f857438	1.0426092
72	0x3e8a7eed	0.27049962
73	0x3e8b11d2	0.27162033
74	0xbe854f37	-0.26037
75	0x3dabd4ef	0.08390223
76	0xbf58a569	-0.84627396
77	0xbe205952	-0.15659073
78	0x3ac26587	0.0014831283
79	0x3ec41d67	0.38303682
80	0x3e130123	0.14355902
81	0xbf21899b	-0.63100594
82	0x3e0c1c86	0.13682756
83	0xbe47ee20	-0.19524431
84	0xbf24d3e7	-0.6438584
85	0xbe95d992	-0.29267555
86	0xbe8c4280	-0.27394485
87	0xbf5bfc76	-0.859321
88	0xbd816273	-0.06317606
89	0x3ebe17fa	0.37127668
90	0x3f460e47	0.77365535
91	0xbf91a2c3	-1.1377796
92	0x3f136c78	0.57587385
93	0x3e12c6a9	0.14333595
94	0x3eb42ed2	0.3519197
95	0x3f05b9bb	0.5223653
96	0xba7c0786	-0.0009614158
97	0xbce941a3	-0.02847368
98	0x3b9e67c2	0.0048341462
99	0xbf3594b1	-0.7093001

layers.2.weight f4 [100, 100]
0	0xbdbd5aff	-0.09245872
1	0xbe28b63f	-0.16475771
2	0x3e1931a9	0.1496035
3	0xbd21104f	-0.039322194
4	0x3e07b121	0.13251163
5	0xbf21e1af	-0.6323499
6	0x3d0f511e	0.03498947
7	0xbf11d521	-0.56965834
8	0xbb1efcd4	-0.0024259584
9	0xbeb455cd	-0.3522171
10	0x3a1175d4	0.0005548869
11	0xbd4c5dcb	-0.049894135
12	0x3e2b8196	0.16748652
13	0xbb52eb36	-0.0032183654
14	0xbea287c6	-0.31744212
15	0x3e9cd2a0	0.30629444
16	0xbe37f691	-0.17965151
17	0xbf05a75a	-0.52208483
18	0x3e255ebf	0.16149424
19	0x3ba10778	0.0049142204
20	0x3dd5f3d7	0.104468994
21	0xbb69c040	-0.0035667568
22	0xbd5d1ee1	-0.053984527
23	0xbe0be905	-0.13663109
24	0xbef997e6	-0.48748702
25	0xbd3e2cfb	-0.046429615
26	0x3f00b54e	0.5027665
27	0x3eb248f3	0.3482128
28	0x3df53e42	0.11974765
29	0x3eb4fa5f	0.35347268
30	0xbcb9c3d0	-0.022676378
31	0xbe4346af	-0.19069932
32	0x3e9de4e9	0.30838707
33	0xbda00a72	-0.07814492
34	0xbeb74e45	-0.35801902
35	0x3f05246b	0.52008694
36	0x3e596d74	0.2123316
37	0x3e8dfe1d	0.27732936
38	0xbebd3382	-0.3695336
39	0xbcc9ef04	-0.024650104
40	0xbdd3028b	-0.103032194
41	0xbf01c550	-0.506917
42	0xbdcd8269	-0.100346394
43	0x3e63caca	0.22245327
44	0x3c6e5424	0.014546428
45	0xbc76cbdf	-0.015063255
46	0xbd8aff8c	-0.06787023
47	0x3e8c97f0	0.2745967
48	0xbde234ac	-0.110452026
49	0x3f1b4976	0.6065897
50	0x3cab2653	0.020892298
51	0xbdc6ca3a	-0.097065404
52	0xbb86b46f	-0.004110865
53	0x3e2b598f	0.16733383
54	0xbec616b4	-0.38689196
55	0xbec1bc34	-0.378389
56	0x3ea3eab1	0.32014993
57	0x3e024dbf	0.1272497
58	0xbc931057	-0.017952127
59	0xbdf3c344	-0.11902478
60	0x3ea54471	0.3227878
61	0x3d8fde14	0.0702478
62	0x3def8c01	0.116966255
63	0xbd1f677d	-0.038917053
64	0xbe610cf5	-0.21977599
65	0x3e392cb8	0.18083465
66	0x3cd99bc1	0.026563527
67	0x3da5f147	0.081026606
68	0x3da69e54	0.081356674
69	0x3de037f2	0.10948171
70	0x3e4fb79d	0.20284887
71	0x3c47944f	0.012181356
72	0x3f176833	0.5914337
73	0xbe96a452	-0.2942224
74	0xbde12917	-0.109941654
75	0xbe2ec292	-0.1706641
76	0xbdc91872	-0.09819116
77	0x3f0cd294	0.55008817
78	0x3b532324	0.003221699
79	0x3e650df2	0.22368601
80	0x3c9be44e	0.019029763
81	0x3e8d5b2f	0.2760863
82	0xbe2af2e4	-0.16694218
83	0x3d97540d	0.07389078
84	0xbda318c7	-0.0796371
85	0x3ea0a39c	0.31374824
86	0xbef36469	-0.47537544
87	0xbe781a09	-0.24228682
88	0x3e8d67b9	0.27618197
89	0xbf4bdcf9	-0.7963405
90	0x3f7c3887	0.98523754
91	0xbd8d7f8d	-0.06909094
92	0xbe37a571	-0.17934205
93	0x3bec1777	0.0072049457
94	0xbe9350dc	-0.28772628
95	0xbd909026	-0.07058744
96	0xbae04d09	-0.0017112802
97	0x3e53538c	0.2063734
98	0x3c24e3bb	0.010064061
99	0xbe805ef6	-0.2507245
100	0x3eaa479e	0.33257765
101	0xbea37cd0	-0.31931162
102	0x3f3ff8df	0.7498912
103	0xbdadee34	-0.08492699
104	0xbe20b9be	-0.15695855
105	0xbc7dad19	-0.015483164
106	0x3eaec028	0.3413098
107	0xbd92119c	-0.07132265
108	0x3b862994	0.004094312
109	0xbce0f941	-0.027462604
110	0x3b4bcbbb	0.0031096775
111	0xbd43a857	-0.047767963
112	0x3da6f0ce	0.081513986
113	0x3dad6340	0.08466196
114	0xbe0a2c6a	-0.13493505
115	0xbe79db4d	-0.24400063
116	0x3d327acc	0.04357414
117	0x3e0e7ed2	0.13915566
118	0x3e12fc39	0.14354028
119	0x3dc1f707	0.09470945
120	0xbea13f88	-0.31493783
121	0x3bcd9528	0.0062738843
122	0xbe6267c9	-0.22109903
123	0xbc19156e	-0.009343488
124	0xbc979b62	-0.01850671
125	0xbe3179f7	-0.17331682
126	0x3d978d4b	0.07399996
127	0xbe506b47	-0.20353423
128	0x3e509ff4	0.20373517
129	0x3f8e2389	1.1104594
130	0xbd0fc3c1	-0.035098795
131	0x3d4cd61f	0.05000889
132	0x3aa13199	0.0012298106
133	0x3d4f0da6	0.050550126
134	0x3ea455ec	0.32096803
135	0x3d9ff41a	0.078102306
136	0x3def52b6	0.11685698
137	0x3caa9ae0	0.020825803
138	0xbce4e2c0	-0.027940154
139	0xbe89172e	-0.26775497
140	0x3c2cee16	0.010554811
141	0x3ddc558c	0.10758504
142	0xbd825760	-0.06364322
143	0x3e59a9d1	0.21256186
144	0xbd9f2e2f	-0.07772481
145	0xbe0a9057	-0.13531624
146	0x3e86e0db	0.26343426
147	0x3e3b9014	0.1831668
148	0xbe4dd188	-0.20099461
149	0x3daf42ac	0.085576385
150	0x3d19df64	0.037566558
151	0x3f353b89	0.7079397
152	0xbb597069	-0.0033178574
153	0x3cb15d58	0.021650955
154	0xbf0406c3	-0.5157282
155	0xbe117e48	-0.14208329
156	0x3dd7cbe1	0.10536934
157	0xbea223a3	-0.31667814
158	0x3d8bdd87	0.06829362
159	0x3e267e64	0.16259152
160	0x3f7127a5	0.9420112
161	0xbd74d23a	-0.0597708
162	0x3cb3c54b	0.021944663
163	0x3d434a6a	0.04767839
164	0xbcd2a72c	-0.02571448
165	0x3e24be24	0.16088158
166	0x3b91fd90	0.004455276
167	0x3f816a61	1.0110589
168	0xbe7aec75	-0.24504264
169	0x3f8fd9e5	1.1238371
170	0xbc29dce0	-0.010367602
171	0xbcbe55a4	-0.023234196
172	0x3dc5c956	0.096575424
173	0x3b080ce5	0.002075964
174	0x3d8961d4	0.06708112
175	0xbde232f8	-0.11044878
176	0xbb78915c	-0.0037928438
177	0x3e9765ff	0.29570004
178	0xbb03fe8a	-0.002014073
179	0xbd6114f3	-0.05495162
180	0x3eaaecc2	0.33383757
181	0x3e3ecd18	0.18632925
182	0xbb25a933	-0.0025277853
183	0xbe364444	-0.17799479
184	0x3cb4bb5d	0.022061998
185	0x3f0b93df	0.5452251
186	0x3ec5a80f	0.3860478
187	0xbe4f9cf8	-0.20274723
188	0x3db5b805	0.088729896
189	0xbef97419	-0.48721388
190	0xbf216239	-0.630405
191	0x3f264667	0.64951175
192	0xbd82d254	-0.06387773
193	0x3ca69f65	0.020339677
194	0xbd9d110f	-0.07669269
195	0xbd3a374a	-0.045462884
196	0x3b0cb693	0.0021471127
197	0xbdc7a90a	-0.097490385
198	0x3b0ec49c	0.0021784669
199	0x3d1d8909	0.038460765
200	0x3f1ebb19	0.6200424
201	0x3c10754a	0.008817026
202	0x3f42f659	0.76157147
203	0xbe0bec86	-0.13664445
204	0xbeacc563	-0.33744344
205	0xbf3a6e3e	-0.72824466
206	0xbe95745e	-0.29190344
207	0x3e728c56	0.23686346
208	0xbc9db841	-0.019252898
209	0x3f14c2e5	0.58109885
210	0x3cc8b01f	0.024498044
211	0xbd8ffa15	-0.07030121
212	0x3f2ee518	0.6831832
213	0xbe0cf4af	-0.13765214
214	0xbe805546	-0.25065058
215	0x3f81019a	1.0078614
216	0x3f4b122a	0.7932459
217	0xbf5c6110	-0.86085606
218	0x3f2118fe	0.6292876
219	0xbde782f4	-0.11304274
220	0xbe5b5b86	-0.21421632
221	0xbc78c920	-0.015184671
222	0xbcb4afbc	-0.022056453
223	0x400afb2e	2.1715808
224	0x3f433a4f	0.76260847
225	0xbe88c904	-0.26715863
226	0x3ce4429c	0.027863793
227	0x3bfc5f67	0.0077018025
228	0x3dd8d119	0.10586757
229	0x3ee12283	0.43971643
230	0xbe3d803c	-0.18505949
231	0x3e7e65a3	0.24843459
232	0xbeca31ea	-0.39491206
233	0x3f436748	0.7632947
234	0xbec85184	-0.3912469
235	0x3eddf72f	0.4335265
236	0xbd3d1ecf	-0.04617196
237	0x3e985cb2	0.2975822
238	0x3f15300a	0.58276427
239	0x3e6b813a	0.22998515
240	0xbeeea1ff	-0.46607968
241	0x3e092dd2	0.13396385
242	0xbfb4b02b	-1.4116262
243	0x3e56a72f	0.20962213
244	0xbfa4fa22	-1.2888834
245	0xbed573ac	-0.41689813
246	0x3d7d6a51	0.06186897
247	0x3f36b577	0.71370643
248	0x3fa3cb3c	1.2796397
249	0x3f81937d	1.0123135
250	0xbf75b83d	-0.9598425
251	0x3e77fb8d	0.24217053
252	0x3c8d101e	0.0172196
253	0x3e850b76	0.25985307
254	0xbf32fb54	-0.69914746
255	0xbf062825	-0.52405006

layers.2.bias f4 [100]
0	0x3df86db9	0.12130303
1	0xbd03ed7c	-0.032208905
2	0xbe785d13	-0.24254255
3	0xbf02c340	-0.5107918
4	0x3f9a7b73	1.2068924
5	0x3e191101	0.14947893
6	0x3ec3fdb7	0.38279507
7	0xbdf29a98	-0.11845893
8	0x3e57240c	0.21009845
9	0xbf192e92	-0.59836686
10	0x3e5aaa9b	0.21354143
11	0xbe177f3a	-0.14794627
12	0x3e17d99d	0.14829107
13	0x3f58ebcd	0.84734803
14	0x3ed872db	0.42275128
15	0x3e82d575	0.2555348
16	0xbe440f27	-0.19146405
17	0x3f58197e	0.844139
18	0x3e267c96	0.16258463
19	0x3ed697e5	0.4191276
20	0xbd340e4f	-0.04395896
21	0xbeadcbab	-0.3394445
22	0x3e733041	0.23748876
23	0x3d933bf6	0.07189171
24	0x3e6377dd	0.22213693
25	0xbf6fdcc7	-0.93696254
26	0x3e15119b	0.14557497
27	0xbe9b4dbc	-0.30332744
28	0x3d9896fe	0.074506745
29	0x3e871635	0.2638413
30	0x3f0847c2	0.53234494
31	0x3f051de6	0.51998746
32	0x3e7918ec	0.24325913
33	0x3efa876f	0.48931453
34	0xbf8a35ba	-1.0797646
35	0xbf4ec907	-0.80775493
36	0x3f5c127e	0.85965717
37	0xbe85922b	-0.2608808
38	0x3ebdb4db	0.37052044
39	0xbe0b778d	-0.13619824
40	0x3eef4c67	0.46737978
41	0x3ee0cbbd	0.4390544
42	0xbeba93f4	-0.36441004
43	0x3fa58619	1.2931548
44	0xbe1c5207	-0.15265666
45	0xbde372af	-0.111058585
46	0xbf3a58ba	-0.72791636
47	0x3f61805e	0.880865
48	0xbbb2917b	-0.0054494715
49	0xbaed94ad	-0.0018125974
50	0x3f05e8ad	0.5230816
51	0x3f81605c	1.0107532
52	0x3e509b55	0.20371754
53	0xbf794ecd	-0.97385865
54	0xbf167c3b	-0.5878331
55	0xbe53c8e8	-0.20682108
56	0x3f0b2d51	0.5436602
57	0xbef64dae	-0.4810614
58	0x3dfd8b0f	0.12380039
59	0x3dde0a90	0.108418584
60	0x3eda7f28	0.42675138
61	0x3e056d36	0.13029942
62	0x3f6e6cba	0.93134654
63	0x3eaf2bf8	0.34213233
64	0xbf04cba0	-0.5187321
65	0xbf4ba7d5	-0.79552966
66	0xbe647d18	-0.22313344
67	0x3e64bbb0	0.22337222
68	0x3da7a11f	0.08185028
69	0x3ea5b0ab	0.3236135
70	0x400f3310	2.2374916
71	0xbf3f8d92	-0.74825394
72	0xbefe6092	-0.49683052
73	0xbe2433ad	-0.16035338
74	0x3e847c4d	0.25876084
75	0x3e357ccb	0.17723386
76	0xbd3b3e9a	-0.045714
77	0x3e9f1fb3	0.31078872
78	0xbf365735	-0.7122682
79	0x3da0b2ce	0.07846604
80	0xbe044020	-0.12915087
81	0x3ed7b50e	0.4213032
82	0x3de9db4c	0.11418781
83	0xbeccd1ff	-0.40003964
84	0xbe442625	-0.19155176
85	0x3ccfe650	0.025378376
86	0xbfb0d02a	-1.3813527
87	0xbf768095	-0.9628995
88	0x3ed259c8	0.41084123
89	0xbeb8ed90	-0.36118746
90	0xbec02e14	-0.37535155
91	0x3ee58139	0.44825152
92	0x3e9a2861	0.30108932
93	0xbe18d5aa	-0.14925256
94	0x3e71ccd3	0.2361329
95	0xbf0f940f	-0.56085294
96	0xbf354e0f	-0.7082223
97	0x3e153cec	0.14574021
98	0xbe71ce5c	-0.23613876
99	0xbf92c718	-1.1467009

layers.4.weight f4 [100, 100]
0	0xbf361fac	-0.7114208
1	0xbf8a847f	-1.0821685
2	0x3f687050	0.90796375
3	0x3e4be57d	0.19911762
4	0xbe953581	-0.29142383
5	0x3e6cfc4c	0.23143119
6	0xbee539ad	-0.44770566
7	0xbf702c8b	-0.9381797
8	0x3d0e585f	0.034752246
9	0x3ee53b60	0.44771862
10	0x3d607468	0.054798514
11	0xbf251e23	-0.6449911
12	0x3df50f5f	0.119658224
13	0xbf5482e5	-0.8301223
14	0x3e01d632	0.12679365
15	0xbec247fb	-0.37945542
16	0x3f8b2ab3	1.0872406
17	0xbe08264d	-0.1329586
18	0xbf14d909	-0.5814367
19	0xbf78942c	-0.9710109
20	0xbc4bdc1f	-0.012442618
21	0x3ea13f9c	0.31493843
22	0xbf034512	-0.5127727
23	0x3e9a096d	0.30085316
24	0xbecbdfbe	-0.3981914
25	0xbdacba56	-0.08433978
26	0x3e5eec26	0.21769771
27	0x3e13bef9	0.14428319
28	0x3d986845	0.07441763
29	0xbec0ebb4	-0.37679827
30	0xbf69a63a	-0.91269267
31	0xbd9a89b3	-0.07545795
32	0xbe958f1a	-0.2921074
33	0x3d8ca071	0.06866539
34	0x3e8d1f3f	0.275629
35	0xbb6b3515	-0.0035889794
36	0xbe41a52a	-0.18910661
37	0x3defc773	0.11707964
38	0x3da43390	0.08017647
39	0x3db0df28	0.08636314
40	0xbeb2e090	-0.34936953
41	0xbef4bc63	-0.47799978
42	0xbea48919	-0.32135847
43	0xbe9a32df	-0.30116937
44	0x3e79e4f9	0.24403752
45	0xbeb70258	-0.35743976
46	0xbf84d4ca	-1.0377438
47	0xbe2ed364	-0.17072827
48	0x3ca3a4a7	0.019975973
49	0xbea320e9	-0.31861046
50	0xbe186f67	-0.14886247
51	0xbe39a6ce	-0.18130037
52	0x3f0649e2	0.52456486
53	0x3ee55360	0.44790173
54	0xbf2cea59	-0.67545086
55	0x3e9e7602	0.30949408
56	0xbddc5b15	-0.1075956
57	0x3e5d5624	0.21614891
58	0x3f09600f	0.536622
59	0x3e6b9698	0.23006666
60	0xbef1b588	-0.4720881
61	0xbf3dbccc	-0.74116206
62	0xbdb2fe85	-0.08739952
63	0x3f6ca9f7	0.92446846
64	0x3e93bef1	0.28856614
65	0x3e9ca3e4	0.3059379
66	0x3ed6f112	0.41980797
67	0x3dc9fcc7	0.098626666
68	0x3e89afb6	0.2689187
69	0xbee13960	-0.43989086
70	0xbee4d3de	-0.44692892
71	0xbeb65e0c	-0.35618627
72	0x3d22614a	0.039643563
73	0x3eb4a2f1	0.35280564
74	0x3f8cc28f	1.0996875
75	0x3f38bd79	0.7216411
76	0xbf119ea6	-0.56882703
77	0x3f48e6be	0.78477085
78	0x3f129c28	0.57269526
79	0x3edd9c2f	0.4328322
80	0xbe748849	-0.23880114
81	0xbe778c76	-0.24174675
82	0xbef3e3a1	-0.47634605
83	0xbf9848bf	-1.18972
84	0x3ddb9fb9	0.10723824
85	0xbebf1b28	-0.37325406
86	0x3f95c9af	1.1702174
87	0x3eeefdc3	0.4667798
88	0xbe815425	-0.2525951
89	0x3ea028f9	0.3128126
90	0xbd1df322	-0.038561948
91	0x3fae1f8c	1.3603377
92	0xbf0aeb47	-0.54265255
93	0xbe9d8305	-0.30764022
94	0x3ef316ac	0.47478235
95	0x3e73a886	0.23794755
96	0x3d2f5bf3	0.0428123
97	0x3f447504	0.7674105
98	0x3e841ea7	0.25804636
99	0x3efda62a	0.49540836
100	0xbc5548a0	-0.013017803
101	0xbe954485	-0.2915384
102	0x3d94d849	0.072678156
103	0xbdae5545	-0.085123576
104	0x3e9d24e7	0.30692217
105	0xbe814e9f	-0.25255296
106	0x3d87aea4	0.06625107
107	0xbe2bddbf	-0.16783808
108	0x3e719d56	0.23595175
109	0xbe395eba	-0.18102542
110	0xbe0392af	-0.12848924
111	0x3ee1ced6	0.44103116
112	0x3e80c357	0.25149032
113	0x3e8994be	0.26871294
114	0xbf172a81	-0.5904923
115	0x3e22d63b	0.15902035
116	0x3e4b6834	0.19863969
117	0x3ea2703b	0.3172625
118	0xbd32d441	-0.043659452
119	0xbd2d5184	-0.042314067
120	0xbdd1f07a	-0.102509454
121	0x3d44cafc	0.048045143
122	0x3ec85ae0	0.39131832
123	0xbf2a2d24	-0.6647513
124	0xbda43e49	-0.080196925
125	0xbe500851	-0.20315672
126	0x3f2bb9db	0.6708047
127	0xbf520af4	-0.82047963
128	0xbe9a99b1	-0.30195382
129	0x3e859f17	0.26097938
130	0xbdb58fe8	-0.088653386
131	0x3e8e01ec	0.2773584
132	0xbde152df	-0.110021345
133	0x3e81e0d6	0.2536685
134	0xbe9a4dee	-0.3013758
135	0xbe6f3927	-0.23361646
136	0x3ea393de	0.3194875
137	0x3e62209b	0.2208275
138	0x3b30fb4c	0.0027005253
139	0x3d320830	0.04346484
140	0x3b3bca12	0.002865438
141	0x3cb1e68b	0.021716377
142	0xb96f4c94	-0.00022821344
143	0x3eac77e1	0.3368521
144	0xbe5e098a	-0.21683326
145	0xbe9d3379	-0.30703333
146	0x3e6be4fc	0.2303657
147	0x3c1102c4	0.008850757
148	0xbfa219d6	-1.2664135
149	0x3d7d35f9	0.06181905
150	0x3e16d9c3	0.14731507
151	0x3e44e882	0.1922932
152	0xbe47aff1	-0.1950071
153	0x3e1e9301	0.15485765
154	0xbe5637a3	-0.20919661
155	0x3e29ca9d	0.16581197
156	0x3e49ecd0	0.19719243
157	0x3cfa019e	0.03051835
158	0xbd9c50e3	-0.076326154
159	0xbee5ec77	-0.4490697
160	0x3e0be116	0.13660082
161	0x3daf00ce	0.08545075
162	0x3eb49b3b	0.3527468
163	0xbead3087	-0.33826086
164	0xbe93a4a5	-0.2883655
165	0xbdc92162	-0.098208204
166	0xbea9385a	-0.33050805
167	0xbe3ffd99	-0.18749084
168	0x3d3b40bc	0.045716032
169	0x3e62eb2f	0.22160028
170	0x3e9447fb	0.28961167
171	0xbe708928	-0.23489821
172	0x3b7bba9b	0.0038410786
173	0x3c2c2392	0.0105065275
174	0xbf06786b	-0.52527493
175	0x3dce7e42	0.100826755
176	0x3dd036d4	0.10166708
177	0xbef42896	-0.47687215
178	0xbd8f5a09	-0.06999595
179	0xbe57c8ed	-0.21072741
180	0x3eb71cba	0.35764104
181	0xbb96b336	-0.0045990003
182	0x3d375496	0.0447584
183	0x3f24d75c	0.6439111
184	0xbe307606	-0.17232522
185	0x3aa494d5	0.0012556562
186	0xbe198a83	-0.14994244
187	0xbec37357	-0.38173935
188	0xbccf91d9	-0.0253381
189	0xbc510318	-0.012757085
190	0xbd79cde7	-0.06098738
191	0xbf02983f	-0.5101356
192	0xbdfd67c2	-0.12373306
193	0x3ef353f2	0.47524983
194	0x3e012960	0.1261344
195	0x3c9d4101	0.019196035
196	0xbea143e6	-0.31497115
197	0xbec8fa6e	-0.39253563
198	0xbdacc475	-0.08435909
199	0xbe2ee5d4	-0.1707986
200	0xbea2b087	-0.31775305
201	0xbf00590c	-0.50135875
202	0xbe4dac5e	-0.20085284
203	0x3ed35ae1	0.41280273
204	0x3e82ace3	0.25522527
205	0x3e4284d5	0.18995984
206	0x3eb077f0	0.34466505
207	0x3f022019	0.5083023
208	0xbd7f3355	-0.062304813
209	0xbe9307e6	-0.28716964
210	0x3eb41f72	0.3518024
211	0xbef38504	-0.4756242
212	0x3e4a38b1	0.19748189
213	0x3e4ad956	0.1980947
214	0x3d4f1547	0.0505574
215	0x3e4d1f29	0.20031418
216	0xbf0e4223	-0.55569667
217	0x3d7bafdb	0.061447006
218	0x3f141927	0.5785088
219	0xbe5001ff	-0.20313261
220	0xbf5ef024	-0.87085176
221	0xbe8b7cd1	-0.27243665
222	0xbe90cf2e	-0.28283066
223	0xbec92792	-0.39288002
224	0xbe93e538	-0.28885818
225	0xbf14cb86	-0.5812305
226	0x3c420f7b	0.011844511
227	0x3e92d66b	0.28679213
228	0xbe24424b	-0.16040914
229	0x3eb1425b	0.34620938
230	0x3e47592e	0.19467613
231	0xbe31c8a1	-0.1736169
232	0xbeaf18ca	-0.341986
233	0x3e9b577a	0.30340177
234	0xbe8e426e	-0.27785057
235	0x3d703b05	0.058650035
236	0xbe14ef83	-0.14544491
237	0xbf364066	-0.71192014
238	0xbefcb7bc	-0.49358928
239	0xbec22ec2	-0.37926298
240	0x3e84ba39	0.25923327
241	0x3e16406a	0.1467301
242	0x3e3e47f7	0.1858214
243	0x3e9fc589	0.31205395
244	0x3c6eabae	0.014567299
245	0xbe6a6846	-0.2289134
246	0x3e37c6fa	0.17946997
247	0x3e261dea	0.16222349
248	0xbde1dbf0	-0.11028278
249	0x3ebc0677	0.36723682
250	0x3c2c3665	0.010511016
251	0x3e9dac58	0.3079555
252	0xbef58314	-0.47951567
253	0xbe3dcb0f	-0.18534492
254	0x3dda5c20	0.10662103
255	0xbe54b57f	-0.2077236

layers.4.bias f4 [100]
0	0xbeb28f70	-0.3487506
1	0x3ec287b9	0.37994173
2	0x3ec3403e	0.3813495
3	0xbe85ce71	-0.26134065
4	0x3e7744a2	0.24147275
5	0xbe579cf6	-0.2105597
6	0x3e6b26e7	0.22964059
7	0xbceb90ae	-0.028755512
8	0x3c7ff30d	0.015621913
9	0x3e870708	0.26372552
10	0xbe835513	-0.25650844
11	0x3de3eac4	0.11128762
12	0x3e619b45	0.22031887
13	0xbedbb62f	-0.42912433
14	0xbeac98cc	-0.33710325
15	0x3f1e089f	0.61731905
16	0x3e5806ed	0.21096392
17	0xbe9cac8d	-0.30600396
18	0x3e576795	0.21035607
19	0x3ddbfc16	0.10741441
20	0x3eb81e64	0.35960686
21	0x3e7b919a	0.24567261
22	0xbe84b383	-0.25918207
23	0x3ec73212	0.38905388
24	0xbe59a319	-0.21253623
25	0x3ea8e499	0.32986906
26	0xbe506e83	-0.20354657
27	0x3ebdbae2	0.37056643
28	0x3e824d13	0.25449428
29	0xbe4bd5b5	-0.19905742
30	0x3e37dcad	0.17955275
31	0xbdf29a9a	-0.11845894
32	0xbece7e77	-0.4033086
33	0xbe5843bc	-0.21119589
34	0x3e87a979	0.26496485
35	0x3e75f047	0.2401744
36	0xbf1b8518	-0.6074996
37	0x3e6e215f	0.23254918
38	0x3ecf1ccd	0.4045166
39	0xbeb4a5a9	-0.3528264
40	0x3e3759db	0.17905371
41	0xbe715f9a	-0.23571625
42	0xbeafce9e	-0.34337324
43	0x3ea1eeae	0.3162741
44	0x3eda1335	0.4259278
45	0xbe74a121	-0.23889591
46	0xbebe15b1	-0.37125924
47	0x3ee5436e	0.44778007
48	0xbe511045	-0.20416363
49	0xbeb8bbb3	-0.36080703
50	0x3e93984f	0.2882714
51	0xbea8c3ec	-0.32961977
52	0x3e82f09b	0.25574192
53	0x3f058d1b	0.52168435
54	0xbea28d7a	-0.31748563
55	0xbea5cbd9	-0.32382086
56	0xbeaa15e9	-0.3321984
57	0xbed0a8f8	-0.40753913
58	0xbea73973	-0.32661018
59	0xbe840748	-0.25786805
60	0x3e2c6004	0.16833502
61	0x3f07a9ba	0.5299336
62	0x3ef5f810	0.4804082
63	0x3e8437b2	0.25823742
64	0x3b5dd594	0.0033849226
65	0x3f2a0913	0.66420096
66	0x3ebeb823	0.3724986
67	0xbe0d6d95	-0.13811333
68	0xbe772507	-0.24135219
69	0x3ee9568b	0.4557384
70	0x3ec85c98	0.39133143
71	0xbdb34c2c	-0.08754763
72	0x3ed71689	0.4200938
73	0xbed5e3ac	-0.41775262
74	0xbed15105	-0.40882125
75	0x3e8ef83a	0.27923757
76	0x3e6ec5eb	0.23317687
77	0xbe16f903	-0.14743428
78	0xbf0a0221	-0.539095
79	0x3edb619c	0.42847908
80	0x3eb67359	0.35634878
81	0x3ea7e9fd	0.32795706
82	0xbe175623	-0.14778952
83	0xbe544b26	-0.20731792
84	0xbe39ad52	-0.18132523
85	0xbe4a27ea	-0.19741789
86	0x3e8f1b0d	0.27950326
87	0xbecc2621	-0.3987284
88	0x3e86dc63	0.26340017
89	0x3d89a839	0.06721539
90	0x3ea1af25	0.31578937
91	0x3de9e80b	0.11421212
92	0x3e9a2143	0.30103502
93	0x3e9148fe	0.28376
94	0xbe3b3327	-0.18281232
95	0x3e81dd6d	0.25364247
96	0x3e92dbf8	0.28683448
97	0xbe377362	-0.17915109
98	0xbef23a7f	-0.47310254
99	0x3deec0a1	0.11657835

layers.6.weight f4 [1, 100]
0	0x3e340045	0.17578228
1	0xbe1e5481	-0.15461923
2	0xbd0a5b40	-0.03377843
3	0x3e54bdb4	0.20775491
4	0xbea1a747	-0.31572935
5	0x3ea3c7b9	0.31988314
6	0xbdb27f9d	-0.087157466
7	0xbd4d70aa	-0.050156273
8	0x3eafad38	0.34311843
9	0xbe1c0327	-0.15235578
10	0x3d38ae27	0.04508796
11	0xbf274bc7	-0.6535
12	0xbdcbad87	-0.09945207
13	0x3dd8173c	0.105513066
14	0x3eb67ed7	0.35643646
15	0xbe5f0f89	-0.2178327
16	0xbdc3faa7	-0.095692925
17	0x3e89f25e	0.26942724
18	0xbe17f1a5	-0.14838274
19	0x3d2f5ef6	0.04281517
20	0xbd50d168	-0.050980955
21	0xbe1c412a	-0.15259233
22	0x3dedc6df	0.11610197
23	0xbdbd3cfe	-0.09240149
24	0x3e8904e8	0.26761556
25	0xbe8b7d75	-0.27244154
26	0xbf0a165c	-0.5394037
27	0xbdee419d	-0.116336085
28	0xbddf1f54	-0.10894647
29	0x3cc6ac1a	0.024251986
30	0xbe69b00b	-0.22821061
31	0x3dc30afc	0.095235795
32	0x3e9e3c22	0.30905253
33	0x3e283ae2	0.16428712
34	0xbe5c0861	-0.21487571
35	0xbe9c4ca6	-0.30527228
36	0x3e42cdc5	0.19023807
37	0xbda00bbc	-0.07814738
38	0xbddfe4ac	-0.109322876
39	0x3e4d8df6	0.20073685
40	0xbdb8bfa6	-0.09020929
41	0x3e6545ea	0.22389951
42	0x3d510c23	0.051036965
43	0xbe077fb9	-0.13232316
44	0xbe423e7f	-0.18969153
45	0x3e6cdcd6	0.23131117
46	0x3eaa527e	0.33266062
47	0xbe0a0395	-0.13477929
48	0x3e0fbdca	0.14037243
49	0x3e9d368d	0.3070568
50	0xbe9f20ca	-0.31079704
51	0x3db6f6b6	0.08933775
52	0xbdc98af7	-0.098409586
53	0xbea52ff3	-0.32263145
54	0x3e47494b	0.19461553
55	0x3e4b337b	0.19843857
56	0x3e69c8a1	0.2283044
57	0x3e22752a	0.15865007
58	0x3e08aa5c	0.13346237
59	0x3e8b341c	0.27188194
60	0xbe1352a8	-0.14387
61	0xbeb88f94	-0.3604704
62	0xbe4ac8f7	-0.19803225
63	0xbe0ea82a	-0.13931337
64	0x3a7a94d1	0.00095589185
65	0xbf330bc2	-0.69939816
66	0xbe82e131	-0.25562432
67	0x3eaf7452	0.34268433
68	0x3dbdb825	0.092636384
69	0xbe791aac	-0.24326581
70	0xbe656257	-0.22400795
71	0xbd42bb50	-0.047541916
72	0xbe913053	-0.2835718
73	0x3e01039c	0.12599033
74	0x3e5ff0e5	0.21869238
75	0xbda5fa85	-0.081044234
76	0xbdad102d	-0.08450351
77	0x3e58c902	0.21170428
78	0x3ebfb33c	0.37441432
79	0xbef72cb5	-0.48276296
80	0xbe31e286	-0.17371568
81	0xbe336dc8	-0.17522347
82	0x3daab5d2	0.08335461
83	0x3e6c1e23	0.23058371
84	0x3e30a7b6	0.17251477
85	0x3e579825	0.21054132
86	0xbe824cdc	-0.25449264
87	0x3e33cf78	0.17559612
88	0xbdf2e00a	-0.11859138
89	0x3760d8d4	1.3401925e-05
90	0xbd4fb876	-0.050713025
91	0xbeab7c06	-0.3349306
92	0xbe3154c3	-0.1731749
93	0xbdfd7a70	-0.12376869
94	0x3e651ac8	0.22373497
95	0x3effe59c	0.49979866
96	0xbe23f614	-0.1601184
97	0xbe213903	-0.15744404
98	0x3e063673	0.13106708
99	0xbe9f6bd5	-0.31136957
