hddm/torch_models/247aa76015d311ec922d3cecef057012_seq2_no_bias_torch_state_dict.pt (torch, 87055 bytes, 7 tensors)

layers.0.weight f4 [100, 7]
000000 45 69 c6 bd a5 83 e8 bc 48 f3 39 3e 3d 74 86 3e
       -0.09688047 -0.028383086 0.1815921 0.26260558
000010 f7 10 0b 3d 23 60 a8 bc a7 fb 44 bf 93 22 71 bd
       0.033951726 -0.020553654 -0.7694649 -0.058870863
000020 e1 f4 40 3e 70 24 76 3b 16 56 43 3f dd 81 c8 3b
       0.18843414 0.003755834 0.7630323 0.0061189965
000030 42 d6 7c bc 32 06 af bd 88 e4 e9 bc c7 76 22 bc
       -0.015431942 -0.085461035 -0.028551355 -0.009916014
000040 79 72 c0 bc 50 b1 2f 3f bd 90 a4 3f ab e3 a0 bf
       -0.023492085 0.6862993 1.2856671 -1.2569479
000050 64 25 7f 3d 0b 9a 78 3e 73 ec e5 3c 10 58 07 3d
       0.062291518 0.24277513 0.02806685 0.033042967
000060 df 7e 87 3e 4c bf 71 3e 48 38 a3 bc d3 1d e6 be
       0.26463982 0.2360813 -0.019924298 -0.4494463
000070 aa 82 01 bf ee 36 bc bb 3f 9e 10 3f 00 98 b0 3e
       -0.5059 -0.005743853 0.56491464 0.34490967
000080 7d 69 0d bd 77 d4 a2 3c e6 c9 f2 3e f2 db 0d 3e
       -0.03452443 0.019876702 0.4741966 0.13853434
000090 fd 3b 9e 3e ff 45 c7 bc e3 2b 59 3e 6b 2b 55 bd
       0.30905142 -0.024325369 0.21208148 -0.05204336
0000a0 81 f5 27 3d 5b d7 3c 40 6e 19 b7 bd f6 e7 8b bb
       0.041005615 2.9506443 -0.08940397 -0.0042695953
0000b0 6b a4 92 be b7 3e 05 3f ca 3a 2a 3e 1a 6a 16 be
       -0.28641066 0.5204882 0.16623989 -0.14688912
0000c0 db c5 ba 3e d3 42 60 3b c3 f7 f4 bc 0d 42 21 bc
       0.36479077 0.0034219518 -0.029903298 -0.009842408
0000d0 98 4f 9e 3f 64 5e a9 3f 85 94 3f bc 1c 3b d8 bb
       1.236804 1.3231931 -0.011693125 -0.0065988433
0000e0 55 6d d4 bd 0a 46 94 3e 69 5a 88 3c 3d 6d 77 be
       -0.10372416 0.28959686 0.016644673 -0.24162765
0000f0 3b de 81 3c 95 59 ca bc ec 7b c1 3f 86 7e e4 bd
       0.015853038 -0.02470092 1.5115943 -0.11156945
000100 9b d8 70 be 50 33 86 bc bd 96 bd 3e 76 02 d6 3e
       -0.23520128 -0.01638189 0.37029067 0.41798753
000110 b9 dd e0 be aa 10 04 bf 11 e7 b9 bd 35 35 09 bc
       -0.4391916 -0.5158793 -0.090772755 -0.008374502
000120 77 82 8b bd 91 32 a1 be 39 3e 8e bf 58 0f 8e 3f
       -0.068119936 -0.31483892 -1.1112739 1.1098433
000130 65 38 b8 3d 94 dd 20 3d 29 61 f3 3c 79 37 a2 bd
       0.089951314 0.039273813 0.029709416 -0.07920737
000140 4d 44 57 3f 04 e7 1d 3f bc d7 23 bf 93 d4 b9 bd
       0.84088594 0.61680627 -0.6400106 -0.090737484
000150 5f 52 3e 3e 70 68 a6 3e 42 41 87 3c f9 45 b6 3e
       0.1858611 0.32501554 0.01651061 0.3560026
000160 41 56 80 3e f2 63 87 be b9 46 77 3e ab cc c0 bd
       0.25065807 -0.2644344 0.24148072 -0.09414037
000170 dc 63 a4 3f 63 bf 08 3c c3 b7 14 3f 42 2a 11 bd
       1.2842975 0.008346411 0.580929 -0.03544069
000180 19 3f 4a 3d 6d 14 80 bf fd 86 b6 bf 50 c1 88 3b
       0.04937658 -1.0006233 -1.4259945 0.0041734353
000190 cf 19 25 3c 9a 96 af be d1 8d 80 3b 5c 48 d7 bb
       0.010076954 -0.34294587 0.003923156 -0.006569905
0001a0 21 37 03 3d b7 76 aa bd 22 37 e7 3c b4 d6 12 3d
       0.032034997 -0.08323424 0.028224532 0.035849288
0001b0 a5 65 27 3f 24 16 b3 3c 81 94 79 bd c6 e7 34 3e
       0.6538947 0.021861143 -0.06093264 0.1766654
0001c0 b5 50 f8 bb 7b 17 56 bf 1f 4e 20 3b 6b 80 f1 3e
       -0.0075779804 -0.8362958 0.0024460626 0.47168288
0001d0 a5 f3 7c 3d 23 81 70 bd 08 61 20 3f d0 65 c1 3d
       0.061755795 -0.058716904 0.6264806 0.09443247
0001e0 c9 42 1b bd 72 a6 a4 3d 77 5c c4 3e 6a 37 78 be
       -0.03790549 0.080395594 0.38351795 -0.24239889
0001f0 f4 27 8a 3d 54 b5 82 3c c6 25 a4 3f 69 c5 5c 3a
       0.06745902 0.015955605 1.2824028 0.00084217504
000200 c1 e2 a4 3c d4 0c 98 be e8 4a 07 bd 47 c0 19 3d
       0.020127656 -0.29697287 -0.03303042 0.037536886
000210 ed e4 1a be a5 51 0a 3f 2f 55 91 bc 75 ea 61 3f
       -0.15126391 0.5403083 -0.017740814 0.8824838
000220 79 e5 a7 bd b7 1c 7d bd 2e 7c 7c 3d 57 32 04 3f
       -0.08198065 -0.061794963 0.061641864 0.5163931
000230 98 b0 a7 bc 1e 74 08 3c fa 1a 75 3d ae 14 e9 3e
       -0.020469949 0.008328466 0.05984018 0.4552359
000240 03 a9 11 3e e1 52 42 be ca 5d 2d 3f 99 cf 49 bc
       0.14224629 -0.18976928 0.67721236 -0.012317562
000250 40 4c f4 3b 9f 00 44 3c 19 29 a6 3e 9f a0 61 3f
       0.007455379 0.011963039 0.3245323 0.88135713
000260 85 9e c8 bf f4 9b 26 3b 9b a9 5a 3c 6d 7d d2 ba
       -1.5673376 0.0025422545 0.013346101 -0.0016059108
000270 85 f1 b7 bb 89 26 3b 3f da 23 a4 3e e8 c2 93 be
       -0.005613508 0.73105675 0.32058603 -0.2885964
000280 7f 10 93 bc b1 39 ed be bd 4d 95 bc e3 dd 2b bd
       -0.017952202 -0.46333078 -0.018225545 -0.041959655
000290 00 82 34 bf 6d 1e 04 bf 32 75 0f 3f f6 3d 43 3e
       -0.70510864 -0.51608926 0.560382 0.19066605
0002a0 9d 2a eb 3d 36 54 29 bc e8 7b c1 3e 8b 3c 16 be
       0.11482737 -0.010335019 0.37789845 -0.14671533
0002b0 ae 6e 44 3e 1e ce 30 be 16 d0 04 bf 6a 20 0a 3f
       0.19182846 -0.17266127 -0.51880014 0.5395571
0002c0 09 e8 b3 bb 7f 8c 97 bc 46 ab 2e bf 21 2f 28 be
       -0.005490307 -0.018499611 -0.6823009 -0.16424228
0002d0 15 35 1a 3e 34 bc 40 3d f7 e0 99 bc f2 98 da 3b
       0.15059312 0.047054484 -0.01878403 0.0066710645
0002e0 53 7c 68 3f d1 d4 84 3e 04 72 91 3d 4c ee a8 bd
       0.90814704 0.25943616 0.07101825 -0.082485765
0002f0 f4 dd 92 3e 00 ea 9f be e4 a0 a4 be aa 77 04 bd
       0.28684962 -0.31233215 -0.32154 -0.032340683
000300 d4 8a 94 be 60 31 01 ba 4f 32 55 3c e2 ad b7 be
       -0.29012167 -0.0004928317 0.013012483 -0.3587485
000310 b1 2c 0c be 93 3f 01 3e 9a 35 58 3e 79 f1 42 bd
       -0.13688923 0.12621908 0.21114197 -0.047593568
000320 c7 54 cc bc 94 64 09 3d dd 7d c8 bf a4 d0 06 3d
       -0.024942769 0.033543184 -1.566341 0.03291382
000330 eb 6b d9 bc 84 f8 05 3d 40 ce dc be e1 4e 5c 3f
       -0.026540717 0.032707706 -0.43126106 0.8605786
000340 10 bd 65 bf 1b 61 23 be 23 e0 11 3e 73 f4 94 3c
       -0.8974161 -0.15955012 0.14245658 0.018182969
000350 e5 77 26 3b 0c 49 ca 3e 38 bd 97 3e b2 1d a2 be
       0.0025401053 0.39508855 0.2963655 -0.3166328
000360 d4 6d e9 be cb 52 e0 3c ca 26 77 3c 99 9c 87 3e
       -0.45591605 0.027383229 0.015084932 0.26486662
000370 89 33 24 3f 6a 3a 1a be cf 28 db 3d db b7 ad 3f
       0.64141136 -0.15061346 0.10701143 1.3571733
000380 9c 50 d1 3b 61 e6 ec 3c b5 0b 28 bb 93 33 01 3f
       0.006387783 0.028918447 -0.0025641744 0.5046932
000390 02 bb d6 3d b7 19 21 3c 10 97 a8 3d a5 23 ba bb
       0.10484888 0.009832791 0.08231938 -0.0056805187
0003a0 71 bc ba bb fd 2f 96 bb 5a b9 27 bd 1f b4 18 3b
       -0.0056987335 -0.0045833574 -0.04094825 0.002330072
0003b0 04 b3 71 3b a4 de 70 3b 03 c1 56 3d 26 de d7 bb
       0.0036880383 0.0036753798 0.052430164 -0.0065877615
0003c0 d6 a0 b6 bc 34 1c ab 3e 56 68 5e bf 1f 7a 82 3f
       -0.02229349 0.33419955 -0.86877954 1.0193518
0003d0 a7 76 01 be 57 02 cd bd 5f c7 30 be 08 87 54 3e
       -0.12642919 -0.10010212 -0.17263554 0.20754635
0003e0 1d 4d 45 be 40 2e 8b bd d9 9f cb 3d 59 9c 3b 3f
       -0.19267698 -0.06795931 0.09942598 0.7328544
0003f0 e0 ef e7 3c b8 97 1e bf 23 a4 51 3c 0b f1 d4 be
       0.028312624 -0.61950254 0.012795481 -0.4159015

layers.0.bias f4 [100]
000000 01 a2 8d 3f 5a ec ce be 26 a5 6f be 74 13 66 3e
       1.1065065 -0.40414697 -0.23402843 0.22468358
000010 0d 06 30 bf fb 90 12 bd 74 99 f7 3d 39 da 91 be
       -0.6875923 -0.035782795 0.12089816 -0.28486803
000020 51 7a 9b bf 5f 66 00 3f a0 a7 4b bd c1 d3 c1 3e
       -1.2146703 0.50156206 -0.049720407 0.37856868
000030 cc a8 c2 be 92 7e 21 bf 9c 3e 4a be 59 dd 60 bf
       -0.38019407 -0.63083756 -0.19750446 -0.8783775
000040 69 0d fc 3e 99 36 19 be 59 d4 64 bf ef b7 23 be
       0.4922898 -0.14962234 -0.89386517 -0.15988134
000050 64 44 be be a7 82 e9 be 8b fe db 3e 4c f8 34 bd
       -0.37161553 -0.45607492 0.42967638 -0.044182107
000060 de a9 13 3f de 2a 5f 3e 65 eb 75 3f 35 b8 30 3f
       0.5768107 0.21793696 0.9606231 0.6903108
000070 7a 65 9a 3f ae f2 9d 3e b0 89 3d 3f 7b 00 4f 3f
       1.2062218 0.30849212 0.7403822 0.8086011
000080 71 e4 51 bf 19 58 8a 3c 8d 07 33 be 2c 4d 0c bf
       -0.819892 0.016887711 -0.17483349 -0.54805255
000090 1e 42 9f 3f e4 c2 03 be 7c 8a 06 3f 76 65 39 3f
       1.2442052 -0.12867314 0.5255506 0.7242044
0000a0 62 b6 c7 3e a7 a2 0e 40 4d 48 1c bd eb d0 3c bf
       0.39006335 2.2286775 -0.03815489 -0.73756284
0000b0 1d b0 69 be 51 29 82 3e ae d9 d1 3e c6 46 90 3e
       -0.22821088 0.25422147 0.4098639 0.28178996
0000c0 47 6b 96 be f0 3b d1 bd c7 50 65 3f d7 cd 59 bf
       -0.2937872 -0.1021651 0.8957638 -0.8507971
0000d0 fa 21 48 39 12 83 2e 3f 41 67 b1 3e 20 e1 05 bf
       0.00019086144 0.6816875 0.3464909 -0.5229664
0000e0 37 29 69 bf 84 c9 9c be e6 b5 49 bd 13 e9 03 be
       -0.91078514 -0.30622494 -0.049245737 -0.1288188
0000f0 8a e8 f4 be a1 40 9a 3e e0 59 55 3f b6 a8 31 3f
       -0.47833663 0.30127433 0.83340263 0.6939806
000100 8b e5 c5 3e 9e a5 b8 be 5b 28 49 3e 2d 7c 47 be
       0.3865169 -0.36063856 0.196443 -0.19480963
000110 8b 4b 6d bf 50 26 55 3e 77 f3 9e bf 76 2a 48 3d
       -0.92693394 0.20815396 -1.241805 0.04886862
000120 3b 75 db 3f 7e 39 b9 be 39 04 44 3d 9f 63 82 3e
       1.7145151 -0.36176676 0.04785559 0.2546663
000130 89 d0 8e be 8c 27 67 3f 4a 3e 43 3e 2f a5 5d bf
       -0.27893475 0.9029472 0.1906673 -0.86580175
000140 b1 5f 01 3f a8 d7 18 be 74 2f d6 be ec 31 0a be
       0.5053664 -0.14926016 -0.4183308 -0.13495606
000150 b7 5e a2 bd 0e 6d 8f 3e 26 b1 e4 3e d4 83 0f be
       -0.07928222 0.2801289 0.44666404 -0.14015132
000160 49 be 6a bf a2 c0 ed be 68 94 1c 3d 5a b1 0a 3e
       -0.916966 -0.4643603 0.03822747 0.13544217
000170 76 40 e2 bd 36 1a 07 bf 41 4e 76 3f c3 47 d4 be
       -0.11047451 -0.5277437 0.96213156 -0.41461
000180 88 95 42 3f c8 80 40 be b2 1d 0a bf 0e b5 cd 3e
       0.76009417 -0.18799126 -0.5395156 0.40177196

layers.2.weight f4 [100, 100]
000000 ad 28 41 be 95 48 7a 3e d2 6f ed 3f 57 95 b7 bc
       -0.18863173 0.2444175 1.854975 -0.022410078
000010 67 fb 58 bc 7c 82 21 bc 2e 2c 31 bb f3 89 60 3e
       -0.013243533 -0.00985777 -0.002703439 0.21927623
000020 82 b7 ac 3d 14 d0 7b 3e e0 fc 9d bf 75 ce eb 3e
       0.08433439 0.24591094 -1.2342796 0.46055952
000030 f7 a2 7c 3d 0a f4 64 3d 5e 60 be bd c4 1f 82 3e
       0.061678853 0.055896796 -0.09295724 0.2541486
000040 f7 92 1a 3e f4 af c9 bd 88 c2 84 3d bc be c3 3b
       0.15095125 -0.098480135 0.064824164 0.005973665
000050 b9 e5 01 3d 45 fe 3e 3e 91 96 06 3f a4 89 bb be
       0.03171322 0.18651684 0.52573496 -0.3662845
000060 45 8a 83 3d 49 98 01 bf cf d7 67 3d f6 29 04 3d
       0.06422857 -0.50622994 0.056602295 0.03226658
000070 34 a5 ea 3d 9f 4c 48 3f d6 27 04 3f 9d 20 0a bd
       0.11457291 0.78241915 0.51623285 -0.03372251
000080 a0 70 f4 3e dd d1 12 3c 35 ac d9 be 2e c5 9e bd
       0.47742176 0.008961168 -0.42514196 -0.07752453
000090 8b 0a c5 3d eb 45 7f 3d d7 12 8f 3b 0f 6a 67 3d
       0.096211515 0.06232254 0.0043662596 0.05649763
0000a0 a0 45 54 be a1 5e 98 be 43 30 ba 3d 8a 4d 3e 3d
       -0.20729685 -0.29759696 0.090912364 0.046460666
0000b0 53 49 7c bd 38 6d 30 3f fc d3 06 bf d6 0d fa bc
       -0.061593365 0.68916655 -0.5266721 -0.030524176
0000c0 4d 02 24 3e e2 20 5f 3d c5 29 bd 3c 41 ed 44 bd
       0.16016503 0.05447472 0.023091206 -0.048077825
0000d0 c5 de 41 bd 41 1f 83 be 99 aa 61 be b4 04 43 3d
       -0.04733159 -0.25609782 -0.22037734 0.047611907
0000e0 6b 4b 20 bd d5 ca ab 3d 41 48 60 be e7 7e 8d bd
       -0.039134424 0.083882965 -0.21902563 -0.0690897
0000f0 a7 c2 c9 bb 3c bf c3 3c 3e 4c 09 3d f7 22 0e bd
       -0.0061572376 0.023894899 0.033519976 -0.034701314
000100 8c cc 88 bd 0e 7d c5 3d e4 d6 09 bd 6a cf 83 3f
       -0.06679639 0.09642993 -0.0336522 1.0297673
000110 98 34 1d bc d4 9f e5 3d 69 dc f8 bb 03 97 20 bd
       -0.009595059 0.112121254 -0.0075946343 -0.039206516
000120 00 8f 0c 3e b0 f3 9d 3d 19 8e c4 3b 1d 62 a3 bd
       0.13726425 0.07712495 0.0059983847 -0.07977698
000130 eb cc 80 3d 74 1c ce bd 54 c2 52 3f 73 e2 0e 3d
       0.06289085 -0.10064021 0.8232777 0.034883928
000140 5d 75 2d 3d 58 a1 7b bf 3c b3 8a 3e c3 cf 82 3e
       0.042348254 -0.98293066 0.2708987 0.25549135
000150 b1 13 06 be 5a db 5d 3e a2 b8 8b bc 67 3a 9e be
       -0.13093449 0.21665707 -0.017055813 -0.30903932
000160 23 bd 7e 3d 59 e1 e6 3c a1 9c c4 ba d2 42 aa bd
       0.062192094 0.028183626 -0.0015000292 -0.08313526
000170 15 d8 13 3f cd 6f cf 3c c4 0c ae be 72 cc 40 3d
       0.5775159 0.025321865 -0.33994114 0.047069974
000180 af 12 a8 bb c5 4a ae 3f 9b 11 8e bd e1 d9 b1 be
       -0.0051291804 1.3616568 -0.06936952 -0.3473654
000190 d8 ef ce 3f bd d5 0d be 6e 23 cf c0 6a 26 c4 bf
       1.6166945 -0.13851066 -6.473075 -1.5324223
0001a0 22 eb 91 3c cd e3 a6 bd 39 21 8b 3c a3 0e d2 be
       0.017812315 -0.08148918 0.016983615 -0.41026792
0001b0 05 f8 ea bf ee 97 b5 bf 77 0e 89 40 f8 3d 41 bf
       -1.835694 -1.418699 4.2830157 -0.7548518
0001c0 e5 92 05 bf f7 8e e0 bd 0e 7b 91 be 9c 8a 5d bf
       -0.5217727 -0.109647684 -0.28414196 -0.86539626
0001d0 c3 82 f7 be 7f 60 64 3e ee 57 d0 3d 05 72 fc bc
       -0.4834195 0.22302435 0.10173021 -0.030816087
0001e0 e6 a7 f3 bd 50 2f 00 c0 f0 d0 7f bf 7f 34 47 3f
       -0.118972585 -2.0028877 -0.9992819 0.7781448
0001f0 7f 75 51 be dc 48 3b 3d 59 03 df bd 24 c6 50 be
       -0.20454977 0.04572378 -0.108893104 -0.20388085
000200 60 cb c8 bf c6 b4 48 c0 1e c2 08 c0 14 b0 97 3f
       -1.5687065 -3.1360335 -2.136848 1.185061
000210 30 79 14 bf 72 c1 dc bd 45 d5 e4 3f b2 2d ff 3d
       -0.5799742 -0.10779084 1.7877585 0.124598876
000220 5e 61 5c be b1 28 a3 be 39 38 31 be c8 6f 12 be
       -0.21521518 -0.31866983 -0.17306603 -0.14300454
000230 1a 0c c7 3f 76 8d 63 3f 9a 62 7e bf ed f1 27 3e
       1.5550568 0.8888773 -0.99369204 0.16400881
000240 0f ec 5d bd 02 9f 2c c0 96 f4 1f 40 89 bc 86 3e
       -0.0541802 -2.697205 2.4993033 0.26315716
000250 84 e3 5d bf 91 c6 42 3e 61 1d c8 bf 3b df 6a 3d
       -0.86675286 0.1902106 -1.5633966 0.057341795
000260 52 75 ab be fa 5c d2 be ef 0a 00 3e b7 60 53 3e
       -0.33487946 -0.4108656 0.12504171 0.20642363
000270 82 62 7e be 91 be 84 bf 3f c1 d4 be 43 a2 09 3f
       -0.24842265 -1.0370656 -0.41553685 0.53763217
000280 a3 b2 8e be 55 42 c6 bb d8 04 a0 3e c9 ad 87 bd
       -0.27870664 -0.006050388 0.31253695 -0.06624944
000290 77 c1 4d 3e f1 54 20 3d 0e e5 69 bf 3f af 2a c0
       0.20093332 0.039143506 -0.91365135 -2.6669462
0002a0 3e d9 44 bc 80 07 6e bf fc 8a 96 3e 43 b4 11 3e
       -0.012014685 -0.92980194 0.29402912 0.1422892
0002b0 5b f0 09 c0 d3 d9 03 bf e7 05 cd be 0a 9f 9c bd
       -2.1552951 -0.5150425 -0.40043566 -0.07647522
0002c0 49 d6 16 3d 4c 76 61 bf 0c 8e d3 bf 6f 9e 39 be
       0.036825452 -0.8807113 -1.6527724 -0.18126844
0002d0 4f 6b 5c 3e fd b2 9f 40 1c 11 4b 3f 66 dc 88 bf
       0.2152531 4.990599 0.7932298 -1.069226
0002e0 11 60 f8 be 99 cd 7e bf e4 71 32 3e fe 39 04 40
       -0.48510793 -0.9953247 0.17426258 2.0660396
0002f0 1c 09 7d bf 18 cd 27 bf 22 86 52 3e 15 98 4a 3c
       -0.98842025 -0.65547323 0.2055898 0.012365361
000300 0f c4 0d bf d1 36 17 bf ac 00 4b 3f dd e8 bc 3e
       -0.55377287 -0.5906802 0.792979 0.3689641
000310 b6 c7 51 be 78 49 50 c0 b8 2a c4 3c a4 5a da 3f
       -0.2048634 -3.2544842 0.023946151 1.7058911
000320 3b 9b 09 bf b2 f0 92 3d 89 62 af 3e d8 e3 d6 bd
       -0.5375249 0.07174815 0.34254864 -0.104926765
000330 4d dc 93 3e c7 92 b3 bd 05 c9 28 3e bb a3 05 bd
       0.28879014 -0.0876823 0.16482933 -0.03262685
000340 d0 35 a6 3e 70 5b 45 3e c6 85 b7 be 11 e7 a5 bd
       0.3246293 0.19273162 -0.3584425 -0.08100713
000350 13 a8 d8 3d 86 d5 09 3e f8 03 cf 3e 37 e2 36 3a
       0.105789326 0.13460359 0.40432715 0.00069764577
000360 d3 3c 02 3e 7b 8b df bc 73 85 c9 bc 97 cf 07 3f
       0.12718515 -0.02728819 -0.024599766 0.5305113
000370 4f f9 7d 3b d4 31 b5 3d ef e4 6c be 57 9d 7c 3c
       0.0038753336 0.088473946 -0.23134206 0.015418372
000380 6f b5 67 3e 7d f4 74 be ae 7c 5e bf 5a 23 bc 3c
       0.22627805 -0.2392139 -0.86908996 0.022966076
000390 4d 97 22 bd 45 10 08 3e fa 9b 22 be 3c 20 af bc
       -0.039695073 0.13287456 -0.15879813 -0.021377675
0003a0 bc c9 c5 3e c8 6c af bd ae 5d 16 be e0 84 2c 3e
       0.38630474 -0.0856567 -0.14684173 0.16847563
0003b0 d9 0b 50 3c e4 cc b1 3e 2b 7d c5 be e3 2f 8c be
       0.012698137 0.34726632 -0.38572058 -0.27380285
0003c0 6b 62 e8 be e0 b6 d7 3d 9e 99 9c bd 10 a1 44 bd
       -0.45387587 0.105329275 -0.07646488 -0.048005164
0003d0 0f 70 d2 bd f0 36 17 3e 53 0e 93 bd 12 c1 8c bd
       -0.1027528 0.1476705 -0.071804665 -0.06872763
0003e0 31 b0 f6 bb 78 23 c2 3d ba 62 93 3e 9d 8c b7 3e
       -0.007528328 0.094794214 0.2878626 0.35849467
0003f0 86 47 7c 3d 5b 7a f2 3d f4 35 b2 bd 70 02 35 be
       0.061591648 0.11839744 -0.08701697 -0.17676711

layers.2.bias f4 [100]
000000 de 92 59 be 96 3c 63 3f fa cc 8f bc 40 5a 34 3e
       -0.21247432 0.8876432 -0.017553795 0.17612553
000010 1b aa 99 be f6 97 22 be 23 27 49 3e 7b 15 96 be
       -0.30012593 -0.15878281 0.19643836 -0.29313263
000020 43 b0 d9 be c7 9c 2c be 0f 1c bd be 02 88 39 be
       -0.4251729 -0.16856681 -0.3693547 -0.18118289
000030 03 c4 ee bd ce d4 e6 3d 41 98 cb be f2 b8 11 3f
       -0.1165848 0.11271058 -0.39764598 0.5692283
000040 09 a6 b0 bd 81 53 ca 3d 4b be b8 be fc e4 f9 3d
       -0.08625419 0.09879208 -0.36082682 0.122018784
000050 46 a6 14 3d b2 8d 2d 3f e8 e2 f7 3d 4f b5 80 bc
       0.036291383 0.67794335 0.12103826 -0.015711455
000060 f8 03 23 3f 49 01 65 3e 1f 4f ff 3d bc 7b d9 be
       0.6367793 0.22363771 0.12466263 -0.42477214
000070 a2 16 da 3d b8 7f b2 be 31 89 0e bf 39 7a 7d be
       0.10648848 -0.34863067 -0.5567809 -0.24753655
000080 07 d2 31 3e 10 aa 14 3e 51 2b 0c 3d eb 8f d6 be
       0.17365275 0.14517999 0.034220997 -0.41906676
000090 1c f3 98 be fc ca b4 bd 21 02 81 be 7c d1 0e 3f
       -0.29872978 -0.08827779 -0.25196937 0.557884
0000a0 bd 3f 99 3b 5c ca d7 3d b6 62 a0 3e 94 a5 da 3e
       0.0046767876 0.10536644 0.3132531 0.4270445
0000b0 9a d1 03 3f e6 9f f9 be e9 cb 04 be 13 df 02 3f
       0.514917 -0.48754805 -0.1296841 0.51121634
0000c0 fb 93 71 3e 9e 2f d4 3d fa 3e 1c bf 05 75 45 be
       0.23591606 0.10360645 -0.61033595 -0.1928292
0000d0 24 ae d7 3d 48 36 58 be 33 2b 49 be ab 57 34 bf
       0.105312616 -0.21114457 -0.19645385 -0.7044627
0000e0 2d f5 cf 3e 65 0f 3b bf de 60 12 bf 2c 99 13 3f
       0.40616742 -0.73070365 -0.5717906 0.57655597
0000f0 0a e1 bb 3e 42 03 59 bf 0a c5 70 bf 28 27 84 bf
       0.3669513 -0.84770596 -0.9405066 -1.032445
000100 dc ad a1 bd bb 75 88 3e d2 d4 e5 bc 33 ae b3 be
       -0.07894489 0.2665232 -0.028055582 -0.3509384
000110 b0 32 44 3f aa 2a 1f be 5d b4 b1 3e 03 7a c4 bd
       0.76639843 -0.15543619 0.3470792 -0.095935844
000120 ba 5a 30 3f 8a cc ac bb 12 ba 82 3e 79 da ef be
       0.6888844 -0.0052734064 0.25532585 -0.4684637
000130 82 48 c9 be 72 e8 1b bd 48 b5 2d be ac 37 98 be
       -0.39313132 -0.038063474 -0.16963685 -0.29729974
000140 db 5b 4d 3e 42 ec 85 be ad 27 44 3e bd 6b 56 3f
       0.20054571 -0.26156813 0.1915576 0.83758146
000150 db 12 ef bd c2 7c af 3c 02 42 79 be cb 7d 06 be
       -0.11673518 0.021421794 -0.24341586 -0.13133924
000160 63 a2 39 bf d3 e3 43 bf fb b8 6e bf 79 ff 88 be
       -0.7251341 -0.7651951 -0.9325101 -0.2675741
000170 1f 09 c5 3e c1 8b e7 be 73 13 76 3f 2c 3a c2 bc
       0.3848352 -0.4522381 0.9612343 -0.02370938
000180 e7 8a bc 3e 93 4f 16 3e 25 25 f3 3e 4a 5e 31 be
       0.36824724 0.14678793 0.47489277 -0.17321125

layers.4.weight f4 [100, 100]
000000 ed 89 34 be 52 bb 53 3d 21 aa a9 be 1f 9a e1 be
       -0.1763074 0.051692314 -0.3313761 -0.44062898
000010 97 d6 ba 3e 94 03 94 3d fa 9d 92 3e 19 06 cf 3e
       0.36491844 0.07227245 0.28636152 0.4043434
000020 30 2b ca 3e 31 1c bb be 47 85 8e 3d 36 3e 95 3f
       0.39486074 -0.36544946 0.069590144 1.165961
000030 45 fa 5d bd 4a 37 0b 3e 5b b0 6b 3d bf f6 13 be
       -0.054193754 0.1359531 0.057541233 -0.14449595
000040 3e 6d 7d be 1e 61 30 3d 9f e2 d9 bd 04 47 09 bf
       -0.24748704 0.04306137 -0.10638928 -0.53623986
000050 80 09 85 3e 51 2c 02 be ba 90 80 be a2 58 3c 3d
       0.2598381 -0.12712218 -0.25110418 0.045982964
000060 25 d1 72 be fa 26 06 bd bd 2f 0f be d2 52 1e 3d
       -0.23712595 -0.032752015 -0.13983054 0.038653202
000070 6e 23 22 3d 7b 73 61 3e 57 6f 18 3e 08 13 05 3d
       0.03958457 0.22016709 0.14886223 0.032488853
000080 2e 2d 87 3e 63 7f 2c be 76 1f eb 3e 18 b1 bf bd
       0.26401657 -0.16845469 0.4592244 -0.0935995
000090 ab 3e 9c bd 65 22 a1 be c3 b9 ee 3e f1 14 2a be
       -0.076291405 -0.31471553 0.466261 -0.16609551
0000a0 90 09 24 be 9b 8e fe 3e b9 08 3e be c6 ef ee bd
       -0.16019273 0.49718174 -0.18558015 -0.11666827
0000b0 67 f0 ff 3d e6 8f 3f 3e 70 0b 46 bf 77 ef 1b be
       0.12497025 0.18707237 -0.773612 -0.15228067
0000c0 e2 db 25 bf ee 35 e8 bd 1a 37 f4 3d ef f1 cd bd
       -0.6478864 -0.11338411 0.11924572 -0.10055911
0000d0 00 d4 34 3e ee 47 cd 3e 37 a3 6a 3e ab 8d 02 be
       0.17658997 0.4009394 0.22913824 -0.12749355
0000e0 0a 79 0e 3d 9c 1b 9b 3d 59 a4 92 bc fa be 8a 3d
       0.0347834 0.075736254 -0.017900633 0.06774707
0000f0 ca 65 f4 3d b8 ea 76 3e 33 0b 38 3e 19 0e 31 3e
       0.11933477 0.24112976 0.17973022 0.17290534
000100 73 3e 85 3d c5 b9 0f 3f a4 82 2b 3f 1d ed b0 bd
       0.06506052 0.56142837 0.66996217 -0.08638976
000110 7a 77 04 3d d0 68 b2 3d 94 b0 85 3d df 90 2a bd
       0.032340504 0.08711398 0.0652782 -0.041642066
000120 57 91 6b be a0 ce 9d bd 8e b7 a6 be 70 0d 35 3e
       -0.23004662 -0.07705426 -0.32561916 0.17680907
000130 d6 c9 43 3e 54 5b aa 3d a6 e0 c4 be d5 af 36 3f
       0.19119963 0.08318201 -0.38452643 0.7136205
000140 81 79 71 bd b9 f7 ba 3e 44 eb 2a be 10 53 06 be
       -0.058953766 0.36517122 -0.16691309 -0.13117623
000150 25 66 0b bc e4 76 99 3e a1 c3 04 3e 03 20 89 be
       -0.00850824 0.2997352 0.12965252 -0.26782236
000160 69 f8 9e 3b 9f 9b e0 3d ef fe 3e be 43 3d a6 3d
       0.00485139 0.10967182 -0.18651937 0.081171535
000170 53 d4 83 be a6 8e 43 3e 00 84 dc bd 2c 73 5b be
       -0.25747928 0.19097385 -0.107673645 -0.21430653
000180 4e 09 89 bd fa ef 82 3e d5 78 59 be 04 7c d2 3e
       -0.06691228 0.25573713 -0.212375 0.4111024
000190 91 f6 bc 3e a3 56 bb be 32 d2 4e 3e e2 7c 52 be
       0.36906865 -0.36589536 0.2019737 -0.20555452
0001a0 45 ba 9a bd 7a c3 8a bd ec 73 00 bd a8 51 23 3e
       -0.07555059 -0.067755654 -0.03136055 0.15949118
0001b0 cf 31 39 be a5 b0 14 3f 38 22 5d bd 98 57 32 bd
       -0.18085407 0.5808204 -0.05398771 -0.043540567
0001c0 19 d0 cc bd a5 df 78 bd b1 32 da bd 1f 73 4c 3e
       -0.10000629 -0.06076016 -0.106542 0.1996579
0001d0 0b 4f aa be 29 4a 3d be 74 c8 99 be f9 a9 d2 bd
       -0.3326343 -0.18485321 -0.30035746 -0.10286326
0001e0 97 9a df be 8f 83 b1 3d 07 c9 de bd d8 98 e3 3e
       -0.4367263 0.08667671 -0.10878187 0.44452548
0001f0 fa 75 3f 3e 48 7b 0f bf b0 5c 01 3e 7a ca c8 bd
       0.18697348 -0.5604749 0.12633014 -0.09804244
000200 13 bb 5a bf 58 94 5b be 53 ed 0f be 09 a0 a0 be
       -0.854417 -0.21443307 -0.14055376 -0.31372097
000210 5d 14 37 3d 29 fb 86 3e e6 99 6e be 4c 25 62 3e
       0.044697154 0.26363495 -0.23300895 0.2208454
000220 1c 8f 1e 3f b3 ad f8 3d fe 06 23 3d 5b 34 90 3e
       0.6193712 0.121425055 0.03980159 0.28164944
000230 1e bc d7 3c ed fe 41 be 86 09 1f bd cf 9a 32 bd
       0.026334818 -0.18944903 -0.03882744 -0.04360467
000240 4c 15 b4 be 6a d7 04 be b0 59 ba be b9 e6 f6 3d
       -0.35172498 -0.12972799 -0.3639655 0.120557256
000250 c3 ed de 3d 18 09 15 3d e2 21 96 3e c5 06 f8 3e
       0.10885193 0.036385626 0.29322726 0.48442665
000260 fa 12 a8 be 12 64 c8 3d 91 8a be bc b4 c1 2b be
       -0.32826978 0.09784712 -0.023259433 -0.1677311
000270 8c 8f 36 3e fd 48 6e be 6d 68 32 be dc fd c9 be
       0.17828196 -0.2327003 -0.17422648 -0.39451492
000280 b6 3c d0 be 0d 80 79 be b5 ca a0 be 32 98 21 be
       -0.4067132 -0.24365254 -0.31404653 -0.15780714
000290 84 35 c6 bc 6d c3 b0 3d fc b3 31 3e c9 e2 5c be
       -0.02419544 0.086310245 0.17353815 -0.21570887
0002a0 88 69 43 3e da b2 c6 3b a5 82 3e 3b c3 1c b5 3d
       0.19083226 0.0060638012 0.002906957 0.088433765
0002b0 91 57 41 3e b6 6a 16 3c f8 c9 3d 3d 2f 73 49 be
       0.1888106 0.009180715 0.04633519 -0.19672845
0002c0 36 e0 a1 3e 3b 11 9f be b4 98 fe bd 76 45 3d be
       0.31616372 -0.31067833 -0.124314696 -0.18483528
0002d0 31 93 95 bc 2f 44 e6 be 0a 45 1b 3e d0 bd 93 3e
       -0.018258663 -0.44973895 0.15163055 0.28855753
0002e0 b9 37 bb bd c6 27 84 be 2c 13 0f be 0a bf ef be
       -0.09141488 -0.25811595 -0.13972157 -0.4682544
0002f0 26 cb 2e be 20 b4 09 be 05 1c 0b 3f db 61 fe 3d
       -0.17069682 -0.13447618 0.5433963 0.12421008
000300 28 8a e1 bc f3 32 52 be 0b a5 84 3e 4e 08 69 be
       -0.027531698 -0.20527248 0.25907168 -0.22757074
000310 f5 85 85 3d 79 41 8d be 6f ef cd 3d 9f 44 9e 3d
       0.06519691 -0.27589014 0.10055434 0.07727932
000320 96 9e 38 3f 68 4b 07 3f de 94 25 bf 7b 8b 73 bf
       0.7211698 0.52849436 -0.6468028 -0.95134705
000330 4f 14 bd 3d 07 56 00 bf 56 55 3e 3e 28 c0 40 3e
       0.09232389 -0.5013127 0.1858724 0.18823302
000340 09 4c ad 3e 71 6d 56 3e 00 8a 1c 3e 0b 89 46 3f
       0.33847073 0.20940186 0.15287018 0.7755286
000350 1c 5c cd 3e 4c 54 c5 3e f5 9b 95 3e d3 cf a7 be
       0.40109336 0.38540876 0.29220548 -0.32775745
000360 d7 b0 aa bf c1 0f 18 bc 79 83 72 be 28 76 8f bf
       -1.3335217 -0.0092811 -0.23682965 -1.1207933
000370 c7 ae 96 3e 80 8d 30 be 48 38 4c 3e 77 46 1d 3f
       0.2943022 -0.17241478 0.19943345 0.61435646
000380 c3 84 7a be 46 6a a9 bd f7 f1 89 3e 01 97 64 3d
       -0.24464707 -0.08272223 0.26942417 0.05580807
000390 8e 52 a4 3e 21 d8 16 3e 25 57 88 3e 92 6e 88 be
       0.32094234 0.14730884 0.26628986 -0.26646858
0003a0 18 30 2e 3e 72 35 97 3d 89 06 49 3e 16 2e 2f 3e
       0.17010534 0.07383241 0.19631399 0.17107424
0003b0 28 27 b9 3e 36 74 02 3e c9 71 b1 3e 8d be 97 be
       0.36162686 0.12739643 0.34657124 -0.29637566
0003c0 da a4 df 3e fc 7e f4 3d 9a f8 82 bf e6 ab 98 be
       0.4368046 0.11938283 -1.0232117 -0.29818648
0003d0 58 0f eb 3e 52 28 12 bf ad e2 4c bf bb e0 87 be
       0.45910144 -0.57092774 -0.8003338 -0.26538643
0003e0 18 3c 25 be 02 df 10 be 8c 7c 38 be 37 28 cf bd
       -0.16136205 -0.1414757 -0.18016261 -0.10115092
0003f0 fd 3d 26 3e 97 f4 31 be 09 93 36 be dc 4d 42 3e
       0.16234584 -0.1737846 -0.17829527 0.18975013

layers.4.bias f4 [100]
000000 a0 27 02 be 66 0e 67 3e 75 ee 4f be cc 13 b8 bd
       -0.12710428 0.22564086 -0.20305808 -0.08988151
000010 1f d6 eb 3d 8d 02 64 be 9a 68 45 be 22 13 79 3e
       0.1151545 -0.22266598 -0.19278184 0.24323705
000020 b6 97 b4 3d 47 30 b3 be 89 86 4f be 8a 1e 96 be
       0.08817999 -0.3499777 -0.20266165 -0.29320174
000030 9a 9f 5a 3e b4 c9 71 be d0 29 5e 3e 59 37 85 3e
       0.21349946 -0.236121 0.21695638 0.2601879
000040 3c 1c 20 bd a1 c4 a7 be 7e 61 2c be 24 2d 35 3e
       -0.039089426 -0.32767203 -0.16834065 0.17693001
000050 aa 5f f7 bd a9 23 88 3e 5e af 14 be 3a fc 52 3e
       -0.12078793 0.26589707 -0.14520022 0.2060403
000060 bf f7 23 be 1d 6b 93 3e b8 9e 43 be 20 82 66 be
       -0.16012476 0.28792658 -0.19103515 -0.22510576
000070 f3 01 f6 3d 52 b3 89 be 48 33 1a 3f 1c 5a 23 be
       0.120120905 -0.26894623 0.602345 -0.15952343
000080 e6 79 e5 bd 3b cf 91 3e 19 39 3b 3e c2 09 1a 3e
       -0.11204891 0.28478417 0.182835 0.15042785
000090 ee 2c 68 3e b6 51 c1 bd a4 e6 18 be 68 12 58 be
       0.2267339 -0.09439413 -0.14931732 -0.21100771
0000a0 f0 c3 32 3e ec 9f 20 be bb f7 80 be 2d b0 61 3e
       0.17457557 -0.15686005 -0.25189003 0.22039862
0000b0 32 18 0b be ee 65 54 3e 01 fb b8 3e 7b 6f 5d 3e
       -0.13583449 0.20742008 0.36129 0.21624558
0000c0 b6 90 bc 3e 37 e4 8d 3e 5e e2 1a be cb d9 2a be
       0.36829156 0.27713177 -0.15125415 -0.16684644
0000d0 0a 98 a3 be a2 ee 7e 3e 59 59 8b be 17 19 8a 3e
       -0.31951934 0.24895719 -0.27216604 0.26972267
0000e0 a8 3c a1 3e 3c 87 90 bd cc 2f 47 3e fb 44 6a be
       0.3149159 -0.07057044 0.19451827 -0.22877876
0000f0 6d 2b 4a be 72 12 33 be 61 0a 7d 3e 41 f4 db bc
       -0.19743128 -0.17487505 0.2471099 -0.026849868
000100 df d1 2e 3e 29 6f 90 be ce 74 62 be f6 6c aa 3e
       0.17072247 -0.28209808 -0.2211487 0.33286256
000110 fe ff 1e 3e bc 6d c5 bd 5d f4 7e 3e d8 53 56 be
       0.15527341 -0.09640071 0.24897905 -0.20930421
000120 32 09 10 be 59 db 28 be 46 33 25 be 59 d4 02 3e
       -0.14066008 -0.16489924 -0.1613284 0.12776317
000130 f3 a1 99 3e e7 58 ca 3d f4 2a b0 3d 33 1f 04 3e
       0.3000637 0.09880238 0.08601943 0.12902527
000140 c2 0c 94 be 45 16 64 3e ae 3b f3 bd a3 16 33 3e
       -0.28915983 0.2227412 -0.11876617 0.17489104
000150 65 43 ff 3d b6 9d 7a be d8 0a 0a be a1 c2 29 3e
       0.12464026 -0.24474224 -0.13480699 0.16578151
000160 91 42 54 be 39 9c 2d 3e c8 7e cf 3e 0a 54 4e be
       -0.20728518 0.16954125 0.40526414 -0.20149246
000170 ef eb 05 be 65 74 40 3e 8b d0 15 3e e1 23 ce bd
       -0.13078283 0.18794401 0.14630334 -0.10065437
000180 43 cc b5 bd 32 82 0e 3f 76 65 58 3e a6 e4 2b be
       -0.088768505 0.5566741 0.21132454 -0.16786441

layers.6.weight f4 [1, 100]
000000 a2 b3 d0 3d 3e e7 94 be f1 6c 0e 3e 77 89 0e 3e
       0.10190512 -0.29082674 0.13908745 0.13919626
000010 06 a2 09 bd 45 4a 25 3e a5 c1 7b 3d 58 30 16 bf
       -0.033601783 0.16141613 0.06146397 -0.58667517
000020 7f 98 3e be 5a 61 eb 3e cb 50 68 3e 9c 18 c7 3e
       -0.1861286 0.4597271 0.2268707 0.38885963
000030 6a 2e c4 be c3 87 4a 3e 05 4f dd bd 11 02 08 be
       -0.3831666 0.19778351 -0.108060874 -0.13282038
000040 0e c8 40 3e c2 7b 08 3e 38 48 d4 3d 81 a8 06 be
       0.18826315 0.1332846 0.10365337 -0.13150217
000050 25 94 34 3e b1 b4 68 be 93 20 b3 3e be 59 8e bd
       0.17634638 -0.22725178 0.3498579 -0.06950711
000060 a3 35 2b 3d 4b e8 b8 bd 64 10 c1 3d b5 30 c9 3d
       0.0417992 -0.09028681 0.094269544 0.09823743
000070 21 43 d4 bd df 84 0d 3d 63 15 3d bf a7 f6 3d 3e
       -0.10364366 0.034550544 -0.7386076 0.18551122
000080 ad 3b 77 3a 33 e2 35 be ae a8 f3 bd 3b 6a 30 be
       0.00094311946 -0.1776207 -0.118974075 -0.17228024
000090 f2 01 5e bd db 60 84 3d 44 50 03 3e 6c 6e 13 3d
       -0.054201074 0.06463786 0.12823588 0.03599398
0000a0 99 ab 7e bd 26 47 58 3e 39 1e 95 3d 67 a0 d1 be
       -0.062175367 0.21120891 0.07281155 -0.4094269
0000b0 2e cc f4 3d 59 78 0c bf 31 af ed be a5 46 12 be
       0.11953007 -0.54871136 -0.46422723 -0.14284761
0000c0 3d 8a 12 bf 8c f7 56 be 63 80 16 3e ba c0 1f 3e
       -0.57242185 -0.20992869 0.14697413 0.15600863
0000d0 14 04 a9 3e 87 7f b4 bd ef 15 f1 3d 5d bf 7a bd
       0.33010924 -0.088133864 0.117717616 -0.061217654
0000e0 ab 36 da bd a0 98 c8 3e d3 cc 31 be 83 40 0e 3d
       -0.10654958 0.39178944 -0.1736329 0.034729492
0000f0 17 fd 0f 3e 57 2b 44 3d 08 d5 a6 be 47 b8 44 3e
       0.1406139 0.047892895 -0.32584405 0.19210921
000100 55 fc 4f be ae 39 ec 3d 4b 30 1c 3e fd 6d 47 be
       -0.20311101 0.11534439 0.15252797 -0.19475551
000110 9d 04 8b bd 9a b9 66 3e 46 ea d7 bd 72 46 a7 3d
       -0.06787989 0.22531739 -0.10542731 0.08167733
000120 dd 3d bb 3d 61 e8 fa 3d df c7 86 3d 4e 70 9c bd
       0.09142659 0.12251354 0.06581091 -0.07638608
000130 a3 42 9b bd d2 93 4d be 40 b8 28 be 80 42 2c bd
       -0.07581069 -0.2007592 -0.16476536 -0.042055607
000140 09 2c 2b 3e e1 8a 6c be 5e fa a9 3e 64 5f 09 be
       0.16716017 -0.23099853 0.33198828 -0.13415295
000150 87 c9 18 be 45 72 db 3d ae 75 05 3e a3 03 2a be
       -0.14920627 0.107151546 0.13033172 -0.1660295
000160 77 03 a8 3d bb bc 99 bd de fb 1f be 87 af a1 3e
       0.08203786 -0.075067006 -0.15623423 0.3157923
000170 34 f2 33 3f 85 e1 ab bd 35 98 71 be 5f 6a 86 3e
       0.7029145 -0.08392624 -0.23593219 0.2625303
000180 57 78 02 3e d5 c1 44 be a6 15 31 be 04 85 e9 3d
       0.12741219 -0.19214566 -0.17293414 0.11402324
