hddm/torch_models/259784b0160011ec822da0423f3e9b4e_mic2_angle_no_bias_torch_state_dict.pt (torch, 87887 bytes, 7 tensors)

layers.0.weight f4 [100, 9]
00000000: ab60 063d 84a2 4a3c ea74 8a3b 12a1 32be
00000010: fede 4b3e 5c6c 10bf 8b6f fc3e 7bfa 153f
00000020: ba92 f9bd 0d0c 6a3e 37ce 413d 8570 8a3d
00000030: a7c5 e73d fc35 043e 74c8 3e3f 4ffd 1fbf
00000040: 03ce 32bf a41b 31be ae12 0bbd 97a6 d3bd
00000050: b512 ddbc 1414 84be 1f01 fc3e 1275 2d3c
00000060: ab83 16bf 92b7 7cbc 662e e43c f89d 343e
00000070: 44a6 433d 8161 eab9 18d3 6d3d cb15 0e3f
00000080: 67bf 0f3d 0c52 ccbe 157b 16bc 80a0 1fbf
00000090: d91d fc3c a495 09bb 1a14 333e ae00 203d
000000a0: 0da2 b3bc 49ae 1abd 51bc 4b3f 890d 053d
000000b0: aa11 c5b9 cc53 4cbe 1638 8e3c 542a 2dbe
000000c0: a109 e03e 8893 4dbe b291 3ebb ccdc c23e
000000d0: 6bc1 b0bb 6bec b0be 1a53 10be 3cae 023c
000000e0: d65c b1bd cf52 f9be f256 b3bd 8453 c6be
000000f0: 255e b03e 4c13 ed3e ca45 173f bf00 ac3c
00000100: eb6f 123b 0ed5 153c f808 81bf 17bc 65bd
00000110: 9b1b 50be 03db 803f 2a9c 683e eb25 41bd
00000120: 39af 84bc 8f35 5ebf 74c4 17bb e24d cdbc
00000130: 4f47 39bd 2aab b93c 1434 043f 2a0c cebc
00000140: be2b 903d fcdc 7c3f d7e5 b1bb a669 3cbb
00000150: 8b28 ddbd ea60 1abd 5074 333c edd4 863f
00000160: 16b4 48bc 1d6e 92bc 7ed7 013e 8e60 63ba
00000170: 5f17 cdbc 402c 25bd 7045 01bd 463e 6fbb
00000180: 0e8b 8c3f 451d 3d3c 7b1a bc3d 15e6 be3d
00000190: f713 2dbe af5d a83c 83d9 5c3f a30d 2cbe
000001a0: 429c 773b 2559 6e3f 2d8e 263e 7193 193d
000001b0: a4e9 ed3d 9697 673b 4384 273d 11c0 e43e
000001c0: c681 b43c 7265 203e e060 44bf 0fba 18be
000001d0: 363a 84be 50af 37be da48 323c 0977 13be
000001e0: 0f4e f43e 1666 17bf b1a7 abbd 6766 a53e
000001f0: fdca 6a3d 2e83 2a3e cd16 6bbc 1282 febd
00000200: 5aaa 2a3b a809 243e b58b 75bd 75dc 123e
00000210: ddb3 ccbe 2faa f4bd e613 363f 5a2a a23e
00000220: b792 35bb a9c3 2cbe 41bd 533e b498 68be
00000230: 39fc 583e f44c 2e3d 8e7b 58be 484b 353a
00000240: d228 d03c be5e c63b 6cf3 803c d051 893e
00000250: 982c 583e 2089 383f 1867 023e 2cd8 3abf
00000260: 00c7 00be 42d8 a3bc d334 023c 89a6 183c
00000270: 8945 7dbe 4fce fe3c 40d9 783f 20b4 923b
00000280: f93b 84bf f2a9 aabc fff2 0dbd 9435 54bd
00000290: a561 68bc 0cea dbbd b223 fd3e 8b76 56be
000002a0: 3c67 e83d 2655 213e 23dc 003e a1d5 9bbe
000002b0: 6a0b 813c 278d 373c 2fe1 00be f57a a63e
000002c0: 54f3 423d 6825 a93e 1f18 81bd 351c a7bd
000002d0: 5858 06be 34c4 16bf e144 4bbb 06c6 bf3c
000002e0: 79d4 5dbe 2488 49bd 9154 d3be 6f77 2e3d
000002f0: 8385 50bd 3263 2fbc 0091 0d3c 94b0 263b
00000300: 96ca 07be 3e1c 75bd b254 563f 1e93 d23e
00000310: 70d2 56bf 6f59 c2bd f851 893d d1fa 5fbb
00000320: 22b9 29be e56d 89bb a49a cc3d b97b f43b
00000330: 4ce8 ca3e 64fc e13a 572f 42bf 6b69 973d
00000340: 1e4b 2a3c 3a9f a4be f68a a8be 6b38 50be
00000350: fdd8 debd bbd3 35bd 3677 d03d 1990 90be
00000360: 0fc3 043e 9df3 ddbe d7ac 73bb d697 683e
00000370: 343e 81be 6bd6 c83d 0db4 0a3d f669 bcbd
00000380: 1596 f8c0 383b 72be 2562 54bc 1ce3 2a3c
00000390: 8cd2 4abf ea27 9bbe 1c7f 8c3d cded 24bf
000003a0: 6a87 95bd b856 d73d 38de 2a3f a289 b0ba
000003b0: a331 1f3b 6aac edbe 7ad9 1a3b 0961 dabc
000003c0: a7b7 7b3e b963 e23c 28af b63d 3aa8 5ebd
000003d0: 99aa db3d 6777 a23c a2b3 e83e b5ac 2cbe
000003e0: d7ce aebe 92df 823f c1aa 8e3e 2e95 543e
000003f0: 5ace f0ba f377 35bc 9714 013c 3526 553e
0.032807034 0.012367848 0.004225363 -0.17444256 0.19909284 -0.56415343 0.4930385 0.5858533
-0.12186189 0.2285616 0.047315802 0.06759743 0.11316996 0.12911218 0.7452462 -0.62495893
-0.698456 -0.172957 -0.03395336 -0.10334509 -0.02698646 -0.25796568 0.49219605 0.010586994
-0.5879466 -0.015424626 0.027854156 0.17638385 0.047765985 -0.00044704604 0.058062643 0.55502003
0.035094645 -0.39906347 -0.0091846185 -0.6235428 0.030775951 -0.0020993734 0.17488137 0.03906315
-0.021927858 -0.037763868 0.79584223 0.03248361 -0.0003758793 -0.19953841 0.017360728 -0.16910678
0.43757346 -0.2007581 -0.002907854 0.3805908 -0.005394151 -0.34555373 -0.140942 0.007976111
-0.08660285 -0.4869599 -0.08756818 -0.38735592 0.34446827 0.46303785 0.59090865 0.02099645
0.002234454 0.0091450345 -1.0080862 -0.05608758 -0.2032303 1.0066837 0.22715822 -0.047155302
-0.016196834 -0.86800474 -0.0023157867 -0.025061551 -0.04523402 0.022664625 0.51641965 -0.025152285
0.07039593 0.98774695 -0.0054290104 -0.0028749495 -0.107987486 -0.03769008 0.010953024 1.053373
-0.012249967 -0.017874772 0.1267986 -0.00086737506 -0.025035558 -0.040325403 -0.03156036 -0.0036505624
1.0979936 0.011542623 0.09184738 0.093212284 -0.16902147 0.020552484 0.86269397 -0.16802077
0.0037782346 0.93104774 0.16265173 0.037494127 0.11616829 0.0035338155 0.04089762 0.44677785
0.022034537 0.15663698 -0.7671032 -0.14914726 -0.2582566 -0.1793797 0.010881627 -0.14400877
0.47715804 -0.59140146 -0.08381594 0.3230469 0.05732249 0.16651604 -0.014348698 -0.12427153
0.002604148 0.16019309 -0.059947688 0.1434191 -0.39980975 -0.119465224 0.7112411 0.31672937
-0.0027705857 -0.16871513 0.20677663 -0.22714502 0.21189965 0.042553857 -0.21140882 0.000691582
0.02541009 0.0060537746 0.015741073 0.2682023 0.21110761 0.72084236 0.1273464 -0.729861
-0.12575912 -0.02000058 0.007947165 0.009317049 -0.24733557 0.031104235 0.972065 0.004477039
-1.0330802 -0.02083299 -0.034655567 -0.05180891 -0.0141834365 -0.10738 0.49441296 -0.20943658
0.113478154 0.15755138 0.12583975 -0.30436423 0.015752513 0.011203087 -0.125859 0.32515684
0.047595337 0.3303635 -0.06303429 -0.08159677 -0.13119638 -0.5889313 -0.0031016397 0.023409855
-0.21663083 -0.0492021 -0.41275457 0.04259437 -0.050908577 -0.010704802 0.008640528 0.0025434839
-0.13260874 -0.059841387 0.83722985 0.41127867 -0.8391485 -0.09489714 0.067050874 -0.0034176598
-0.16574529 -0.0041940087 0.09990433 0.007461038 0.39630353 0.0017241356 -0.75853485 0.07393154
0.010393886 -0.3215273 -0.3291852 -0.20334022 -0.10881231 -0.044391375 0.10178988 -0.28234938
0.12965034 -0.43349925 -0.0037181878 0.22714171 -0.2524277 0.09806522 0.033863116 -0.09199898
-7.7683206 -0.23655403 -0.012962853 0.010430124 -0.7922752 -0.3030389 0.06860182 -0.64425355
-0.07301219 0.10514587 0.6674533 -0.0013468752 0.002429106 -0.46420604 0.0023628161 -0.026657598
0.24581777 0.027635442 0.08920127 -0.054359652 0.10725898 0.019832326 0.4544955 -0.16862758
-0.3414218 1.0224478 0.2786465 0.20760033 -0.0018372044 -0.011075961 0.007878444 0.20815356

layers.0.bias f4 [100]
00000000: 6824 8abe c21d f23e 961a 243f 9950 c43e
00000010: ef57 fbbe 514d 913e d3e6 1d3f 1f1e e43b
00000020: 5e80 09be fea7 3ebe 4e66 3cbf 6482 903f
00000030: 3ab0 143f 5e07 613c a704 19be f1f6 103b
00000040: 4706 3c3c a365 073e 7003 aebe 919a b03e
00000050: d6b5 7abf 53fd dfbd 24c2 8f3f 456c f43e
00000060: 6d3b 4cbf 63e4 c53d eb51 613d 50e2 d23d
00000070: b6fd a6be cd4f 0dbf c0d8 483f 137b 3bbe
00000080: eeb1 2ebf d2d2 2f3f fb1f d53e 9331 ca3d
00000090: 7165 d3bf a112 643f be65 143e 3578 7cbe
000000a0: 1c4e a03e 091f 01c0 0178 6abf 7874 8ebf
000000b0: 2889 d3bd 0673 313d fd46 93bf 4586 1f3f
000000c0: f882 893d eda8 50be 4af0 453f 37d9 9bbf
000000d0: 6d3b a93e f3a5 563f b47d de3e bfeb 3b3e
000000e0: 08df a0be ec91 bdbe 576e 49be 1554 dd3e
000000f0: de50 ecbe 22bc e13d 4c66 aebe 3b8c edbc
00000100: bd47 993f 0820 a7bd 1a25 563e c760 fcbd
00000110: 2cc0 203e 9d23 bdbd fd2e 0c3f c543 483f
00000120: 0353 2d3f 286b 0dbf f183 71be c4bc 233f
00000130: 2316 813e fb2c 303f 1d24 a0be 881c 14bf
00000140: d131 aa3e 2a69 363e 51db cfbb c547 4cbe
00000150: 8098 913e 2a73 c73f d6d3 13bf 22b9 09bf
00000160: c614 4c3f c378 193f 7559 b93d ffc0 1bbf
00000170: 8a95 a73f 77fc 0f3f 7bcd c23e e53d a23f
00000180: b3f2 15bf d0ab aabf 8d7c c5be 96cc e63e
-0.269809 0.47288328 0.64103067 0.3834274 -0.49090526 0.283793 0.61680335 0.0069615985
-0.13427874 -0.18618771 -0.73593605 1.1289792 0.580814 0.013734667 -0.14943181 0.0022119845
0.011476106 0.13222365 -0.33986998 0.34492925 -0.9793371 -0.1093699 1.1231122 0.47738853
-0.79778177 0.09662702 0.055009764 0.10297072 -0.3261544 -0.5519989 0.78455734 -0.18308668
-0.6824025 0.6868106 0.41625962 0.09872737 -1.6515332 0.89090925 0.14491937 -0.2465523
0.31309593 -2.0175192 -0.9158936 -1.1129293 -0.10328895 0.043322586 -1.1506039 0.62314254
0.067144334 -0.2037694 0.77319777 -1.2175664 0.3305315 0.8384697 0.4345528 0.18351649
-0.3142016 -0.37025392 -0.19670998 0.43228212 -0.46155447 0.110222116 -0.3406242 -0.028997531
1.1975018 -0.08160406 0.2091259 -0.12323146 0.15698308 -0.09235308 0.547592 0.7822841
0.6770479 -0.5524163 -0.23585488 0.6395991 0.252122 0.68818635 -0.31277552 -0.57856035
0.33241132 0.17813554 -0.006343283 -0.19949253 0.2843666 1.558202 -0.5774511 -0.53798115
0.797192 0.5994989 0.09050266 -0.60841364 1.3092511 0.56244606 0.38047394 1.2675139
-0.58573455 -1.3333683 -0.38571587 0.45077962

layers.2.weight f4 [100, 100]
00000000: 0b6a 46bd ffa2 0ebf 6e94 d93e d9f5 74bd
00000010: a485 bcbd 08ee 7b3e 787b 2f3e afe4 213f
00000020: 1763 8e3d a9b0 8abf b19e 67be c8bb 4f3e
00000030: 3ab8 963e fa6b 5e3e 89ad bdbb 92f5 f13e
00000040: 64d6 193f 5c50 2cbe f027 45be 6b87 263d
00000050: 454c 23be be78 2bbe f84e 253f 3dae b23f
00000060: 36c4 64be abf7 46be 198b 00bf af73 b53e
00000070: c2d1 103e 2139 5bbe 066d a33e 6dcb 5dbf
00000080: 8f84 44be 6dbf 9e3e 01b4 66be 7df8 613e
00000090: 1f8e 9bbe 441e 923e 4699 39be 31df b53e
000000a0: b234 1bbe 85d8 8fbd a8fa a8bf 2839 3c3e
000000b0: ce35 053f af3f 043f 4802 4f3e fb0d 073e
000000c0: 658e 2ebf 209f 4bbe b153 883e 12ac b63c
000000d0: 63f5 aa3e 4b60 b63e 7693 18be 6738 093d
000000e0: 67da 05be 48cd d0bd 877a 743e 640a 7bbe
000000f0: de73 01c0 0ada 94bf 7a11 9b3e aaa3 473d
00000100: c0d8 9f3e 15df 10be 9247 bbbe 345f 76be
00000110: b544 bfbd 1134 2fbf 8c41 82be 1fd5 b03e
00000120: 076d 3ebb f40e fdbe 2a06 e93e 5695 293d
00000130: e650 07bf d83b 183d cd5f b6bd 63fd c8bd
00000140: 384c bf3e c7a7 f33d aef9 5bbe 1ebb f23d
00000150: eeb8 9d3d 3438 503e ba0b 0abd 6f93 d43e
00000160: e6ba 063f 0c3c 6d3f d8af 19bf c0dd f63d
00000170: bb56 bd3e 63b9 aa3f 9f23 67be bb2a a03f
00000180: 797b 49be 4477 c2be be06 b0be 0aa2 e5bd
00000190: 59b0 9e3d 99cb 783d 0099 06be 7885 efbd
000001a0: 4916 dcbe 4275 743e 9136 aabd 9b75 293d
000001b0: b300 46bf d6c5 1b3f bce4 3fbe 696f 793d
000001c0: 3f54 aabe 891a 38be 6eeb 333f 1c5e 7ebe
000001d0: 9151 153f 4e2e a23e 637d 1e3f fc01 9fbe
000001e0: e7f5 7a3d 4889 ab3e 9f7d 093e cae3 a8bc
000001f0: 1ba2 e5bd a309 2e3d f14b 133e 78b2 413e
00000200: a7c5 d13d fa7d f23e 819f ce3e 6b4e a7be
00000210: 6fdd ad3b 1af7 1ebe 25f7 aa3d acf1 493c
00000220: 1872 0b3d 080f 63bc b673 e93d 109c 6e3e
00000230: 54c3 0e3e 538f 1abe 4c14 1ebe ddb5 5bbe
00000240: 7e43 1fbe 7f26 8dbe c7ac 32bd b030 a83e
00000250: 3eca 86be 0951 d6bd d4c6 483f 9a7e 433e
00000260: c6c9 85be 1477 543e 6366 89bd 7beb a5bf
00000270: a6eb dfbd 7e4e 573d ea23 733e f716 aabe
00000280: 99e1 8d3d 8dac 4abc 9780 c63d 5496 3abe
00000290: 09d8 3f3e 51db 07bf 4912 d93d b450 be3d
000002a0: 4c1f d6be 7ea4 923d 1e86 f9be 8ed7 023e
000002b0: 99fc df3d f5bd edbd 2466 0d3e 94d3 e93c
000002c0: 2fc0 873e 242e 8bbc 765d a33c 4a7c a43e
000002d0: 1821 13be c0bd 01bf 7e07 de3d 627e 413d
000002e0: d6a3 debc 2dfc 1f3d 0d3a 713e 43be a0bc
000002f0: eee8 263f 6563 803e 2813 033f 6ec4 b23d
00000300: cf29 08be 45df 853e 0ab5 1c3e ea73 a73e
00000310: daaf 2fbc 9c48 82bf 47b7 eebd ad81 0dbd
00000320: 14f1 4a3c 6f54 f33a b2fc 75bd a291 92bd
00000330: 7f0f 6bbe be41 6fbe a3e1 e13d 3859 b9bd
00000340: 08cf 9b3e 7fba 9c3e 4fcd 1c3e 6f21 c53c
00000350: d686 9cbd 6e1a d83c 8c9c f33d a27c 32be
00000360: 0309 bcbd bdec 6e3d c962 7a3e d312 813d
00000370: c579 213e 581c df3e 3b66 c9bd 9351 8ebd
00000380: 9c74 103d 9036 a7bd 60e2 8a3e 2c82 35be
00000390: 0435 aabc 25c3 113f d7f0 1abe fa92 80be
000003a0: ffce 823e 0c56 e43c eee7 ea3d 9d13 8e3c
000003b0: 788a 2f3e db9c 38bd ffb3 923d bf39 113d
000003c0: f920 ebbb 1bd3 2dbd fb54 a83e 3a82 103e
000003d0: 80b4 7cbe fd4c 23be 07f0 f8be 5c24 96be
000003e0: c7d5 f53d 9e4b 8e3c 837e b3bd 82bd ea3d
000003f0: 19f7 67be c09c a63d 8e92 14be 1f16 af3e
-0.048440974 -0.5571746 0.42496055 -0.05980477 -0.092051774 0.2460252 0.17136943 0.6323957
0.06952494 -1.0835162 -0.2261913 0.20286477 0.2943743 0.21720877 -0.0057885093 0.47257668
0.6009276 -0.1682753 -0.19253516 0.04065649 -0.15947063 -0.16745278 0.6457362 1.3959423
-0.22340474 -0.19430415 -0.50212246 0.35439822 0.14142516 -0.21408512 0.31919116 -0.8663853
-0.19191192 0.3100542 -0.22529604 0.22067447 -0.30381867 0.28538716 -0.18124875 0.35521844
-0.1515682 -0.0702372 -1.3201494 0.18381178 0.52035224 0.51659673 0.20215714 0.13188927
-0.68186027 -0.1988492 0.2662635 0.022298846 0.3339034 0.3562034 -0.14900002 0.033501055
-0.13071595 -0.10195404 0.23874865 -0.24515682 -2.022697 -1.162904 0.3028677 0.048740067
0.31220055 -0.14147599 -0.3657804 -0.24059755 -0.09339277 -0.6843882 -0.25440633 0.34537598
-0.0029056685 -0.4942547 0.45512515 0.041402183 -0.52857816 0.037166446 -0.08904991 -0.09813955
0.37362838 0.11897235 -0.21481964 0.11852096 0.07701288 0.2033394 -0.03370259 0.41518733
0.52628934 0.9266975 -0.6003394 0.12054014 0.36980233 1.3337826 -0.22572182 1.251304
-0.19676007 -0.37981617 -0.34380144 -0.11212547 0.077484794 0.06074104 -0.13144302 -0.11695379
-0.42985752 0.23872855 -0.08311189 0.041371923 -0.77344817 0.6084875 -0.18739599 0.060897265
-0.332674 -0.17978872 0.7028111 -0.24840587 0.58327585 0.31675953 0.61910075 -0.310562
0.061269667 0.33503175 0.13426827 -0.02061643 -0.1121256 0.04248966 0.14384438 0.18915737
0.10242777 0.47361737 0.40356067 -0.32677016 0.005305938 -0.1552395 0.0834792 0.0123256855
0.034044355 -0.013858564 0.11399023 0.2330172 0.139417 -0.15093736 -0.1543743 -0.21456094
-0.1555309 -0.27568433 -0.043621805 0.32849646 -0.26326174 -0.10464675 0.7842839 0.19091263
-0.26130503 0.2074855 -0.06708982 -1.2962488 -0.10933618 0.05256509 0.23744169 -0.33220646
0.06927795 -0.012370241 0.09692495 -0.18221408 0.18734755 -0.53069025 0.10599191 0.09292737
-0.41820753 0.07160281 -0.48735136 0.1277754 0.10936851 -0.11608497 0.13808495 0.028543271
0.26513812 -0.016989775 0.019942027 0.32126075 -0.14368093 -0.5068016 0.10841273 0.04723967
-0.027177732 0.039058853 0.23557301 -0.019621974 0.6519917 0.25075832 0.51201105 0.08728872
-0.13297199 0.26146904 0.15303436 0.32705623 -0.010723079 -1.0178409 -0.11656051 -0.034547497
0.012386579 0.0018564592 -0.060055442 -0.071566835 -0.2295513 -0.23364922 0.11029365 -0.0905022
0.3043139 0.30611035 0.15312694 0.024063794 -0.076429054 0.02637979 0.11895093 -0.17430356
-0.09181406 0.05833124 0.24451746 0.063024186 0.15769108 0.43576312 -0.09833952 -0.06949153
0.035267457 -0.08164704 0.27125835 -0.17725438 -0.020777233 0.5693839 -0.15130936 -0.25112134
0.2554855 0.027873062 0.11470018 0.017343337 0.17142665 -0.045071464 0.07163238 0.03545546
-0.0071755615 -0.042437654 0.32877335 0.14112177 -0.2467823 -0.15947337 -0.48620626 -0.29324615
0.120036654 0.017370041 -0.087643646 0.11461927 -0.22652854 0.081353664 -0.14509031 0.34196565

layers.2.bias f4 [100]
00000000: 345b 9d3e 5e78 123e 6d95 8a3d fc8f 19be
00000010: 205e 00be ac45 d4bb e666 c53d ed27 04be
00000020: ae3c 653f f23a b93e 536f 15be 02a8 ed3e
00000030: e7d2 04bf 5508 97bd 6163 683d 59d6 52be
00000040: 2a53 1f3e dc98 133f fdc2 053e 0be9 033d
00000050: 43e5 983d e998 bebd 72a6 97be e936 11bf
00000060: 4725 1f3f 9b18 0f3a 2f0b 833e 9b9f 6cbe
00000070: 4adf 7ebd a84e bbbd 8c88 553e 3c4e 893e
00000080: 556c c3bc 06f5 88bd dcd7 d1bd c5e7 623d
00000090: c7ae c0be 885a febd a9ed aa3d ed54 6e3e
000000a0: 9565 11bf ae5e c03e 9e55 b43e d787 7c3d
000000b0: ab3a 443e fb7c 1d3d ec71 9e3e a1d7 03bf
000000c0: a90b 803e 583b c83e bafd b1bc 18c5 48bd
000000d0: 3097 16be a829 60be d467 b0bd 4396 9a3d
000000e0: ac29 333e 431b fa3d d65e 9bbd 9872 383f
000000f0: 43bb 49be a3e3 91be 6cb8 c6bd 15ae 69be
00000100: ad55 0ebd ab5a 653e 21b4 c7bc ec89 b03e
00000110: 6a64 333e 9546 9abd a9f2 823e efdf 0c3d
00000120: 4d1c b73e d9d9 efbe 30e5 b73e 960f 2f3e
00000130: eb79 5cbd 5ea8 c3bd d1a0 9abe 466b 733d
00000140: d70b bb3e c022 613f 07df 233d aba4 96bf
00000150: f728 4cbd 13ea 5cbe 23be 7a3d bebf f43d
00000160: 1e29 11be f222 0b3f b904 c6bc 42e2 b7be
00000170: ece2 23be 4fe4 47bd 8cbf 303e 9486 94be
00000180: f2e5 a8be 3477 833b b9a0 163f 6594 6e3d
0.30733645 0.14303729 0.06766782 -0.14996332 -0.12535906 -0.006478032 0.09638767 -0.12905855
0.89545715 0.36177784 -0.14593248 0.46417242 -0.5188431 -0.07374636 0.0567354 -0.2058958
0.15559068 0.5765512 0.13062663 0.03220467 0.07465603 -0.09306509 -0.29619175 -0.5672441
0.62166256 0.00054586836 0.2559447 -0.2310776 -0.062224664 -0.09145862 0.2085287 0.268175
-0.023855368 -0.066873595 -0.1024625 0.055396814 -0.37633345 -0.12419611 0.08346111 0.23274584
-0.56795627 0.37572235 0.3522157 0.061652984 0.19163005 0.03844927 0.3094629 -0.515009
0.25008896 0.39107776 -0.021727432 -0.04901609 -0.14706111 -0.2189089 -0.08613554 0.075481914
0.17496365 0.12212231 -0.07586448 0.72049856 -0.19700341 -0.28493986 -0.097031444 -0.22820313
-0.034749676 0.22397868 -0.024377884 0.34480226 0.17518774 -0.07532994 0.2557576 0.034393247
0.3576378 -0.46845892 0.35917044 0.1709579 -0.053827208 -0.09553598 -0.30200818 0.059428476
0.3653247 0.8794365 0.040007617 -1.1769003 -0.049843755 -0.21573667 0.061216485 0.119506344
-0.14175841 0.543502 -0.024172174 -0.3591481 -0.16004533 -0.048801716 0.1726057 -0.29008925
-0.32987934 0.004012013 0.58838993 0.05824699

layers.4.weight f4 [100, 100]
00000000: d8f7 b1bd ead4 f3bd d68c f7be 35ff a0bd
00000010: 587b 553e cffb 1d3e 8074 5ebe 1f17 233f
00000020: 7493 723e 3b9d 523d 28f4 03bf 8696 823e
00000030: f123 50be 1895 62bf bccf 43be 3670 3abe
00000040: b364 b7be 1a9f 5d3e d21f 963e 0a3d 233d
00000050: f16c 6d3e a4e7 523f 816e 4ebe b30b a6bd
00000060: ac25 a5bf d1db c6be c923 933e 8925 62be
00000070: 384c 48bf 577e 26bf e38e 573e ee84 6d3d
00000080: 3591 f23c 023f 323f 1b46 2a3f d1fa cebc
00000090: f367 a1be 6930 9d3e d5ef be3e 3fbb 423e
000000a0: 7203 a7bd 5b4f a73e fa5f ae3e c75a aa3f
000000b0: d5c3 16be 9701 6d3d 4057 6b3e 4a36 ccbd
000000c0: 1f3c 8c3e 5f92 593e b7ec 8e3e 7315 503f
000000d0: 041d df3e 7013 4cbe 098d 40bf 67c7 de3e
000000e0: cbb8 813e 2664 38bd ff9e ef3e 4b02 323e
000000f0: bb69 03bf fae2 683e ad5a d9bd 87fe 6bbe
00000100: cc24 473f c023 ac3e d81d 883e 1326 ae3e
00000110: 73f3 a23f 8bc2 9b3e 6c7d 233f 1817 53bd
00000120: ca30 4a3e e1a1 8bbe f125 e23d 08db 863e
00000130: 4311 e0bd 2625 80be fa42 50bc dd35 80ba
00000140: 8ca4 dbbc 8c97 a13e f091 43be aa70 adbe
00000150: 782d 97bc 2516 3a3e 7e60 973d e5a6 37bf
00000160: 9a13 1cbf ad36 3dbd 93ae ee3c 575e b1be
00000170: c783 d93d ab57 7c3e 1b34 953e ad29 f4be
00000180: 38b9 29bf 9c57 813f 7b77 833e 4744 55be
00000190: 3429 183e 9a07 c7bd f2cf ea3d 2c1f f33c
000001a0: 0262 8f3d 9402 1abf ed3e 1abe be44 73bf
000001b0: 71c9 9c3e 611e 66bf f23d 813e 77c8 23bc
000001c0: 2861 abbe abbb 09bd 39e4 a03e 171c e5bd
000001d0: 4698 acbe 78a2 b43d 5f04 32bf 8c65 62bd
000001e0: fa8a 06bf ffb4 b9bd b2d1 233d 69cc 87be
000001f0: f21d b23f ea88 c5be 7278 963d a9af 2f3d
00000200: 1e2a 2fbc aa35 393e 594d 003e a82c 603e
00000210: 0001 0d3e 6933 da3e 934a a4be f89c 583c
00000220: e486 f7bc eb8d 0d3f 918b aabe da63 923e
00000230: 1dbc 723d 2148 593d 787d 72bd ee35 3dbe
00000240: cbf8 013f 78af 0c3d 00a6 42bd 7477 5ebd
00000250: bd19 243d 4801 0cbd 2c30 28bf 0218 1fbe
00000260: 4397 ec3d d0b1 073f 6061 8d3d c388 cb3d
00000270: 8c00 a23c 33ef ca3e 41a7 d5be a741 9c3d
00000280: b8f9 863c 3eb9 afbd 3af9 873e fdf7 4cbe
00000290: 8827 7a3d 99c9 793e bf46 21be 4789 253e
000002a0: ea0e c93d 17b9 233f a9a0 5d3e 730d cd3d
000002b0: 32e9 0a3e 74e1 833f bedd 0b3d 0a4d 25be
000002c0: a81d ad3e 5529 b3bd 1aca 8a3e 77ac cfbd
000002d0: 61d2 34bf 0439 203f 5eea a9be b32f e23e
000002e0: 0828 19be 5288 de3d aa65 afbe 83c1 273e
000002f0: 496c af3e 199d 8f3f 5129 7e3d bf4b bf3e
00000300: c03c 8cbf 1c1f adbd 335c 063e f525 d13d
00000310: a4a7 ba3e e857 9a3e a61b 0a3e d979 623e
00000320: 2ce1 7c3e a139 013e 1ec3 0b3d 2594 28be
00000330: 50bb a33b c280 2d3f acd3 f7bd 4ddc 0abb
00000340: 05fc 11bd f1ea 373e 9ed0 4fbe 5e18 253e
00000350: ab0f 50be 47ac 9a3d ef21 153e fd99 a73c
00000360: 1299 5dbd 56c7 2b3e d9e3 cfbd aa4e 21be
00000370: 4d74 1c3f 004c 7bbe 78f8 1ebe 5688 c5bc
00000380: 80e7 fabc f8a9 003e b83c 1a3d 6968 e6bd
00000390: 27b9 93bb 7803 c43e 29cb 4b3e 2343 4f3e
000003a0: fcec 85bd f4e7 58bd bac3 06be 4a5d 5bbd
000003b0: 12a4 5ebe 8b0c 993e 22e8 dabd 1c38 e1be
000003c0: 86c1 14be ec1c 323e 3284 ca3d f71a c8bd
000003d0: 6cc5 0bbe af9b 70be ecd5 08be c105 02be
000003e0: 1536 a23d dc69 593e 3428 63be 3ec3 273d
000003f0: 7f15 bfbc b4dd 5abe e354 ffbd cebc 2fbe
-0.086898506 -0.119058445 -0.48349637 -0.07861177 0.20847833 0.15428089 -0.21724129 0.63707155
0.23689061 0.051419478 -0.5154443 0.25505465 -0.2032621 -0.8850875 -0.19122213 -0.18206868
-0.35819015 0.21642724 0.29321152 0.039853133 0.23186089 0.82384706 -0.20159341 -0.081077
-1.2902122 -0.38839582 0.2873824 -0.22084631 -0.782413 -0.6503653 0.210506 0.0579881
0.029610256 0.6962739 0.6651322 -0.025266083 -0.3152462 0.30700997 0.37292352 0.19016741
-0.08154954 0.3267773 0.340576 1.3308953 -0.14723141 0.057862844 0.22982502 -0.09971292
0.2738962 0.21247242 0.27914974 0.8128273 0.43576825 -0.1992929 -0.752152 0.43511507
0.25336298 -0.045017384 0.46800992 0.17383687 -0.51333207 0.22742835 -0.10612998 -0.23046313
0.7779052 0.33621025 0.2658527 0.34013423 1.2730545 0.30421862 0.63863254 -0.051535696
0.19745174 -0.2727194 0.11042393 0.26338983 -0.109407924 -0.25028342 -0.012711281 -0.0009781678
-0.02681186 0.31560934 -0.1909864 -0.33875018 -0.018454298 0.1817251 0.07391451 -0.71739036
-0.6096741 -0.04619472 0.029135978 -0.34642288 0.10620838 0.24642818 0.29141316 -0.47688046
-0.66298246 1.0104861 0.25677094 -0.20826827 0.14859468 -0.09718247 0.11465444 0.02967795
0.070011154 -0.60160184 -0.15063067 -0.9502677 0.30622438 -0.89890105 0.25242573 -0.009996525
-0.33472562 -0.03362624 0.3142412 -0.11186998 -0.33709925 0.08820051 -0.6953792 -0.055272624
-0.5255581 -0.090677254 0.039994903 -0.2652314 1.3915389 -0.3858102 0.07347192 0.042892132
-0.010691194 0.18086877 0.12529506 0.21892035 0.13769913 0.42617348 -0.32088146 0.013221018
-0.030215688 0.55294675 -0.33309606 0.28591806 0.05926143 0.053047303 -0.059201688 -0.18477604
0.5077025 0.034347028 -0.04752159 -0.054313138 0.04006361 -0.03418091 -0.65698504 -0.15536502
0.115522884 0.53005695 0.069033384 0.099381946 0.019775651 0.3963562 -0.41729167 0.0762971
0.016476497 -0.08580254 0.26557332 -0.20016475 0.061072856 0.2439331 -0.15749644 0.16165648
0.09817298 0.639543 0.21643318 0.10012331 0.1356552 1.0303178 0.034147017 -0.1614267
0.33811688 -0.08748118 0.27107316 -0.10140317 -0.7063351 0.62587 -0.3318662 0.44177017
-0.14956677 0.10865845 -0.3425725 0.16382413 0.34262303 1.1219817 0.06205112 0.37362477
-1.095604 -0.08453199 0.13121109 0.10212318 0.36456025 0.30145192 0.1348711 0.22116794
0.24695271 0.1261964 0.034121625 -0.16462763 0.0049966946 0.67774594 -0.1210092 -0.0021188438
-0.035640735 0.17960717 -0.20294425 0.16122577 -0.20318477 0.075523905 0.14563726 0.02045917
-0.054101057 0.1677526 -0.1015088 -0.15752664 0.6111496 -0.2454071 -0.15524471 -0.024112862
-0.030627966 0.12564838 0.037655562 -0.112503834 -0.004508156 0.38283896 0.19901718 0.20240454
-0.06539342 -0.052955583 -0.13160601 -0.053555764 -0.21742275 0.29892382 -0.10688807 -0.4398812
-0.14526948 0.17393845 0.098884955 -0.09770768 -0.13649529 -0.23496889 -0.13362855 -0.12697507
0.079204716 0.21231788 -0.22183305 0.04095768 -0.02332568 -0.21373636 -0.12467363 -0.17161867

layers.4.bias f4 [100]
00000000: b534 b13e 80ec 7b3c 5fa4 3d3e 2f14 4cbe
00000010: 116a c93e 2c4f 5ebe 4bd2 383e ddb7 943d
00000020: 5e50 cebc 0321 703e 1558 1abe 3df9 873d
00000030: 0f17 66be 7953 9e3e 8d50 87be b3e9 b0be
00000040: 6048 433e 9980 823e 00f1 f1be c0c9 97be
00000050: 832f f33e c78b d33d 8499 b6bd 653b 7fbd
00000060: ef1e 3a3e d2d3 443d a089 38be 1516 773e
00000070: 2c46 d3bd 3319 3abe 17ac d0bd 71ac 85be
00000080: 5fa4 033e c933 c43e b76d 8abe 80df 8e3e
00000090: 82a4 8e3e 514d 07bf 126f 66be 04dc 173f
000000a0: 1cbc dcbd 8aaa b4bd 9faf 0bbe e3da 2c3e
000000b0: f2d4 8ebe b6b4 25bf 8ca0 23bf b880 cd3d
000000c0: 613f bbbd c124 70be 8933 053e c33d 3d3c
000000d0: 443a 303e 5ef0 12be 991a 3cbe 5fe2 db3e
000000e0: ceb9 a8bd b43a 3cbe bb2f d8bc 220e ba3e
000000f0: 6781 0c3e eafe 5ebe 29ee 20bd 3467 b8be
00000100: 49bd 22bd 2f3a 663e f15a d9bd 9542 773e
00000110: 99a3 733e 6159 523e 75b5 51bd 75a6 6a3e
00000120: 82d2 fe3d 5f94 9bbe f6e6 60be 773a 2f3d
00000130: 08e9 313e 1b0b 20be 7e76 0d3e ba89 31be
00000140: cac4 673e 33a0 12be e707 96be 86b2 453e
00000150: 13e1 c03d 41a6 923e 0620 52be 4502 9f3e
00000160: 08c5 85be 7e61 51be 2680 93be b6d7 b4be
00000170: e21d 8ebd a52e 5fbe 17cf 98bd ffa9 973e
00000180: 96ba 97bd 65b6 1d3e 5a00 763e 71b2 0dbe
0.34610525 0.01537621 0.18519734 -0.19929574 0.39338735 -0.21709889 0.1804897 0.07261632
-0.025184806 0.23450093 -0.15072663 0.06639335 -0.22469734 0.3092306 -0.26428643 -0.34553298
0.19070578 0.25488737 -0.4725418 -0.2964611 0.47497186 0.10329395 -0.089159995 -0.062312502
0.18175863 0.04805357 -0.1802125 0.24129517 -0.103161186 -0.18173675 -0.101890735 -0.26108125
0.12855671 0.3832076 -0.2703683 0.27904892 0.27859885 -0.5285235 -0.22503307 0.5932009
-0.107780665 -0.0882159 -0.13641213 0.16880374 -0.2789684 -0.6472887 -0.6391685 0.10034317
-0.09142948 -0.2345152 0.1300794 0.01155037 0.17209727 -0.14349505 -0.18369521 0.42946145
-0.082385644 -0.18381768 -0.026389947 0.36338907 0.13721238 -0.2177693 -0.039289627 -0.36016238
-0.039731298 0.22483133 -0.10613049 0.24146493 0.23792876 0.20541908 -0.05119844 0.22915061
0.12442495 -0.30386636 -0.21963105 0.042780366 0.1737405 -0.15629236 0.13814732 -0.17337695
0.22633663 -0.14318924 -0.29302904 0.19306383 0.094179295 0.28642467 -0.20520028 0.3105642
-0.26126885 -0.20447347 -0.28808707 -0.35320824 -0.069392934 -0.21795137 -0.07461374 0.29621884
-0.07408635 0.15401609 0.24023572 -0.13837601

layers.6.weight f4 [1, 100]
00000000: 376f 55be 8773 d93e 210b 13be 0bf8 143d
00000010: db83 0fbe 1cc8 de3d 68d2 4dbd a6bd c2be
00000020: 1063 133b 9d7e fdbd 9fa4 b83d b858 bdbe
00000030: 995c e83d 30bb 3bbd e163 9f3e f799 2a3e
00000040: 2247 87be d9f0 62bd fe1e 003f c225 343e
00000050: da9a a7be b256 f8be c4f4 963e e480 2d3e
00000060: 71e6 cfbe 5665 df3e 217f 603e 6a61 c3bd
00000070: 6080 d43d 2a37 7c3e 9dce b33d bda7 c53d
00000080: 3739 79bd 8d67 29be 2bcc 583d d498 9cbd
00000090: ba1c 45be a736 583e 7bef e73d 8de6 b0be
000000a0: 5a4d 973e 478d 8b3e ddaa 353f 6425 f5be
000000b0: 094e d83d 8dbd 133f 2f7c 453f cddd 94be
000000c0: ed2d 8e3e bd89 373e 92d6 3ebf c123 3d3e
000000d0: 023b 97be 6b43 b13d c212 e33e f5c1 17be
000000e0: 06f9 a3bd 5e05 ad3d 8e9e 88be 264a 51be
000000f0: c24a 1ebf 83c8 3f3e c40a e93d 80c9 373e
00000100: f3e4 333e 0d8c e6bd fed4 513e 4c03 1bbe
00000110: 30af dbbd 1325 dabd daee 5a3d dbb3 1fbe
00000120: 0b4d afbd cfb2 5c3e 8b0e 083d 1e46 e0be
00000130: 13ee 2bbd 7cb6 ca3e ebee b0bd 6bed cc3c
00000140: 1bf5 c0be 778f b03e 58cd 783d 39b3 b6bd
00000150: abc2 72bf 8a99 5dbe b3fb 2d3e d315 22be
00000160: 84d0 c93d b9ea 623f 4631 763d 4041 243e
00000170: f594 9e3c cba5 543e bd7d 173e 5800 28be
00000180: b8b7 903d f7b9 26be d614 18be 0d5d 723d
-0.20843206 0.42470953 -0.14359714 0.036369365 -0.14015143 0.108780116 -0.050249487 -0.38035315
0.0022489466 -0.12377665 0.09015774 -0.3698175 0.113457866 -0.045832813 0.3113089 0.16660295
-0.26421458 -0.05540547 0.5004729 0.17592528 -0.3273533 -0.48503643 0.29483616 0.16943699
-0.406055 0.43632 0.21923496 -0.09540065 0.10376048 0.24630418 0.08779643 0.09651134
-0.06084558 -0.16543408 0.052929085 -0.07646337 -0.1924924 0.21114598 0.11324974 -0.34550896
0.29551202 0.27256224 0.7096384 -0.4788009 0.10561759 0.57711107 0.77142614 -0.2907547
0.27769414 0.17923637 -0.7454616 0.1847067 -0.29537207 0.08655437 0.4435025 -0.14820082
-0.08006482 0.08448289 -0.26683468 -0.20438442 -0.6183282 0.18728833 0.113790065 0.1794796
0.17567806 -0.11257181 0.20491406 -0.15137976 -0.10726774 -0.106516026 0.053450443 -0.15595953
-0.08559617 0.21552585 0.033216994 -0.43803495 -0.041975092 0.3959235 -0.0863932 0.025015553
-0.37687 0.34484455 0.060742706 -0.08920903 -0.9482829 -0.21640602 0.16990547 -0.15828638
0.09854224 0.8863941 0.060105585 0.16040516 0.019358138 0.2076637 0.14794059 -0.16406381
0.070662916 -0.16281877 -0.14851698 0.05917077
