hddm/torch_models/362f8656175911ecbe8c3cecef057438_lca_no_bias_angle_4_torch_state_dict.pt (torch, 125455 bytes, 7 tensors)

layers.0.weight f4 [120, 12]
00000000: a989 db3c 0a49 5a3d 16b7 e93d 751d b33d
00000010: 8a58 a0bd 6f26 e23d 332e 9c3e 3120 edbc
00000020: fcbb a0bc 1635 723c 5d0e 3dbb ca68 6fbc
00000030: b3b8 c3bd d87d 0c3e 9fe7 4fbd 44e4 9a3d
00000040: bc22 19be de3c 423e 2a85 1eba 4886 18bd
00000050: e68e ca3c 559b 1dbe 4aa3 1bbb 226a f2bd
00000060: 69cf 61bd bcab c0bd 8b9a faba f6c0 963e
00000070: 51e6 0e3b 3dd5 e73d 3c0f 5abc 363d 25bd
00000080: 9693 9ebe dc72 043e ed9b 9f3e 0e60 f1be
00000090: 9108 df3d 1899 07bd ec59 a0bc adf3 4bbd
000000a0: d937 6e3d 4586 24bf 206b dc3c 7a34 50be
000000b0: 32b5 a33e 9c7c 3bbf 2164 82be c8ec a03c
000000c0: d0f5 033d 01fc 683d 477b 793d 3d78 453d
000000d0: 65b2 4d3d d48c 923e 3fe4 b4be f1fb dabe
000000e0: bd03 c03c d9e1 5dbf 6454 bcbb 9b23 343b
000000f0: 0a60 0a3c 2581 af3d da8d 8ebd 2ed3 33bd
00000100: 95ca 2cbe 668e 083e d14a 493d 7c14 b03c
00000110: 675b dcbe ce47 8a3d f7a8 043f cea2 683c
00000120: 5933 3abc a706 a5bb 3018 17bc fe7c c6bb
00000130: fbe0 07bf f0eb 073f 9b56 773e 7558 313f
00000140: 7b64 41be b65a 103d 7a2f 553e 13a9 a23b
00000150: d5c6 af3d eacc f33c 4ac7 bb3d 3f73 213d
00000160: 6c32 9cbe ea4a 3c3e b338 86be dbe6 97bb
00000170: b4cd 7dbe bf78 103f d44b 8f3e 8b80 9cbd
00000180: a513 7ebf c99c 4abf e1c3 24bf d1e0 8abf
00000190: a9b4 f7bf cd63 4bbf b629 3bbc 3353 21be
000001a0: 55ff 6ebf e562 82bf f0fc 22bf 73b1 47bf
000001b0: 7718 373d 8c5f 213d 9914 443d f8cd 3b3d
000001c0: e172 033f 7c2a 2b40 7d62 b63d 971e de3e
000001d0: 3024 bf3e b173 ecbd 02e4 bbbe c271 b339
000001e0: 87b4 ce3e d439 cfbe cd6e a7bd 4d9a 053d
000001f0: 3398 dd3e ab58 38be 149f 2fbc 9a74 213e
00000200: db6c 0d3c 62f4 e7bd 5796 a13c 602e 5f3d
00000210: 5809 153e 91d6 073e 3799 f33d df97 e23d
00000220: 0485 833d a3c6 b93f 5c0c 473e b0cc 193f
00000230: d88a 873d 280e ac3d 75ff 97bd 6bd6 813b
00000240: 88b4 383e f77a be3a 64ed 293d c2ca 673d
00000250: f220 6fbd 7ded 30bd bb53 b5bd 4a8e f1bd
00000260: abfd 22be 283b 0d3e 4460 fb3d ea47 48be
00000270: 1d4c 2f3e 99a1 0f3e 1ec1 483e a977 ee3d
00000280: 6a63 1e3b 828f 85be d4bd a9be 68f7 aabe
00000290: f390 43bd 0a30 4cbe 84af 703c 5338 2dbd
000002a0: b68e efbd f1af 43bd fb63 133d b798 1a3e
000002b0: 4dcc 413e 1f9d c5bd 9bee e13c 8e7a 063e
000002c0: f06e f33d 7ce9 acbd 530d e8bd 83c8 94be
000002d0: babe 02bd e3a6 73bc 4d52 92bc b1ef 31bb
000002e0: e2a2 903e e645 88be 6190 083e b7e6 df3e
000002f0: 68af 353f 9a70 413d 3aef 31bf ff9a 0abc
00000300: 459b 1f3d b5e0 813d 6bd0 d23d 4b41 cc3d
00000310: 57be 71be a61e 8d3e ba5c 29be 7c5c 41be
00000320: 8e1a 3abf e7cc 8e3d 200f 273f 39ef 8ebd
00000330: bd95 a63b 9f3e af3c e13f 5dbd 6ea3 1a3b
00000340: f66c 04be 4915 fabe be83 4ebc 315c 1ebe
00000350: 42d8 2d3f f9bc 03bd 70d9 35bf 6d32 a83c
00000360: 0f1c 9a3d 1df6 cdbc 71b2 f5bc 020b bb3b
00000370: 3bb4 4b3d acf8 d93b 196d f53b 5bdb 083d
00000380: b4cb 51bf 1ef5 56bd a51e 4f3f 2c68 adbd
00000390: 79bb a9bd 283d 83bd 4eb5 77bd 697b 82bd
000003a0: dea6 bf3d 6fe6 f63d 0623 023f 2116 2d3f
000003b0: 7e22 c4bb 64d2 82c0 fd6c b93c 4961 9abb
000003c0: cfbc 1a3e 591e 2cbe f756 f23c b9f6 803d
000003d0: c9b2 6b3e 7bd0 d03e 68ad 11be c25b d6bd
000003e0: ac4c 2dbc e876 71be daf2 3b3c 3d0e c4bb
000003f0: 0da8 72bd b612 5bbd d12b 023d 8912 bd3d
0.02679904 0.05329231 0.11411874 0.08745853 -0.078293875 0.11042487 0.30503997 -0.028946014
-0.019620888 0.0147831645 -0.0028847673 -0.014612386 -0.09556713 0.1371988 -0.050758 0.075630695
-0.14954656 0.18968531 -0.00060470647 -0.037237436 0.024726342 -0.15391286 -0.002374845 -0.118366495
-0.055129442 -0.09407756 -0.0019119544 0.29444093 0.002180476 0.11319969 -0.013309296 -0.04034158
-0.30971974 0.1293444 0.3117365 -0.47143596 0.10890306 -0.033104986 -0.019574128 -0.049792934
0.05815873 -0.6426738 0.02690655 -0.20332518 0.3197418 -0.73237014 -0.25467017 0.019644156
0.032216847 0.056880955 0.060908582 0.04821037 0.05021896 0.28623068 -0.35330388 -0.4277034
0.023439283 -0.8667274 -0.005747365 0.0027487043 0.008445749 0.08569554 -0.0696065 -0.04390257
-0.16874154 0.1333557 0.049143616 0.021494143 -0.43038484 0.06751977 0.5182032 0.014198972
-0.011364781 -0.0050361934 -0.009222075 -0.0060573807 -0.5307767 0.5309439 0.24154131 0.692756
-0.18885987 0.03524276 0.20818892 0.004964003 0.08582846 0.029760797 0.09168871 0.039416548
-0.3050722 0.18387952 -0.26215133 -0.0046356744 -0.24785501 0.56434244 0.2798754 -0.07641705
-0.99248725 -0.79145485 -0.6436139 -1.0849859 -1.9352008 -0.7944916 -0.011423519 -0.15754394
-0.93358356 -1.018643 -0.636672 -0.7800514 0.044701066 0.03939776 0.047871206 0.045850724
0.51347166 2.674468 0.08905504 0.43382713 0.37332296 -0.11545504 -0.36697394 0.00034226297
0.40372106 -0.40473807 -0.081754304 0.032617856 0.4328018 -0.18002574 -0.0107190795 0.15767136
0.00863191 -0.11325909 0.019725008 0.054487586 0.14554346 0.13265444 0.11894458 0.11064123
0.06421855 1.4513744 0.19438308 0.60077953 0.06618279 0.084011376 -0.074217714 0.003962328
0.18037617 0.0014532496 0.04148616 0.05658985 -0.05838103 -0.043195236 -0.08853861 -0.117947176
-0.15917079 0.13792098 0.122742206 -0.19558683 0.17118879 0.14026488 0.19604918 0.11643917
0.0024168142 -0.2608605 -0.3315264 -0.3339188 -0.047745656 -0.199402 0.014690284 -0.042290043
-0.11697142 -0.047775213 0.03598402 0.15097319 0.18925591 -0.09649109 0.027579596 0.13132688
0.11886394 -0.08442971 -0.113306664 -0.29059228 -0.031920172 -0.014871332 -0.01786151 -0.0027150924
0.2824927 -0.26615828 0.13336326 0.4373071 0.70970774 0.047226526 -0.69505656 -0.0084598055
0.038966436 0.063416876 0.10293659 0.09973391 -0.23607765 0.27562445 -0.16539279 -0.18882936
-0.7269677 0.06972676 0.65257454 -0.06979222 0.005083768 0.021392165 -0.054015998 0.0023595947
-0.1293219 -0.48844364 -0.012604652 -0.15464856 0.6790811 -0.03216264 -0.7103491 0.020531857
0.07524883 -0.02514177 -0.029992314 0.0057080993 0.049732428 0.0066519585 0.007489812 0.03341232
-0.8195145 -0.052479856 0.80906135 -0.08467135 -0.08287711 -0.06408149 -0.06047564 -0.06371195
0.09357999 0.120556705 0.5083469 0.6761189 -0.005985557 -4.0881824 0.022634977 -0.0047113043
0.15111087 -0.16808452 0.029582484 0.062970586 0.2301742 0.40784058 -0.14226305 -0.1046672
-0.010577362 -0.23580515 0.011471475 -0.0059831426 -0.059242297 -0.05348464 0.031780068 0.09232051

layers.0.bias f4 [120]
00000000: 78bc 66be 8e33 ba3e 8761 673e bcec a8bf
00000010: ee0f c23d a092 863d f1f3 733f 96db c6be
00000020: 0263 f4bf c291 bfbf 9505 8dbe 6ed1 e4bd
00000030: 401b adbd 60ac 013f 60b5 8d3e a85e 863d
00000040: 2176 80be e4c3 1e3f 7f67 573d 14ee 75bf
00000050: 20c8 26bf 3e09 12be 2ac0 2cbe b7a5 d3be
00000060: 6f2b 133f a0f0 86bf 8aeb c03e d08a 1abe
00000070: 91b8 b0be e470 1e3e ddcf 553d b3b1 9abc
00000080: 8343 103f a0ce cebe e714 14bf 5f5d 54bf
00000090: 5083 0340 9887 d43e b5ea 803e e59e d6be
000000a0: e93b cd3f 6ba8 56bf a6c1 173e 9a82 ecbe
000000b0: ebf4 bf3e 9074 d1be 9ad1 acbc f9c5 03bc
000000c0: 5f1b 32bc c034 2abe b73e 8b3f f167 f6bd
000000d0: 46fe 9e3e fc21 9fbe 1ac0 d1bf 9bba 5dbe
000000e0: 1391 64bf a0f3 0bbe f012 19bf 1b28 503e
000000f0: f469 9c3e 2f23 063e 0167 efbd edee f63e
00000100: a637 c63e 2f84 bcbd f715 7b3f 9132 c4be
00000110: a3ef 3ebf bc66 efbe 2585 62be 5630 b6be
00000120: 552b 36bf b27a 783f 7041 35be 6d06 c9be
00000130: 0773 a1be 7538 bbbd e740 333e f00c 7d3e
00000140: 6eed f53e 2b4a 87bf 624b 8abc 5966 6e3e
00000150: 4d6b a5be 6774 243f af24 ccbe cef5 523f
00000160: 9cb4 863f b963 a03e 2a3d ad3e ddb8 953e
00000170: fe74 7e3c 28be 063f 430a 44bc fadc 9bbd
00000180: 875e 50be f289 a2be 1342 fabd 29cc 05bd
00000190: 4f93 87be 7d6d 6bbe 1071 81bf b6ec 85be
000001a0: bc10 be3f 023b cebf 1015 863e 9c79 a33e
000001b0: 24ee df3d d720 593f 5bbe 12bf e9f0 513f
000001c0: 14f6 78be 7771 1a3f b69d ba3f e18c e0bd
000001d0: 7ff8 e33d 9c0c f73e a37d 3d3e 1f8a a0be
-0.22532833 0.36367458 0.22595797 -1.3197246 0.094756946 0.06570935 0.952941 -0.38839406
-1.9092715 -1.4966357 -0.2754332 -0.11172758 -0.08452463 0.5065365 0.2767744 0.06561023
-0.25090125 0.62017655 0.052588936 -0.96066403 -0.65149117 -0.14261338 -0.1687018 -0.41337368
0.5748815 -1.0542183 0.37679702 -0.15092015 -0.34515813 0.15472752 0.052200187 -0.018883562
0.56353015 -0.40392017 -0.57844394 -0.82954973 2.0548897 0.415097 0.25179067 -0.41918102
1.6033908 -0.83850735 0.14819965 -0.4619339 0.37491545 -0.40909243 -0.02109604 -0.008042806
-0.010870784 -0.16621685 1.0878514 -0.12031544 0.3105337 -0.31080616 -1.638675 -0.21653216
-0.89283866 -0.13667154 -0.5979452 0.20327799 0.30549586 0.13099359 -0.11689568 0.4822916
0.3871433 -0.092048995 0.9808039 -0.3831983 -0.74584407 -0.46758068 -0.22121103 -0.35583752
-0.7115987 0.9706222 -0.17700744 -0.39262715 -0.3153307 -0.09141628 0.17505227 0.24711967
0.48032707 -1.0569509 -0.016881648 0.2328123 -0.32308426 0.64240116 -0.39871737 0.8240632
1.0523868 0.31326082 0.33835727 0.29242602 0.015530823 0.52633905 -0.011965337 -0.07610507
-0.2034856 -0.3174587 -0.12219634 -0.032665405 -0.26479575 -0.22990985 -1.0112629 -0.2615716
1.4848857 -1.6111758 0.26187944 0.31928718 0.109340936 0.84815735 -0.5732171 0.82008225
-0.24312621 0.60329384 1.457938 -0.109643705 0.11131381 0.48251808 0.18504958 -0.31355378

layers.2.weight f4 [120, 120]
00000000: 5228 3ebe 5221 b83d aef7 49bd 850f c73e
00000010: 5c0c 25be 4999 a43e 9218 fbbe 061d c7be
00000020: 79c4 bb3e 44ef 9abe 4f3b c93d b5bc 1ebe
00000030: 5351 03be 01c6 6cbe 9aab a93e a630 123f
00000040: 63cd aabe 888c 76bf d4ae 86be 8769 2d3e
00000050: 7ce4 993d a0b8 873e 46d4 a53e 868b 2abe
00000060: 17c9 143e 8ed0 bd3f 337b babe acdb 793f
00000070: 56b6 6f3d 3d42 fabe 9537 46ba 7cd8 8dbf
00000080: 2e2e 5cbd dde6 893f 1118 873d c7e1 413f
00000090: 49b1 aebe d2f5 d7bf 0da9 123e 526a 873e
000000a0: a735 bdbe 7db3 e03d f0dc 9ebd cb0b 853e
000000b0: 55c1 70be b538 4abe 1698 143e a1d1 9a3f
000000c0: 581b 3e3e 213c 483d 4b9d 21be 203c 893d
000000d0: 61ee d83e 5b6b 8d3e c10a 9f3e 69ea 9a3d
000000e0: 0731 593f 7514 f43d 674c 94b9 b790 ab3e
000000f0: 6e8c 60bf a29f a4be f1ed f33d eede c5be
00000100: 58ca 52bf e334 38be eb7d d13e d5be 1d3f
00000110: 918e 513d 39a3 963d ca41 a83d ea31 1c3f
00000120: 6b3a 5a3f e656 0abe b022 2bbd 4c2c b337
00000130: f003 83be 0c23 673d 2b15 0cbd bc01 87bc
00000140: 4777 73bd 864a ce3e 1b4e 4cbe d735 c2be
00000150: 5fa1 483f 6222 fb3c e2ca 53bd fe79 82bd
00000160: 4818 18bf 1249 9d3e ed86 10bd e1e3 2e3e
00000170: fab8 903e fed7 7cbf 5900 05be 0a05 36bd
00000180: 3dee dfbe c0fe 653e 5657 3f3e 08ff babf
00000190: d182 913d 0b8c 373e 24a8 283e 4211 da3e
000001a0: e790 b1be 12ba 48be 6413 f6be 2831 bdbe
000001b0: 34a0 2e3b 132a 0dbe ec0a 67be 6e91 b0bf
000001c0: 1644 55bd 0706 4a3e 8db9 8ac0 fd2d 723f
000001d0: c52b b73b 5f0c 253e 68ca 4ebd 8238 4f3e
000001e0: b0e8 483d 30e1 f43e ccee 18bd 096e 333e
000001f0: 25be 01be 0c0f 02bd af3c 6abf 6210 123e
00000200: 1ffa df3d c93e ca3d 3f8f 1dbd 3aa0 f8bd
00000210: 4d62 703e 68d7 91bd 9e72 acbd 1f5d d0be
00000220: 048f 3b3f ec05 8c3e a9d5 ebbd 95dc 193e
00000230: c57f 8d3e e988 493e c0b0 47bd 620b 49be
00000240: b9d3 68bd 59fc 413e a83b 5cbe 6f77 bd3e
00000250: da2d 5ebd 2b2c 8f3d 071c ffbd 5c24 003e
00000260: 18d6 9b3c 4e83 583f d8a7 823d 1165 6a3f
00000270: 1ab4 66be 4f9b a2bf 218b 183e 4449 b2bc
00000280: a60a 3bbe 279a 0cbe 2a37 80bd 423b 0c3f
00000290: ea5a b3bd c455 b93d 59e6 083e 45a7 843e
000002a0: 3a93 9cbe 25e1 2bbf 5b01 a7be c69a aa3d
000002b0: 4fb3 113e e4d7 183e b32f e13d d8d7 02be
000002c0: 5dff 8b3e 5315 783e df6d 0c3e 753d 273e
000002d0: ec01 7cbe a519 8e3e 1ae0 913e 684c acbd
000002e0: 89c3 07bc bbe1 32be d5e9 d5be b34e b03d
000002f0: 7a7a 55be b2a9 673e 8b5f 2d3e a440 f73d
00000300: e43a 6d3e 0286 d5be e3fa 82be 302c 81be
00000310: 7b49 cf3d c0ab 733e d6c5 15be 55c3 ef3e
00000320: 1094 b0ba cf72 633e 804d c1bd 1507 02bf
00000330: bc27 743f bab8 bbbe 0bdb f03d 228b 44be
00000340: 4be3 39bf 8f32 40be 3554 ab3d d9d6 00be
00000350: 344a 9c3b ec2b 82be b5d1 843f 5201 f73d
00000360: c0c2 9cbe 23d6 6fbe afde d7bc 296e 04bf
00000370: de01 34be e5b1 8abe f16a 5e3e 9966 4d3d
00000380: f506 0ebe 957b 223f 0583 133f a623 f5be
00000390: 4429 0c3f 5537 8cbe aab7 2e3d 19a4 58be
000003a0: b19e 9e3e eb62 6fbe 8eee 0ebf f760 733e
000003b0: e72e 4a3e fb8d 19bf 4694 bbbd ae40 c4be
000003c0: eb1f 133e 9bf5 0c3e 9569 b7bd beff 93be
000003d0: fc57 6cbe a44b 01be abf8 cbbd 6106 9f3d
000003e0: f2dc 8abe 33c4 29bf d4fe 31bd 20de dbbd
000003f0: b0ce 98bd 7345 113e 58f1 d9bd b1c7 f43e
-0.18570068 0.0899073 -0.04930847 0.38879028 -0.16117996 0.32148197 -0.49042183 -0.3888933
0.36673334 -0.3026067 0.09825765 -0.15501674 -0.12823991 -0.23122407 0.33138734 0.5710548
-0.33359823 -0.96308184 -0.26305258 0.16934787 0.07514283 0.26508045 0.32388514 -0.16654786
0.14529835 1.4829271 -0.3642212 0.9760082 0.0585235 -0.4887866 -0.0007561383 -1.1081691
-0.053754978 1.0773579 0.06596387 0.75735134 -0.34119633 -1.6871893 0.143223 0.26448303
-0.36954996 0.10971735 -0.07756984 0.2598556 -0.2351125 -0.19748195 0.14511141 1.2095224
0.18565118 0.04888547 -0.15782659 0.06700921 0.4236937 0.27620968 0.31062892 0.075642414
0.84840435 0.11917964 -0.00028285684 0.33508846 -0.8771428 -0.3215304 0.11910618 -0.38646644
-0.8234 -0.17988925 0.4091638 0.6161931 0.051161353 0.07355351 0.08215673 0.6101366
0.8524539 -0.13509712 -0.041781127 2.135909e-05 -0.25588942 0.056429908 -0.034199875 -0.01648032
-0.059439924 0.40291232 -0.1995167 -0.37931702 0.7837123 0.030656043 -0.051707156 -0.063709244
-0.5941205 0.3071981 -0.035284925 0.17079116 0.28266126 -0.9876708 -0.12988414 -0.0444384
-0.4373645 0.2246046 0.1868566 -1.4609079 0.071050294 0.17924516 0.1647039 0.42591292
-0.34680864 -0.1960223 -0.4806167 -0.36951566 0.0026645781 -0.13785581 -0.2256276 -1.3794382
-0.052066885 0.19728862 -4.3351502 0.9460142 0.0055899345 0.16118 -0.050486 0.202364
0.049050033 0.47828054 -0.03733711 0.17522444 -0.1267019 -0.03175263 -0.91498846 0.14264062
0.10936379 0.098752566 -0.03846669 -0.12139936 0.23474999 -0.071211636 -0.08420299 -0.40696046
0.732651 0.27348268 -0.11515362 0.15025552 0.27636543 0.19681133 -0.048752546 -0.19633248
-0.05684254 0.18943919 -0.21507132 0.37005183 -0.054242946 0.06990846 -0.12456518 0.1251387
0.019022986 0.84575355 0.0637967 0.91560465 -0.22529641 -1.2703646 0.14896823 -0.021763451
-0.18265781 -0.1373068 -0.06260522 0.5477792 -0.08757575 0.090495616 0.1336912 0.25908867
-0.30581075 -0.6714042 -0.32618222 0.08330302 0.14228557 0.14926106 0.10995426 -0.1277765
0.27343264 0.24226885 0.13713787 0.16332038 -0.24610108 0.2775394 0.28491288 -0.08413011
-0.008286365 -0.17468922 -0.41779962 0.08608761 -0.20847502 0.22623327 0.16930978 0.12072876
0.23166996 -0.41703802 -0.25582036 -0.25229025 0.10121437 0.23795986 -0.1462625 0.46828714
-0.001347186 0.22211765 -0.0943861 -0.50792056 0.9537313 -0.36664373 0.11760529 -0.191937
-0.72612447 -0.18769287 0.083656706 -0.12581958 0.004769588 -0.25424135 1.0376498 0.12060799
-0.30617332 -0.2342153 -0.026351301 -0.5173059 -0.17578837 -0.27088848 0.21720482 0.050146673
-0.13869841 0.6346982 0.57621795 -0.4787876 0.54750466 -0.27385965 0.042655624 -0.21156348
0.30980447 -0.23377578 -0.55832756 0.23767458 0.19744454 -0.5998227 -0.0915914 -0.38330597
0.14367644 0.13765566 -0.08955685 -0.28906053 -0.23080438 -0.12626511 -0.09959539 0.077648886
-0.27121693 -0.66315 -0.043455914 -0.10735726 -0.074612975 0.14186649 -0.10641736 0.47808602

layers.2.bias f4 [120]
00000000: ed8d d2be 1eb6 54be 8e04 593e 801c a63d
00000010: 6485 433e 85d7 da3d f3f5 213d d86e 8b3d
00000020: f37f 94bd 5f19 f13d 25e8 c6be 7219 5cbc
00000030: d9f4 e8be dee6 07bf a1cc 8fbd 9caf 853e
00000040: 4cb2 4d3e 35c2 e1be 5323 a5be 5a55 83be
00000050: 7a39 87be 8810 a93d e2a4 77bd 1952 b5be
00000060: 63d5 5b3d 154b 5a3e d516 6fbe 3eb5 7b3d
00000070: ab18 44be deaa a63e 8bc5 16be 58d7 22be
00000080: 7123 a0be 60ea f13e 30ad d2be 8356 ba3e
00000090: 663a ccbd 3e7d d4be 9480 d53e 4a46 913d
000000a0: 610d 65bd c394 fc3e 1ad5 b63d 5078 e73e
000000b0: 923d e93d b4be 8e3e 7761 83bc f1d6 973d
000000c0: 694b f7be 9c7a 0fbe 6903 c23e 79f3 8d3e
000000d0: e8a1 a6be aa4f 2abd 6679 a6bd d3b0 ca3e
000000e0: 8e32 203e 4857 21be 856a 413f 20a6 16be
000000f0: 12af 02be 9d6f 78bd c993 c63d 6893 85bd
00000100: c53b 613d 0f65 1c3f 6bf6 a63d 19cb 9dbe
00000110: dc44 4dbd f7ea 003e 27d9 8f3e 08ea 84bd
00000120: 8483 d8bd 1c9c f5bd 91bb 543e baa9 a43d
00000130: cb94 9b3e 699c 82be b98e f03d 7461 34be
00000140: 9efb 853d 349e 6cbe 0606 4d3e bbe3 bbbd
00000150: bd7b 07be 4d0e ea3d cc31 d13e 1e3e 653c
00000160: 3a08 a43d a3d1 443f c504 62bd c4ed 453e
00000170: 322a 3ebe 5055 a53e ba66 5d3d a8e0 043f
00000180: d8ef 043e 31fb 763c edce 56be 2250 7ebe
00000190: 7586 313e 6a46 ce3d 8a13 503e 24c9 74bf
000001a0: 480b 0b3f e781 b4be 313f 253d a7b1 b0be
000001b0: a4c9 963d e4a7 2bbe fb30 593f d3a8 18bf
000001c0: b99e bebc b025 90bd e519 d0bd fa10 983d
000001d0: 4201 2e3e 7713 a4be e0f2 08be ebaa adbe
-0.41123906 -0.20772597 0.21193144 0.08110905 0.19093853 0.10685638 0.039541196 0.06808251
-0.07250967 0.11772417 -0.38848987 -0.013433801 -0.45499304 -0.5308665 -0.07021452 0.26110542
0.20087546 -0.4409348 -0.32253513 -0.25651056 -0.2641104 0.08255106 -0.06045998 -0.35414198
0.0536703 0.21317704 -0.23348553 0.061452143 -0.19150035 0.32552236 -0.14723794 -0.1590246
-0.3127704 0.47249126 -0.41147757 0.36394128 -0.09972076 -0.41501802 0.4169966 0.07093485
-0.055920962 0.49332246 0.08927365 0.4520898 0.11388697 0.2787987 -0.016037686 0.07414044
-0.4829972 -0.14011616 0.37893227 0.27724817 -0.325454 -0.04157988 -0.08128624 0.3958803
0.15644285 -0.15755951 0.7555316 -0.14711809 -0.12762097 -0.060653318 0.096961565 -0.06522256
0.05498864 0.61091703 0.08152469 -0.30819014 -0.050114498 0.12589632 0.28095362 -0.064899504
-0.105719596 -0.11992666 0.20774676 0.08040185 0.30386958 -0.25509956 0.11745972 -0.176153
0.06542133 -0.23107225 0.20021829 -0.091742955 -0.13230796 0.11428509 0.40858305 0.013991861
0.080093816 0.7688238 -0.05518033 0.19328982 -0.18570784 0.3229165 0.054053046 0.519053
0.12982118 0.015074537 -0.20977373 -0.24835256 0.17336448 0.10072024 0.20319954 -0.95619416
0.5431409 -0.35255358 0.040343467 -0.34510538 0.07362679 -0.16763264 0.84840363 -0.59632605
-0.023269044 -0.07038438 -0.10161189 0.07425113 0.16992667 -0.320461 -0.133739 -0.33919463

layers.4.weight f4 [120, 120]
00000000: 85c3 b8be 3d75 403e 6d13 d13e a9d0 37bf
00000010: cb5a 4a3d fe14 013f ac81 2d3e 21cc 8abe
00000020: 36d3 1fbe d320 bdbc f234 993e 441a a23d
00000030: cbc2 593f 80f4 4b3e 5a1f 05bf 2a3a 74be
00000040: 02b9 403d c14f ce3e 226e c9bc ac21 d83d
00000050: c43c c0be 44d7 07be b832 71bf bb88 4abe
00000060: 845c a2be 8ab7 433f 319a 173f 4e98 0fbf
00000070: a040 723e 757f 6fbe 0269 aa3d fd0c 663d
00000080: 9e18 9bbe 6e89 f23e 1189 6f3e a69c 4dbd
00000090: 876a d2be e96d 393f ca50 0f3e 073b 87bd
000000a0: e67f 9cbe c368 79be ed4c 7d3e 350d 1f3f
000000b0: 56b4 acbe fa16 29be b45f 1d3e b8b5 84bd
000000c0: 7901 96be 60ec 86bd 1d10 b4be e3f3 303c
000000d0: 169d b33e aa61 3f3e 31a4 6bbe b1b0 8d3d
000000e0: ea96 293c 8136 4e3f 8f0a 1e3f 664d 46bf
000000f0: bb8a 23be 1eec e5bf a3d2 8abf d7df 0b3f
00000100: 860e 863f 42c6 bdbe e5b3 41be 05cc f53b
00000110: 6059 c63d 38ca c8be 1089 d8be 76e6 df3d
00000120: 8535 80be 31f0 b0bf 54ab 7c3e ad7f 45bd
00000130: 2b84 513e 22ed 773e 8e1a 43be 807a db3d
00000140: cbc8 773f 45f2 5f3d d9a3 b3bd c1ef be3e
00000150: 6ee2 a23e 6df5 f9be d777 5e3e e359 3bbf
00000160: e02d 85be ab02 21bf eb8f cd3e 98aa 693e
00000170: 4d0b 36bf d872 223c 509b 923c db2e 723d
00000180: f35e c93e 442d d33d dde2 11bf 95b8 bc3e
00000190: a96a aabe dbd0 de3e 702c b03c d9df 24bf
000001a0: c4da 53be 5660 4cbf d1e6 563e fac0 3a3e
000001b0: 0b9b 8d3e f232 b5bb 8689 5e3f 5e18 593f
000001c0: 046d 8d3d 7e85 893f 5e7d e03e 6f64 e43e
000001d0: 3f38 fbbd a64f 223e 1abd b53e dcfc 98be
000001e0: 373a c8bc 4834 f8bd db5f 733e a6c7 7cbd
000001f0: 9653 90be 484d 2bbf 2de8 d3bd 38cb 0a3e
00000200: d05b 393c af03 263c 58a3 21be 8f7b 5dbe
00000210: 037f 90be c21d aabe e749 9a3e 2669 4d3c
00000220: 187a f63c ae60 babe a1f0 26be 0e2f d83b
00000230: cdee 473e 6273 84bd 3bdd 4c3f 56a9 b73a
00000240: a33b dabe 22f0 d5be 4875 2a3c 1f80 82bd
00000250: b4f4 02be 67e7 973b 5622 f83c 6710 cebc
00000260: b20d b8bd d568 2a3e 3050 9abd 1cfd 943e
00000270: 4ec6 c73e 01a0 fc3d 44be e8be b6fb 9f3e
00000280: 7ccc abbd 96ad 393e 4419 7e3d dbe5 de3d
00000290: 62d9 81bc f745 a83d 63e1 c33e a38f b0bd
000002a0: bd4d ec3d 42fc 683d 4b13 893e dfd0 373e
000002b0: ff5e 60bc cd6b 0c3e 0be7 06be 9460 303e
000002c0: ac57 603e eab8 d2bd 36c4 9abe c036 ae3e
000002d0: eeca 66bd b908 db3e 6faf 8dbe f14c 073f
000002e0: 2b28 933e ff27 cc3d f5c1 1abe 958f a73d
000002f0: 4fff 6c3e cccc 54be 0bf3 57bd bf12 653e
00000300: f196 b43c 54b6 f33e bb57 f9be 8ad8 e6bd
00000310: 24a0 163e 513f 76be 7182 8ebd 1ef6 b5bd
00000320: 7588 13bf 1900 96bc 7fb2 833e fd42 0ebf
00000330: 626e adbd ce7a 0dbe 2b78 7d3e 8d8a fe3e
00000340: 27c9 8fbe 7bd4 433d 37e1 c0bd d5c5 b1bc
00000350: f28d 0f3d 01e9 923c 0a37 22be 4d1a 7c3c
00000360: 10a6 3fbf 4c92 0f3f f0ad 81bb b60c debd
00000370: 8295 ebbd 4adc f9be 9d00 a43e ba05 583e
00000380: a088 133e 30d6 783e edd8 723d 4d22 6dbe
00000390: 48e9 e1bd 13f0 cc3e 1117 96be f3f5 b1be
000003a0: 2a44 f43c cb53 0fbf 6642 583c 0c34 4abe
000003b0: 925c b4be eee1 24be 0662 89be 291c 9abe
000003c0: 0ecc 313d f779 9ebd cb57 573d fc37 1ebe
000003d0: 4591 e0bc 1ff5 143e 276a 41be 932d d43d
000003e0: 7059 393e 8ff3 e23d 3456 c8bd 5386 1fbe
000003f0: c42e cbbe d16d d5bb c36e 4ebe cd8a c43d
-0.3608667 0.18794723 0.40835133 -0.71802765 0.049402993 0.50422657 0.16943997 -0.27108863
-0.15607914 -0.02308694 0.29923207 0.07915166 0.85062855 0.19917488 -0.52000964 -0.23850313
0.047051437 0.40295222 -0.024588648 0.105532974 -0.3754636 -0.13265711 -0.94218016 -0.19778721
-0.3171121 0.76451933 0.5921965 -0.56091774 0.23657465 -0.23388465 0.0832081 0.05616473
-0.3029222 0.47370476 0.2339213 -0.05019822 -0.410969 0.72433335 0.13995662 -0.066030554
-0.3056633 -0.2435637 0.24736376 0.6212953 -0.33731335 -0.16512671 0.15368539 -0.064799726
-0.29298 -0.06588054 -0.35168543 0.010800335 0.35080785 0.186896 -0.23011853 0.06918467
0.010350922 0.80551916 0.6173486 -0.7746185 -0.1597089 -1.7962682 -1.0845531 0.5463843
1.0473182 -0.3706532 -0.1891628 0.0075011277 0.09685016 -0.3921678 -0.4229207 0.10932629
-0.25040832 -1.3823301 0.24674731 -0.048217464 0.20460574 0.24211553 -0.19053099 0.107167244
0.9679076 0.054674406 -0.08771486 0.37292293 0.31813377 -0.48820058 0.21725403 -0.7318403
-0.26011562 -0.62894696 0.40148863 0.22818983 -0.71110994 0.009915076 0.017896324 0.059126716
0.39330253 0.10311368 -0.5698679 0.36859575 -0.332845 0.4351872 0.021505564 -0.64404064
-0.20688921 -0.79834497 0.20986487 0.18237677 0.2765735 -0.005529755 0.86928594 0.84802806
0.06905559 1.0743864 0.43845648 0.44607875 -0.122665875 0.15850696 0.35495836 -0.29880416
-0.024441822 -0.12119347 0.23767035 -0.061713837 -0.2818877 -0.66914797 -0.103470184 0.13554084
0.011313394 0.010132714 -0.15784967 -0.21629165 -0.28221902 -0.33225828 0.30134508 0.012537276
0.030087516 -0.36401886 -0.1630273 0.006597406 0.19524689 -0.0646732 0.8002507 0.0014012258
-0.42623624 -0.4178477 0.010403939 -0.063720934 -0.1278866 0.0046357396 0.03028981 -0.025154306
-0.08986987 0.16641553 -0.07534826 0.29099357 0.39018482 0.12335206 -0.4545766 0.31246728
-0.08388612 0.18132624 0.062035814 0.10883685 -0.015850727 0.0821647 0.38257894 -0.086211465
0.11538265 0.056881197 0.26772532 0.17950772 -0.013694524 0.13712998 -0.13174073 0.17224342
0.21908444 -0.10289176 -0.30227822 0.34026146 -0.056345873 0.42780092 -0.27672908 0.5285178
0.28741583 0.09968566 -0.15113051 0.08181683 0.23144267 -0.20781249 -0.05272202 0.22370432
0.02204463 0.47600043 -0.48699746 -0.1127177 0.14709526 -0.24047591 -0.069584735 -0.08884834
-0.5763009 -0.018310593 0.2572212 -0.55570966 -0.084683195 -0.13816378 0.24752872 0.4971508
-0.28083155 0.04781006 -0.09417956 -0.021700779 0.03504748 0.01793337 -0.15841308 0.01538713
-0.74862766 0.56082606 -0.0039575025 -0.10842268 -0.11503126 -0.4880088 0.32031718 0.21095935
0.14407587 0.24300456 0.059288908 -0.23157616 -0.11030823 0.40026912 -0.29314473 -0.34757957
0.02981766 -0.5598723 0.013199424 -0.19746417 -0.35226876 -0.1610181 -0.26832598 -0.3009961
0.043407492 -0.07738107 0.05257396 -0.15451044 -0.02741302 0.14546631 -0.1888815 0.10360255
0.18100524 0.11081611 -0.09782067 -0.15578584 -0.39684117 -0.0065133353 -0.2015944 0.09596787

layers.4.bias f4 [120]
00000000: 75f8 5cbe 9ca8 c93d b7f0 013e 5fc0 19bc
00000010: 8e06 8fbe 5c79 c2bd 3a33 323e 2952 213e
00000020: c9b5 8bbe 47d5 153e 0095 05be 309f 8abe
00000030: d26e fe3d 54c6 a23e c790 75be 0783 c53d
00000040: b2ca 7e3e f69c 6fbd da6f b63d 0bc1 ffbd
00000050: d037 b1bc dfd4 283e cf3a b43d 2090 42be
00000060: 8b7d 223d d596 803e e060 883e 1120 503e
00000070: afbc 8e3e 24fc 05bf 0ef6 003e da65 a73d
00000080: c649 85be c233 61be 9ee9 cebd 49f1 73bd
00000090: 6239 ac3c dc49 1d3e 2fcf de3d 47c1 043f
000000a0: 3425 83be a3c4 c6bd 524b f7be 7800 103e
000000b0: d45a 6cbc 974e 303e e46d d6bb dc91 143d
000000c0: 5a9e 77be 4f4d 6e3e 7389 9ebe a8f6 e3bd
000000d0: 2c09 993d 64a1 f03d ed2b 9e3d 0e5f 4d3d
000000e0: 79a6 833e 6c9c 1ebe 00ad 7abe 11d9 8b3d
000000f0: 7d2d 793e efbf a63d 8b1f d53e 4228 8d3e
00000100: ffb7 84bd e4c5 d2bd 245d 9fbd 8f89 073d
00000110: 4523 42be 75ff 72bc 872c c5bd f204 0fbe
00000120: d6c2 c9bd 496c dcbe e998 34be 3329 42be
00000130: 0816 1cbe 7874 cabd b3e3 353e be7e 623e
00000140: 1414 4c3e ff22 623d 13b6 37be ad33 773d
00000150: 6f76 05be c0fb 2f3e 76dc 75bd 91c8 c03d
00000160: 8c92 893c 3752 a93e bb0e 8bbd 0cbe 863e
00000170: 2f05 71be 7a4c 093e 78b0 32be 8e11 143e
00000180: a262 113e 64ec 0f3e bc07 6dbe e203 943e
00000190: e37e 27bd 07d2 973e 6eda 63be d152 60be
000001a0: 2c68 12bd 6eec d33e 6273 5fbd 51ba 08bd
000001b0: 05e8 d53d 0a61 afbb 9cf0 12be fcdb e6bd
000001c0: 948f 643e 02ba 0a3f 0b35 063f f4e9 cd3e
000001d0: 343a b0bd df9c 863e d672 ea3d ae46 113e
-0.21579154 0.09846613 0.12689482 -0.009384244 -0.27934688 -0.09495804 0.17402354 0.15753998
-0.2728713 0.1463214 -0.1304512 -0.27074575 0.12423481 0.31791937 -0.2398101 0.09644132
0.2488201 -0.0584993 0.08908053 -0.12487992 -0.021633059 0.16487454 0.08800279 -0.19000292
0.03967051 0.25115076 0.2663641 0.20324732 0.2787833 -0.5233786 0.12593862 0.081737235
-0.26032847 -0.219924 -0.10103153 -0.05955628 0.021023456 0.15360206 0.10879361 0.5185742
-0.2561432 -0.09705474 -0.48299652 0.14062679 -0.014425952 0.1721748 -0.0065438617 0.036271915
-0.241815 0.23271678 -0.3096424 -0.1113103 0.074724525 0.11749533 0.07723222 0.05013948
0.25712946 -0.15489358 -0.24480057 0.068285115 0.24333759 0.08142077 0.41625628 0.27569777
-0.06480407 -0.10291651 -0.07781437 0.03309017 -0.18958767 -0.0148314135 -0.096276335 -0.1396673
-0.09851615 -0.43051365 -0.17636456 -0.18961029 -0.15242779 -0.09885496 0.17762642 0.22118661
0.19929534 0.055209156 -0.1794055 0.060352016 -0.1303346 0.17185879 -0.0600247 0.09413255
0.016793512 0.33070537 -0.06789919 0.2631687 -0.23537134 0.1340808 -0.1745013 0.14459822
0.14197782 0.1405502 -0.23147482 0.28909212 -0.040892493 0.29652426 -0.22251293 -0.21906592
-0.035743877 0.4139132 -0.054553397 -0.03338081 0.10444645 -0.005352144 -0.14349598 -0.112724274
0.22320396 0.54190075 0.5242469 0.40217555 -0.08604851 0.26291558 0.114476845 0.14187118

layers.6.weight f4 [1, 120]
00000000: 3eff 3e3e 0ac3 d4bd 2776 6bbd 2fef 363e
00000010: 3914 f63e 29a6 3c3f 9f85 2abe 033c 67be
00000020: 47e1 113f a9c3 1bbe cb8b c53d 7395 623e
00000030: 9093 e5bc 0d2d 9abe b23f 7a3f 5a98 203e
00000040: 71f6 b1bd 02fe aebe 5b74 a2bc 4b11 7f3d
00000050: 6f92 ebbe 0c3b 49be 6f11 37be d592 943d
00000060: 8da5 3dbe e690 09bf 1967 01be a2ba 88be
00000070: 964d c6bd cbaf 893f 0b22 513f 5acc c7bd
00000080: 6476 123e c627 9b3e f12c 4a3e e908 523d
00000090: 1a99 33bf 15d4 1ebe 3787 2abe 9928 78bf
000000a0: 57eb 0c3e 0a41 2e3e aebd 8c3d cd23 a2be
000000b0: 2efa 8abe 84f0 2dbe 87b6 133f 855e 08bf
000000c0: 5b99 2b3e d536 9cbe bdf1 313e 0b80 dabe
000000d0: 363b a4bd 3824 b73e 993d 893f 7862 fabd
000000e0: f0d5 c6be d75a 343e 9220 7c3e 0fa0 1eba
000000f0: 0c03 99be 6ed0 c5bd b273 a8be 9940 efbd
00000100: 454a 76be c3e5 ae3e 6e46 44bc 51c9 2dbe
00000110: 3c58 403e bcc2 90bf dbcb b0be be12 c13d
00000120: 5872 e23e 3d86 803f da8a 8c3e d9d2 c53e
00000130: 82b3 c63e 02c7 2f3d 9285 02be 5005 d8be
00000140: d790 e1be 7cac b8bd 4bca d73d ff81 98bd
00000150: b4be 8d3e f426 abbe 79ee fc3d acc7 53be
00000160: 9da0 c8bd 59e5 37be 9b50 bfbe bfcb dbbe
00000170: 1a0f 5b3e a90d 0abf 8787 543f f344 52be
00000180: 403b 95bd 7215 12be d22c 473d 5628 44be
00000190: a752 ff3d e953 32bf 37a9 0d3e e955 843e
000001a0: f8eb 563a f1a3 0dbf f832 b93e 3b33 173f
000001b0: 2d6b 06be d4db 57be 6f2d ac3d 06a5 5a3e
000001c0: a2d4 d9be e22d 22bf 5cb0 24bf 3c65 85be
000001d0: 7c45 c63d 0e4f 70be 7593 9cbe feee 0bbd
0.18652055 -0.10388763 -0.057485726 0.17864679 0.48062304 0.7369104 -0.16652535 -0.22581486
0.5698437 -0.15211357 0.09645804 0.22127323 -0.028024465 -0.30112496 0.9775344 0.15683118
-0.08689583 -0.34178168 -0.019830873 0.06227235 -0.46010157 -0.19651431 -0.17877744 0.072545685
-0.18520184 -0.5373672 -0.12636985 -0.2670489 -0.09682767 1.0756773 0.8169257 -0.09755774
0.14302975 0.30303782 0.19743706 0.05127803 -0.7015549 -0.1551059 -0.16653143 -0.9693695
0.1376165 0.17016998 0.06872116 -0.3166794 -0.27143997 -0.1698628 0.5770039 -0.53269225
0.16757719 -0.30510584 0.17377372 -0.42675814 -0.08019106 0.3576982 1.0721923 -0.12225813
-0.38835096 0.17612778 0.246218 -0.0006051072 -0.29885137 -0.096588954 -0.3290077 -0.11682243
-0.24051769 0.3415967 -0.011979682 -0.16971327 0.18783659 -1.1309428 -0.3453053 0.09427403
0.44227862 1.0040966 0.27449685 0.38637426 0.3880883 0.042914398 -0.12746266 -0.42191553
-0.44055817 -0.09017274 0.10536631 -0.0744667 0.27684557 -0.33428156 0.123501725 -0.20681638
-0.097962596 -0.17958583 -0.37366185 -0.42928883 0.2139248 -0.53927094 0.830193 -0.20534115
-0.07286692 -0.14265993 0.04862673 -0.19156012 0.124669366 -0.69659287 0.13834082 0.25846794
0.0008198614 -0.5532828 0.361717 0.59062546 -0.13126822 -0.21079952 0.08407103 0.21352014
-0.42545038 -0.6335126 -0.64331603 -0.26053798 0.09681222 -0.23467657 -0.3058125 -0.034163468
