hddm/torch_models/44deb16a127f11eca325a0423f39b436_weibull_torch_state_dict.pt (torch, 87439 bytes, 7 tensors)

layers.0.weight f4 [100, 8]
0	0xbf36fca7	-0.71479267
1	0x3e9b894c	0.30378187
2	0xbecfad92	-0.4056211
3	0xbd4d89b5	-0.050180156
4	0x3cf02352	0.029313717
5	0x3d122152	0.035676308
6	0x3d6cd522	0.057820447
7	0x3de9d270	0.11417091
8	0xbd16665c	-0.03671871
9	0x3f5ee0bf	0.87061685
10	0xbde39907	-0.11113172
11	0x3e0877f3	0.13327007
12	0xbda3a20a	-0.07989891
13	0xbda80cb2	-0.082055464
14	0xbed13b2a	-0.4086545
15	0x3d35c82e	0.04438036
16	0xbd621f44	-0.0552056
17	0x3f702f79	0.9382244
18	0xbddad8c3	-0.10685875
19	0xbdcb7588	-0.09934527
20	0x3c6be12f	0.01439695
21	0x3e0b96b7	0.13631712
22	0xbdac760d	-0.08420954
23	0x3dba2fab	0.09091123
24	0x3ac0131f	0.0014654136
25	0x3d7b6730	0.061377704
26	0xbdc1c3d9	-0.09461183
27	0x3faa162e	1.3288019
28	0x3da4be75	0.08044139
29	0x3fad93f2	1.3560774
30	0xbfa6201f	-1.2978553
31	0xbd659500	-0.0560503
32	0x3ede1ae4	0.4337989
33	0xbd8ab189	-0.067721434
34	0xbd5cecfb	-0.05393694
35	0xbef43d90	-0.47703218
36	0xbd1d4a2a	-0.038400806
37	0x3de8fa8d	0.11375914
38	0x3f005a3a	0.50137675
39	0x3e33fcb0	0.17576861
40	0x3f07179b	0.52770394
41	0x3cb161f7	0.021653159
42	0xbf5f7160	-0.8728237
43	0x3d9ff69d	0.078107096
44	0xbc50a65a	-0.012734974
45	0x3c92202e	0.01783761
46	0xbdb1287f	-0.08650302
47	0x3ea045aa	0.3130315
48	0x3c8bfa76	0.017087203
49	0x3cd569d9	0.026051449
50	0x3f32c36a	0.6982943
51	0xbedb926b	-0.42885146
52	0x3d3510ce	0.04420548
53	0x3cc98568	0.024599746
54	0x3daaa6e4	0.08332613
55	0xbef9edfb	-0.48814377
56	0xbdb48289	-0.0881396
57	0x3c1007f2	0.008790957
58	0x3fec4dff	1.8461303
59	0xbea96c39	-0.3309038
60	0x3cdad6e6	0.0267138
61	0xba504385	-0.00079446315
62	0x3eb1eb3d	0.34749785
63	0x3e16b002	0.14715579
64	0xbbe781d0	-0.0070650354
65	0xbdf5915b	-0.11990615
66	0x3dbb3918	0.09141749
67	0xc03c8bd7	-2.9460351
68	0xbe97a3f8	-0.29617286
69	0xbca47538	-0.020075426
70	0x403c9842	2.946793
71	0xbb1727c8	-0.0023064483
72	0x3e9a700a	0.30163604
73	0xbf389616	-0.7210401
74	0xbfc6a2e5	-1.5518461
75	0xbd814d46	-0.06313567
76	0x3b9394ad	0.0045038075
77	0x3d04d922	0.032433636
78	0x3df86e47	0.12130409
79	0x3f43d719	0.7650009
80	0x3e2f5956	0.17123923
81	0xbf0f652b	-0.56013745
82	0x3f876a5a	1.0579331
83	0xbf118acc	-0.5685241
84	0x3bd8ecf7	0.0066200453
85	0xbc81e90c	-0.015858196
86	0x3f19c880	0.60071564
87	0x3ea9f308	0.3319323
88	0x3c8cdbe3	0.017194694
89	0x3dbc8a5c	0.092060775
90	0xbd38c0e8	-0.045105845
91	0x3fe7bc1b	1.810428
92	0x3c2c56a8	0.010518707
93	0x3c99b1e8	0.01876159
94	0xc0783f06	-3.8788466
95	0x3c7a79c0	0.0152878165
96	0xbef63224	-0.4808513
97	0xbf0e768b	-0.5564963
98	0x3f4ddef2	0.8041831
99	0xbe527e36	-0.20555958
100	0xbb2949c8	-0.002583133
101	0x3e203b3a	0.15647593
102	0x3e6cd657	0.23128639
103	0xbeb7d50e	-0.35904735
104	0x3e97f59d	0.29679576
105	0x3e846a0e	0.25862163
106	0x3f89dcb8	1.0770483
107	0x3bbbf50b	0.0057359985
108	0xbcb4c416	-0.022066157
109	0xbcd67b3b	-0.026181808
110	0x3cb32924	0.021870203
111	0xbeaed632	-0.34147793
112	0x3ea2dfb3	0.31811294
113	0xc030fff8	-2.765623
114	0x40134ad3	2.301442
115	0x3d8dab7a	0.06917472
116	0xbf5dae93	-0.86594504
117	0xbe0af6a3	-0.13570647
118	0xbddd5fe9	-0.10809309
119	0xbf96ca72	-1.1780531
120	0x3b63d758	0.0034765806
121	0x3fb58140	1.4180069
122	0x3bf242e7	0.0073932293
123	0x3ed7caad	0.42146817
124	0x3cdb3cf8	0.02676247
125	0x3c83b0e9	0.016075568
126	0xbed7027b	-0.4199408
127	0xbda85f6d	-0.08221326
128	0x3c95a1c8	0.01826562
129	0x3ea6a411	0.32547048
130	0xbe4178b0	-0.18893695
131	0xbd1e27e0	-0.038612247
132	0x3ed035af	0.40665957
133	0x3d86ea89	0.06587703
134	0xbb620405	-0.003448726
135	0x3d629908	0.055321723
136	0x3ce84994	0.028355397
137	0x3e11d809	0.14242567
138	0x3e0c6de9	0.13713802
139	0xba7ae341	-0.00095706066
140	0xc0642ae5	-3.565118
141	0x3c5f3dfb	0.013625617
142	0xba496470	-0.0007682508
143	0xbca1e1a6	-0.019760918
144	0x3cf8f8be	0.030392047
145	0x3e2a6ca7	0.1664301
146	0x3d5e8a09	0.05433086
147	0xbd4c720a	-0.049913444
148	0xbfd06cf4	-1.628325
149	0xbc8ceb82	-0.017202143
150	0x3d93729d	0.07199595
151	0x3ad99764	0.0016600904
152	0x3c80bbf2	0.01571462
153	0x3eb1c16d	0.34717885
154	0xc0476035	-3.115247
155	0xbd295e6f	-0.041349825
156	0xbd398db4	-0.045301154
157	0xbdb8eda0	-0.09029698
158	0x3cf53438	0.029932126
159	0xbe1f9177	-0.15582834
160	0x3e244411	0.1604159
161	0xbf06de15	-0.5268262
162	0xbee40e62	-0.44542223
163	0xbda4d2b4	-0.08048001
164	0x3c541f60	0.0129469335
165	0xbd1f6466	-0.038914107
166	0x3d8addca	0.06780584
167	0xbe82a17b	-0.25513825
168	0xbd283a12	-0.041071005
169	0xbe023a87	-0.12717639
170	0xbec5eb11	-0.38655904
171	0xbef749af	-0.48298404
172	0xbc3b8d54	-0.0114472695
173	0xbe2ea8f0	-0.17056632
174	0x3d1accda	0.037793018
175	0xbf8864b2	-1.065573
176	0x3d657c3a	0.056026675
177	0xbf647e6b	-0.892554
178	0xbd36d75d	-0.04463898
179	0x3f98298b	1.1887678
180	0xbfbd1a93	-1.4773735
181	0x3d43a0fd	0.047760952
182	0xbf94ee8f	-1.1635302
183	0x3d2d44c9	0.042301927
184	0x3eb80de1	0.3594809
185	0x3e464f3e	0.19366166
186	0x3e51e103	0.20495991
187	0x3d5f18d1	0.054467026
188	0x3d607cb2	0.05480642
189	0x39c7ad04	0.00038085144
190	0x3e074c81	0.13212778
191	0x3f6555f6	0.8958429
192	0x3e34afe1	0.17645217
193	0x3e8db36a	0.27675945
194	0xbf7202f4	-0.94535756
195	0xbf978b78	-1.1839437
196	0xbb3414f9	-0.002747832
197	0x3c0a7dba	0.008452827
198	0x3f9bf40b	1.2183851
199	0x3eed482f	0.46344134
200	0x3e17dc23	0.14830069
201	0x3dc53661	0.096295126
202	0x3ff9766a	1.9489262
203	0xbebbb963	-0.36664876
204	0xbc8a4ae5	-0.016881416
205	0xbbfc4c5c	-0.0076995324
206	0x3eb6ad99	0.3567932
207	0xbfd6654c	-1.6749663
208	0xbe4b896e	-0.19876644
209	0xbd95a274	-0.07306376
210	0x3f115c6d	0.56781656
211	0x3ebc208a	0.36743575
212	0x3cc5b645	0.024134764
213	0xbd3611c8	-0.04445055
214	0x3d4c8b88	0.049937755
215	0xbf80c619	-1.0060455
216	0xbef7b59a	-0.48380738
217	0x3e79b1dc	0.24384254
218	0xbeb2f930	-0.3495574
219	0xbe889f8e	-0.2668423
220	0xbc734828	-0.014848746
221	0x3e0b8889	0.13626303
222	0x3eb11da4	0.34592927
223	0x3f53f716	0.827989
224	0x3d1fbd41	0.038998846
225	0x3f134032	0.5751983
226	0x3f050349	0.5195814
227	0x3f51311b	0.81715554
228	0xbd0d676c	-0.03452246
229	0x3c9f0d3a	0.019415487
230	0xbf4960e6	-0.7866348
231	0x3e8ece29	0.27891663
232	0x3ac053ef	0.0014673452
233	0xbf0de8a3	-0.554331
234	0xbd52571f	-0.051352616
235	0xbb3eba42	-0.0029102718
236	0x3f9a4242	1.205147
237	0x3eb4e8f3	0.35333976
238	0xbd262a2d	-0.040567566
239	0x3c8c9b72	0.017163966
240	0xbd932fd6	-0.07186858
241	0x3e89d2a8	0.2691853
242	0x40232456	2.5490928
243	0xbc3d47c6	-0.011552757
244	0x3c08abb7	0.008341721
245	0xba3c0f3d	-0.00071739015
246	0xbaa06236	-0.00122363
247	0xc0078f9a	-2.1181397
248	0x3c79a53e	0.015237151
249	0xbe3c37eb	-0.18380706
250	0xbe1edc8d	-0.15513821
251	0xbe234f66	-0.15948257
252	0x3e331b62	0.17490914
253	0x3e1dcb43	0.1540957
254	0xbbc4fc9a	-0.0060115578
255	0x3d8899b9	0.06669945

layers.0.bias f4 [100]
0	0xbf14f2d2	-0.58183014
1	0x3cce5edb	0.025191715
2	0xbf014a57	-0.5050406
3	0xbe2cf58c	-0.16890544
4	0xbd927742	-0.07151653
5	0x3e54c3e5	0.20777853
6	0xbf1e829b	-0.6191804
7	0xbece6ec3	-0.4031888
8	0x3f51f509	0.8201452
9	0x3f2324ab	0.63727826
10	0xbe8beaa3	-0.2732745
11	0xbe0e6c11	-0.13908412
12	0x3ec96ff8	0.39343238
13	0xbf8ec4ad	-1.1153771
14	0xc038b6b0	-2.8861504
15	0xbefc940d	-0.49331704
16	0xbfa60cc6	-1.2972648
17	0x3f361d34	0.7113831
18	0x3f3391e4	0.70144486
19	0x3d5db2ac	0.054125473
20	0x3f7e4a8a	0.9933249
21	0x3ecbfae0	0.3983984
22	0x3f373489	0.7156454
23	0x3fb448ee	1.4084756
24	0x3edaa11e	0.42701048
25	0xbd881b0a	-0.06645782
26	0x3f169671	0.58823305
27	0x3fb65784	1.4245458
28	0xbefa9c23	-0.48947248
29	0x3ec55a84	0.3854562
30	0xbf070a6b	-0.5275027
31	0xbf06f88d	-0.5272301
32	0x3f16eb17	0.5895247
33	0x3d777d36	0.060422145
34	0xbf21ba44	-0.63174844
35	0x3f06c7e4	0.5264876
36	0x3fd68982	1.6760714
37	0x3e1be0da	0.15222493
38	0x3fd9f81f	1.7028846
39	0x3f46829b	0.7754304
40	0xbe01052b	-0.12599628
41	0xbf19b729	-0.60045105
42	0x3e294cbd	0.1653318
43	0x3e94ffb0	0.29101324
44	0xbee6cb00	-0.45076752
45	0xbdb71ed9	-0.089414306
46	0x3e4bfa12	0.19919613
47	0x3ec493bd	0.38393965
48	0x3d40e60a	0.047094382
49	0x3f15700b	0.5837409
50	0xbe1322c7	-0.14368735
51	0xbde5a3d4	-0.11212888
52	0x3f1c51be	0.6106223
53	0x3f85bf5b	1.0449022
54	0x3f14e2ca	0.5815855
55	0x3e9d6855	0.30743662
56	0xbf4c35dc	-0.7976968
57	0x3d88099a	0.06642456
58	0x3f823bf9	1.0174552
59	0xbedc1b1d	-0.42989436
60	0x3f1a80c9	0.6035276
61	0x3e2179fd	0.15769191
62	0x3bb71785	0.0055875205
63	0xbf53351a	-0.825029
64	0xbf574df0	-0.841033
65	0xbce972de	-0.028497156
66	0x3e8f9ebc	0.28050792
67	0x3f50edcf	0.8161287
68	0xbe4af732	-0.1982086
69	0x3f233616	0.63754404
70	0x3e076205	0.13220985
71	0xbe816bed	-0.25277653
72	0xbe20e77b	-0.15713303
73	0x3f44b666	0.7684082
74	0xbf095465	-0.536444
75	0xbda3fbfa	-0.08007045
76	0xbf30b5c0	-0.6902733
77	0x3f0cfae7	0.55070347
78	0xbefc47e2	-0.49273592
79	0xbe2a9aa1	-0.16660549
80	0xbf973310	-1.1812458
81	0xbcf4007a	-0.029785383
82	0xbf1525b3	-0.5826065
83	0xbe98882b	-0.29791388
84	0x3e2a404d	0.16626091
85	0x40216495	2.521764
86	0x3f0b8504	0.5449984
87	0x3eb091d6	0.34486264
88	0xbe8b48bc	-0.2720393
89	0xbf19be4a	-0.60055983
90	0xbebb389f	-0.36566636
91	0x3f0f4334	0.5596192
92	0xbcd8877e	-0.026431795
93	0x3df49ae9	0.11943609
94	0x3ec686c0	0.3877468
95	0xbe43f1f9	-0.19135274
96	0xbf84ce54	-1.0375466
97	0xbef51aaf	-0.4787192
98	0xbc3540c9	-0.011062809
99	0xbf693dd9	-0.9111

layers.2.weight f4 [100, 100]
0	0xbdc69146	-0.096956775
1	0x3d151452	0.036396332
2	0x3d3021ab	0.04300086
3	0x3e12a48d	0.14320584
4	0xbe3cb353	-0.18427782
5	0x3e34b0df	0.17645596
6	0xbe6066b6	-0.21914181
7	0xbe816cc3	-0.2527829
8	0xbe5dfdee	-0.21678898
9	0x3dd7508a	0.105134085
10	0x3cffd68c	0.031230234
11	0x3dc8c7ec	0.09803757
12	0x3d7d830f	0.061892565
13	0xbe8a089e	-0.269597
14	0xbe276f42	-0.16351035
15	0x3e3cd390	0.1844008
16	0xbd9d728d	-0.076878645
17	0xbd43ef7c	-0.047835812
18	0x3cb0e5e5	0.021593997
19	0xbde6d16d	-0.112704135
20	0xbc80055f	-0.015627561
21	0x3d094323	0.033511292
22	0xbc0361f2	-0.008018957
23	0xbd340f09	-0.04395965
24	0xbf32e3eb	-0.69879025
25	0x3e940b69	0.28914955
26	0x3c3316af	0.010930701
27	0x3df0501b	0.11734029
28	0x3e4e713f	0.20160387
29	0xbd9ec959	-0.07753248
30	0x3e537a38	0.20652092
31	0xbce1e2eb	-0.027574023
32	0xbe33a177	-0.17542063
33	0xbe1b0906	-0.15140161
34	0xbc562df2	-0.013072478
35	0xbe4426be	-0.19155404
36	0x3de77b11	0.1130277
37	0xbd8a87c5	-0.06764177
38	0x3e7e5ad8	0.24839342
39	0x3c34d0d5	0.011036118
40	0x3d4f45a8	0.05060354
41	0x3c38b444	0.011273447
42	0x3ddd5d87	0.108088546
43	0xbe2551b3	-0.16144447
44	0x3d45a190	0.04824978
45	0xbdad064c	-0.08448467
46	0x3e2d3b4d	0.16917153
47	0x3f929eaa	1.145467
48	0x3d82e389	0.06391055
49	0x3f4b5f63	0.79442424
50	0x3d501692	0.050802775
51	0x3c826dfb	0.015921583
52	0x39b2c323	0.00034096194
53	0x3db0e638	0.08637661
54	0xbd866478	-0.06562132
55	0x3d6f16d8	0.058371395
56	0xbea357ee	-0.31903023
57	0xbe49017e	-0.19629475
58	0x3d7ae8c1	0.061257128
59	0x3cbe54b2	0.023233745
60	0xbdcb5103	-0.09927561
61	0xba3fdac1	-0.00073186686
62	0x3e23c391	0.15992571
63	0xbcc8671d	-0.02446323
64	0x3dd01de1	0.10161949
65	0xbdd7f18c	-0.10544118
66	0xbc6c0f4f	-0.014407947
67	0x3d8978f3	0.06712522
68	0xbd61f236	-0.05516263
69	0xbe004a2e	-0.12528297
70	0x3e4de358	0.20106256
71	0x3d359930	0.044335544
72	0xbd723da6	-0.059140824
73	0x3e7ce75a	0.24697629
74	0x3ddfcb89	0.10927493
75	0x3d5ae9e9	0.05344573
76	0x3c959259	0.01825826
77	0x3d5b0674	0.05347295
78	0x3d8060f3	0.062684916
79	0x3b631e2b	0.0034655433
80	0x3da414b0	0.08011758
81	0xbf981c9f	-1.1883734
82	0x3e0cf7e8	0.13766444
83	0x3c987613	0.01861099
84	0x3d4f9525	0.050679345
85	0x3e4da538	0.20082557
86	0xbd9bfbef	-0.07616412
87	0xbdbb4119	-0.09143276
88	0x3e078204	0.13233191
89	0x3d23f070	0.04002422
90	0xbe62640c	-0.22108477
91	0xbc8da651	-0.01729122
92	0xbc4df6a6	-0.012571013
93	0xbe4bdabb	-0.19907658
94	0xbd9e4261	-0.077275045
95	0x3f99da1c	1.2019687
96	0xbdf19708	-0.11796385
97	0x3e635810	0.22201562
98	0x3cee5dae	0.029097404
99	0x3d951b21	0.07280565
100	0xbf8aad1a	-1.0834076
101	0x3c952601	0.018206598
102	0xbe0611f8	-0.13092792
103	0x3f443ec4	0.7665827
104	0x3e670b6d	0.22562952
105	0x3e35a100	0.17737198
106	0xbe983ec1	-0.29735377
107	0x3d8e2802	0.06941225
108	0xbe68f331	-0.2274902
109	0x3f47b9f0	0.78018093
110	0x3e2d4835	0.16922076
111	0xbf7edd37	-0.995563
112	0xbf0bb1b9	-0.5456806
113	0x3c577843	0.013151231
114	0x3eb61c7e	0.35568613
115	0x3f177a32	0.5917083
116	0x3e6e37cb	0.23263471
117	0x3cb574fe	0.022150513
118	0xbe856821	-0.26056007
119	0x3e26446f	0.16237043
120	0xbf27a604	-0.65487695
121	0x3dc2824c	0.094975084
122	0x3d81ec50	0.06343901
123	0xbe9abc42	-0.30221754
124	0xbf092ca7	-0.5358376
125	0xbf6cbdfa	-0.9247738
126	0x3e73582c	0.23764104
127	0xbe1b3f2f	-0.15160821
128	0xbd932c91	-0.07186235
129	0xbe302255	-0.17200597
130	0xbe4aefd1	-0.19818045
131	0x3f42f293	0.7615139
132	0x3e50126c	0.20319527
133	0xbedea16f	-0.4348254
134	0x3f015aac	0.5052898
135	0x3f4edbb7	0.8080401
136	0xbecb0202	-0.3964997
137	0x3e95992f	0.29218432
138	0xbec15af0	-0.37764692
139	0xbecc9e1e	-0.39964384
140	0xbf2b4f7a	-0.66918147
141	0xbdba2276	-0.09088604
142	0x3d46739b	0.048450094
143	0x3e20a3af	0.1568744
144	0xbdfc3e0d	-0.12316523
145	0x3dfa59e0	0.122241735
146	0xbe883208	-0.2660067
147	0x3dc389ac	0.09547743
148	0x3e3b8d9b	0.18315737
149	0x3f938c6d	1.152723
150	0x3dc75476	0.097329065
151	0xbb6e43cb	-0.0036356326
152	0x3d945691	0.07243074
153	0x3eec4fbc	0.46154583
154	0x3ee85f82	0.45385367
155	0x3cfd9829	0.030956345
156	0x3ddd9bf7	0.108207636
157	0x3d30d538	0.04317209
158	0xbe7042ef	-0.23463033
159	0x3fac411c	1.345737
160	0x3e8448c7	0.25836775
161	0xbecc391e	-0.39887327
162	0x3e6d455e	0.23170993
163	0xbd8bfede	-0.068357214
164	0x3dce9811	0.10087598
165	0x3e8d6219	0.27613905
166	0xbed3ba64	-0.41353142
167	0x3eaa049c	0.33206642
168	0x3e7c3f35	0.24633487
169	0xbe6a8dfa	-0.22905722
170	0x3efc3ac1	0.49263576
171	0x3e5d76ec	0.21627396
172	0xbdeba1c6	-0.11505465
173	0x3dd04e8c	0.101712316
174	0xbdd42b42	-0.10359813
175	0x3c92a775	0.017902115
176	0xbea9b532	-0.33146054
177	0xbf4f1968	-0.8089814
178	0xbebb68b2	-0.36603314
179	0xbed36864	-0.4129058
180	0xbd55a456	-0.052158676
181	0x3e5e5a13	0.21714048
182	0xbf2ac116	-0.66700876
183	0x3ee63321	0.44960883
184	0xbeb589c9	-0.35456684
185	0xbef9c541	-0.48783305
186	0x3e3d69d8	0.18497407
187	0xbf2df2e5	-0.6794875
188	0xbde7e55d	-0.113230444
189	0xbf2e60c2	-0.6811639
190	0xbed04bb4	-0.40682757
191	0xbe381ba4	-0.17979294
192	0xbe1adda4	-0.15123612
193	0x3e87af94	0.26501143
194	0xbea8df77	-0.3298299
195	0x3f4ae706	0.79258764
196	0x3e340e1f	0.17583512
197	0xbe1c4714	-0.15261489
198	0x3ec108aa	0.37701923
199	0x3e421afb	0.18955605
200	0xbe590893	-0.21194677
201	0xbe84e35b	-0.25954708
202	0x3e83f206	0.25770587
203	0xbda4d2f9	-0.08048052
204	0x3e0fc671	0.14040543
205	0x3e98cd79	0.29844263
206	0xbe30a30b	-0.17249696
207	0xbf6dc5fa	-0.92880213
208	0xbd8f685e	-0.07002328
209	0x3e88d1aa	0.2672246
210	0xbf3874e3	-0.72053355
211	0xbf0a9d2d	-0.5414608
212	0x3e24aff3	0.16082744
213	0xbef3a4d5	-0.47586694
214	0x3d7ace5f	0.061231967
215	0xbd485f8e	-0.048919253
216	0x3e547de0	0.20751143
217	0xbe8b11f1	-0.27162126
218	0xbc997588	-0.018732801
219	0x3eb1b2d3	0.34706745
220	0x3cccf899	0.025020884
221	0xbe68b1ac	-0.22724026
222	0x3cb421d3	0.021988785
223	0xbc9a5ca6	-0.018843006
224	0xbe103072	-0.1408098
225	0x3dbe0f25	0.09280232
226	0xbd2a1f59	-0.0415338
227	0xbe4493d5	-0.19197018
228	0xbf63fd1a	-0.8905808
229	0x3e93c5d2	0.28861862
230	0x3e9b8174	0.30372202
231	0xbdd41e08	-0.103572905
232	0x3be119f0	0.006869547
233	0x3e060eae	0.13091537
234	0xbeb21049	-0.3477805
235	0x3ea355fa	0.31901532
236	0xbe0484b4	-0.12941247
237	0x3cda800e	0.02667239
238	0xbd9988ac	-0.07496771
239	0x3e3e853d	0.18605514
240	0x3c966828	0.018360212
241	0xbdb31451	-0.087441094
242	0xbe57ecda	-0.21086445
243	0x3e868027	0.26269647
244	0xbe57683e	-0.21035859
245	0x3ea93eca	0.33055717
246	0xbf396bde	-0.7243022
247	0x3dff6540	0.12470484
248	0xbddda79e	-0.10822986
249	0x3c131539	0.008977228
250	0x3ec4dea0	0.384511
251	0xbea6e297	-0.3259475
252	0xbe1c50d8	-0.15265214
253	0xbec1cf73	-0.37853584
254	0xbd93bc43	-0.072136424
255	0xbc85e3a0	-0.016343892

layers.2.bias f4 [100]
0	0x3e330429	0.17482056
1	0xbed9d4dd	-0.42545214
2	0xbe05e8ac	-0.13077039
3	0x3d4fa4f3	0.050694417
4	0xbeb6c4d5	-0.35697046
5	0xbd66f651	-0.05638725
6	0xbecb5e16	-0.3972022
7	0x3ef64fa6	0.48107642
8	0xbe63dd8f	-0.22252487
9	0xbd129525	-0.035786767
10	0xbeaf81a9	-0.3427861
11	0xbe711a0c	-0.23545092
12	0xbec2f619	-0.38078383
13	0xbe55dce6	-0.20885047
14	0xbe494f9c	-0.19659275
15	0x3e3f4f9e	0.18682715
16	0x3e202679	0.15639676
17	0xbe88b431	-0.26699975
18	0x3ce90cd3	0.028448498
19	0xbd54af37	-0.05192491
20	0xbe48827b	-0.19581024
21	0xbebbf956	-0.36713666
22	0xbeb7deeb	-0.3591226
23	0xbd530f4b	-0.051528256
24	0xbcbff35e	-0.023431476
25	0xbe4061e0	-0.18787336
26	0x3df1f10f	0.118135564
27	0x3ee2a822	0.442689
28	0xbf49ca06	-0.7882389
29	0xbdfd2788	-0.123610556
30	0x3d608b69	0.054820452
31	0xbe23749d	-0.15962453
32	0x3da5eb3c	0.08101508
33	0xbee78254	-0.4521662
34	0xbe12d087	-0.1433736
35	0xbcccdc50	-0.025007397
36	0xbdd83f3d	-0.10558937
37	0xbeaf524c	-0.34242475
38	0xbd178669	-0.036993418
39	0x3ed1e265	0.40993038
40	0xbf82f246	-1.0230186
41	0xbe46482d	-0.1936347
42	0x3d3929c4	0.045205846
43	0x3ee9ad38	0.45639968
44	0xbe988934	-0.29792178
45	0x3eab0374	0.33401072
46	0xbf10442e	-0.56354034
47	0x3dbbeb12	0.091756955
48	0xbee97f0f	-0.4560475
49	0xbe1b3923	-0.15158515
50	0xbe1f1198	-0.15534055
51	0xbde4cc38	-0.11171764
52	0x3e191b84	0.14951903
53	0xb9eac429	-0.0004477811
54	0x3ec7ff8f	0.39062163
55	0xbe662ac3	-0.2247725
56	0xbea0f6c0	-0.31438255
57	0x3d166103	0.03671361
58	0x3f03987b	0.5140454
59	0xbbdd04b6	-0.0067449464
60	0xbd894acf	-0.06703722
61	0x3ea00859	0.3125637
62	0xbedb4a2f	-0.42830035
63	0xbd472403	-0.048618328
64	0x3e828d83	0.2549859
65	0xbdf93dcd	-0.12169991
66	0xbe4bbb91	-0.1989577
67	0xbf7aff10	-0.98045444
68	0xbcf39788	-0.029735342
69	0x3f16270a	0.5865332
70	0xbdb0ca7e	-0.08632372
71	0x3e52a797	0.20571743
72	0x3cfa61ac	0.030564152
73	0xbeab8346	-0.3349859
74	0xbecff01b	-0.40612873
75	0x3f28779c	0.6580751
76	0x3df7f5ee	0.12107454
77	0xbe23dc7f	-0.16002081
78	0x3db6de4b	0.08929118
79	0xbf1d5a30	-0.6146574
80	0x3ea2d9b7	0.31806728
81	0xbe8be06e	-0.27319664
82	0x3e0b1d09	0.13585295
83	0xbf08d7a9	-0.5345407
84	0xbd9223b8	-0.07135719
85	0x3e9c294e	0.30500263
86	0x3e245cde	0.16051051
87	0x3ebf770f	0.37395522
88	0x3bbb2853	0.005711594
89	0x3e27518b	0.163397
90	0xbece3923	-0.40277967
91	0x3e53984b	0.20663564
92	0xbe26f092	-0.16302708
93	0x3e246d36	0.16057286
94	0x3e5189bf	0.20462702
95	0x3f081fed	0.53173715
96	0xbd850839	-0.06495709
97	0xbbecac39	-0.007222679
98	0x3c5f40ec	0.013626318
99	0xbdbe9c97	-0.09307211

layers.4.weight f4 [100, 100]
0	0x3f0082f4	0.5019982
1	0x3fbfe4d4	1.4991708
2	0x4052c925	3.293527
3	0xbfe5d7ef	-1.7956523
4	0x3f2c91a4	0.6740973
5	0x3fa4b8b0	1.2868862
6	0x3f67976f	0.90465444
7	0xbeda9453	-0.42691287
8	0x3f9f0d43	1.2425922
9	0x3e8b2731	0.27178338
10	0xc09622b4	-4.691736
11	0x4043ba3c	3.0582418
12	0x3f89d124	1.076695
13	0x3fb166eb	1.3859533
14	0x3f39f57d	0.7264021
15	0xbe8a4016	-0.2700202
16	0xbf918929	-1.1369983
17	0xc0866f51	-4.2010884
18	0x3e97eb94	0.2967192
19	0xc04d37a6	-3.2065215
20	0x3de2a4cb	0.11066588
21	0x3f1ef627	0.6209435
22	0x3f46bcf8	0.77632093
23	0xbef89d85	-0.48557678
24	0xbff7769c	-1.9333072
25	0x3eb495a7	0.35270426
26	0x3ff542a6	1.9160964
27	0x3fbe12ad	1.4849449
28	0x4026db97	2.6071527
29	0xbfc3c06b	-1.5293096
30	0x3fbb0bfc	1.4613032
31	0x3fce6de1	1.6127282
32	0xbf9316d4	-1.1491342
33	0x3f8ca178	1.0986776
34	0x3ec4618d	0.38355675
35	0xbed5d55d	-0.41764346
36	0x3fd0b049	1.6303798
37	0x3e875d89	0.2643855
38	0xbf007b0a	-0.5018774
39	0xbfe9e672	-1.8273451
40	0xc0c03b45	-6.007235
41	0xc008e8ff	-2.139221
42	0xbfc49aaa	-1.53597
43	0xbf3c6277	-0.73587745
44	0x3e6a677b	0.22891037
45	0xbf6a39a0	-0.9149418
46	0x3fd0902c	1.6293998
47	0x4013b9c7	2.308214
48	0x3f80ede9	1.0072604
49	0x3f5d83fa	0.86529505
50	0xc007617a	-2.1153245
51	0x3ebdb6e7	0.37053606
52	0x3f97495e	1.1819265
53	0xbf34b2a5	-0.7058509
54	0xc0106cd1	-2.2566416
55	0x3f2411f1	0.64089876
56	0x3f8949b1	1.0725614
57	0x400fcbdb	2.2468174
58	0x3f303599	0.68831784
59	0x3ea5211d	0.32251826
60	0x3fbf2007	1.4931649
61	0x3fc25572	1.5182326
62	0x3f05fac4	0.5233576
63	0xc04b1793	-3.1733139
64	0xbf9a6dbe	-1.2064741
65	0x4072e9e7	3.7955263
66	0x3f2d2c14	0.6764538
67	0x40147875	2.319852
68	0xbf400ab8	-0.75016356
69	0xbfb00675	-1.375197
70	0x3ff8224c	1.9385467
71	0x3f3a61f8	0.7280574
72	0x3f7aacc9	0.979199
73	0x3fe52b2a	1.7903798
74	0x3f70a6c7	0.9400448
75	0xc06b164a	-3.6732354
76	0xc016c881	-2.3559878
77	0x3e0c3e70	0.13695693
78	0xbfe6e914	-1.803988
79	0x3f4afd56	0.7929281
80	0xbf9d064f	-1.226755
81	0xc0467097	-3.100622
82	0xbfc606b8	-1.54708
83	0x3f28f382	0.65996563
84	0x3f462c1c	0.77411056
85	0xbf99ef19	-1.2026092
86	0xbf76dc89	-0.9643026
87	0xbff74112	-1.9316733
88	0x3fe1e7c3	1.7648853
89	0xbe683d88	-0.22679722
90	0x3f66ddee	0.9018239
91	0xbf5a2aac	-0.8522136
92	0x3fa5ecc6	1.2962883
93	0xbfa56e56	-1.2924297
94	0xbfa1237f	-1.2588958
95	0xbfecf4c2	-1.8512194
96	0x4006ac18	2.1042538
97	0xbfee2ccf	-1.8607424
98	0x3fb4c7d1	1.4123479
99	0x3f6d9af3	0.9281456
100	0x3db0e81f	0.086380236
101	0xbe199886	-0.1499959
102	0xbed70326	-0.4199459
103	0x3e86a0be	0.26294512
104	0xbcf52cb8	-0.02992855
105	0xbe84b79c	-0.25921333
106	0xbe4dc584	-0.20094877
107	0x3e8b1fa7	0.27172586
108	0x3f13fcbc	0.5780752
109	0xbe2c4f4b	-0.16827123
110	0x3ded9c28	0.1160205
111	0x3cd02c82	0.025411848
112	0xbd82be74	-0.06383982
113	0x3e593862	0.21212915
114	0xbe4427b8	-0.19155777
115	0x3e8a2615	0.2698218
116	0x3edcc143	0.43116197
117	0x3e82f3e7	0.25576708
118	0xbee11d2e	-0.43967575
119	0x3b6c2d62	0.0036037792
120	0xbecf6f75	-0.40514722
121	0xbe86c184	-0.26319516
122	0xbe7f75e8	-0.24947321
123	0x3e15c5c4	0.14626223
124	0x3f20ce8e	0.6281518
125	0xbe2511ea	-0.16120115
126	0xbf28c0c5	-0.6591914
127	0xbf16eeea	-0.58958304
128	0xbeaba18b	-0.33521685
129	0x3e2de73d	0.16982742
130	0x3e816153	0.25269565
131	0xbf18ae69	-0.5964113
132	0x3f481cf5	0.78169185
133	0xbeab27dd	-0.3342885
134	0xbe2cda09	-0.16880049
135	0xbf0688b0	-0.5255232
136	0x3e0a33a3	0.1349626
137	0x3e54e5bd	0.20790763
138	0xbe7a2053	-0.24426393
139	0x3dcf71a5	0.10129098
140	0x3e2ad625	0.16683252
141	0x3ec2335b	0.37929806
142	0x3e7b9322	0.24567845
143	0xbd10aa28	-0.035318524
144	0xbeb4fa87	-0.35347387
145	0x3ea34752	0.3189035
146	0x3e746de5	0.23870046
147	0xbe0989c6	-0.13431463
148	0xbea25aa1	-0.3170977
149	0x3f2fd575	0.68685085
150	0xbe3b0d12	-0.18266705
151	0xbda93c23	-0.08263423
152	0xbe12afad	-0.14324827
153	0xbd84c571	-0.064829715
154	0xbdd7c7be	-0.10536145
155	0xbde893c6	-0.113563105
156	0xbe528356	-0.20557913
157	0x3e59d4fd	0.21272655
158	0xbf2cc0b6	-0.67481554
159	0xbe9be668	-0.30449224
160	0x3f0a749e	0.54084194
161	0xbe4b9efb	-0.19884865
162	0xbde83690	-0.11338532
163	0x3e6c879f	0.2309861
164	0xbe79f469	-0.24409641
165	0xbe02dad8	-0.12778795
166	0xbe77d2c4	-0.24201494
167	0xbe884a11	-0.26619008
168	0xbe71b1b1	-0.2360294
169	0xbe63ca38	-0.22245109
170	0xbdbcb9bd	-0.09215114
171	0xbe103e04	-0.14086157
172	0xbeda2a5e	-0.4261045
173	0xbe55a5da	-0.20864049
174	0xbebffb1e	-0.37496275
175	0x3e4a5149	0.1975757
176	0x3da8840f	0.08228313
177	0x3eff401f	0.49853608
178	0x3f6c9d4d	0.9242752
179	0xbe6c9769	-0.23104633
180	0x3e7de2b4	0.24793512
181	0x3e0b5df7	0.13610063
182	0xbd9e71e9	-0.077365704
183	0xbdcfe484	-0.10151008
184	0x3f0299b0	0.5101576
185	0x3dfe8801	0.124282844
186	0xbd9999e4	-0.075000554
187	0xbf01b8c2	-0.50672543
188	0x3dc6e6de	0.09712003
189	0xbe8bb730	-0.27288198
190	0xbe860e0a	-0.26182586
191	0x3faca2e6	1.3487213
192	0xbeda9c28	-0.42697263
193	0x3f17345e	0.5906428
194	0x3ed1f33c	0.41005886
195	0x3e4da49b	0.20082323
196	0xbc85c82c	-0.016330801
197	0x3d08b0ad	0.033371616
198	0xbeae962a	-0.3409894
199	0x3f038a5b	0.5138299
200	0xbef902a8	-0.4863484
201	0xbe5d608c	-0.21618861
202	0xbeed440f	-0.46340987
203	0x3e4df516	0.20113024
204	0x3d11190b	0.035424273
205	0xbdc7b04a	-0.09750421
206	0xbcc2e524	-0.023790903
207	0xbe80020a	-0.25001556
208	0xbdf89bda	-0.12139101
209	0xbe69d747	-0.22836028
210	0x3f215c89	0.6303182
211	0xbe3577be	-0.1772146
212	0xbe8fcbd7	-0.28085205
213	0xbddd0150	-0.10791266
214	0xbd8d08a6	-0.06886415
215	0x3dcc05fe	0.099620804
216	0x3d8b19dc	0.06792042
217	0x3f274dbf	0.65353006
218	0x3ef2d568	0.4742844
219	0x3e949efa	0.2902754
220	0xbe702348	-0.23450959
221	0x3d89def4	0.06731978
222	0xbdba1872	-0.09086694
223	0x3dfb71c9	0.12277562
224	0x3f06d70e	0.526719
225	0xbcf9bf68	-0.030486777
226	0xbd95a181	-0.07306195
227	0xbeb3889a	-0.35065156
228	0xbeab0345	-0.33400932
229	0x3e57badf	0.2106738
230	0xbdde0702	-0.108411804
231	0xbe85be0d	-0.2612156
232	0xbe04aa20	-0.12955523
233	0xbe8675b3	-0.26261672
234	0xbe606e07	-0.21916972
235	0x3e11fc50	0.14256406
236	0xbe855395	-0.2604033
237	0xbe1e99b8	-0.15488327
238	0xbd336aa4	-0.043802872
239	0x3e92bdbb	0.28660378
240	0x3fc09806	1.5046394
241	0x3f07437e	0.5283736
242	0x3f95130b	1.1646436
243	0x3d042c17	0.03226861
244	0xbe9f7124	-0.31141007
245	0x3ecf3702	0.40471655
246	0xbdf7acbb	-0.120934926
247	0xbeff4b1a	-0.49861985
248	0xbe3599f6	-0.17734513
249	0xbdc2bd97	-0.09508818
250	0x3e0fae3a	0.14031306
251	0xbec6cb7a	-0.38827115
252	0xbea3c3eb	-0.3198541
253	0x3e4a3745	0.19747646
254	0x3ba2fd67	0.0049740556
255	0xbdcfb125	-0.101412095

layers.4.bias f4 [100]
0	0xbe4b817e	-0.19873616
1	0x3e9a8224	0.30177414
2	0xbefcb210	-0.493546
3	0xbe912f79	-0.2835653
4	0xbe8c67ce	-0.27422947
5	0x3e932ce0	0.28745174
6	0xbeaaef6d	-0.33385792
7	0xbec61989	-0.38691357
8	0x3e21b334	0.15791017
9	0x3ea5f67d	0.32414618
10	0x3ef17811	0.47161916
11	0xbea49611	-0.32145742
12	0xbeca4505	-0.39505783
13	0x3ec1359a	0.37736207
14	0xbe27c874	-0.1638506
15	0xbeb045e7	-0.3442833
16	0xbea4a103	-0.32154092
17	0x3ec3e33f	0.38259313
18	0xbebb6735	-0.36602178
19	0xbe593376	-0.21211037
20	0xbe6ef459	-0.23335399
21	0x3e2fa450	0.17152524
22	0x3e9ec439	0.3100908
23	0xbebef3a7	-0.37295267
24	0xbe3bfa40	-0.18357182
25	0xbe8d1ffc	-0.27563465
26	0x3ec15811	0.37762502
27	0xbe30f4b1	-0.17280842
28	0x3e9e4f65	0.30919948
29	0x3e718b99	0.23588409
30	0xbe07d980	-0.13266563
31	0xbed1f821	-0.4100962
32	0xbe73878d	-0.23782177
33	0xbe82cd39	-0.25547197
34	0x3e910df9	0.28330973
35	0x3ea03ec0	0.31297874
36	0x3da8d86d	0.08244405
37	0x3e419fd3	0.18908624
38	0x3db7811f	0.08960175
39	0x3ea9d94d	0.331736
40	0xbc2fdc95	-0.010733743
41	0x3e4a5194	0.19757682
42	0x3ec101d7	0.37696716
43	0x3e9fe8e4	0.3123237
44	0x3e822ad9	0.25423315
45	0x3d009510	0.031392157
46	0x3ebd8cf3	0.37021598
47	0xbea5edde	-0.3240804
48	0xbee8f264	-0.4549743
49	0xbda6d7b0	-0.08146608
50	0x3f82c2b0	1.0215664
51	0x3e9bbc1e	0.3041696
52	0xbeac8c4e	-0.33700794
53	0x3e565364	0.20930248
54	0x3e2ff705	0.17184074
55	0xbe17a301	-0.14808275
56	0x3eb38c67	0.35068056
57	0x3eaa2ee6	0.33238906
58	0x3e4a4f10	0.19756722
59	0xbe59675a	-0.21230832
60	0x3e5ca7e4	0.2154842
61	0x3e260f3c	0.16216749
62	0x3eaa4b01	0.33260348
63	0x3e52af65	0.2057472
64	0x3ed76b7a	0.42074186
65	0x3eb070bb	0.34461007
66	0xbec83046	-0.3909933
67	0xbecd8712	-0.40142113
68	0x3f0ce1e9	0.5503221
69	0x3e179a31	0.14804913
70	0x3e8d9559	0.27653006
71	0x3cc01930	0.02344951
72	0x3e6bf034	0.23040849
73	0xbe1cf783	-0.15328793
74	0x3eb90cfe	0.36142725
75	0x3e3d6f47	0.1849948
76	0xbdf71abc	-0.12065646
77	0x3e4313c9	0.19050516
78	0xbe32f980	-0.17477989
79	0x3eb26b4d	0.3484749
80	0x3d96327d	0.073338486
81	0x3e285cdc	0.16441673
82	0xbe87b59b	-0.2650574
83	0xbe856f0a	-0.2606128
84	0xbcb5b27a	-0.02217983
85	0x3e2ec438	0.17067039
86	0xbe8b9d7c	-0.2726859
87	0xbe77be73	-0.24193744
88	0xbe36d4df	-0.17854641
89	0xbeb69c27	-0.3566601
90	0x3ecee297	0.4040725
91	0xbe530451	-0.20607115
92	0xbe3f8fda	-0.18707219
93	0x3eadc7dc	0.33941543
94	0x3ea43afc	0.32076252
95	0xbeaf1c54	-0.342013
96	0xbea6b9d8	-0.32563663
97	0x3e8fe215	0.28102174
98	0x3e605ec2	0.21911147
99	0xbeb2ef91	-0.349484

layers.6.weight f4 [1, 100]
0	0x3f8fa013	1.1220726
1	0xbd774b1c	-0.060374364
2	0x3e89b3ec	0.26895082
3	0x3e2dd694	0.16976386
4	0x3dca177f	0.09867763
5	0xbda67bbb	-0.081290685
6	0x3e148d1b	0.14506952
7	0x3d1b6cfa	0.037945725
8	0xbed24aa4	-0.4107257
9	0xbdfd7265	-0.12375335
10	0xbebd7ae8	-0.37007833
11	0x3ee6d9db	0.45088086
12	0x3e2ca5e5	0.16860159
13	0xbe391196	-0.18073115
14	0x3f242eb7	0.6413378
15	0x3f052abc	0.5201833
16	0x3d45f99a	0.04833374
17	0xbf00c217	-0.5029616
18	0x3e92b826	0.2865612
19	0x3e326ecc	0.17425078
20	0x3e7b5517	0.24544178
21	0xbd933140	-0.07187128
22	0xbdba55b0	-0.09098375
23	0x3db14eb9	0.08657593
24	0x3df8e663	0.12153318
25	0x3e47b791	0.19503619
26	0xbde685a2	-0.11255957
27	0x3ecaa065	0.39575496
28	0xbe1a6216	-0.1507648
29	0xbd5a9605	-0.053365726
30	0x3f6cbc39	0.92474705
31	0x3d8a6bf9	0.067588754
32	0x3d8f15e8	0.069866
33	0x3e45e264	0.19324642
34	0xbcd93354	-0.026513733
35	0xbe54fdc8	-0.20799935
36	0xbe8bf660	-0.27336407
37	0xbf6c20f4	-0.9223778
38	0x3f0e73b7	0.55645317
39	0xbe0c5811	-0.1370547
40	0xbf4e00aa	-0.80469763
41	0x3f0e326f	0.55545706
42	0xbca2bd6d	-0.019865716
43	0xbd044f90	-0.03230244
44	0xbda063b9	-0.078315206
45	0xbefc76f9	-0.4930952
46	0xbe044181	-0.12915613
47	0x3e5dcbc2	0.21659759
48	0x3d75fb78	0.060054272
49	0x3e19c150	0.15015149
50	0xbf08dc32	-0.5346099
51	0xbe5eed40	-0.21770191
52	0x3d48283c	0.048866495
53	0xbda6c74d	-0.08143482
54	0xbdd72e1e	-0.10506843
55	0xbeac48a9	-0.33649185
56	0xbe3b47fb	-0.18289177
57	0xbdfd3c79	-0.1236505
58	0xbda484b7	-0.08033126
59	0x3df1cd70	0.11806762
60	0xbcb80ca5	-0.022466967
61	0xbeecd3de	-0.46255392
62	0xbd996eaa	-0.074918106
63	0xbdc3984d	-0.095505334
64	0xbe26de87	-0.16295825
65	0xbd2dc975	-0.042428453
66	0x3ddabbc3	0.10680344
67	0x3e5b5849	0.21420397
68	0xbe807b09	-0.25093868
69	0xbef7313b	-0.48279747
70	0xbea3dc7f	-0.32004163
71	0x3f18f0b0	0.5974226
72	0xbdfa5b09	-0.12224395
73	0x3ef1f6b2	0.47258526
74	0xbe82ad39	-0.25522783
75	0xbe9f6195	-0.31129137
76	0x3e5d2790	0.21597123
77	0xbdef7653	-0.116924904
78	0x3d8e2452	0.06940521
79	0xbe485ee9	-0.19567455
80	0xba035896	-0.0005010454
81	0xbe01344b	-0.12617604
82	0x3e866b22	0.2625361
83	0x3d51d96e	0.051232748
84	0x3edab423	0.42715558
85	0xbeab7d90	-0.33494234
86	0x3db2dff4	0.08734122
87	0x3e2bad89	0.16765417
88	0x3e089e99	0.1334175
89	0x3e77b270	0.24189162
90	0xbe81d605	-0.25358596
91	0x3e3fe942	0.18741325
92	0x3b3d26f9	0.002886234
93	0xbe81bf35	-0.25341192
94	0xbd10768f	-0.035269316
95	0x3e5d819d	0.21631475
96	0x3ee05330	0.43813467
97	0xbd21f053	-0.03953583
98	0xbeca62c3	-0.39528474
99	0x3dfe79ad	0.124255516
