hddm/torch_models/495136c615d311ecb5fda0423f39a3e6_par2_no_bias_torch_state_dict.pt (torch, 87055 bytes, 7 tensors)

layers.0.weight f4 [100, 7]
0	0xbf14b4f3	-0.58088607
1	0xbba6c5e9	-0.0050895107
2	0xbda25e8f	-0.07928192
3	0x3e942673	0.28935584
4	0x3d88c49d	0.06678126
5	0xbd7710e1	-0.06031883
6	0xbda6076d	-0.08106885
7	0xbd0e7b1c	-0.034785375
8	0x3aa652b9	0.0012689448
9	0xba780bd4	-0.0009462212
10	0xbf33abcb	-0.7018401
11	0x3fdf1ba0	1.7430305
12	0xbfd10a8d	-1.6331345
13	0x3c204730	0.009782597
14	0x3d5c8c7f	0.053844925
15	0x3d3aa165	0.045564074
16	0x3dd71fe9	0.10504133
17	0x3e824c64	0.25448906
18	0xbddf9f0f	-0.1091901
19	0x3dbe580b	0.092941366
20	0x3e2082a2	0.15674832
21	0xbcacf701	-0.021113874
22	0xbb9d2a8f	-0.004796333
23	0xbe27b1ff	-0.16376494
24	0x3e7c0689	0.24611868
25	0x3eae4895	0.3403975
26	0xbeaf25ff	-0.34208676
27	0xbd8c2f25	-0.068449296
28	0x3b0542fe	0.002033412
29	0x3a96a96f	0.0011494587
30	0x396f97da	0.00022849385
31	0x3af7ed53	0.0018915333
32	0x3bebd96c	0.0071975496
33	0x3a7f5a68	0.00097409496
34	0xb8534448	-5.0369912e-05
35	0xbd9f9955	-0.07792918
36	0xbbee04ac	-0.0072637405
37	0xbd14daba	-0.036341406
38	0xbf22e001	-0.6362305
39	0xbef7132a	-0.4825681
40	0x3edf1095	0.4356734
41	0xbe911b9b	-0.28341374
42	0x3f011a61	0.50430876
43	0x3c327da7	0.010894216
44	0xbd8462b0	-0.06464136
45	0x3f07fff9	0.5312496
46	0x3e5a1858	0.21298349
47	0xbe68c961	-0.2273307
48	0x3d008dce	0.031385235
49	0xbec3b463	-0.38223562
50	0xbb220811	-0.0024724046
51	0xbe0c452c	-0.13698262
52	0xbe12fd5b	-0.1435446
53	0xbf2d6e06	-0.6774601
54	0x3f1e28f3	0.61781234
55	0x3ef3de06	0.47630328
56	0x3dcdf732	0.100569144
57	0xbb9516e3	-0.0045498475
58	0xbe5035c7	-0.20333014
59	0x3f11570f	0.56773466
60	0x3ec58808	0.38580346
61	0xbedd944b	-0.432772
62	0x3d7859ef	0.060632642
63	0xbf2084dd	-0.62702733
64	0x3eca2e93	0.39488658
65	0x3cb1d6a7	0.0217088
66	0x3b54ae27	0.0032452436
67	0x3c2a702c	0.01040272
68	0xbb90662e	-0.004406712
69	0xbfb3618e	-1.4014146
70	0xbeb89871	-0.36053804
71	0xbd0ed939	-0.03487513
72	0x3dbcbfed	0.092162944
73	0xbda28c2d	-0.07936893
74	0x3f1940d3	0.5986454
75	0xbf157378	-0.58379316
76	0x3ea3b2d3	0.3197237
77	0x3d274057	0.040832844
78	0xbec56fef	-0.3856196
79	0xbc3799ea	-0.01120613
80	0xbdab3e96	-0.08361547
81	0xba89fb49	-0.0010527159
82	0xbc374ffc	-0.011188503
83	0x3f8ffe46	1.1249473
84	0x3c9744d7	0.018465443
85	0x3d625b4d	0.055262852
86	0x3c7dafbe	0.015483795
87	0x3f27ec55	0.6559499
88	0x3e7bf789	0.24606146
89	0xbe7322e2	-0.23743775
90	0xbc8ec23f	-0.017426608
91	0xbf0a34bc	-0.53986716
92	0xbbc9ff66	-0.006164479
93	0xbea4147d	-0.3204688
94	0xbd0447cd	-0.032295037
95	0xbb358b9e	-0.0027701627
96	0x3c1326be	0.008981405
97	0xbd81603e	-0.06317185
98	0x3e4278d9	0.18991412
99	0x3d0c857c	0.034306988
100	0xbe55d5f9	-0.20882405
101	0xbf02c3d6	-0.5108007
102	0xbd5cfe1e	-0.053953283
103	0x3d81a0f4	0.063295275
104	0x3f5a93c8	0.85381746
105	0x3d434dbf	0.047681566
106	0xbf8c7771	-1.0973951
107	0xbb9470d2	-0.004530051
108	0x3cd42b24	0.025899477
109	0x3821ce54	3.857755e-05
110	0x3b8c66ec	0.00428473
111	0x3f1ebaa5	0.62003547
112	0xbf5a18eb	-0.8519427
113	0xbc6dd328	-0.014515676
114	0x3d174f17	0.03694066
115	0xbe8d657a	-0.27616483
116	0x3cd21e2f	0.025649158
117	0xbd2c2abc	-0.042032942
118	0x3df23dfb	0.11828228
119	0x3af0e875	0.0018379824
120	0xbb41851e	-0.0029528807
121	0x3ba0b801	0.0049047475
122	0xbde23fb9	-0.110473104
123	0x3cf71a49	0.0301639
124	0xba07a2a4	-0.00051740767
125	0xbc8027bb	-0.015643945
126	0xbe1d6cd2	-0.15373543
127	0xbdac254b	-0.084055506
128	0xbd25f538	-0.040517062
129	0xbf3cd7cb	-0.73766774
130	0xbcb0d167	-0.021584226
131	0x3d13ccf1	0.03608412
132	0xbdf9bf66	-0.121947095
133	0xbc15c263	-0.009140584
134	0xbf92663b	-1.1437448
135	0x3c53d1eb	0.012928466
136	0x3dcde79b	0.10053941
137	0x3bb67669	0.005568315
138	0xbb094741	-0.0020947012
139	0xbd97aac0	-0.07405615
140	0xbd5d4049	-0.054016385
141	0xbd9583d1	-0.073005326
142	0x3c7aaa25	0.015299355
143	0x3ec78c72	0.3897434
144	0xbc156c81	-0.009120108
145	0x3b8a1595	0.0042139986
146	0x3ec776c4	0.38957798
147	0xbb2eddd8	-0.0026682522
148	0x3e325e3c	0.1741876
149	0x3cea8243	0.028626567
150	0xbef81cc2	-0.4845944
151	0xbe2a340f	-0.16621421
152	0x3e50df69	0.20397724
153	0xbd413cfd	-0.047177304
154	0x3e7208ec	0.23636216
155	0xbd393b3a	-0.0452225
156	0x3ee123cc	0.43972623
157	0x3ddbf14e	0.107393846
158	0xbc3e0fdf	-0.011600464
159	0x3cbdcc23	0.023168629
160	0xbf3b9bc8	-0.7328458
161	0xbed2e7af	-0.41192386
162	0xbedc7dd5	-0.43064752
163	0x3b84b050	0.0040493384
164	0xbd80e5c0	-0.06293821
165	0xbc46d918	-0.01213672
166	0x3c4efa59	0.01263293
167	0x3fc78b9f	1.5589484
168	0x3d2fb4c9	0.04289702
169	0x3bc1059c	0.0058905613
170	0xbd2a5c5b	-0.041591983
171	0xbe2bfab4	-0.16794854
172	0xbcb4224e	-0.021989014
173	0x3c563b28	0.013075627
174	0x3f70ade1	0.9401532
175	0x3d859230	0.06522024
176	0xbb6b6f80	-0.0035924613
177	0xbfa0616d	-1.2529732
178	0x3d336037	0.04379293
179	0xbc878723	-0.01654393
180	0x3c0f37c1	0.00874132
181	0x3ecd7b5f	0.40133187
182	0xbcf15bc9	-0.029462712
183	0x3d0beb2e	0.03415983
184	0xbbcd71d0	-0.006269671
185	0x3eb14c60	0.34628582
186	0xbf81d7e1	-1.0144006
187	0x3f8c96b0	1.0983486
188	0x3aff2f39	0.001946903
189	0x3d19e3af	0.03757065
190	0x3c6467cd	0.013940764
191	0xbd0504ce	-0.032475285
192	0xbee04361	-0.43801406
193	0x3cc72bbd	0.024312848
194	0x3da79cc9	0.08184201
195	0xbd944ed9	-0.072416015
196	0xbc2ce027	-0.010551489
197	0xbb2a418e	-0.0025979015
198	0xbf331520	-0.6995411
199	0x3cd060b5	0.025436739
200	0x3d0e1fec	0.03469841
201	0xbcb57a27	-0.022152973
202	0x3f280d88	0.6564565
203	0x3b1c9d56	0.002389749
204	0xbbda0e20	-0.006654516
205	0xbb051884	-0.0020308802
206	0xc005d435	-2.091077
207	0x3e213477	0.1574267
208	0x3da13f66	0.078734204
209	0x3c48c97a	0.012255067
210	0x3ca927c4	0.020648845
211	0x3cafdb24	0.0214668
212	0x3ef941b8	0.48682952
213	0xbf3ad72f	-0.72984594
214	0x3e5476b4	0.20748407
215	0xbe4eddb5	-0.20201762
216	0xbb2c1076	-0.0026254929
217	0xbed4a719	-0.41533735
218	0xbbc796ed	-0.00609099
219	0xbe1b26a7	-0.15151463
220	0xbc9090a1	-0.01764709
221	0x3d316e2b	0.043317955
222	0xbd346247	-0.044039037
223	0x3f1e9ff9	0.6196285
224	0xbee11559	-0.439616
225	0x3cbf1657	0.023326082
226	0x3cc12e2e	0.02358159
227	0xbea51b48	-0.32247376
228	0xbd5d7f9e	-0.054076783
229	0x3d0395c4	0.03212525
230	0x3f424b8c	0.75896525
231	0xbe38d59a	-0.18050233
232	0x3c5590a7	0.013034976
233	0xbe05e619	-0.13076057
234	0x3f1c0db9	0.6095844
235	0xbe215c7f	-0.1575794
236	0x3e284121	0.16431095
237	0xbeab12db	-0.33412823
238	0x3e2d96db	0.16952078
239	0xbd9023d8	-0.07038087
240	0x3dfc22fc	0.1231136
241	0x3eb7b9f3	0.35884055
242	0x3ce4e5f4	0.027941681
243	0xbcd1fe9b	-0.0256341
244	0x3f183a87	0.59464306
245	0xbd3941d9	-0.045228813
246	0x3ce9e0ae	0.028549518
247	0x3d66803c	0.056274638
248	0x3f65e50d	0.8980263
249	0x3eeaa084	0.4582559
250	0xbedc040a	-0.42971832
251	0xbe5ae60f	-0.21376823
252	0x3b6396e2	0.0034727384
253	0xbc2776a4	-0.010221157
254	0x3c65cafd	0.014025447
255	0xbf450ef1	-0.76975924

layers.0.bias f4 [100]
0	0x3f5b5d8f	0.85689634
1	0xbdc7d41e	-0.09757255
2	0x3e92b597	0.28654167
3	0x3ed9fcca	0.42575675
4	0xbc11d7fd	-0.008901593
5	0x3ed5b5ec	0.41740358
6	0xbe1c6855	-0.15274175
7	0xbee80b27	-0.4532101
8	0xbec0ea33	-0.3767868
9	0xbde9493f	-0.11390924
10	0xbeb06166	-0.3444931
11	0xbf7ed8b5	-0.9954942
12	0x3f26a769	0.650992
13	0xbea199ff	-0.31562802
14	0xbf84e714	-1.038302
15	0xbf9bfde1	-1.2186853
16	0x3f9fa5dd	1.2472492
17	0x3deec09d	0.11657832
18	0x3f0af0fa	0.5427395
19	0x3f4148ff	0.7550201
20	0xbf736309	-0.9507299
21	0xbe79e80e	-0.24404928
22	0xbddbd1de	-0.10733388
23	0x3ea91936	0.33027047
24	0xbfe91cd5	-1.8211924
25	0xbf0d7a53	-0.55264777
26	0xbe0eaefe	-0.13933942
27	0x3eaa6e03	0.33287057
28	0xbf1b0bf9	-0.60565144
29	0x3ea04320	0.31301212
30	0xbc1866ef	-0.009301885
31	0xbf62b41f	-0.8855609
32	0xbf0f0aed	-0.55876046
33	0x3ed5e2ab	0.41774496
34	0xbf794e80	-0.97385406
35	0x3ed2f3d4	0.4120165
36	0x3e1084d4	0.1411317
37	0x3f3c03e5	0.7344344
38	0xbf7876c4	-0.9705622
39	0xbe862565	-0.26200405
40	0x3e6c29f3	0.23062877
41	0xbea610cc	-0.3243469
42	0x3f45015d	0.76955205
43	0x3ef2585e	0.47333044
44	0x3ee672be	0.45009416
45	0xbccf1708	-0.025279537
46	0x3f30dbb4	0.6908524
47	0xbcb33ba9	-0.021879034
48	0xbea91811	-0.33026174
49	0x3e9db42a	0.30801517
50	0xbe9eadf0	-0.3099208
51	0xbe5d3dd9	-0.21605624
52	0x3d89ee6f	0.06734931
53	0xbea83ddd	-0.32859698
54	0xbeda9daf	-0.42698428
55	0x3eb61640	0.3556385
56	0xbfa65747	-1.2995385
57	0xbb874cdb	-0.004129035
58	0xbe8afd0e	-0.2714619
59	0xbf25b281	-0.647255
60	0xbf64a74a	-0.8931776
61	0xbfcd22be	-1.6026227
62	0xbeb2b9b3	-0.34907302
63	0xbdb91e3f	-0.09038972
64	0xbe5ae458	-0.21376169
65	0xbf7f81d9	-0.99807507
66	0x3f8a2d22	1.0795023
67	0x3e8b4dcd	0.27207795
68	0xbf670f55	-0.9025777
69	0x3e1279f7	0.14304338
70	0x3e8993bd	0.26870528
71	0x3ef4b54a	0.47794563
72	0xbedfc545	-0.43705192
73	0x3f133697	0.5750517
74	0xbf1a9e80	-0.603981
75	0x3ea49636	0.32145852
76	0xbf02c382	-0.5107957
77	0x3ba9ee4a	0.005185877
78	0xbf88f297	-1.0699033
79	0xbe8e9519	-0.27848127
80	0xbf9d6c1d	-1.2298619
81	0xc0202e43	-2.5028236
82	0x3e9e1c99	0.30881193
83	0x3ec60ab5	0.38680044
84	0x3e3d1236	0.18463978
85	0x40286b74	2.6315584
86	0x3f82d380	1.0220795
87	0xbf77904b	-0.9670455
88	0x3f537260	0.825964
89	0x3e80f926	0.25190085
90	0xbe9da18b	-0.3078731
91	0xbef4fc62	-0.47848803
92	0xbf513f7e	-0.81737506
93	0x3e1428b6	0.14468655
94	0x3f5c3919	0.86024624
95	0x3d0c884c	0.03430967
96	0x3e7e23b0	0.24818301
97	0xbd88863a	-0.06666227
98	0xbe1549ab	-0.14578883
99	0xbed3b020	-0.4134531

layers.2.weight f4 [100, 100]
0	0x3f843840	1.0329666
1	0x3e1682ef	0.14698385
2	0x3df8e12c	0.12152323
3	0x3a348b67	0.00068872276
4	0xbc592ac5	-0.013254826
5	0xbde940c1	-0.11389304
6	0x3ed733b2	0.42031628
7	0xbe5664b2	-0.2093685
8	0x3e4346a9	0.19069923
9	0x3dac7633	0.08420982
10	0xbd5dab94	-0.054118708
11	0xbe12d4dc	-0.14339012
12	0x3e7211ab	0.23639552
13	0x3eb511d6	0.3536517
14	0x3e504f27	0.20342694
15	0xbf0fb527	-0.5613579
16	0x3f396b2c	0.72429156
17	0xbc0f686a	-0.008752922
18	0x3ca9d8ec	0.02073332
19	0x3f2bf522	0.6717092
20	0x3dd06d87	0.10177141
21	0x3ce12a7d	0.02748608
22	0xbd23e539	-0.040013526
23	0x3e838169	0.2568467
24	0xbe9bc0f5	-0.30420652
25	0x3ecf700e	0.40515178
26	0xbda3d368	-0.07999307
27	0x3a6c5efb	0.0009016839
28	0xbd597493	-0.05308969
29	0x3cb7ede2	0.022452299
30	0x3e13fce3	0.14451937
31	0x3e9eca2c	0.3101362
32	0x3ea342fb	0.3188704
33	0xbcf2d871	-0.029644223
34	0x3d38b448	0.045093805
35	0x3e5d9638	0.21639335
36	0xbcb156c9	-0.021647828
37	0x3e3786c1	0.17922498
38	0xbec53224	-0.38514817
39	0xbdea8ccd	-0.11452637
40	0x3e241cb3	0.16026573
41	0x3da1f2ab	0.07907613
42	0xbe471fe9	-0.19445767
43	0x3e63303e	0.22186372
44	0xbe305da6	-0.17223224
45	0x3e0c465e	0.13698718
46	0x3e16cff2	0.14727762
47	0x3e83c964	0.25739586
48	0x3ea28cf0	0.31748152
49	0xbcab8bb3	-0.020940637
50	0xbdb552e3	-0.088537
51	0x3d85f0b2	0.065400496
52	0x3ded2a9b	0.11580392
53	0xbceaad6f	-0.028647153
54	0xbb2c6de1	-0.002631061
55	0xbdbc085d	-0.09181283
56	0xbcf6cf21	-0.030128064
57	0xbb6c6a2d	-0.0036074028
58	0x3c869324	0.016427584
59	0xbe34846c	-0.1762864
60	0x3e9d5a25	0.30732837
61	0xbeb04091	-0.3442426
62	0xbed18e61	-0.4092894
63	0x3cee6411	0.02910045
64	0xbdae8686	-0.08521752
65	0x3dd9769e	0.106183276
66	0x3ddb12b4	0.10696927
67	0xbd797b04	-0.060908332
68	0xbd453559	-0.04814658
69	0x3e16296d	0.1466424
70	0x3e1a0937	0.15042578
71	0x3e034643	0.12819771
72	0x3dfae7dd	0.12251256
73	0x3c8ca984	0.017170675
74	0x3dbf0f68	0.093291104
75	0xbe2fa72f	-0.17153619
76	0xbdfda714	-0.12385383
77	0x3e9da875	0.30792585
78	0xbe6bdeff	-0.23034285
79	0x3cae080d	0.021244073
80	0x3db8ae44	0.090176135
81	0xbd39c009	-0.045349155
82	0x3c700fae	0.014652176
83	0x3e410aa4	0.18851715
84	0xbe229d86	-0.15880403
85	0xbe8a45e0	-0.27006435
86	0x3aa23b3b	0.0012377271
87	0x3e161ac6	0.14658651
88	0x3e840715	0.25786653
89	0xbd056e95	-0.032576162
90	0xbdadbf9d	-0.08483813
91	0xbdb59822	-0.08866908
92	0xbdcea2ea	-0.10089667
93	0xbdff2e7b	-0.12460037
94	0xbf5b48b1	-0.85657793
95	0x3e7442a5	0.23853548
96	0x3eb3343c	0.3500079
97	0xbd785205	-0.060625095
98	0x3e1fb0b9	0.15594758
99	0x3e1d4ce0	0.15361357
100	0x3cffc361	0.031221094
101	0xbed2cf7d	-0.41173926
102	0x3d318c21	0.043346528
103	0x3d96e527	0.07367926
104	0xbb8d1323	-0.00430526
105	0x3daab70b	0.08335694
106	0xbde49ac0	-0.11162329
107	0x3e51137e	0.20417592
108	0xbda7da42	-0.08195926
109	0x3f4abefb	0.79197663
110	0x3cd4c66f	0.025973527
111	0xbf8a06eb	-1.0783361
112	0xbb363f64	-0.002780878
113	0xbcda6dec	-0.026663743
114	0xbd0a33fe	-0.03374099
115	0xbec876d9	-0.39153174
116	0xbe39f031	-0.18158032
117	0x3cd918da	0.026501108
118	0x3c44a2f0	0.012001738
119	0xbea6c2b1	-0.32570413
120	0xbfa47dee	-1.2850931
121	0x3e9c5e1e	0.30540556
122	0x3dfed74d	0.12443409
123	0xbc130c81	-0.008975149
124	0xbe15f135	-0.14642794
125	0xbd4d4c11	-0.05012137
126	0x3dd0ebd6	0.10201232
127	0xbc85bec6	-0.01632632
128	0x3d06548d	0.032795478
129	0xbd89e4af	-0.06733071
130	0xbd215cd6	-0.039395176
131	0xbe885bfe	-0.26632684
132	0xbee89d6c	-0.45432603
133	0x3c1fa636	0.009744218
134	0xbf0c3190	-0.54763126
135	0xbe6f542a	-0.2337195
136	0x3c9c0c47	0.019048823
137	0x3d0b6621	0.034032945
138	0x3e648891	0.22317721
139	0x3c5757c6	0.013143485
140	0xbe3c525f	-0.18390797
141	0xbdd66dbf	-0.10470151
142	0x3e2fffde	0.1718745
143	0x3eaff292	0.34364754
144	0x3e0811e7	0.13288079
145	0xbdaafcaf	-0.08348977
146	0x3e520266	0.20508727
147	0x3c918987	0.017765773
148	0xbec0df40	-0.37670326
149	0x39898199	0.00026227234
150	0xbd846413	-0.064644
151	0x3dcab68c	0.09898099
152	0xbde32634	-0.11091271
153	0x3e084496	0.13307413
154	0x3e0a8087	0.13525592
155	0xbe2eadb3	-0.17058448
156	0x3e238ffa	0.15972891
157	0x3c00cd6b	0.007861475
158	0xbe48e99b	-0.19620363
159	0x3e0721ec	0.13196534
160	0xbd649122	-0.055802472
161	0xbd9f472e	-0.07777248
162	0x3e8c62eb	0.27419218
163	0xbe166fe1	-0.14691116
164	0x3e7ddffd	0.24792476
165	0x3e0af8fd	0.13571544
166	0x3e8a2e1b	0.269883
167	0x3db0b805	0.08628849
168	0xbd20744c	-0.03917341
169	0x3ce08675	0.027407864
170	0xbf09c31b	-0.5381333
171	0xbd8aa1b5	-0.067691244
172	0xbee559e0	-0.44795132
173	0x3e6c297e	0.23062703
174	0xbde90802	-0.113784805
175	0x3dad5041	0.08462573
176	0xbe12c692	-0.14333561
177	0xbe54c330	-0.20777583
178	0x3eab6f18	0.33483195
179	0x3dd606d5	0.10450522
180	0x3ebe0294	0.37111342
181	0x3d8ae1bc	0.06781337
182	0x3dd92852	0.106033936
183	0xbe6490d4	-0.22320873
184	0x3c81ccc5	0.015844712
185	0xbc868b10	-0.016423732
186	0xbbea5232	-0.0071509117
187	0xbeb74787	-0.3579676
188	0xbd237cfe	-0.039914124
189	0x3e02bab9	0.12766542
190	0x3e014a18	0.12625921
191	0xbdacd7b8	-0.084395826
192	0x3ccdc63d	0.025118941
193	0xbe70d2b1	-0.23517872
194	0xbe08542d	-0.1331336
195	0x3e086065	0.13318022
196	0x3e6df7b1	0.23239018
197	0xbd4ac534	-0.049504474
198	0x3d0062cf	0.03134423
199	0xbe22f79d	-0.1591477
200	0x3d6e7931	0.058221046
201	0x3cfd74bb	0.03093945
202	0x3e40b4e2	0.18819001
203	0xbe12a195	-0.14319451
204	0xbc7e3f88	-0.015518077
205	0xbe9a43bf	-0.3012981
206	0x3efd2717	0.49443886
207	0xbb7a7334	-0.003821564
208	0xbe499017	-0.19683872
209	0x3e7151b1	0.23566319
210	0x3d051419	0.03248987
211	0x3e34643d	0.17616363
212	0x3e40c874	0.18826467
213	0x3e8c9e63	0.2746459
214	0xbec8b7d4	-0.3920275
215	0xbe59b8f3	-0.21261959
216	0x3e9a347a	0.3011816
217	0x3e01c262	0.12671807
218	0xbb89f101	-0.004209638
219	0x3e3287bb	0.1743459
220	0x3d13216d	0.03592055
221	0x3e08cb80	0.13358879
222	0x3d54f51e	0.051991574
223	0xbf36a46b	-0.7134463
224	0xbde6723e	-0.11252259
225	0xbedd6f07	-0.4324877
226	0xbd8e7cb2	-0.069573775
227	0xbe81600f	-0.252686
228	0xbedb28c9	-0.42804554
229	0x3e351054	0.1768201
230	0xb60d58d9	-2.1062353e-06
231	0xbe56d3b7	-0.209792
232	0x3ddb2ad2	0.10701527
233	0x3dd165f7	0.102245264
234	0x3d513013	0.051071238
235	0x3ee24d35	0.4419953
236	0xbd96c5f8	-0.07361978
237	0xbf8f07fd	-1.1174313
238	0x3e03eb30	0.12882686
239	0xbee8ebca	-0.45492393
240	0xbe2bd704	-0.1678124
241	0x3e8f49ca	0.27985984
242	0x3da806d3	0.082044266
243	0xbe42739f	-0.18989418
244	0x3e4b54d8	0.19856584
245	0x3cce7e58	0.02520673
246	0xbeb09b01	-0.3449326
247	0xbee9f074	-0.45691264
248	0xbeed51c8	-0.46351457
249	0xbe2bf00a	-0.16790786
250	0xbe7e811c	-0.24853939
251	0x3d8866df	0.06660246
252	0xbe351cfa	-0.17686835
253	0xbf526087	-0.8217854
254	0x3cc98fe8	0.024604753
255	0x3a5f3574	0.000851474

layers.2.bias f4 [100]
0	0xbd79e503	-0.06100942
1	0xba4eebf3	-0.00078934355
2	0x3f0a3642	0.5398904
3	0xbdebc22d	-0.115116455
4	0x3ed1dffd	0.40991202
5	0xbe03fc1a	-0.12889138
6	0x3e7daf93	0.24774007
7	0xbe6d0b79	-0.23148908
8	0x3f4bfdc5	0.79684097
9	0xbd10078d	-0.03516345
10	0xbd1b5653	-0.037924122
11	0xbed07e8d	-0.4072155
12	0x3d8b2b0d	0.06795321
13	0x3dc7a980	0.097491264
14	0xbedfa333	-0.436792
15	0x3f285b85	0.6576465
16	0x3d153da1	0.036435727
17	0x3e38785d	0.18014665
18	0xbf248440	-0.642643
19	0xbee05240	-0.43812752
20	0x3f104ee0	0.56370354
21	0x3e364f33	0.1780365
22	0xbdb27370	-0.08713424
23	0x3e08f370	0.13374114
24	0x3e04c93b	0.12967388
25	0xbee3d223	-0.4449626
26	0xbe6f327b	-0.233591
27	0x3e2e38ee	0.17013904
28	0xbddd0d64	-0.1079357
29	0x3ecf6487	0.40506384
30	0x3e56db78	0.20982158
31	0xbe81e6aa	-0.25371295
32	0xbe76bc33	-0.2409523
33	0x3c97ac84	0.018514879
34	0x3f04d7d0	0.51891804
35	0x3e2ab6d2	0.16671303
36	0x3de4f06a	0.11178668
37	0x3e1808e5	0.14847143
38	0xbe71ca6a	-0.23612371
39	0x3e8e1a91	0.27754644
40	0x3ef2e44b	0.474398
41	0xbf0a4b21	-0.5402089
42	0xbe183b6f	-0.14866422
43	0xbda0c3c7	-0.078498416
44	0x3e77b3c0	0.24189663
45	0xbf01927b	-0.50614136
46	0x3d3a5d87	0.04549935
47	0xbf00d04a	-0.50317824
48	0x3d99d4ab	0.07511266
49	0xbdbae716	-0.091261074
50	0x3f15c501	0.5850373
51	0xbe2851fb	-0.16437523
52	0xbe132200	-0.14368439
53	0xbe921adc	-0.28536117
54	0x3e73b0d9	0.23797931
55	0x3d8dd174	0.06924716
56	0xbf8185ca	-1.0118954
57	0x3e919788	0.28435922
58	0x3eda0899	0.42584684
59	0x3ea5aa42	0.3235646
60	0xbe8e55b2	-0.27799755
61	0x3dd82579	0.10554022
62	0xbc40e2c8	-0.011772819
63	0x3e314dc3	0.1731482
64	0xbf37f9da	-0.7186562
65	0xbf219970	-0.6312475
66	0x3ebafeff	0.36522672
67	0xbe532bbf	-0.20622157
68	0x3e999baf	0.3000159
69	0xbe9d7b4f	-0.3075814
70	0xbe008ef2	-0.1255453
71	0xbe9e62a4	-0.30934632
72	0xbeefe5fa	-0.46855146
73	0xbe4521f1	-0.19251229
74	0xbea0005b	-0.3125027
75	0xbd9e911f	-0.077425234
76	0x3f20c619	0.62802273
77	0x3e954c6f	0.29159877
78	0x3ddef117	0.10885828
79	0xbec90fd9	-0.39269903
80	0xbe29ab7e	-0.16569325
81	0xbd853a91	-0.06505311
82	0xbd392c81	-0.045208458
83	0x3e27eea2	0.16399625
84	0xbd003ac5	-0.031306047
85	0x3e8f46eb	0.27983794
86	0xbf567b05	-0.8378146
87	0x3e31a298	0.17347181
88	0xbccb20cf	-0.024795918
89	0x3d5c8542	0.053838022
90	0xbea5f284	-0.32411587
91	0xbe21184b	-0.15731923
92	0xbe0e0ce1	-0.138721
93	0xbe8aa2ff	-0.2707748
94	0x3d9cf36e	0.07663618
95	0x3e315b5e	0.1732001
96	0xbd133e6b	-0.0359482
97	0xbeb9c917	-0.36286232
98	0x3d7b67ba	0.06137822
99	0x3d83d7de	0.06437658

layers.4.weight f4 [100, 100]
0	0xbdff1afc	-0.12456319
1	0xbee1e529	-0.44120148
2	0x3cf44a4a	0.02982058
3	0x3b336289	0.0027371964
4	0xbe09a51c	-0.1344189
5	0xbdbb97d9	-0.09159822
6	0x3d33627e	0.0437951
7	0xbdd5c322	-0.10437609
8	0x3e872386	0.2639429
9	0xbe5bfcc2	-0.21483138
10	0xbe24834f	-0.16065715
11	0xbcd7d9a0	-0.026348889
12	0x3f8466d6	1.0343883
13	0x3e0ff8a3	0.14059691
14	0xbe999742	-0.29998213
15	0x3de14c6a	0.11000903
16	0xbe1ab7ab	-0.15109126
17	0xbeb38623	-0.35063276
18	0xbe744884	-0.23855788
19	0xbe6e49b5	-0.23270305
20	0xbd12f9ca	-0.03588275
21	0x3e509f21	0.20373203
22	0xbdf0e360	-0.11762118
23	0xbe1ca604	-0.15297705
24	0xbe93e5c8	-0.28886247
25	0xbcde56d2	-0.027141009
26	0xbe13cec7	-0.14434348
27	0xbda52daf	-0.08065354
28	0x3d0c33ca	0.034229077
29	0x3e7f48de	0.2493014
30	0x3e44e74b	0.19228856
31	0xbeb47ff2	-0.35253865
32	0x3effa464	0.49930108
33	0x3dd669e5	0.104694165
34	0xbe55fcd2	-0.20897225
35	0xbd736ef2	-0.059431978
36	0x3cd4aba6	0.025960755
37	0xbd7f151d	-0.062275995
38	0x3f00e16c	0.50343966
39	0xbe9e0a57	-0.30867264
40	0x3e38569f	0.18001793
41	0xbe630705	-0.22170646
42	0x3e979a58	0.29609942
43	0x3eb26702	0.34844214
44	0xbeaca84c	-0.3372215
45	0xbe927552	-0.28605133
46	0xbe9d7368	-0.3075211
47	0xbe39b0ab	-0.181338
48	0xbe950c91	-0.2911115
49	0x3e966d4e	0.29380268
50	0x3e9967e6	0.2996208
51	0x3d45e00c	0.04830937
52	0x3dedf6f1	0.11619366
53	0xbed03b1a	-0.4067009
54	0x3e7bd0fc	0.2459144
55	0x3eb08446	0.34475917
56	0xbe50527f	-0.2034397
57	0xbe9a759b	-0.3016785
58	0x3e8d640f	0.276154
59	0x3bdc2012	0.0067176903
60	0xbdb5db84	-0.0887976
61	0xbf280b53	-0.6564228
62	0xbd66a60d	-0.056310702
63	0xbe809f57	-0.25121567
64	0xbdf7da22	-0.121021524
65	0xbe78591b	-0.24252741
66	0xbb54a139	-0.003244473
67	0x3eb5d5d1	0.3551469
68	0xbec49f39	-0.38402727
69	0xbe883cf3	-0.26609
70	0xbdcd50a4	-0.100251466
71	0xbe1c5e69	-0.1527039
72	0xbe3a0dfc	-0.18169397
73	0x3da1eacf	0.07906114
74	0xbe3bc6ec	-0.18337601
75	0x3e82f8f3	0.25580558
76	0x3e8e78b9	0.2782648
77	0x3e1fcf8b	0.15606515
78	0xbea8536e	-0.32876152
79	0xbe6217ea	-0.22079435
80	0xbdf68de0	-0.12038779
81	0xbeb415bc	-0.35172832
82	0xbe0e3083	-0.13885693
83	0xbef5da92	-0.48018318
84	0x3cdb8cc8	0.026800528
85	0xbe63b5b9	-0.2223729
86	0xbe6c3418	-0.23066747
87	0xbe160bcd	-0.14652939
88	0xbacbb988	-0.0015542964
89	0x3e850c9b	0.2598618
90	0x3d6b50cd	0.057450105
91	0x3e7453bb	0.23860066
92	0xbe59cffc	-0.21270746
93	0xbe157740	-0.14596272
94	0x3e0f2be7	0.13981591
95	0xbd51e289	-0.05124143
96	0x3dce8d53	0.10085549
97	0xbe880e5b	-0.26573452
98	0x3e1243db	0.14283697
99	0xbd8097c8	-0.0627895
100	0x3fb9ecba	1.4525368
101	0xbfa59835	-1.2937075
102	0x3e24c5be	0.16091058
103	0xbba966ab	-0.0051697097
104	0x3eb77e48	0.35838532
105	0xbf8603e6	-1.046994
106	0x3e386fe5	0.18011434
107	0xbedcb571	-0.4310718
108	0x3ec3173c	0.38103664
109	0xbf270cbb	-0.652538
110	0x3eeb9693	0.46013317
111	0xbf7cae58	-0.9870353
112	0x3fa46e6c	1.2846198
113	0x3fc3ab90	1.5286732
114	0xbe41c57a	-0.18922988
115	0x3ef1cad1	0.4722505
116	0xbf2130af	-0.6296491
117	0x3ee75a38	0.4518602
118	0xbf174f85	-0.5910571
119	0xbeccfe6d	-0.4003786
120	0xc04a6972	-3.1626859
121	0x3ef4eebf	0.478384
122	0x3f5ee2ef	0.87065023
123	0x3e4ae558	0.1981405
124	0xbf50186e	-0.81287277
125	0xbecabb42	-0.3959599
126	0xbf851034	-1.039557
127	0x3f7d704e	0.9899949
128	0x3f545c92	0.8295375
129	0x3e44289a	0.19156113
130	0x3e883088	0.26599526
131	0xbf393899	-0.72351986
132	0xbf9af3a5	-1.2105604
133	0xbdb4872a	-0.08814843
134	0xc0072124	-2.1113977
135	0x3f7c578c	0.98571086
136	0xbecd152b	-0.40055212
137	0x3f73a018	0.9516616
138	0x3f5aea5b	0.8551385
139	0xbe8720e2	-0.26392275
140	0x3ec6e50d	0.38846627
141	0xbf2478f8	-0.64247084
142	0xbf6ce556	-0.9253744
143	0x3f9c95b3	1.2233185
144	0xbf57e5ae	-0.8433484
145	0xbf0638a0	-0.5243015
146	0x402eb025	2.729501
147	0xbeddf3ca	-0.4335006
148	0x3f38165b	0.7190911
149	0xbf765f40	-0.9623909
150	0x3eb796dc	0.35857284
151	0x3fdd4a71	1.7288343
152	0xbe8b5eab	-0.27220663
153	0xbf120b61	-0.5704861
154	0x3eb9c72e	0.36284775
155	0x3faa1ad3	1.3289436
156	0xbfb435c7	-1.4078912
157	0x3f14171d	0.5784777
158	0x3ee2bbe4	0.44283974
159	0x3ebe6b0f	0.37191054
160	0xbeb58ee6	-0.35460585
161	0xbffb214a	-1.9619534
162	0x3fa75c0c	1.3074965
163	0x3fbc8973	1.4729446
164	0xbf12e317	-0.5737776
165	0xbf062992	-0.5240718
166	0x3f97b5c7	1.1852349
167	0x3ebf9f49	0.37426212
168	0xbfbbbb6d	-1.4666573
169	0xbe04ec8a	-0.12980857
170	0xbfc63905	-1.5486151
171	0xbf81aa23	-1.0130047
172	0xbf28fcd1	-0.6601077
173	0xbf907125	-1.1284529
174	0xbedd97ba	-0.4327982
175	0xbf29cc9a	-0.6632782
176	0x3ea42073	0.32056007
177	0x3f312356	0.69194543
178	0x3f280125	0.65626746
179	0xbe9beab9	-0.30452517
180	0xbed83083	-0.42224512
181	0xbf1194f4	-0.5686791
182	0x3f5df950	0.86708546
183	0x40056e7e	2.084869
184	0x3f41ea0f	0.7574777
185	0xbfac6ab0	-1.3470058
186	0xbf08a3aa	-0.5337473
187	0xbfa0ee6d	-1.2572762
188	0xbf4026f7	-0.75059456
189	0xbf395c5c	-0.72406554
190	0xbf09d890	-0.53846073
191	0xbf1408c8	-0.578259
192	0xbf549ceb	-0.8305194
193	0xbe3b0a17	-0.18265568
194	0xbea72169	-0.32642677
195	0x3eb51a9c	0.35371864
196	0x3f1abbdf	0.6044292
197	0xbe85de2f	-0.26146075
198	0x3f1255a5	0.57161933
199	0xbd66ec69	-0.056377802
200	0xbed7f771	-0.4218097
201	0x3ca89266	0.02057762
202	0x3e4759ea	0.19467893
203	0xbd1c7ada	-0.038203098
204	0x3eb08305	0.3447496
205	0xbe5b051f	-0.21388672
206	0xbe1fd16e	-0.15607235
207	0x3e708340	0.23487568
208	0x3e37bd29	0.17943253
209	0xbea6c8ff	-0.32575223
210	0xbf53f1cd	-0.82790834
211	0x3e39ae44	0.18132883
212	0xbf47eb1d	-0.7809313
213	0xbdd0fa2d	-0.10203967
214	0xbe132a10	-0.14371514
215	0x3e20dab6	0.15708432
216	0xbe7fff96	-0.24999842
217	0x3e143de9	0.14476742
218	0xbeb14948	-0.34626222
219	0xbe7b501c	-0.24542278
220	0xbe85bdf2	-0.2612148
221	0x3dec302e	0.11532627
222	0xbe904912	-0.28180748
223	0xbe9d6d11	-0.30747274
224	0xbde89ccb	-0.11358031
225	0xbdfa11b2	-0.12210406
226	0x3da590f4	0.08084288
227	0x3ea58784	0.32329953
228	0x3d992019	0.07476825
229	0x3e86e861	0.26349166
230	0xbd45e402	-0.04831315
231	0xbf070ad3	-0.5275089
232	0xbd391095	-0.04518183
233	0xbc2707c6	-0.010194724
234	0xbead5e39	-0.3386095
235	0x3ebe79d5	0.37202325
236	0x3e5bd9e0	0.21469831
237	0x3d654ae5	0.055979628
238	0xbdf44b99	-0.119284816
239	0xbe51e200	-0.20496368
240	0x3e122384	0.1427136
241	0xbdd88340	-0.10571909
242	0xbd8a4520	-0.06751466
243	0xbe6b4ecb	-0.22979276
244	0xbeb69f8b	-0.35668597
245	0xbe955714	-0.29167998
246	0x3c9def21	0.019279065
247	0xbdd1e707	-0.10249143
248	0xbe816e97	-0.25279686
249	0x3dda6422	0.1066363
250	0x3e3dd833	0.18539505
251	0x3ee9ba29	0.4564984
252	0xbe8c83dd	-0.27444354
253	0x3e698378	0.22804058
254	0xbf201925	-0.6253837
255	0x3edd14f9	0.43180063

layers.4.bias f4 [100]
0	0x3e4921de	0.19641826
1	0x3ec3be35	0.38231054
2	0x3e920152	0.28516632
3	0x3e78e8db	0.24307577
4	0x3e9af2cb	0.3026336
5	0xbe531c1a	-0.20616189
6	0x3d4cf205	0.050035495
7	0xbe5e134c	-0.21687049
8	0x3ddac6c9	0.106824465
9	0x3e00e49e	0.1258721
10	0x3ed1d06f	0.40979335
11	0x3e6db20b	0.23212449
12	0xbe415017	-0.18878208
13	0x3e956c95	0.29184404
14	0xbcb0898c	-0.021549962
15	0x3e63dfbc	0.22253317
16	0xbf1900c7	-0.5976681
17	0x3e8a5ef6	0.27025574
18	0x3e6f4cd6	0.23369154
19	0x3df721ca	0.120669916
20	0x3e9e4e50	0.30919123
21	0xbd5b3965	-0.053521533
22	0x3dd52d48	0.10409027
23	0x3e10a4f2	0.14125422
24	0xbc8e94f0	-0.017405003
25	0xbe609967	-0.21933518
26	0x3dd0a8cc	0.101884454
27	0xbe48a09d	-0.19592519
28	0xbe9c11b6	-0.30482262
29	0xbe4c154d	-0.1993
30	0x3e38f108	0.18060696
31	0xbd6b956a	-0.05751554
32	0x3c445c76	0.011984935
33	0x3e640fbf	0.22271632
34	0xbe5ab013	-0.2135623
35	0xbdf74ffa	-0.12075801
36	0x3e691082	0.22760203
37	0xbe53609e	-0.20642325
38	0x3d73644c	0.059421822
39	0x3e973436	0.2953202
40	0xbd00789b	-0.03136502
41	0x3e3f9213	0.18708067
42	0xbe1e7e4f	-0.1547787
43	0xbdddf628	-0.10837966
44	0xbdcfaa47	-0.101399
45	0xbe570bc0	-0.21000576
46	0xbe3211f0	-0.17389655
47	0x3e190819	0.14944495
48	0x3e9cadc6	0.3060133
49	0x3e627715	0.22115739
50	0xbe458f28	-0.19292891
51	0x3e339d8c	0.17540568
52	0xbe701bf5	-0.23448165
53	0xbea08118	-0.3134849
54	0x3e816081	0.2526894
55	0xbe86085c	-0.26178253
56	0x3e1a5dd5	0.15074857
57	0xbed5d04b	-0.41760477
58	0xbe692f4a	-0.22771946
59	0x3da1a474	0.07892695
60	0x3e12818e	0.14307234
61	0x3e007b41	0.12547018
62	0xbe94b859	-0.29046896
63	0xbe4f3430	-0.20234752
64	0x3ea3899c	0.31940925
65	0xbe8bdcb0	-0.2731681
66	0xbe12e645	-0.14345653
67	0xbe068bec	-0.13139313
68	0xbe8cffe0	-0.27538967
69	0x3eb451d9	0.35218695
70	0xbdec38ef	-0.11534297
71	0x3e649a1c	0.22324413
72	0x3e354a27	0.17704068
73	0x3e74b633	0.23897628
74	0xbe246141	-0.16052724
75	0xbca20e8d	-0.019782329
76	0xbeb43bb3	-0.35201797
77	0x3e7cd743	0.24691491
78	0xbe475704	-0.19466788
79	0xbe279767	-0.16366349
80	0xbca92761	-0.02064866
81	0xbe80455e	-0.25052923
82	0xbe03dece	-0.12877962
83	0xbe9866ae	-0.29765838
84	0x3e1c4814	0.1526187
85	0x3e44f337	0.19233404
86	0x3e0746c9	0.13210596
87	0x3e99df6e	0.30053276
88	0x3d9802ca	0.07422407
89	0xbdf37cd7	-0.11889046
90	0xbe34e025	-0.1766363
91	0x3e8d0bc5	0.27548042
92	0x3e1f2441	0.15541174
93	0xbe3f4311	-0.18677928
94	0xbe54ceb9	-0.20781983
95	0x3e900200	0.28126526
96	0xbe651acd	-0.22373505
97	0xbe3a6448	-0.18202317
98	0x3e7dc178	0.24780834
99	0x3e17f2dc	0.14838737

layers.6.weight f4 [1, 100]
0	0xbe05c94a	-0.13065067
1	0xbf0d3305	-0.55155975
2	0xbd57d0b6	-0.052689277
3	0xbddc0f37	-0.107450895
4	0xbe060292	-0.13086918
5	0x3e9daafd	0.30794516
6	0xbeae671c	-0.3406304
7	0x3e8511d6	0.2599017
8	0xbe9c580d	-0.30535927
9	0xbdb471f1	-0.08810795
10	0xbf50b5d0	-0.81527424
11	0xbd37c237	-0.044862952
12	0x3d9f0cbf	0.07766103
13	0xbe0bf576	-0.13667855
14	0x39be8068	0.00036335294
15	0xbdd23afb	-0.10265156
16	0x3e3e5ea6	0.18590793
17	0xbee9ecd0	-0.45688486
18	0xbe8a2734	-0.26983035
19	0xbee870ac	-0.45398462
20	0xbdc1b406	-0.09458165
21	0x390242e6	0.00012422688
22	0xbe897823	-0.2684947
23	0xbde5d9b3	-0.112231635
24	0x3efeacaa	0.49741107
25	0x3ed4e2ca	0.41579276
26	0xbe10af5f	-0.14129399
27	0x3dadab30	0.08479917
28	0x3e5d02d4	0.2158311
29	0x3da11ac8	0.07866436
30	0xbe06609c	-0.13122791
31	0x3f4bf0c6	0.79664266
32	0xbf2daa20	-0.67837715
33	0xbf4ab54a	-0.79182875
34	0x3f093ae7	0.536055
35	0x3e4b0d56	0.19829306
36	0xbe82495e	-0.254466
37	0x3ece3249	0.4027274
38	0xbeb9d8c2	-0.36298186
39	0xbe6b9e5f	-0.23009633
40	0x3e238a72	0.15970781
41	0xbd929608	-0.071575224
42	0x3eb42a18	0.35188365
43	0x3d87ab7f	0.06624507
44	0x3e1769a5	0.14786394
45	0x3e6c76c5	0.23092182
46	0x3dda587e	0.1066141
47	0xbdd9c667	-0.10633545
48	0xbdac92f5	-0.08426467
49	0xbd85ce0b	-0.0653344
50	0x3dba4fc0	0.09097242
51	0xbdc22089	-0.09478862
52	0x3e0a9a0a	0.13535324
53	0x3de8885a	0.11354132
54	0xbd6ea0f5	-0.05825897
55	0x3de212fd	0.11038778
56	0xbe467858	-0.19381845
57	0x3f26f66a	0.6521975
58	0x3da12b26	0.07869558
59	0xbe966455	-0.29373422
60	0xbe7bc5fe	-0.24587247
61	0xbd5a2a8b	-0.05326323
62	0x3e2c83a4	0.16847092
63	0x3e146e5a	0.14495221
64	0xbd96276c	-0.07331738
65	0x3e6806ac	0.22658795
66	0x3ea4f559	0.32218435
67	0x3e26e13d	0.16296859
68	0x3e00f7d0	0.12594533
69	0xbe184685	-0.14870651
70	0x3dbe9501	0.09305764
71	0xbd9c544f	-0.07633268
72	0xbdf5ede7	-0.12008267
73	0xbe75813e	-0.23975083
74	0x3ddf0a8b	0.10890683
75	0xb966e80c	-0.00022020953
76	0x3efca7b4	0.49346697
77	0xbdf01602	-0.11722948
78	0x3d8f191c	0.06987211
79	0x3d813256	0.06308429
80	0x3a2fa58a	0.00067003875
81	0x3d99a46c	0.07502064
82	0x3e8133f7	0.2523496
83	0x3da8c286	0.082402274
84	0xbd5f8e94	-0.054579332
85	0xbdcb27de	-0.099197134
86	0xbd881025	-0.06643704
87	0xbede68dc	-0.43439376
88	0xbea026d2	-0.31279618
89	0x3e07077c	0.13186449
90	0x3dedf2fc	0.11618611
91	0xbe0eacda	-0.13933125
92	0xbddba3ca	-0.107246
93	0x3e0f4299	0.13990249
94	0x3ea2e55d	0.31815615
95	0xbe6ebd21	-0.23314334
96	0x3e2010a0	0.15631342
97	0x3d97bc1d	0.07408927
98	0xbe4c4b52	-0.19950607
99	0xbda08609	-0.07838065
