hddm/torch_models/4a420fec161911eca5d63cecef057012_mic2_weibull_no_bias_torch_state_dict.pt (torch, 129223 bytes, 9 tensors)

layers.0.weight f4 [100, 10]
00000000: 9567 5b3e 69fb 0cbc 5c01 01bf b3ba f83d
00000010: ee98 26be 4c74 163d becf c33c d14a 4b3c
00000020: 562d 46bd 2766 773d 3a05 873c 99b5 f5bb
00000030: 913b 1fbc 6203 163f d0fa bf3c d76d 9a3e
00000040: 7f6f 77bd b9dd 083d 116a 83be d7e8 b33d
00000050: 3510 71bc c153 e5bb f885 c7b8 4538 5ebf
00000060: e9ea 943c 20be 813d a413 383e af5d 9c3e
00000070: c9a4 33be 95ee 2a3c 8892 2a3f eda0 88bb
00000080: db16 4fbb 13d6 cbbd 40df f9be 07d8 4a3c
00000090: 6768 89bc 099a 90bc 593c 5bbc 8330 f03d
000000a0: a2be 2f3d a82d 54ba 2be9 cbbb b3e8 b63c
000000b0: 130b 18bb 3ffe 0fbf 8541 143e 138f 46bf
000000c0: e7cd 183f 8219 cdbd 26ef dfba c113 963a
000000d0: f0c6 1bba 2d91 c1bd 00b6 623c 04dd 9f3f
000000e0: 032c 9a3d dc9b ac3f 3bcd 9fbf 5bd4 f63b
000000f0: a2f4 6bbd c0cd 3abb 863f 19bf 3be2 1b3e
00000100: 72a8 da3d 098e 533d 56a3 183c 6c2e cc3b
00000110: 64b3 4bbd 13ad af3c 7c55 ddbb f778 04bb
00000120: 7f98 4a3b 7eae ffbe e5a4 513c ecb5 ce3d
00000130: 80cd cc3f cc42 9d3d 4381 f2bd 8da5 cb3b
00000140: 5384 e33d b4f0 2e3c 0034 5b3c 700d b1be
00000150: c548 6fbc 751e 833c 681f 6b3c 9351 73bd
00000160: c339 f3bc fdba 623d cb26 003d 4eae 87bc
00000170: c595 0ebc 57fb 75be b492 d33c c29a edbe
00000180: d223 43bc d484 e7bb c777 ee3e 5712 d33e
00000190: 709a 733c ddc7 61bc 416f 14be 2a94 673e
000001a0: caaf 14bf 8d0c 7dbd 62b8 9e3c 71b5 ae3c
000001b0: ceb1 8d3d 31b2 0d3f a902 d03e f1ae d7be
000001c0: d386 8d3b 6a25 ce3d db08 e63d a1c8 0b3e
000001d0: 68c2 943c b7cd 8b3b 3c18 19be ca64 803f
000001e0: 9775 5e3d fefb 8cbc 5ec2 83bc 0553 15be
000001f0: 4a50 10bc 681a a5bd 1f4f 1e3d 76f4 4bbd
00000200: 9161 5c3c 3203 41be ee9f aebe 5b39 743b
00000210: bb9e ad3e 714c ef3e 5efc f43d 7712 933d
00000220: 84c4 b53c efbc 033c 38d9 8fbd f42d 04be
00000230: d216 293b 46a1 a6ba d2d3 143b 2d4c 983b
00000240: 071c 44b9 ce62 12bb a772 303a a879 02bb
00000250: 581f f2ba de92 06ba 4731 f03b f954 993b
00000260: 8bc2 913c a633 713e 627f ad3c dca1 97be
00000270: eb36 213e 3ee5 09bf 4955 a33e 8312 5d3b
00000280: da53 3c3a 7890 a43b c819 29ba 7386 fb3e
00000290: d4e7 e4bc 795d 5c3f 104a 80bc b059 4c3c
000002a0: 2fa4 25bf 2b31 1f3c 8d5c 653b 9f85 2e3b
000002b0: 31c6 b0ba 3304 4cbb f951 7d3c 83d5 3dbb
000002c0: 4ded 99ba 881d 6339 3c13 bcba 0fa3 ab39
000002d0: 643e 70bb 38cc 043b 2205 233a e8c7 c33e
000002e0: f4cf 393c 8032 62bf e4e0 1b3e b5a3 05c0
000002f0: 00a5 683f e35d 7a3b cb54 07bc 7fea 153b
00000300: f7a1 903b eea1 0abe 20a8 6bbc 114c 2abf
00000310: bd2c 183d b83b 2f3c dbce 8d3f 6165 3e3b
00000320: 6a12 ba3e 1190 17be 86ab a9bb 0e72 61be
00000330: f8e3 6b3e f3e7 8a3c 0ea2 883c 4608 493d
00000340: 0579 42bc b8b3 a53f c827 ac3b 5e35 be3a
00000350: ceb9 4fb9 3b18 acbd 3e71 873c 0829 d9bf
00000360: af83 fcbd 6df4 fb3c 5e21 d93f f33b fbba
00000370: 5670 4f3e 93fb b139 ae41 8b3c 4d80 db3d
00000380: 9b88 9f3d 4758 1ebf 917d 923b 8e09 8b3a
00000390: 5bd1 193f 43aa b0be ff0d 443d 519e e1be
000003a0: 67ad 3bbb 05fe 43be b34a f93c 1a55 aebb
000003b0: a2aa 75bc bfbc 9abc e31f 08bc 49c9 873f
000003c0: 1ebe 143e e1fa a93e da74 94ba b4da 9fbd
000003d0: c6a0 0abe fe02 dd3e b297 66bf 24bf 1abc
000003e0: 97d8 f9be d96b 77c0 d4d8 ec3c 8a06 5e3b
000003f0: 2428 9abc f90b de3e 8aab b53e 81f5 9e3e
0.21426232 -0.008604863 -0.503927 0.12144985 -0.16269276 0.036732003 0.02390277 0.012407974
-0.04838308 0.060400154 0.016481984 -0.007498455 -0.009718792 0.5859891 0.023435026 0.30161926
-0.060409065 0.033414576 -0.2566686 0.08784645 -0.014713337 -0.0069985096 -9.514013e-05 -0.8680461
0.01817842 0.063350916 0.17976242 0.30540225 -0.1754333 0.010432859 0.6662984 -0.0041695745
-0.0031599316 -0.09952941 -0.4880314 0.0123806065 -0.016773416 -0.017651575 -0.013381087 0.11728003
0.04290641 -0.00080939615 -0.006222864 0.022327757 -0.002319996 -0.56247324 0.14478119 -0.77562064
0.5968918 -0.10014631 -0.0017084822 0.0011449979 -0.0005942425 -0.09451518 0.0138373375 1.2489324
0.07527926 1.3485065 -1.2484506 0.007532639 -0.057606347 -0.0028503984 -0.59862554 0.15223019
0.1067666 0.051649127 0.009316286 0.00623112 -0.049731627 0.021444833 -0.0067545753 -0.0020213702
0.0030913649 -0.49937814 0.012795662 0.100932926 1.6000214 0.07678756 -0.11841061 0.0062148036
0.11109223 0.010677505 0.013379097 -0.34580564 -0.014604752 0.016005734 0.01435075 -0.059403967
-0.029690629 0.055354107 0.031286996 -0.016562607 -0.0087027 -0.2402166 0.02582679 -0.46407133
-0.011910396 -0.007065395 0.46575758 0.4122493 0.014868364 -0.013780561 -0.14495565 0.22615114
-0.5808073 -0.061779547 0.01937503 0.021326752 0.06918679 0.55350024 0.4062703 -0.42125657
0.004319051 0.1006573 0.11232158 0.13650753 0.018159106 0.0042664665 -0.14950651 1.0030758
0.05431136 -0.017210003 -0.016083892 -0.1458245 -0.008808205 -0.08061677 0.038649675 -0.049793683
0.013450996 -0.18848875 -0.34106392 0.0037265632 0.33910164 0.46738008 0.11962198 0.07181256
0.022188433 0.008040651 -0.07023853 -0.12908155 0.0025800955 -0.0012712858 0.0022709263 0.0046477527
-0.00018702458 -0.0022336724 0.0006730952 -0.0019908939 -0.0018472476 -0.0005133579 0.007330093 0.004679319
0.01779296 0.23554859 0.021178905 -0.29615676 0.15743606 -0.5386542 0.31901005 0.0033732958
0.0007184126 0.005022105 -0.000645068 0.49126014 -0.027942576 0.8608013 -0.015660316 0.012472555
-0.6470365 0.009716312 0.0034997792 0.0026629937 -0.00134868 -0.0031130433 0.015461438 -0.0028966374
-0.0011743695 0.00021659408 -0.0014348994 0.0003273715 -0.0036658281 0.0020263325 0.00062187214 0.38238454
0.011341084 -0.88358307 0.15222508 -2.088117 0.9087677 0.0038202934 -0.008259962 0.0022875366
0.004413839 -0.13538334 -0.014383346 -0.6652232 0.03715204 0.01069539 1.1078752 0.0029052126
0.36342174 -0.1480105 -0.005177918 -0.22016165 0.23036182 0.016956305 0.016678836 0.049080156
-0.011869674 1.2945471 0.0052537657 0.0014511754 -0.00019810276 -0.08403059 0.01653349 -1.6965647
-0.12329804 0.0307562 1.6963308 -0.0019167647 0.20257697 0.00033947508 0.016999092 0.10717831
0.07789727 -0.6185345 0.004470535 0.0010607706 0.60085076 -0.345049 0.04786491 -0.44066098
-0.0028637291 -0.1913987 0.030431127 -0.0053202035 -0.014994295 -0.01888883 -0.008308384 1.0608302
0.14525649 0.33199218 -0.0011326328 -0.07805386 -0.13537893 0.43166345 -0.9007522 -0.009444986
-0.48798057 -3.8659575 0.028911985 0.003387841 -0.018817969 0.4336851 0.35482436 0.3104668

layers.0.bias f4 [100]
00000000: ff7b 8c3e 250f f5be 7950 c7be 09b6 0b3e
00000010: 9804 fcbe 0ebb 68be 4d89 f8be 6d19 2abf
00000020: 46a8 3e3f d260 acbe 43dc c9be 0a84 7a3e
00000030: 06e4 153f d9c1 573c 28a7 79ba e7e2 f4be
00000040: b297 10be 65e9 dcbb b7cd 2fbf 61ea 88bd
00000050: fcda 28bf 07a7 353e 7c23 bd3e 9d50 13bf
00000060: bb06 e0bf b19a 1d3d ac60 08bf ee49 be3e
00000070: d7d6 6f3e 493e 213f 11ae 423f 1044 533d
00000080: b3b2 09bf 19e2 3c3f 89f1 223e cc8f e7be
00000090: 20bf 89be d615 08be 60de 9e3c 6e67 663e
000000a0: 2b1d 63be 2a2e b2be 8593 06be 1ffc ee3e
000000b0: 1be7 c03e f151 373f b228 f9bb 8411 1d3f
000000c0: ad71 54bf 9fd6 63bf 2333 443f e0d8 473f
000000d0: 7344 863f 2ec0 903e 9e7f f2be 65fd debd
000000e0: e41a 9a3e efda 1abf 0d42 9ebe 1e6c e53d
000000f0: 14c2 1d3f 46a4 8e3c 37ea a33e e181 21be
00000100: 28f1 873e 71cb 39be 23b8 b1be 0a68 e7bb
00000110: 2167 3f3d 035e 70be f93f 95bf e19e ef3e
00000120: a030 01bf 503a 843e eee2 56bc 0018 92bc
00000130: c692 50be bd36 c4bf 04fa 2fbf cfba d83e
00000140: 24ac 3bbf 8347 73be d111 db3e 6ad1 42be
00000150: fe2e 4f3f 1038 643e d1f4 9ebe 5f6e 0cbf
00000160: 277c 963e 9d65 8a3e 330b 073f 3c19 3540
00000170: 890b b1be de68 3f3f 80d4 03bf 4a52 b43f
00000180: b617 243e 8d21 16bf 2f3b c7be f58d 183f
0.27438352 -0.47863117 -0.38928583 0.1364366 -0.49222255 -0.22727606 -0.48542252 -0.66445047
0.74475515 -0.33667618 -0.3942586 0.24464431 0.5855106 0.0131687755 -0.00095235044 -0.47829363
-0.14120367 -0.00674169 -0.6867327 -0.06685329 -0.65959144 0.17739497 0.36941135 -0.5754488
-1.7502054 0.038477603 -0.5327251 0.3716578 0.23421799 0.62985665 0.76046854 0.05157858
-0.537883 0.737825 0.15912451 -0.45226896 -0.2690363 -0.1328958 0.019393146 0.22500393
-0.22179095 -0.34800845 -0.13142212 0.46676728 0.3767632 0.7160941 -0.007603728 0.6135485
-0.82985955 -0.8899936 0.7664053 0.780653 1.0489639 0.2827162 -0.4736299 -0.10888175
0.3009864 -0.60490316 -0.30909768 0.11202262 0.61624265 0.017412316 0.3201463 -0.15772201
0.26551175 -0.18144013 -0.34710798 -0.007061963 0.04672921 -0.23473363 -1.1660148 0.46800902
-0.5046482 0.2582574 -0.013115628 -0.01783371 -0.2036849 -1.5329205 -0.6874087 0.42330024
-0.7330954 -0.23757748 0.4278703 -0.19025198 0.8093108 0.22287011 -0.31046155 -0.5485591
0.29391596 0.2703065 0.52751464 2.8296652 -0.34579113 0.7476939 -0.51496124 1.4087613
0.1602467 -0.58644944 -0.3891234 0.5959161

layers.2.weight f4 [100, 100]
00000000: f562 f0bd db03 e8be d95f b8bc cf04 a63e
00000010: 8241 4f3e a5e5 523c 7bf5 3e3e c546 34be
00000020: 18af 51bd 0d38 3c3e 32ee 8abd 5355 30bd
00000030: 486b 893d 537a f3bc 5318 25ba af15 fdbc
00000040: cd0f 9fbe b547 93bb 18b3 1a3e 5edb 863d
00000050: 6d60 91bc 7c73 823e 2ce4 8e3d edd0 aa3e
00000060: 79e6 743b 44e8 30bd df33 183c 7894 a93b
00000070: 8d61 e8bd 5270 bebe 8aa3 2ebe fedc 103d
00000080: 4be2 153e 3315 a43d 659e a73d cd06 073f
00000090: 4090 203d 5e0d 63bd 4dde cbbd ce67 13be
000000a0: ac6c 62be d22f ed3d 4d5d 6a3e 8914 063e
000000b0: 0b9e 6d3d dd11 59bc ef70 1b3e a862 bf3a
000000c0: 269e 823e 9922 313e df52 8b3d 55df 173e
000000d0: 0d8d 6bbb b782 053e b3b2 5e3d 6e5c 71be
000000e0: c376 613e 7e39 ccbd 1445 0c3e 5645 9f3e
000000f0: f9ef a23d 0be8 abbd 56f3 8bbd 79f0 95be
00000100: a761 7a3d 8268 4d3e ab0e 453e 1230 27bc
00000110: 0f38 edbd 5174 933c 4d68 923c 9b35 80bd
00000120: 48b5 a23d ec53 3dbe e523 05be d82d 43bc
00000130: 748c 35be 275e 113e e3f5 86be 5dd8 f4bd
00000140: 6b24 383e 0e10 65bc cea7 223f 1b2b 9c3c
00000150: 59af 123e fe88 44be 7f60 9d3e 0132 943e
00000160: f9c5 28be 1b82 8b3e 673a 07be 7a71 babd
00000170: 78c4 b13e c1ed 1dbe ed78 96bd 1caa 8dbe
00000180: 7a80 90bc 7207 5abd 2988 9bbd 67a1 9abe
00000190: ab09 913c 8c77 3bbc 9109 ba3d f135 d13c
000001a0: c02f e03d 125f 433f cafd 813c d3e1 913e
000001b0: a01b 153e 388e 8bbd e667 fcbc 9607 573b
000001c0: d3d9 7d3d 81e2 86bd 27b7 f0bb ae8d 163e
000001d0: cc2e 39bd 860e 0d3a 93d7 81bf 2891 babd
000001e0: c0d9 b63c add6 2cbf 2ccc 76bd 789b b93c
000001f0: 6f23 bb3e 2894 86bd 7432 39bc 2824 d8bd
00000200: cda0 153e 2000 a2bc 4330 303d 690a a5bc
00000210: 0229 0c3e 6df4 2c3e ece2 1cbd c350 f1bd
00000220: 17a6 8abd 779b 323c 10f9 a5bd 1def 273e
00000230: a246 5f3e 2a61 c3bd a922 3cbc 7380 13be
00000240: 4dc4 3b3e f850 edbc abcb 1dbe 29c7 ccba
00000250: 05dd 4d3d ff57 f93d 168e ab3d be0f 2f3c
00000260: 8ad0 31be 251e 74bd 12e8 483e bea1 c03e
00000270: dc22 84be 1f06 c13c 98aa 1cbf 06bb 58be
00000280: 87b2 863d d7a8 96bd 78ca 55bd c114 a83e
00000290: 9af4 a43b 1703 06bd 2db6 3bbd 5159 6fba
000002a0: 6597 043c 44c9 e23d 3037 983d e3a2 18be
000002b0: 0657 1abd 7077 28be 7380 b13d 88e1 dd3d
000002c0: c857 363e 9d38 7bbb 0f22 cb3e 453f 36be
000002d0: 7076 c23b 5b52 953d 9768 c8bd 1924 a53d
000002e0: a056 37bd 5046 ccbd 1bbc 46be ea3b 10bd
000002f0: 4058 1e3d 6335 363d aa95 bf3c 158c 59be
00000300: 4df3 213d 73d7 3fbe 7464 ed3e 3742 e53c
00000310: 7e9d a4bc 9e6d e2bd dd88 88bd 9679 c33b
00000320: 71fd 663d b82a 31be 0a5d 28be e01c 01be
00000330: ee28 7a3d 236f 3f3b 7705 233d 8b7f b03d
00000340: 9b9e fbbd f8a7 4a3f 2d1d fc3d 0de2 e33d
00000350: f1ae 1dbe 7ca8 513d 49cf 0fbb e79c 013e
00000360: d48a a3bf 8db1 633c 744c 43bd 37cf 363f
00000370: 7861 c23d 0b84 8840 91e4 283f 50d1 b0bd
00000380: f99b 8cbe 9b51 3ebd f828 f2bc 6ff1 2e3f
00000390: e0ca e8be 85d6 043d 862a 7f3d 0de4 8bbd
000003a0: e23f fc3d e157 28bf 899d 20be 62cc 39be
000003b0: 3936 243a 8e08 2dbe 527e 91be eca6 41bf
000003c0: 942a fc3d 5d93 0740 50c2 1740 1515 38bf
000003d0: 0eb7 b2be 8323 863d a27b 12be fd0c 1bbe
000003e0: 5143 86bd 92cb 133e 23db 7fbe 093b 863d
000003f0: 3326 d83c 0188 023e 07d1 a13d bda6 84c0
-0.117376246 -0.4531544 -0.022506641 0.32425544 0.20239833 0.012872134 0.18648331 -0.17605121
-0.051192373 0.18380757 -0.067837134 -0.04305012 0.067099154 -0.029721415 -0.0006297875 -0.030894129
-0.31066743 -0.004494632 0.15107381 0.0658481 -0.017746175 0.25478733 0.06977114 0.33362523
0.0037368818 -0.043190256 0.009289711 0.0051751696 -0.11346731 -0.3719507 -0.17054573 0.035367005
0.14637105 0.08011856 0.08184508 0.5274475 0.039200068 -0.05543267 -0.0995451 -0.14395067
-0.22111768 0.115813866 0.22887154 0.13093771 0.05801205 -0.013248888 0.151798 0.0014601545
0.25511283 0.17298354 0.06802916 0.14831288 -0.0035942227 0.13038145 0.05436964 -0.23570415
0.2201796 -0.09971903 0.13698226 0.31107587 0.079559274 -0.08393868 -0.06833522 -0.2928503
0.061128285 0.20059398 0.19243877 -0.010204332 -0.11582958 0.0179998 0.017872 -0.062602244
0.07944733 -0.18489045 -0.13001974 -0.0119127855 -0.1772936 0.14196073 -0.26359472 -0.119553305
0.17982642 -0.0139808785 0.635373 0.019063523 0.14324702 -0.19192883 0.30737683 0.289444
-0.1648177 0.272477 -0.13205872 -0.09103675 0.34720206 -0.15422727 -0.073472835 -0.27668846
-0.017639387 -0.053229757 -0.0759433 -0.30201265 0.017704805 -0.011442076 0.09083856 0.025538417
0.109466076 0.7631694 0.015868086 0.28492603 0.1456132 -0.068142354 -0.030811261 0.0032810918
0.06197531 -0.06586171 -0.007346052 0.14702484 -0.045210645 0.00053808873 -1.0143913 -0.091097176
0.022320628 -0.6751507 -0.060253307 0.022657141 0.3655047 -0.06571227 -0.011303533 -0.10553771
0.14612122 -0.01977545 0.043014776 -0.020146566 0.13687518 0.16890116 -0.038302347 -0.11782982
-0.067699604 0.0109013235 -0.081041455 0.16399808 0.21804288 -0.09540017 -0.011482873 -0.14404468
0.18336602 -0.028969273 -0.15409724 -0.0015623319 0.05025961 0.12174987 0.0837671 0.010684906
-0.17364708 -0.05959906 0.19619778 0.376234 -0.25807846 0.02356249 -0.61197805 -0.21165094
0.0657702 -0.073564224 -0.052195042 0.32828334 0.0050340416 -0.03271779 -0.045828033 -0.00091304356
0.008092736 0.110735446 0.07432401 -0.14905886 -0.03768065 -0.16451812 0.08667078 0.10834032
0.17806923 -0.0038333305 0.39674422 -0.17797573 0.005934529 0.07291099 -0.09785574 0.08063526
-0.044760346 -0.099743485 -0.19407694 -0.03521339 0.03865838 0.044484507 0.023386795 -0.21244843
0.03953867 -0.18734531 0.46365702 0.027985675 -0.02009463 -0.11056064 -0.066667296 0.005965422
0.056394044 -0.17301452 -0.16441742 -0.12608671 0.06107419 0.002921053 0.039800134 0.08618077
-0.12286111 0.7916255 0.12310252 0.111271 -0.15398766 0.05118607 -0.002194362 0.1265751
-1.2776742 0.013897312 -0.047680333 0.71409935 0.09491247 4.2661185 0.65973765 -0.08633673
-0.27462748 -0.046464544 -0.029560551 0.6833715 -0.4546728 0.032431144 0.062296413 -0.068306066
0.12316872 -0.6575909 -0.15685095 -0.18144372 0.00062641833 -0.16897795 -0.28416687 -0.7564533
0.12312809 2.1183693 2.371235 -0.7190717 -0.34905285 0.06549742 -0.14304975 -0.15141673
-0.06555808 0.14433125 -0.24985938 0.06554229 0.026385402 0.12747194 0.07901197 -4.145354

layers.2.bias f4 [100]
00000000: 161b d2bc 09e5 a9be e4f3 853e ee92 533e
00000010: 91f1 573c 6152 603e 35b7 9dbe ac78 c8bd
00000020: 6b85 a8be 49aa bc3d 5186 a03d 2c47 e13b
00000030: 218f 8cbd e0f6 0d3e 7888 783d d63b ea3c
00000040: 5886 98be bc74 783d 453f 2abe b3d8 9fbd
00000050: 1b65 d53d 090f df3e 2c8e b33d 7cf1 213e
00000060: b213 bcbe 6e02 82be fa1f 263e e8db 90bd
00000070: 8073 523d b9b5 90be a773 7ebe 9ed9 4bbe
00000080: 4101 f83e db83 80be ae9e 393f 7e5b 74bd
00000090: 8be2 7fbd b262 9bbe 5eff 27bd d8c0 263d
000000a0: 6adc ebbe 08f5 1fbe 0687 12be f4e7 a1bd
000000b0: 7299 8cbd b97d a93d 0576 4cbe 2c2b 223e
000000c0: 7fe7 78bd 612f fb3c db39 533e 420a 40be
000000d0: 9c01 243e 5a30 9c3d 668a 9abe de72 1fbd
000000e0: cfd5 97bd 6c06 c83d c12d 46be 2f22 f03e
000000f0: 829d bf3d 6de6 2ebe d940 cc3e 3b7d e93d
00000100: a7bb 99be af74 a1bd 3837 bdbd 4f66 c63d
00000110: e134 b53d 8022 83be fddc 3d3e cdf2 9a3d
00000120: d940 633d 4a93 bf3e 1439 aabd 5d29 8ebd
00000130: 117c 043f efc7 253e 2c1a f93d db17 843d
00000140: 92f3 60be 6aed ac3e 3510 57be 13c2 3d3e
00000150: de48 c73d 6038 14be 57c4 1dbd 0463 f93d
00000160: 25c7 21bd 7e40 963d 6a35 7c3d e1bf 74be
00000170: 606d 733d 0a34 1e3e 77d3 5bbd 8979 4dbe
00000180: fbe7 a0be 6af0 0f3e 44b5 6c3e 3a23 353d
-0.025647681 -0.33182552 0.26162636 0.20661518 0.0131801525 0.21906425 -0.30803838 -0.09788641
-0.3291429 0.09212167 0.07838119 0.0068749394 -0.06863237 0.13863707 0.06067702 0.028592985
-0.29789996 0.0606582 -0.16625698 -0.07805004 0.10419675 0.43566158 0.087673515 0.15814775
-0.36733776 -0.2539248 0.16223136 -0.07073194 0.05137968 -0.28263643 -0.24848805 -0.19907233
0.48438457 -0.25100598 0.7250775 -0.059657566 -0.062471908 -0.30348736 -0.04101502 0.040711254
-0.460666 -0.15620816 -0.1430932 -0.0790557 -0.06865205 0.08275933 -0.19966896 0.15836781
-0.060767647 0.03066224 0.20627539 -0.18753913 0.16016239 0.0762641 -0.30183715 -0.038927905
-0.07413828 0.0976685 -0.19353391 0.4690108 0.09356214 -0.17080088 0.39893225 0.11400839
-0.3002598 -0.07883584 -0.09239048 0.096874826 0.088479765 -0.2561226 0.18541332 0.07565842
0.055481765 0.3741706 -0.08311668 -0.06941483 0.5175181 0.1618955 0.12163195 0.064498626
-0.21967915 0.33774883 -0.21002276 0.18531065 0.09730695 -0.1447463 -0.038517322 0.12177089
-0.03949656 0.0733652 0.061574377 -0.23901321 0.05943048 0.15449539 -0.053668465 -0.20065893
-0.31426987 0.14056554 0.23116022 0.044223048

layers.4.weight f4 [100, 100]
00000000: cb54 bbbb edd1 3d3e e87e 39bc 76f8 ba3d
00000010: 08de 9a3a 34b4 ea3c a542 5c3d 704b 69bd
00000020: 57a6 8ebe 8f8c 3d3e 5b4f 093f f9ee a83e
00000030: 5abb b73e 51eb 1abf 930b c2be 3567 47be
00000040: 5f01 87be 3a51 43bd ec9a 1f3d 8dbf 8e3c
00000050: cb3c c1bd c21e 77bd 6af6 d0bd 4acd 593e
00000060: be4f b13d 2a3a 073d ac47 f33c cb7b a6be
00000070: ee85 24bb a575 8abe 6a75 95bd 304e f1bd
00000080: e5c4 493e 1193 133e 43ee 403e d952 b6be
00000090: f3eb dbbd d2fb d0bd 8ad4 61bd d85a 8f3b
000000a0: 5107 7bbe a15c 6cbd a1cc 583d e617 fb3d
000000b0: d2cd a53e 9756 80bd 8fae 1c3e aa5b 9d3d
000000c0: 5318 94be 02e2 4e3d b110 2f3e 248e e23d
000000d0: 7f1d 0fbd 8344 c9ba 1674 b13e 63d9 c03d
000000e0: 257c b7bb e63f f1bd 2b95 58be 1b60 44be
000000f0: 5553 fcbd ed9a e63d 3b25 223e 7fc5 d6bd
00000100: 4d72 64be 3a9b b13e cccc 973e 82d4 b13c
00000110: dcb0 033e c499 98bc c746 643d 9bf9 f7be
00000120: 13c0 3abe cacb 103e ab08 21be 813d ddbd
00000130: 6cf4 3ebe fabf 843e 3bdd 5cbe 078f 4e3e
00000140: 5284 083f e04f e63c c65f 2fbe c8ea c83e
00000150: 9bf1 913d 4f74 943c 2fe9 063d 9ccd 083e
00000160: fe81 18bf 2392 ab3d a4c0 103e 594e e33e
00000170: 1bf7 26be d6e5 36be 9ad3 28bd 31d2 2dbc
00000180: 661a 17be 559b 67be f595 e73d 73a8 503d
00000190: cb69 d8bd 61ce ef3d 2f28 11bd 521a a73b
000001a0: 6f31 3dbf d81f c33d 5a86 72bc 0580 b33d
000001b0: b1d2 333f a86b 043e 4f44 773e 4903 91be
000001c0: d6d5 8bbc 3bc8 10bf e479 353e 3ab8 b03d
000001d0: 882c d4bd d199 3c3e df29 3c3e 34bf 1bbe
000001e0: 2b7d febd cd95 6abe 6bcf ff3e ad69 e4bc
000001f0: 4974 e43d 4612 e33d c938 fbbc 8355 163d
00000200: e83b 98bc 163a 68bd 04f3 f4bd f41d 9a3d
00000210: 06d7 77bd fc43 843e e694 16be 5589 163e
00000220: 7acb 6d3e 63fd 27be 63e0 a63d ee54 223e
00000230: 41ce 23bd 2128 0f3e e436 953e 6839 0fbc
00000240: 6f9c 81bc 1be5 5c3d 863b be3d 4274 a9bd
00000250: c1c3 a13e 5940 623e dc06 123e 5c55 c73b
00000260: f88c 05be 2b6e 9abd f31f 4c3e 2bd6 1a3e
00000270: 6bc1 a4be 3021 60bc bf48 a1bc 0682 cdbe
00000280: aa61 0abe 531d ef3e 0c91 3a3e 9453 3abe
00000290: b08b c63c 5339 25be 0d1f 39bd 567b 27be
000002a0: 2250 4abd ffe0 613d 5fe0 8e3d 38aa 51be
000002b0: f051 893e a2bf acbd 6836 1a3d 3648 863e
000002c0: e64d 213d 0796 a6bd 4fec a63e 189c 043e
000002d0: 0fb8 9abd 736f 19be ea40 0c3c d62f 3c3e
000002e0: a7ce 283d 3111 343b cbbe c8bd 633d 253e
000002f0: 281a 41bf 6f92 113d ce63 c73e 6bfc 913e
00000300: a8f0 04be 9bc2 c1be 7bbb dabb 6faa babd
00000310: 011e debe 2dce e03d c224 9f3e 25dd 033f
00000320: 602e 44be c7ca 5f3e ac9f 2d3e 280c f1bd
00000330: f6bd 52bc 0f48 233d c019 d03c 47de 063b
00000340: 0223 58bd cd90 973d e067 42bd b9af 80be
00000350: 66fb 613c 7c0a 613e 4b32 a73e 7f39 afbb
00000360: f9bc 553e a518 f1bb 2d7e 653e 61b6 babe
00000370: ead8 c3bd 7298 1f3d 76a6 eabd 6f5a 223d
00000380: 0b39 e6bd 8ba9 0d3b 623f 12be e87a 84be
00000390: cacb 1c3d 812a 313e 6fe4 c83b 9f62 04bd
000003a0: d155 82bd 6f68 1cbe d0e6 bebb ed04 0b3d
000003b0: f34b 893e 43a3 1b3e a4a4 963b 691d 2dbd
000003c0: af12 173e f32e 39be aa7e 43be 7017 293e
000003d0: 3e01 c53d 6127 183e a6d2 15be 7cfe f9bd
000003e0: df2d 11be 0b7a 9e3e 8d16 3ebe 4a4d acbd
000003f0: 82e6 833d a6a0 443d 132e 11bc 7452 04bd
-0.005716895 0.18537112 -0.011321761 0.091294214 0.0011815438 0.02865038 0.053774495 -0.05695671
-0.27861282 0.1851065 0.5363671 0.32994822 0.35885125 -0.60515314 -0.37899455 -0.19472964
-0.26368234 -0.047684886 0.038966104 0.017425323 -0.094354235 -0.060332067 -0.1020325 0.21269718
0.08657788 0.033014454 0.029697262 -0.32516322 -0.0025104242 -0.2704288 -0.072977856 -0.11782491
0.19704016 0.1441157 0.1884089 -0.35610083 -0.10738363 -0.10204281 -0.055134334 0.004374843
-0.2451451 -0.057705525 0.052929524 0.12260418 0.3238359 -0.06266516 0.15300964 0.07683499
-0.28924808 0.050508507 0.17096211 0.110622674 -0.03494024 -0.0015355501 0.3465888 0.09416463
-0.005599516 -0.11779766 -0.21150653 -0.19177286 -0.12320582 0.112600185 0.15834515 -0.10486888
-0.22309227 0.3468874 0.29648435 0.021707777 0.12860435 -0.018628009 0.05573156 -0.4843262
-0.18237333 0.1414024 -0.15725963 -0.108027466 -0.18647927 0.25927716 -0.21568768 0.20171748
0.53326905 0.02811426 -0.17126378 0.39241624 0.07126161 0.018121867 0.032937225 0.13359684
-0.5957335 0.08377483 0.14135987 0.44395712 -0.16305201 -0.17861113 -0.041217424 -0.010609196
-0.14756164 -0.22617848 0.11307899 0.050941896 -0.105670534 0.117092855 -0.035438713 0.005099573
-0.73903555 0.09527558 -0.01480254 0.08764652 0.70243365 0.12931693 0.24147151 -0.2832282
-0.017069738 -0.5655553 0.17722279 0.086288884 -0.10360056 0.18418051 0.18375348 -0.15209657
-0.12426218 -0.22908707 0.49962935 -0.027882421 0.11154992 0.1108747 -0.030666726 0.036702644
-0.018583253 -0.05669602 -0.11960414 0.07525244 -0.060507797 0.25833118 -0.14705238 0.14700826
0.23222151 -0.16405253 0.08148267 0.1585271 -0.03999162 0.13980152 0.2914344 -0.008741714
-0.015821664 0.05392943 0.09288697 -0.082741275 0.3159466 0.22094859 0.14260429 0.0060831737
-0.13042057 -0.07540544 0.19934063 0.15120761 -0.32178816 -0.0136797875 -0.019688008 -0.40138263
-0.13513818 0.4670206 0.18219393 -0.18195945 0.02423653 -0.16135149 -0.045195628 -0.16355643
-0.049392827 0.055146214 0.06976389 -0.2047509 0.26820326 -0.084349886 0.037649542 0.26226968
0.03938093 -0.08134084 0.32602164 0.1295017 -0.07554638 -0.14983921 0.008560399 0.18377623
0.041212704 0.0027476067 -0.09802016 0.16136698 -0.75430536 0.03554004 0.38943332 0.28512892
-0.12982428 -0.37843785 -0.0066751814 -0.09114539 -0.43382266 0.10976825 0.3108273 0.51509315
-0.19158316 0.21854697 0.16955441 -0.11769897 -0.012862673 0.039863642 0.025402904 0.0020579265
-0.05276776 0.074006654 -0.047462344 -0.25134066 0.013792848 0.21976656 0.32655558 -0.0053474302
0.20872869 -0.007357674 0.22411413 -0.3646727 -0.095628574 0.038963743 -0.11457531 0.039637025
-0.11241349 0.0021615948 -0.14281991 -0.2587502 0.038280286 0.1730137 0.006130747 -0.032320615
-0.063640244 -0.15274213 -0.005825855 0.033940244 0.26815757 0.15198998 0.0045972634 -0.042264376
0.14753221 -0.18084316 -0.19091287 0.16512847 0.096193776 0.14858772 -0.14631137 -0.12206742
-0.14177655 0.30952486 -0.1856329 -0.08413179 0.0644045 0.04800477 -0.008861083 -0.032305196

layers.4.bias f4 [100]
00000000: c66e 623e 7c0a d2bd 3c92 2bbe 6f89 a9bb
00000010: 8e31 523c 047b 54be 2be4 203d 8fef 683e
00000020: e121 523d 8ce6 0c3e 34b6 09bd f15d 183e
00000030: 9782 20be 227e 3f3e 2105 8f3e 4201 febd
00000040: d9e1 e83d 40b1 af3e 646d f73d 298c f13d
00000050: d480 00be c730 603e f85f 363d 108c f9bd
00000060: 9b17 e43d 0de0 aabc 9550 543e ecbc 953d
00000070: 548c dbbd 7087 afbe a3f0 ca3e 5243 0d3d
00000080: 372a 2bbe 9083 63be 6ccf 053e 8b8d 9abd
00000090: c5fa 3b3e fd2e 3e3e c2b5 6f3c a48a 29be
000000a0: a5a3 cbbd 4fbc 563e 11c0 b7bd 3036 753d
000000b0: 192a 353d 6211 89bd 3642 343e d5ed aebe
000000c0: 66c4 9cbd b160 c43d 147e 423e 267b 8fbc
000000d0: 1461 1b3e 6478 d5bd ae09 debd b518 de3b
000000e0: d420 f73d acb0 52be 4d3a b13d 1524 b43d
000000f0: 10ad 043f 4e16 873e 7914 a1be 55d9 9fbe
00000100: bbd9 153e 3e60 763d d640 513e 8000 98be
00000110: 3e4e f9be b877 003d 501f 393e 906e 043e
00000120: 3e50 99bd 7d3e c9bd 5abb a9bd 0abd 75bd
00000130: 2971 11bd bec6 66bd 1955 9dbe 916e b7bb
00000140: 27ae cebe e518 4a3e 2b71 e7bd 9e68 253e
00000150: 144e 483e 06e9 573c 8970 b5bd 6abb 9cbe
00000160: c6b0 693e c84f 7abe 8a78 4a3e f3fb 06be
00000170: 773e 1cbd 6e12 a43e ba80 223e 746b e5bd
00000180: deae 823b 6c64 0cbd ad8e 63bd 8581 b53d
0.22112569 -0.10255906 -0.16755003 -0.005173854 0.012829198 -0.20750052 0.039280098 0.22747634
0.05130184 0.13759822 -0.033621028 0.14879586 -0.15674816 0.1870046 0.279336 -0.12402584
0.11371202 0.3431492 0.120814115 0.117943116 -0.12549144 0.21893607 0.044525117 -0.12184918
0.11137315 -0.020858789 0.20733865 0.073114246 -0.10720125 -0.34283018 0.39636716 0.03448803
-0.16715322 -0.22218156 0.13067406 -0.075465284 0.1835738 0.18572612 0.014630737 -0.16556793
-0.09943322 0.20970272 -0.08972181 0.05986613 0.0442296 -0.06692769 0.17603382 -0.34165826
-0.076546475 0.09588755 0.18993407 -0.017514776 0.15173751 -0.10423353 -0.1084169 0.0067778477
0.12066808 -0.20575207 0.08653698 0.087959446 0.5182657 0.26384205 -0.31460932 -0.312205
0.14633839 0.060150377 0.20434889 -0.2968788 -0.48692507 0.031364173 0.18078351 0.12932801
-0.07486008 -0.09826372 -0.082876876 -0.059994735 -0.03550831 -0.05634188 -0.30728987 -0.0055978973
-0.40367243 0.19736059 -0.11300882 0.1615319 0.19561034 0.013178116 -0.08859355 -0.30611736
0.2282134 -0.24444497 0.19772545 -0.13182048 -0.03814551 0.3204531 0.15869418 -0.11202136
0.003988131 -0.034275457 -0.055555988 0.088625945

layers.6.weight f4 [100, 100]
00000000: 4652 9bbc 3619 8fbe 3e16 54be 1bab 803e
00000010: 9622 ac3e 84b7 f1bd f7a3 573e de54 7a3d
00000020: c6e8 513d ea29 ea3d bf94 b1bd fbf2 ae3e
00000030: 7119 b03e 478f c63d 0bfd 003e 8e97 f1bd
00000040: 8eaf 96bd b65f 4a3e 5723 193e ca2c 803e
00000050: c4b8 d63d 6eec 0d3e c1bd a8bb c920 3cbe
00000060: ac04 e73e b329 93be fee2 8e3c c144 853e
00000070: 8098 533d c1e1 34be 48fb 0f3e c51a 9cbe
00000080: e069 773d 53f4 7dbb da2c 93be b0ac 21bd
00000090: 8996 873d 366f e43d 3a37 dc3d 1d99 13bd
000000a0: 2bd6 a13e 40bd 513e 7829 59be 733c b23d
000000b0: fcdb b23d 2890 85bd 34b8 dc3d 8a22 4cbe
000000c0: 3bde 90bc 8402 c83d f539 a43e cc0f d7b9
000000d0: caf9 41bc 01b7 e43d ff82 8dbd 00bd c7bd
000000e0: 02d3 fcbb c289 17be 7085 163e 5a77 4bbd
000000f0: 59a8 803c 6a25 ce3c eb3a f9bd 8e24 13be
00000100: a790 3b3e 2c7e 8b3e 22d4 013e 72c9 68be
00000110: be47 7cbe c06d 253e dd83 fc3d 978f 2f3e
00000120: 8d72 8ebe 34d9 05be e40b 9bbe a3b6 273d
00000130: 72a3 8a3d d0c8 5dbd c7d5 9bbd 3f5a 523d
00000140: 0c48 8cbe 04a1 833e 6caa b3be 1827 e13c
00000150: 355a 713d 7103 ae3d 05a9 353b cf37 9bbe
00000160: b0ae e93d 6dd1 1ebe 9a6a 003e a32e 90be
00000170: 436e 40be 4ac2 2dbe 27fc 763e 5e78 45be
00000180: 3297 3ebe 3913 403e a65b d8bd ff4f fb3e
00000190: 43ce 693e 426d 743e 714f fd3e eb56 093e
000001a0: 5c4f 67bd a705 a73e 0868 7fbe dff1 a6be
000001b0: 4215 9b3e 14c2 cc3d b86a 153f 4ff3 09be
000001c0: 65d6 a73d b900 3dbf 65b8 a3be 7aa1 d93e
000001d0: 2f3a 54be 0a08 ee3c a0da acbf 7acc 3dbe
000001e0: 8349 a8be c69c 9cbe 7669 793e b7a6 d33e
000001f0: 2aea dcbb f06c 093e 9c5d 433d acba 243e
00000200: 881b 10bf 41dc b93e 2e75 ecbe 03f7 a3bc
00000210: 3c0a 08be 0423 8b3e b276 963a faaa cebd
00000220: 984c cabe 44a4 d3be e87f 153f c0b9 4bbf
00000230: f73a 09bf fea3 89be 559c dd3d 8968 8e3d
00000240: e4ff 9fbe 4b6e 1b3f 940a 11be 7e00 503e
00000250: 42cc 713e 6748 72be 04d3 83bf 8823 233f
00000260: bcaf 053e e058 003f b908 e83d 0c8f d3be
00000270: 89fa 76bd 594d 6d3e 166d 363f f3d8 753d
00000280: c186 c7be d38e 473d 6444 a23e 9f44 893e
00000290: 3a0b 723f fc39 3bbd d67d 3f3f 92e1 77be
000002a0: 37fe 713e b69c bbbd 4a7a 6e3e 3b1b dbbe
000002b0: f3c3 2ebf 9887 7bbd e20e 31bf ccf3 423e
000002c0: 034d c33e 68de f23e 937b ee3e f02c ca3c
000002d0: b549 993e bef1 52be d1b9 b63e 9cb5 213e
000002e0: c1a2 cb3d 1217 b2bc cc5f d7bd 6f5f 31be
000002f0: bf73 573d ac6a e13e e043 2b3e 3fea 66bd
00000300: c859 dcbd 336d 783e 05c0 ccbd 4fdd 3d3f
00000310: f8aa 14bf 8482 4e3e 3126 95bf c419 19bf
00000320: 8cc8 99be 836e cebe 0c00 183f 653b b3be
00000330: d0db acbc 3206 a03d ed4f dfbe fd1f 38bd
00000340: bca4 56be acb4 073e 7d4c 3e3d 8936 41bd
00000350: 7f15 b0be 3b4d b4bd de93 6a3d 2b6b 403e
00000360: 32bb 043e 349c e0bd 2de6 62bd 00d8 d4bd
00000370: a5b3 ce3d 319f dabc 0468 06be b207 323e
00000380: 370a 8bbe abef c23d edb6 c13d 6778 b4bc
00000390: b2da 4a3e 0f53 4b3e c40b 4ebe abeb bb3d
000003a0: 9a9e b03d 3c77 653d 27a9 8cbd bca3 923b
000003b0: 29bc a4be 66a9 52be 1e39 00bf 6aa0 dfbd
000003c0: f9d6 afbe 58d5 89be 1d8f efbd 204a 78bc
000003d0: 2f66 803d 28ca 8d3e f820 40be 6081 913e
000003e0: 44d1 573e 745c d0bd 368b 4fbe faee b6bc
000003f0: d25c 903e 0005 25bd 37ea 753e 434d 213e
-0.01896013 -0.27948922 -0.2071161 0.25130543 0.33620137 -0.11802581 0.21058641 0.061116092
0.05124738 0.11433776 -0.08670949 0.34169754 0.3439441 0.09695297 0.12596528 -0.11796485
-0.07357703 0.19763073 0.14954887 0.2503417 0.1048446 0.13859722 -0.0051495736 -0.18371882
0.45120752 -0.2874275 0.017442223 0.26029018 0.051659107 -0.17664243 0.140607 -0.30489174
0.060403705 -0.0038750365 -0.28745157 -0.03947133 0.06620509 0.11154024 0.10752721 -0.036034692
0.3160871 0.2048235 -0.21207225 0.08702936 0.08733365 -0.06521636 0.107773215 -0.1993505
-0.017684093 0.09766105 0.32075468 -0.00041019765 -0.0118393395 0.11167718 -0.06909751 -0.09752846
-0.007715584 -0.14798644 0.1469934 -0.04967437 0.015705274 0.025164325 -0.12169441 -0.14369413
0.18316899 0.272447 0.12678578 -0.22733095 -0.24636742 0.16155148 0.123298384 0.17144619
-0.2782177 -0.13071138 -0.3028251 0.04094566 0.06769456 -0.054146588 -0.07609134 0.051355597
-0.27398717 0.25708783 -0.3509096 0.027484462 0.05892392 0.0849675 0.0027719152 -0.30316016
0.11410272 -0.15509577 0.12540665 -0.2816058 -0.18792062 -0.16968647 0.24119626 -0.19284198
-0.18612364 0.18757333 -0.105643556 0.4908447 0.22832589 0.23869804 0.4947467 0.13412063
-0.056472167 0.326215 -0.24942029 -0.32606408 0.30289656 0.09997955 0.58365965 -0.13471721
0.081951894 -0.7382923 -0.3197662 0.4250601 -0.2072532 0.029056568 -1.3504219 -0.18535033
-0.32868585 -0.3058836 0.24356636 0.4133813 -0.0067417817 0.13420463 0.047696695 0.16086835
-0.5629201 0.36300853 -0.4618315 -0.020015245 -0.13285154 0.27175152 0.0011479466 -0.10091205
-0.3951156 -0.41336262 0.58398294 -0.79580307 -0.536056 -0.2688293 0.108208336 0.06953532
-0.31249917 0.6071517 -0.14164191 0.20312688 0.23613074 -0.23660432 -1.0298772 0.6372609
0.13055319 0.5013561 0.11329789 -0.41320074 -0.060297523 0.23174037 0.712602 0.060021352
-0.38969997 0.048720192 0.31692803 0.26810166 0.9454838 -0.045709595 0.74801385 -0.24207142
0.23632132 -0.091607496 0.23288837 -0.42794213 -0.68267745 -0.06140861 -0.69163334 0.19038314
0.38144693 0.47435308 0.46578655 0.024679631 0.29939047 -0.2060003 0.35688642 0.15791935
0.09943152 -0.021739516 -0.10516319 -0.17321561 0.05260062 0.44026697 0.16725111 -0.05637574
-0.10759312 0.24260406 -0.09997562 0.74165815 -0.5807338 0.20166975 -1.165228 -0.5980494
-0.30035818 -0.4031869 0.5937507 -0.35006252 -0.021100909 0.07813682 -0.43615666 -0.04495238
-0.20961279 0.13252515 0.046459664 -0.04717115 -0.343914 -0.08803793 0.057269923 0.18790881
0.12962034 -0.109672934 -0.055395294 -0.10392761 0.10092858 -0.026687237 -0.13125616 0.17385748
-0.2715623 0.09518369 0.094587184 -0.022030069 0.19809988 0.19855903 -0.20121676 0.091758095
0.08624001 0.056021914 -0.06868201 0.004475085 -0.32174805 -0.20572433 -0.50087154 -0.109192684
-0.343437 -0.2692058 -0.116972186 -0.0151543915 0.0626949 0.27693295 -0.18762577 0.28419018
0.21075922 -0.10173884 -0.20267949 -0.02233075 0.28195816 -0.04028797 0.24015127 0.1575213

layers.6.bias f4 [100]
00000000: 754e 583e d56d 92be 54fe 7bbe 9b11 3a3d
00000010: 80be 723e 23f8 14bd ee7c c4bd c65b 15be
00000020: 0f56 c03e 101e 78be 1374 09be 3e0d 76be
00000030: 14cd d8bc c2bc e23e aa1a c3be d349 c5be
00000040: 17e2 183e 0117 26be b4ec 99bc dd86 89be
00000050: df26 5c3e 1255 793e 731a aa3e ad51 61bd
00000060: 7182 06be eea7 d5bd 6375 ab3d dae3 8ebe
00000070: 21c3 9f3d fcc4 cbbe d547 b53e 21a1 e33d
00000080: 7816 1ebd f0de 10be b6f6 66be 7c9d 803e
00000090: 6baf b8be 113a 483e 39a7 05be a5e4 803e
000000a0: 91d8 b0bd 4024 dd3c d174 183e da43 f7bd
000000b0: 3bbc 8c3c 28c3 193e e0c3 e03c 2839 87be
000000c0: ac34 f5bd 3c81 20be 9aa0 053f 45a1 013e
000000d0: 14e1 a6be 4526 2a3e 63af 863e 6153 d73e
000000e0: 6939 a23d 866f ac3e 304d 223e 92b9 d93e
000000f0: 1c39 383e 6f87 96be b7bc b4be 11e8 ae3e
00000100: 3249 53be 8a79 7dbe 806b 633d 23d7 34bd
00000110: 0239 b6be b713 5b3e 1040 533e da84 4fbd
00000120: f63e ef3e 55f3 583e 75f7 573e 7e96 0a3e
00000130: b50a 68bd 67e9 db3e e32f fa3d 6ec6 95be
00000140: d4c8 8bbe 5bbb 47be 34bf 313e b88f 24bd
00000150: 7638 5a3d d3df 4ebe f560 88bd a9f1 833e
00000160: f1fc bc3d 04db c9bd bf80 62bd 73c6 bb3d
00000170: d838 fd3d 543a 0c3e ac4a c8be 7969 23be
00000180: 6d4a debb 8a03 1fbe b790 2abe 145e 033f
0.21123679 -0.2859942 -0.24608737 0.045426946 0.23705482 -0.036369454 -0.09594141 -0.1458579
0.37565657 -0.24230218 -0.13423185 -0.24028489 -0.026464976 0.44284636 -0.3810628 -0.38532886
0.14929996 -0.16219713 -0.018789627 -0.26860705 0.21499203 0.24348858 0.33223304 -0.055009533
-0.13135697 -0.10432421 0.08371999 -0.27908212 0.0780089 -0.39798725 0.35406366 0.11114717
-0.038595647 -0.14147544 -0.2255505 0.2512015 -0.36071333 0.195534 -0.13052072 0.25174442
-0.08635057 0.026994824 0.14888312 -0.120734885 0.017179599 0.15015852 0.02743715 -0.26410794
-0.11972937 -0.15674299 0.52198184 0.12659176 -0.32593596 0.16616161 0.26305684 0.420558
0.07921106 0.33678836 0.15849757 0.4252439 0.17990535 -0.29400203 -0.35300228 0.34161428
-0.2063339 -0.24753395 0.055522442 -0.044150483 -0.35590369 0.2139424 0.20629907 -0.050663806
0.46727723 0.21186574 0.21090491 0.1353397 -0.056650836 0.4295151 0.12216165 -0.29252952
-0.27301657 -0.19505064 0.17358094 -0.040176123 0.0532765 -0.2020257 -0.06659118 0.2577031
0.09227932 -0.09856227 -0.055298563 0.091687106 0.12364358 0.13694125 -0.3911947 -0.15958203
-0.0067837746 -0.15528694 -0.16656767 0.51315427

layers.8.weight f4 [1, 100]
00000000: 1917 29be 5994 143e 697e 713d 5a4b 41be
00000010: ba90 13be 67fa 65be f2d3 cb3d 8aba 583e
00000020: 4168 48be 5cbe 2f3e 105d 603e 69b5 1b3e
00000030: d05d c93e 0454 65be 3817 1c3e 03e9 1d3e
00000040: 3b93 51be d69c b23d 1a80 363e 0555 bd3d
00000050: 81c3 d0bd 1666 b5bd 9a42 4fbe 085e 463e
00000060: 7454 4fbe f25c 883e 7096 74bd 6c77 da3d
00000070: 3e26 80be 5309 333e 83a8 09be 7e8c 5cbe
00000080: 7272 26be 3ae7 c03d eb38 393e 8df9 13be
00000090: ea0f 613e c20f 0dbe af48 7b3d ce19 27be
000000a0: c5b5 62be 4444 9fbd 380f cebd 7c7a 623e
000000b0: b5b7 97be 0212 3fbe 9ddb b2be 7eac 3e3e
000000c0: 1002 173e 3d93 5e3d f7b1 a6be aac0 1ebe
000000d0: fbbe 553e f19d 95be 4ef7 dfbd 597b 6abe
000000e0: 64b8 4abe 571f febd 612b 72be 7f8c 12be
000000f0: d6a5 2fbe 2d43 403e 9576 253e e875 29be
00000100: a354 4d3e 2604 073e fe2b e4bd 6754 4abe
00000110: fb3d 193e 6322 fbbd 2e0e 85bd 265c 4b3d
00000120: c933 26be c877 3dbe 4da6 20be 5ab5 96bd
00000130: 80aa 6f3e c4a7 34be 791f bf3e e851 283e
00000140: 104a 633e e0d7 a63d 5bec 03be 35c0 463d
00000150: 54c0 49be d10a d03d f1d6 943b 4f93 1cbe
00000160: f9ea 44be 6d96 64be 3bcb 113e dc49 39be
00000170: d773 0fbe 9547 05be be55 4d3e b821 3e3e
00000180: 675c f03d a0e1 bf3d c911 063e 4c18 a5be
-0.16512717 0.14509715 0.058958445 -0.188764 -0.14410678 -0.22458802 0.09952535 0.21164909
-0.1957102 0.1716246 0.219105 0.15205921 0.39329386 -0.2239533 0.15243232 0.15420918
-0.2046632 0.0872132 0.17822304 0.09244732 -0.101935394 -0.08857362 -0.2024025 0.19371808
-0.2024706 0.26633412 -0.05971378 0.10667309 -0.25029176 0.17484026 -0.13443188 -0.21537969
-0.16254595 0.09419103 0.18088119 -0.14450665 0.21978727 -0.13775542 0.061348613 -0.16318437
-0.22139652 -0.077766925 -0.100614965 0.22117037 -0.29632345 -0.18659213 -0.34933177 0.18620488
0.1474688 0.054339636 -0.3255765 -0.15503183 0.20873635 -0.29222062 -0.109358415 -0.22898616
-0.19796902 -0.12408321 -0.2364936 -0.14311408 -0.17153105 0.18775626 0.16158517 -0.16548884
0.20051818 0.13185176 -0.11141203 -0.1975876 0.1496505 -0.12262418 -0.06496845 0.049648426
-0.16230692 -0.18502724 -0.15688439 -0.07358809 0.23404884 -0.17642123 0.373287 0.16437495
0.22196221 0.08146644 -0.12883131 0.048523147 -0.19702274 0.10158313 0.0045422246 -0.15290569
-0.1923026 -0.22323008 0.14237683 -0.18094581 -0.14009033 -0.13015588 0.2005224 0.1856755
0.11736374 0.093692064 0.13092722 -0.322451
