hddm/torch_models/74ca5d6c161b11ec9ebb3cecef056d26_seq2_weibull_no_bias_torch_state_dict.pt (torch, 87887 bytes, 7 tensors)

layers.0.weight f4 [100, 9]
0	0x3dcbc60e	0.09949885
1	0x3bb72795	0.0055894353
2	0x3ca60cdb	0.020269802
3	0x3fa20c01	1.2659913
4	0xbeed49e4	-0.46345437
5	0x3fad1865	1.352307
6	0xbd65b9a4	-0.056085244
7	0x3ecf1503	0.40445718
8	0xbe4a1154	-0.19733173
9	0xbc8a157a	-0.016855944
10	0x3b5617c7	0.003266798
11	0xbc557d95	-0.013030429
12	0xbec8ddb6	-0.39231652
13	0xbfad0a49	-1.3518764
14	0x3b179005	0.0023126614
15	0xbc55a559	-0.01303991
16	0x3faa6074	1.3310685
17	0x3d179329	0.037005577
18	0xbb699148	-0.0035639573
19	0x399300d7	0.0002803865
20	0xbbba9e1f	-0.005695119
21	0xbc14c38a	-0.009079823
22	0x3e66c028	0.2253424
23	0xbedab379	-0.42715052
24	0x3f779450	0.9671068
25	0xbe5a0ec2	-0.21294692
26	0x3bb712a4	0.005586939
27	0x3c9e75cd	0.019343281
28	0x3bbec7f5	0.0058221766
29	0xbb88f797	-0.0041799056
30	0x3efdcbaf	0.4956946
31	0xbc7053aa	-0.014668385
32	0xbe0da3c3	-0.13832001
33	0x408fd551	4.4947896
34	0x3c698f92	0.014255421
35	0xbb2df600	-0.0026544333
36	0x3c40d7e1	0.01177022
37	0xbb679fdc	-0.0035343086
38	0x3a157815	0.00057017925
39	0x3bafbb67	0.0053629163
40	0x3f4db614	0.80355954
41	0xbe61b149	-0.22040285
42	0x3f83bfe7	1.0292939
43	0xbf508ddd	-0.81466466
44	0x3c8edd89	0.01743962
45	0x3e5fa8c5	0.21841724
46	0x3a49ac1a	0.00076931866
47	0xbde1daa2	-0.11028029
48	0xbd3cab5e	-0.046061866
49	0xbda4bc6f	-0.08043753
50	0xbc656554	-0.014001209
51	0x3af8279d	0.0018932704
52	0x3d9fefbc	0.078093976
53	0xbf709fc1	-0.93993765
54	0xbe1d5d85	-0.15367706
55	0xbd6011e8	-0.054704577
56	0x3c8d97be	0.01728427
57	0xbe2fcffb	-0.17169182
58	0x3c59b953	0.013288814
59	0xbd863f3d	-0.065550305
60	0xbd36dafc	-0.044642434
61	0xbcb529e2	-0.022114698
62	0xbdcb4e01	-0.099269874
63	0x39b792c8	0.0003501384
64	0xba66ba3a	-0.00088015536
65	0xbac929ab	-0.0015347501
66	0x3d1c0c18	0.03809747
67	0x3f953642	1.1657183
68	0x3e89a4d5	0.2688357
69	0x3dbe5cc6	0.09295039
70	0xbf938a10	-1.1526508
71	0x3bc86a9d	0.006116225
72	0x3ddba3a1	0.10724569
73	0x3b7c92f8	0.0038539749
74	0xba7ed01a	-0.00097203406
75	0xbf7d75de	-0.99007976
76	0xbd0fde11	-0.03512389
77	0xbcf7d40b	-0.030252477
78	0x3dba7607	0.09104543
79	0xbd3ee937	-0.04660913
80	0x3e108d7e	0.14116475
81	0x3e4da1f7	0.20081316
82	0x3ea8c8b9	0.3296564
83	0xba5bd7e1	-0.00083863555
84	0xbf2a9c56	-0.666448
85	0x3f0c1b1f	0.54728884
86	0xbf9594b0	-1.1686001
87	0x3d745cd9	0.05965886
88	0xbed5768c	-0.41692007
89	0xc02c97bb	-2.696761
90	0x3c12a78f	0.008951082
91	0xbcdae885	-0.026722202
92	0xbc5cec0e	-0.013484014
93	0xbf3fe889	-0.74964195
94	0xbf256b33	-0.646167
95	0x3d9dcf44	0.077055484
96	0xbf1f16d9	-0.6214424
97	0xbe0a000e	-0.13476583
98	0xbcac9154	-0.021065392
99	0xbead8d46	-0.33896846
100	0xbb22c955	-0.0024839242
101	0xbba0571b	-0.0048931963
102	0x3ea31523	0.31852064
103	0x3eaf139e	0.34194654
104	0x3c50daaa	0.012747446
105	0x3cde22b1	0.027116152
106	0xbea0b431	-0.31387475
107	0x3da2b3ac	0.07944426
108	0x3c1dac05	0.009623532
109	0x3b5ebfb7	0.0033988783
110	0x3f0186b4	0.50596166
111	0xbc7b3847	-0.015333242
112	0xbbab5bf8	-0.0052294694
113	0xba49ca3f	-0.00076976785
114	0x3b20f9f5	0.0024563049
115	0x3b3b20f8	0.0028553586
116	0xbf394f02	-0.7238618
117	0x3c146b86	0.009058839
118	0x3c3894e2	0.011265965
119	0x3c7ee6ac	0.015557926
120	0x3e8384cd	0.25687256
121	0x3f1aeb73	0.60515517
122	0x3d5a1e17	0.053251352
123	0x3c6f4e3b	0.014606054
124	0xbf0ed918	-0.5580001
125	0x3e1d5dea	0.15367857
126	0xbad4eac8	-0.0016244287
127	0x3ac369fb	0.0014908904
128	0x3b243267	0.0025054456
129	0x3e6cf835	0.23141558
130	0x400a372f	2.1596181
131	0x3e32ba20	0.17453814
132	0xbbac1a4e	-0.005252159
133	0xc009832c	-2.148631
134	0x3c1a5e2f	0.009421869
135	0xbec3320b	-0.38124117
136	0x3e65deff	0.22448348
137	0xbbff196c	-0.007785013
138	0x3d523673	0.051321458
139	0xbcfc39f1	-0.030789347
140	0x3c6b9732	0.0143793095
141	0x3c21c15b	0.00987276
142	0x3d01f122	0.031724103
143	0xbfa45cc1	-1.2840806
144	0xbc8decd1	-0.017324837
145	0xb88f4084	-6.830788e-05
146	0x3b248e78	0.0025109332
147	0x3ff0440a	1.8770764
148	0x3d1ff63d	0.03905319
149	0x3e82e7f7	0.255676
150	0xbc801113	-0.015633142
151	0xbdc4b8ee	-0.09605585
152	0xbc248207	-0.010040767
153	0x3bcf2011	0.0063209613
154	0xbb201032	-0.0024423716
155	0xbb1a5e70	-0.0023554824
156	0xbf2668a2	-0.65003407
157	0x3c953bd5	0.018217007
158	0xbdc49aa4	-0.09599808
159	0x40861f84	4.191347
160	0xbcb4fe01	-0.022093775
161	0x3bac2876	0.0052538468
162	0x3c0172e3	0.007900926
163	0xba684bb3	-0.0008861378
164	0xba468d24	-0.0007574132
165	0x3fa850fb	1.3149713
166	0xbe2280ed	-0.15869494
167	0xc016e0d5	-2.3574727
168	0xbe9b8a90	-0.30379152
169	0x3e29c630	0.16579509
170	0xbc450a05	-0.012026315
171	0xbab854da	-0.0014063374
172	0x3bcbe5b8	0.006222453
173	0x3ae54e01	0.001749456
174	0x3d03ed2e	0.032208614
175	0xbf184b82	-0.59490216
176	0x3d93894b	0.07203921
177	0xbf9d0b5d	-1.2269093
178	0x3f295cbc	0.66157126
179	0xbc80cc5c	-0.015722446
180	0xbc2325aa	-0.00995771
181	0xbb8667c6	-0.004101726
182	0x3c9915b5	0.018687109
183	0xbf2759ba	-0.65371287
184	0x3d9da1c7	0.07696872
185	0xbea4e785	-0.32207885
186	0x3e8f9dff	0.2805023
187	0xbe6340f1	-0.22192742
188	0xbd301033	-0.0429842
189	0xbd15b483	-0.036549103
190	0x3a28e74c	0.00064431573
191	0x3edc6700	0.43047333
192	0x3ec0c4d9	0.37650183
193	0xbde84022	-0.11340357
194	0x3dc4bb7f	0.096060745
195	0x3d14481e	0.03620159
196	0x3e071cfe	0.13194653
197	0xbd8949ec	-0.067035526
198	0xbd0572fa	-0.032580353
199	0xba6395dc	-0.00086816936
200	0x3c5bf199	0.013424301
201	0xbec4ebb2	-0.3846107
202	0xbe8d74c6	-0.27628154
203	0xbd971109	-0.07376296
204	0xbee19445	-0.44058433
205	0x3ed27abf	0.41109273
206	0xbbcdf1f3	-0.006284946
207	0x3e27b23a	0.16376582
208	0xbc623fc2	-0.013809146
209	0xbca4dfaa	-0.020126183
210	0x3de1cf1c	0.11025831
211	0x3cc4fae6	0.024045419
212	0x3c7bb06b	0.015361886
213	0xbd74d649	-0.05977467
214	0xbd1836f6	-0.03716179
215	0xbea91eca	-0.33031303
216	0x3dafc60b	0.085826956
217	0x3bf1b7ec	0.0073766615
218	0xbde42024	-0.11138943
219	0xbde4c531	-0.11170424
220	0xbd534435	-0.05157872
221	0xbd14bfdc	-0.036315784
222	0xbdc627dc	-0.09675571
223	0x3d884efb	0.06655689
224	0x3ef7e324	0.48415482
225	0xbe81fbc1	-0.25387385
226	0x3e54cfcb	0.20782392
227	0x3c56b6a6	0.01310507
228	0xbda6ff81	-0.08154202
229	0xbc192b3f	-0.00934869
230	0xbc22305d	-0.009899226
231	0xbc874d0f	-0.016516237
232	0x3bdc291f	0.006718769
233	0x400302f6	2.0470557
234	0xbc54f115	-0.012996932
235	0x3b51c4c5	0.0032008153
236	0x3c020ed9	0.00793811
237	0x3f691be6	0.91058195
238	0xba52a5c9	-0.0008035568
239	0x3c5e7afd	0.013579127
240	0x3cd02d9f	0.025412379
241	0xbd7a74da	-0.061146595
242	0xbd12dae4	-0.03585328
243	0xbf5e433b	-0.86821336
244	0x3ba4f26e	0.0050337827
245	0x3b1d0437	0.002395881
246	0xbd4f2704	-0.050574318
247	0x3d8a530c	0.06754121
248	0xbb81836c	-0.0039524343
249	0xbc78af1b	-0.015178467
250	0xbd95a547	-0.07306915
251	0x3ccb2cc2	0.024801616
252	0x3af14913	0.0018408619
253	0xbbb27458	-0.005445998
254	0x3b2e0b12	0.0026556891
255	0xbf3c3e3f	-0.7353248

layers.0.bias f4 [100]
0	0x3f8f0d04	1.1175847
1	0x3d797ea7	0.0609118
2	0x3f569dca	0.83834517
3	0xbf470286	-0.77738225
4	0x3f56b88b	0.8387534
5	0x3fb3fdcb	1.4061826
6	0x3f7003a6	0.9375557
7	0xbf16cb6b	-0.5890414
8	0x3d8ff5f6	0.07029335
9	0xbf83f93a	-1.0310433
10	0x3e2e004f	0.16992305
11	0xbe941be6	-0.28927535
12	0x3f3ced7f	0.7379989
13	0xbf162246	-0.5864605
14	0xbeb0dc4d	-0.34543076
15	0x3e229129	0.15875687
16	0xbf953ffc	-1.1660151
17	0x3e82bb4b	0.25533518
18	0xbf69771f	-0.9119739
19	0xbdfb3f1c	-0.122678965
20	0x3decf057	0.11569279
21	0x3eebd19e	0.46058363
22	0xbe775c37	-0.24156271
23	0x3f60e241	0.87845236
24	0xbf3ee5ef	-0.745696
25	0xbfc7b15a	-1.5600998
26	0xbf19d0ee	-0.60084426
27	0x3d8e9340	0.069616795
28	0xbe8e9836	-0.27850503
29	0xbfbc1306	-1.4693305
30	0x3ea12b15	0.3147818
31	0xbf382bef	-0.7194204
32	0xbfcc0540	-1.5939102
33	0x3f1a6095	0.6030362
34	0x3f897929	1.07401
35	0xbf4ea97a	-0.8072735
36	0x4002fe85	2.0467846
37	0xbeeea58f	-0.46610686
38	0x39a6dbbf	0.0003182571
39	0xbe69ea10	-0.22843194
40	0xbd8950e6	-0.06704883
41	0xbed43ccb	-0.4145263
42	0x3ecdde82	0.40208822
43	0x3f6debf9	0.9293819
44	0x3fc5ee5a	1.5463364
45	0x3ed56011	0.41674855
46	0x3f81f721	1.0153543
47	0x3ec3fe8f	0.3828015
48	0x3c769b53	0.015051681
49	0xbeef9811	-0.46795705
50	0xbec2f921	-0.38080695
51	0xbd1be0b1	-0.03805608
52	0x3ca9ea0b	0.020741483
53	0x3e896728	0.26836514
54	0x3de3f3ee	0.1113051
55	0xbf73ee67	-0.9528565
56	0x3f7e6d6b	0.9938571
57	0x3e253707	0.16134273
58	0x3cfcb708	0.030848995
59	0x3ee1752f	0.44034716
60	0x3ea7740c	0.32705724
61	0x3daf52df	0.08560728
62	0xc001b169	-2.0264533
63	0x3d5d2eaf	0.0539996
64	0xbe2d1b43	-0.16904931
65	0x3d430a2f	0.047617134
66	0xbf1721df	-0.5903606
67	0x3edf9faa	0.43676502
68	0xbe512246	-0.2042323
69	0xbefed070	-0.497684
70	0x3f4eed32	0.8083068
71	0xbf8fc8e9	-1.1233188
72	0x3fa39710	1.2780476
73	0xbda72c86	-0.08162789
74	0xbe21f7de	-0.1581721
75	0x3baa3fef	0.0051956098
76	0x3dc41ecf	0.09576189
77	0x3d1b4876	0.0379109
78	0xbd8af3d1	-0.067847855
79	0x3dc4cc7c	0.09609315
80	0xbecb9fc8	-0.3977034
81	0xbd42f5ab	-0.04759757
82	0xbe91758c	-0.28409994
83	0x3fdeedc1	1.7416307
84	0x3e96efe5	0.294799
85	0xbdd53736	-0.10410921
86	0x3d9fd6b4	0.07804623
87	0x3dedcc2b	0.116112076
88	0xbea36744	-0.31914723
89	0xbe22326c	-0.15839547
90	0xbe73b4b0	-0.23799396
91	0x3df79639	0.120891996
92	0xbf6f0535	-0.9336732
93	0x3b870a46	0.0041210977
94	0xbebfc8b8	-0.37457824
95	0x3f7cbde5	0.98727256
96	0xbedacef3	-0.42736015
97	0x3c49d0d7	0.012317858
98	0x3ee22535	0.44169012
99	0x3aa6440e	0.0012685077

layers.2.weight f4 [100, 100]
0	0x3e3f6dde	0.18694255
1	0x3dda1d15	0.10650078
2	0x3db8f3de	0.09030889
3	0x3ea7d4c8	0.32779527
4	0x3f2f0a52	0.6837512
5	0xbe0ca87d	-0.13736148
6	0xbf98375c	-1.1891894
7	0xbe23a055	-0.1597913
8	0x3daa91e5	0.083286084
9	0xbddc417f	-0.1075468
10	0xbebac685	-0.36479583
11	0x3d90f03f	0.07077073
12	0x3f444302	0.76664746
13	0x3d0bf6f5	0.034171063
14	0xbe68233e	-0.22669694
15	0xbd977246	-0.07394843
16	0xbf0632f3	-0.5242149
17	0x3eb1a77b	0.3469809
18	0x3eb6f921	0.35736945
19	0xbde70de8	-0.11281949
20	0xbe957be1	-0.29196075
21	0x3ccbb5bd	0.024866933
22	0xbdf88076	-0.12133877
23	0xbda3fad5	-0.08006827
24	0x3cdff970	0.02734062
25	0xbf09959e	-0.5374392
26	0xbf086bc3	-0.5328943
27	0x3f31fe77	0.6952891
28	0x3ef2a313	0.4739004
29	0x3e339eed	0.17541094
30	0xbe8ee3ca	-0.27908164
31	0x3f190f58	0.5978904
32	0x3ccec86a	0.02524205
33	0xbdf6ffef	-0.12060534
34	0xbe35ef76	-0.17767128
35	0xbef45cc4	-0.47727025
36	0xbe04db2a	-0.1297423
37	0xbd8b76a5	-0.06809739
38	0x3e7800c3	0.2421904
39	0xbd1ddfd8	-0.038543552
40	0x3ed55881	0.41669086
41	0x3dfe3dde	0.12414144
42	0xbd2c11cf	-0.04200917
43	0xbf0fded1	-0.56199366
44	0xbeb681d1	-0.35645917
45	0xbc71461f	-0.014726191
46	0xbf098b50	-0.537282
47	0xbde3ee17	-0.111293964
48	0x3d55606c	0.05209391
49	0x3da64c49	0.08120019
50	0x3e9deaaa	0.30843097
51	0xbdb6473f	-0.08900308
52	0x3c99edce	0.018790152
53	0xbd8c68e3	-0.06855943
54	0xbdece834	-0.11567727
55	0xbd8b068e	-0.067883596
56	0xbe97eab4	-0.29671252
57	0xbee450bd	-0.44592848
58	0xbe861dcb	-0.26194605
59	0xbf041937	-0.51600975
60	0xbf541fa0	-0.82860756
61	0xbac47149	-0.0014987375
62	0xbe4dac37	-0.20085226
63	0xbcc76fad	-0.024345243
64	0xbeeee1d0	-0.46656656
65	0x3d6831e8	0.05668822
66	0x3e048011	0.12939478
67	0xbc7d91ad	-0.015476626
68	0xbe39c600	-0.18141937
69	0x3e637e51	0.22216155
70	0xbe9448ac	-0.28961694
71	0xbe9de430	-0.30838156
72	0x3bba0be9	0.0056776893
73	0xbe76d910	-0.2410624
74	0xbe032b90	-0.12809587
75	0xbedfd700	-0.4371872
76	0x3f503db3	0.81344146
77	0x3e0855d2	0.13313988
78	0xbea3f49b	-0.32022557
79	0x3f584994	0.8448727
80	0xbe5da993	-0.21646719
81	0xbe4c15f8	-0.19930255
82	0xbf728e9c	-0.94748855
83	0xbe70558d	-0.23470135
84	0xbe4110d3	-0.18854074
85	0x3ead94e9	0.33902672
86	0xbdc88668	-0.09791261
87	0xbbc9ec65	-0.0061622136
88	0xbdae1e0f	-0.08501827
89	0x3e0a8cb2	0.13530234
90	0x3ea6326c	0.32460344
91	0x3f82a895	1.0207697
92	0x3d830af6	0.06398575
93	0xbeee582a	-0.4655164
94	0x3f170554	0.58992505
95	0xbe9ce8a5	-0.30646244
96	0x3dfda311	0.12384618
97	0x3d117738	0.035514086
98	0xbd9ba546	-0.07599883
99	0x3e571132	0.21002653
100	0x3df73f64	0.12072638
101	0x3ed7e4e6	0.42166823
102	0x3d12706a	0.035751738
103	0x3e7de12e	0.2479293
104	0x3e7a1030	0.24420238
105	0x3e79940b	0.2437288
106	0x3d7536bc	0.059866652
107	0x3f11aad8	0.5690131
108	0xbe5efde4	-0.21776539
109	0xbdd68b6f	-0.104758136
110	0xbebc090c	-0.36725652
111	0xbe889526	-0.2667629
112	0x3e9b3f50	0.3032174
113	0xbf255510	-0.6458292
114	0x3e5097e2	0.20370439
115	0x3e6169a3	0.22012953
116	0x3f165317	0.58720535
117	0x3ed3f5ab	0.41398367
118	0x3eab866f	0.33501002
119	0xbd90e4bb	-0.07074877
120	0xbe920b94	-0.28524458
121	0x3e2d5b59	0.16929378
122	0xbd52aca7	-0.051434185
123	0x3e0741b2	0.13208655
124	0x3e309d1b	0.17247431
125	0x3ec52e4c	0.38511884
126	0xbd4d2ea8	-0.050093323
127	0xbef1ffc0	-0.47265434
128	0xbbc35e05	-0.0059621357
129	0xbddd20d2	-0.107972756
130	0x3e1ecbc9	0.15507425
131	0xbdcd462c	-0.1002315
132	0x3e364132	0.17798308
133	0xbdfe4dc0	-0.124171734
134	0x3fac97b7	1.34838
135	0x3e925812	0.28582817
136	0x3c85dd97	0.016341014
137	0xbe23bea3	-0.15990691
138	0x3e59ae2a	0.21257845
139	0x3d39fd30	0.045407474
140	0x3e55f5fc	0.20894617
141	0x3d7591ac	0.059953377
142	0xbe043bf8	-0.12913501
143	0x3efb5180	0.49085617
144	0x3e2c4bc9	0.16825785
145	0xbfa074f2	-1.2535689
146	0xbdcc92ff	-0.09988975
147	0x3ca8e9a3	0.02061922
148	0x3c30b3b8	0.010785036
149	0x3ea1ae23	0.31578168
150	0xbe8b760c	-0.272385
151	0xbe40741f	-0.18794297
152	0x3d01be26	0.03167548
153	0x3e5ffa07	0.21872722
154	0xbcc01125	-0.023445675
155	0x3dc3dd0e	0.09563647
156	0xbcc130c6	-0.023582827
157	0xbe199a84	-0.1500035
158	0xbf28e016	-0.6596693
159	0xbe8e17a8	-0.27752423
160	0x3f16ebda	0.5895363
161	0x3f0be9c9	0.546536
162	0xbe000f24	-0.12505776
163	0xbf0e102a	-0.55493414
164	0x3e692462	0.22767785
165	0xbdf5fa7c	-0.12010667
166	0x3fefead3	1.8743538
167	0x3e89a765	0.26885524
168	0xbe3db904	-0.18527609
169	0xbebb1cd6	-0.36545438
170	0x3e494819	0.1965641
171	0xbd2c5b86	-0.04207947
172	0xbd4c131b	-0.049822908
173	0x3e938969	0.28815773
174	0xbd9675de	-0.073467
175	0xbe232fa9	-0.1593615
176	0xbf047b2d	-0.5175045
177	0x3d94a920	0.072588205
178	0xbe409224	-0.18805748
179	0x3f585b5e	0.84514415
180	0x3cb8192e	0.022472944
181	0x3e8e8347	0.27834532
182	0x3d1ed508	0.03877738
183	0xbe2de81d	-0.16983075
184	0xbc1fc3a3	-0.009751233
185	0x3dbd02ee	0.092290744
186	0xbe068601	-0.13137056
187	0x3ee6ff11	0.45116475
188	0x3def2654	0.116772324
189	0xbe2e1e40	-0.17003727
190	0x3e117a19	0.14206733
191	0xbea23030	-0.3167739
192	0xbcc8280c	-0.024433158
193	0xbe9e15ef	-0.3087611
194	0xbeae8db9	-0.340925
195	0x3da52b9f	0.08064961
196	0xbd9ba5ca	-0.07599981
197	0x3f44aff0	0.7683096
198	0x3ec4d988	0.38447213
199	0x3e80335a	0.25039178
200	0x3ea824cb	0.3284057
201	0x3dc2035d	0.09473298
202	0xbe6e91e7	-0.23297845
203	0x3e93a6c2	0.28838164
204	0x3de35ec3	0.11102059
205	0x3d109c20	0.035305142
206	0x3f4ab7bb	0.791866
207	0x3eb04a7e	0.34431833
208	0x3cd6d420	0.026224196
209	0xbec73750	-0.38909388
210	0xbe7e9c55	-0.24864323
211	0xbf5602c9	-0.83598
212	0x3d1d3567	0.038381007
213	0xbdfd2f88	-0.123625815
214	0x3de72681	0.11286641
215	0x3e6b0f8e	0.22955152
216	0xbebaea99	-0.3650711
217	0x3e451dc1	0.19249631
218	0xbe880e3b	-0.26573357
219	0xbe82f291	-0.25575688
220	0x3db5d83b	0.08879133
221	0x3dbdae35	0.09261743
222	0xbe093be9	-0.1340176
223	0x3edd990e	0.43280834
224	0xbe4909fe	-0.19632718
225	0x3d9bf1df	0.076144926
226	0xbeb12c02	-0.34603888
227	0xbed8475a	-0.42241937
228	0xbef807fe	-0.48443598
229	0x3e8f15e2	0.27946383
230	0xbe2bfd35	-0.1679581
231	0x3df6486b	0.120255314
232	0xbd492bac	-0.049113914
233	0xbda41f2d	-0.08013759
234	0x3d96256a	0.07331355
235	0xbd021a4e	-0.031763367
236	0xbe4e1027	-0.20123349
237	0x3dcd008c	0.1000987
238	0x3abec261	0.0014553779
239	0x3db9a1a4	0.09064034
240	0x3d79ed4c	0.06101732
241	0x3e8c50a5	0.27405277
242	0x3ca042e4	0.019563146
243	0xbd9d19c3	-0.07670929
244	0xbc2ea47b	-0.010659332
245	0x3e45a54d	0.19301338
246	0xbf8b830d	-1.0899369
247	0x3c2fa21e	0.010719804
248	0xbe836b84	-0.25667965
249	0x3beb5611	0.007181891
250	0x3dcc519c	0.09976503
251	0xbea055bd	-0.31315413
252	0xbe598a9e	-0.21244285
253	0xbe1c9614	-0.15291625
254	0x3d049c84	0.032375827
255	0xbebf3b16	-0.37349766

layers.2.bias f4 [100]
0	0x3e506709	0.20351805
1	0x3de9c2ee	0.11414133
2	0x3ed87221	0.42274573
3	0xbedfa8de	-0.43683523
4	0x3ce54699	0.027987765
5	0x3ebd1cd1	0.36936048
6	0x3e68f337	0.22749029
7	0xbf200813	-0.6251232
8	0xbe797039	-0.24359216
9	0x3df28bd5	0.11843077
10	0xbde8fa01	-0.113758095
11	0xbbeeb4f3	-0.0072847544
12	0x3e0d0c49	0.13774218
13	0x3f10e8a8	0.56605005
14	0x3d2d192f	0.042260345
15	0xbee73b1c	-0.45162284
16	0xbedaea65	-0.42756954
17	0x3ef10722	0.47075754
18	0x3e9cb4b3	0.30606613
19	0x3eb03277	0.34413502
20	0x3e9ceca0	0.3064928
21	0xbe9017f7	-0.28143284
22	0xbe701ed9	-0.23449267
23	0x3ca803e0	0.02050966
24	0xbe733137	-0.23749243
25	0x3ce43d26	0.02786119
26	0x3e425da0	0.18981028
27	0xbdcf2d65	-0.1011608
28	0xbf1119db	-0.5668008
29	0x3e30f620	0.17281389
30	0x3e847a2f	0.2587447
31	0x3e8f6689	0.28007916
32	0xbce3e110	-0.02781728
33	0xbe17f2b1	-0.14838673
34	0xbec49eb7	-0.3840234
35	0xbe6a4c79	-0.22880735
36	0xbd795874	-0.06087537
37	0xbea1b2e6	-0.315818
38	0x3eff387c	0.49847782
39	0x3e84fe35	0.25975195
40	0x3e5d4de2	0.21611741
41	0x3ebf9748	0.37420106
42	0xbde84f97	-0.113433056
43	0x3e90cc71	0.28280976
44	0x3ee463c5	0.44607368
45	0x3d1eb727	0.038748886
46	0x3e728478	0.23683345
47	0xbd473929	-0.048638497
48	0xbed10b27	-0.4082882
49	0xbe79a27c	-0.24378389
50	0x3de8f683	0.113751434
51	0x3e9e4888	0.30914712
52	0xbc72b21e	-0.014812974
53	0x3e8ff883	0.28119287
54	0x3afb2d8c	0.0019163354
55	0xbe887b76	-0.26656693
56	0xbd725dd0	-0.059171498
57	0x3e1f0234	0.15528184
58	0xbe1ca975	-0.15299018
59	0xbdcc779a	-0.0998375
60	0xbec45bd9	-0.38351324
61	0xbf033e3b	-0.5126683
62	0x3d81b8f5	0.06334106
63	0xbe2ed069	-0.1707169
64	0x3e892ae8	0.26790547
65	0x3d1d99fc	0.03847693
66	0xbe1c4835	-0.1526192
67	0xbe4a3a27	-0.19748746
68	0xbe2dceca	-0.16973415
69	0x3e25f41e	0.16206405
70	0xbe8d6463	-0.2761565
71	0x3ec9d66f	0.39421412
72	0xbe1f9721	-0.15584995
73	0xbddce9df	-0.10786795
74	0xbe9bfaa5	-0.30464664
75	0x3e2337ac	0.15939206
76	0xbe07842f	-0.13234018
77	0x3ec34f0e	0.3814625
78	0x3e36a6aa	0.17837015
79	0x3c27cbc4	0.010241453
80	0xbd966a08	-0.073444426
81	0x3eb19f14	0.3469168
82	0x3df58a95	0.11989323
83	0x3dacc590	0.084361196
84	0x3c810845	0.015751014
85	0xbea95437	-0.33072063
86	0x3c15b67d	0.009137747
87	0xbb8a2117	-0.0042153704
88	0x3e6cf421	0.23140003
89	0xbf04cbb7	-0.51873344
90	0xbef7c2ae	-0.48390716
91	0xbe927d13	-0.2861105
92	0xbd8141be	-0.063113675
93	0xbd1d0f92	-0.038344927
94	0xbe85489b	-0.26031956
95	0x3e5fdc30	0.21861339
96	0xbedda48e	-0.43289608
97	0x3de416b3	0.11137142
98	0x3e2dd9b5	0.1697758
99	0x3e343ca3	0.17601256

layers.4.weight f4 [100, 100]
0	0xbd9fece8	-0.07808858
1	0xbe054128	-0.13013136
2	0xbe89728c	-0.26845205
3	0x3e739862	0.23788598
4	0xbe1a99a2	-0.15097669
5	0xbe4f3db2	-0.20238379
6	0x3dea60af	0.11444222
7	0x3e5d0348	0.21583283
8	0xbf3915fb	-0.72299165
9	0x3f067246	0.5251812
10	0x3eedba66	0.46431273
11	0x3e706eac	0.23479718
12	0xbdfd1cd9	-0.12359018
13	0x3bdc04e3	0.0067144497
14	0xbec07157	-0.3758647
15	0xbe18da5f	-0.14927052
16	0x3c57a38d	0.013161552
17	0xbe43d154	-0.19122821
18	0xbdb22c36	-0.08699839
19	0x3d90cd44	0.07070401
20	0xbdabcc61	-0.083885916
21	0xbd1f29fd	-0.038858403
22	0x3e724e1b	0.23662607
23	0x3ee70623	0.4512187
24	0x3e3308c5	0.17483814
25	0x3ec28ef5	0.37999693
26	0xbec06a3e	-0.37581056
27	0xbcf194b1	-0.029489847
28	0x3e6a95c8	0.229087
29	0xbf790837	-0.9727816
30	0xbe1ea0c9	-0.15491022
31	0xbe7ea393	-0.24867086
32	0xbf636150	-0.8882036
33	0xbeefaa52	-0.46809632
34	0x3d596ce2	0.053082354
35	0xbfb270ca	-1.394067
36	0xbe830c4c	-0.2559532
37	0x3e0ea4b8	0.13930023
38	0x3ebccd1a	0.3687523
39	0xbe6384aa	-0.22218576
40	0xbe49766e	-0.19674084
41	0xbd8e07e1	-0.069350965
42	0xbd9c4f19	-0.07632274
43	0xbdd446ae	-0.103650436
44	0x3e2da43b	0.1695718
45	0xbe8d95ce	-0.27653354
46	0x3e820522	0.2539454
47	0xbeb05fc5	-0.34448066
48	0x3e5dbff2	0.21655253
49	0x3ea986e5	0.3311073
50	0xbeddebc8	-0.4334395
51	0xbe3997ea	-0.18124357
52	0xbcf7d8d1	-0.030254753
53	0xbdc2b45a	-0.095070556
54	0xbe5d1ef5	-0.2159384
55	0x3ecb194c	0.39667737
56	0x3eb948a2	0.36188227
57	0xbd988976	-0.074480936
58	0x3f0151bb	0.50515336
59	0xbf0a3415	-0.5398572
60	0xbced368a	-0.02895667
61	0x3e8c9263	0.27455434
62	0x3ec23d50	0.37937403
63	0x3d5d14ef	0.053975042
64	0xbcf0f747	-0.029414786
65	0xbe801437	-0.25015423
66	0x3db0ee82	0.08639242
67	0x3c98ed9a	0.018667985
68	0x3d1c33f8	0.0381355
69	0xbe371618	-0.17879522
70	0x3da7a74a	0.08186205
71	0xbe1b2c95	-0.15153725
72	0x3da19c10	0.07891095
73	0x3ed65e98	0.41869044
74	0x3d9b5e8a	0.07586391
75	0x3bbdb98f	0.0057899426
76	0xbe888511	-0.26664022
77	0xbe0d7270	-0.13813186
78	0x3e59d73b	0.2127351
79	0xbe113e47	-0.14183913
80	0xbc45b8a3	-0.012067947
81	0xbd8c89f9	-0.06862254
82	0xbe732282	-0.23743632
83	0xbe7db7ff	-0.2477722
84	0xbde2695e	-0.110552534
85	0x3dd76f75	0.105193056
86	0xbe4562c8	-0.19275963
87	0xbcbe9728	-0.023265436
88	0x3e079a9a	0.1324257
89	0x3e21dd7c	0.15807146
90	0x3df07069	0.117401905
91	0xbeb9243d	-0.3616046
92	0x3ec2a849	0.38019016
93	0xbf85d1f5	-1.0454699
94	0x3e4df498	0.20112836
95	0xbf5ebe0f	-0.87008756
96	0x3de30e4d	0.11086712
97	0xbe2dc5b3	-0.16969948
98	0xbdef9dac	-0.116999954
99	0xbfb61e57	-1.4228009
100	0x3cdf474b	0.027255675
101	0x3dee317d	0.11630533
102	0x3e68012a	0.22656694
103	0xbd805436	-0.06266062
104	0xbda6f218	-0.081516445
105	0x3e567b65	0.20945509
106	0x3e105896	0.14096293
107	0xbdf2557a	-0.118327096
108	0xbe285475	-0.16438468
109	0xbda9ddc6	-0.08294253
110	0xbe0cec31	-0.13761975
111	0x3c80e4cd	0.0157341
112	0x3ed49ec5	0.41527382
113	0x3df822c1	0.12116004
114	0x3d3434d7	0.043995705
115	0x3d19ef19	0.037581537
116	0xbe09828f	-0.1342871
117	0xbed49cff	-0.4152603
118	0x3d9916fe	0.074750885
119	0x3e06ad33	0.13152008
120	0x3e1e9cbf	0.15489481
121	0xbd81db57	-0.06340664
122	0xbe60788c	-0.21920985
123	0x3e758b95	0.23979028
124	0xbe019330	-0.12653804
125	0xbec943da	-0.3930958
126	0x3e5727cf	0.2101128
127	0xbeb3cec7	-0.35118696
128	0xbe6297bf	-0.22128199
129	0x3d95d8b1	0.07316721
130	0x3e01fd7e	0.12694356
131	0x3d40449f	0.046940442
132	0xbde9d25d	-0.11417077
133	0x3e9e8a96	0.30965108
134	0xbccbc4f7	-0.024874194
135	0x3ea87412	0.32901055
136	0xbe9c515f	-0.3053083
137	0xbc078a58	-0.00827273
138	0xbee126ca	-0.43974906
139	0xbec8fe86	-0.39256686
140	0xbd0a6620	-0.0337888
141	0x3e2ebdfc	0.17064661
142	0xbe7ff2ca	-0.2499496
143	0x3d9cfdaa	0.0766557
144	0xbf35e28a	-0.71048796
145	0x3f1d9f68	0.6157136
146	0xbeca757b	-0.39542755
147	0x3da98cfb	0.08278843
148	0xbdc11657	-0.09428089
149	0xbdd571bd	-0.104220845
150	0xbdefc270	-0.11707008
151	0x3e6109d3	0.21976404
152	0xbe068201	-0.1313553
153	0x3e52edf1	0.2059858
154	0xbd423af9	-0.047419522
155	0xbe1a7a19	-0.15085639
156	0xbe56b02a	-0.20965639
157	0x3e82a9e4	0.2552024
158	0xbde1bc6d	-0.110222675
159	0x3e93cd38	0.28867507
160	0x3e40108b	0.1875631
161	0xbe44ef09	-0.1923181
162	0x3df480ad	0.119386055
163	0xbe1d4526	-0.1535841
164	0x3d88744b	0.06662806
165	0xbdd15bcd	-0.10222588
166	0xbecea613	-0.4036108
167	0xbd99657e	-0.07490061
168	0xbe0c4bec	-0.13700837
169	0xbde8694a	-0.11348207
170	0xbe13f96d	-0.14450617
171	0x3deb1b98	0.114798725
172	0x3ea48e25	0.32139698
173	0xbe017f13	-0.12646131
174	0xbe7d0561	-0.24709083
175	0xbd6b125f	-0.057390567
176	0x3e10a30f	0.14124702
177	0x3e501ea5	0.2032419
178	0xbcaf38dc	-0.021389417
179	0x3ea85ffc	0.3288573
180	0xbda8e7b9	-0.082473226
181	0x3d66eead	0.056379963
182	0x3f24706c	0.6423404
183	0x3de5d3f1	0.11222065
184	0xbe512f04	-0.20428091
185	0xbe61dc1a	-0.22056618
186	0x3e61500c	0.22003192
187	0x3e3a3df3	0.18187694
188	0xbeddcb39	-0.4331911
189	0xbe067dd6	-0.1313394
190	0x3a809238	0.0009809202
191	0x3eadef13	0.33971462
192	0xbe966b81	-0.29378894
193	0x3f3f7b45	0.7479747
194	0xbe51862b	-0.20461337
195	0xbf1f5a76	-0.6224741
196	0xbd1a6d8e	-0.037702136
197	0x3d8f8227	0.070072465
198	0xbd75cba2	-0.060008653
199	0xbe43faaf	-0.19138597
200	0xbe0223b7	-0.12708937
201	0xbcab5e17	-0.020918889
202	0xbe23dc29	-0.16001953
203	0x3e781025	0.24224909
204	0x3db18d0c	0.08669481
205	0xbe62943c	-0.2212686
206	0xbdf4ec2f	-0.11959111
207	0x3e7a8eea	0.2446858
208	0x3eee6b72	0.4656635
209	0xbeaf64e6	-0.34256667
210	0x3e286a02	0.16446689
211	0xbe0b9d3d	-0.136342
212	0xbd427806	-0.047477745
213	0xbe4eda61	-0.20200492
214	0xbdd53f4d	-0.10412464
215	0xbe4b3736	-0.1984528
216	0x3deb6058	0.114929855
217	0x3e896072	0.26831394
218	0xbe4922fb	-0.1964225
219	0xbe1280ae	-0.143069
220	0xbdfe243b	-0.12409254
221	0x3d2b0328	0.041751057
222	0x3e64ac35	0.22331317
223	0x3e0332b6	0.12812313
224	0xbd2d5f99	-0.042327497
225	0x3e6489dc	0.22318214
226	0xbe2e5b5a	-0.17027035
227	0x3e69a6ae	0.2281749
228	0x3e308ea5	0.17241915
229	0xbe630137	-0.22168432
230	0xbe61952c	-0.22029561
231	0xbdc9f9c1	-0.0986209
232	0x3e0a6025	0.13513239
233	0xbd86c7a4	-0.06581047
234	0x3d9cf0c4	0.0766311
235	0xbe2e0bbe	-0.16996667
236	0x3e27de86	0.1639348
237	0x3b7014ff	0.0036633608
238	0x3e8d7ba1	0.27633384
239	0x3dd0409f	0.101685755
240	0x3dcb149f	0.099160425
241	0xbe7b6eb2	-0.24553946
242	0x3ea65c62	0.32492357
243	0x3d3c8f35	0.04603501
244	0x3eac0228	0.33595395
245	0xbe971e66	-0.2951538
246	0x3dfb230d	0.12262545
247	0xbfaa1719	-1.3288299
248	0x3dd2de90	0.10296357
249	0x3e5e1ee6	0.21691474
250	0x3d9bff74	0.07617083
251	0xbe311cad	-0.17296095
252	0x3d004719	0.031317804
253	0x3c8c7c0f	0.017149
254	0xbe034e15	-0.12822755
255	0xbe76aa41	-0.24088384

layers.4.bias f4 [100]
0	0xbe57b1b3	-0.2106388
1	0x3e282c81	0.16423227
2	0xbe850158	-0.25977588
3	0x3e2eef54	0.17083484
4	0x3f0ea5f7	0.5572199
5	0x3e17b855	0.14816411
6	0xbe64d2f8	-0.22346103
7	0xbdc1ae15	-0.09457032
8	0xbe554d1c	-0.20830196
9	0x3dd53bf1	0.104118235
10	0x3e91a3d1	0.28445294
11	0x3efc5fea	0.49291927
12	0x3dc548ad	0.096330024
13	0xbd721a97	-0.05910739
14	0xbea9ca3b	-0.33162102
15	0x3e31e6e0	0.17373228
16	0x3be6ee67	0.0070474627
17	0xbe3bb926	-0.18332347
18	0x3e394dd9	0.18096103
19	0x3e9057d0	0.28191996
20	0x3e00b69d	0.12569661
21	0xbdf6ce56	-0.12051074
22	0xbd72ffef	-0.05932611
23	0xbf27841c	-0.6543596
24	0x3e7ccf8e	0.24688551
25	0xbeb07095	-0.34460893
26	0x3e29f9e9	0.1659924
27	0x3ebd8a34	0.37019503
28	0x3d6d42c7	0.057925012
29	0x3e12eb1d	0.14347501
30	0x3e516a38	0.20450675
31	0xbe24cdc4	-0.16094118
32	0xbd64c0e2	-0.05584801
33	0xbd91920a	-0.07107933
34	0x3e8dc3a5	0.27688327
35	0x3cf93f2d	0.030425632
36	0x3ea54aaf	0.32283542
37	0x3e70732f	0.23481439
38	0xbf0a0a8a	-0.5392233
39	0xbe01ecb4	-0.12687951
40	0x3e651301	0.2237053
41	0xbdda8483	-0.10669806
42	0xbe8852f4	-0.26625788
43	0xbe8cb252	-0.27479798
44	0x3e6d588a	0.23178306
45	0x3f47b21f	0.78006166
46	0xbd80b922	-0.06285311
47	0xbc85aa7f	-0.01631665
48	0xbd4ab77b	-0.049491387
49	0x3ea9616b	0.33082137
50	0xbe105402	-0.14094546
51	0x3f034ec6	0.51292074
52	0x3e29528f	0.165354
53	0xbe57c716	-0.21072039
54	0xbdab05f9	-0.083507486
55	0xbd8e35fb	-0.0694389
56	0x3e0355ac	0.1282565
57	0xbebfbb8f	-0.37447783
58	0x3e159b95	0.14610131
59	0xbdd2377d	-0.1026449
60	0x3e8794ee	0.26480812
61	0x3e172011	0.14758326
62	0x3d6c6ed9	0.0577229
63	0xbcdf2a42	-0.02724183
64	0x3e3ae91b	0.18252985
65	0xbeb1240e	-0.3459782
66	0x3e4d82d4	0.20069438
67	0x3f1defc4	0.6169398
68	0xbe0f7dd8	-0.1401285
69	0x3dca3ffd	0.09875486
70	0xbdcf05bd	-0.10108516
71	0xbd1edd3f	-0.038785215
72	0x3e54a053	0.20764284
73	0x3e87b3e6	0.2650444
74	0x3d069316	0.032855116
75	0xbe825892	-0.254582
76	0xbe0c43f1	-0.13697793
77	0x3cbb94ae	0.022898044
78	0x3e0ee0fd	0.13953014
79	0xbdbd50ba	-0.09243913
80	0x3f2d82a6	0.6777748
81	0xbcd89048	-0.026435986
82	0x3dda3880	0.10655308
83	0x3f2f34ac	0.68439746
84	0xbde55be8	-0.1119917
85	0xbe0c858b	-0.13722818
86	0x3e59ba58	0.21262491
87	0xbe74e016	-0.23913607
88	0x3e1d35f2	0.1535261
89	0xbdecf241	-0.11569644
90	0xbea60efd	-0.3243331
91	0x3e3176e7	0.17330514
92	0x3ea4754b	0.32120737
93	0xbdef6bd5	-0.11690489
94	0x3de314f2	0.110879794
95	0x3e3ffc8a	0.1874868
96	0x3c0e4165	0.008682583
97	0xbe359075	-0.17730887
98	0x3e731e48	0.2374202
99	0xbdbd5405	-0.09244541

layers.6.weight f4 [1, 100]
0	0x3e11414e	0.14185068
1	0xbe54037e	-0.20704457
2	0x3e14ae08	0.14519513
3	0xbf904b0b	-1.1272901
4	0xbe9cbd0e	-0.30612987
5	0xbe06bd79	-0.13158216
6	0x3e3524ad	0.17689772
7	0x3d79de8d	0.061003257
8	0x3becb5b8	0.007223811
9	0xbc98c11c	-0.01864677
10	0xbe0b0274	-0.13575155
11	0xbf849053	-1.0356544
12	0xbd70a722	-0.05875314
13	0x3eb5c762	0.3550368
14	0x3e99c3af	0.30032107
15	0xbe4d2841	-0.20034887
16	0xbde09e71	-0.1096772
17	0x3e6183a0	0.22022867
18	0xbe3b2eb6	-0.18279538
19	0xbe109e9b	-0.14123003
20	0xbce926e8	-0.028460935
21	0x3e4615b1	0.19344212
22	0x3ddece2f	0.1087917
23	0x3e92756e	0.28605217
24	0xbd7dd409	-0.06196979
25	0x3eadf923	0.3397914
26	0xbe24ff1c	-0.16112942
27	0xbf72b05d	-0.9480036
28	0xbd7b0098	-0.061279863
29	0xbdeb72c7	-0.114965014
30	0xbf28afd9	-0.6589332
31	0x3e239267	0.15973817
32	0x3e9f99ee	0.31172127
33	0x3cae12b0	0.021249145
34	0xbdc6d1eb	-0.097080074
35	0x3ae11dc9	0.0017175014
36	0xbe81f005	-0.25378433
37	0xbd8ad2a2	-0.06778456
38	0x3e4daefd	0.20086284
39	0xb80881c7	-3.254579e-05
40	0xbdcaea8a	-0.09908016
41	0x3ed7ae03	0.42124948
42	0x3e30983c	0.17245573
43	0x3daebe54	0.08532396
44	0xbe309a62	-0.17246392
45	0xbf06dde0	-0.52682304
46	0x3d4d8f1a	0.0501853
47	0xbeb4bc3e	-0.35299867
48	0x35dad6ef	1.630482e-06
49	0xbf1d6cc2	-0.61494076
50	0xbeef9188	-0.4679072
51	0xbed78a30	-0.42097616
52	0xbda8a12e	-0.082338676
53	0x3e254f88	0.1614362
54	0x3de9d6c4	0.114179164
55	0x3dc988f9	0.098405786
56	0xbdb5631b	-0.088567935
57	0x3e830eea	0.25597316
58	0xbdbcccd8	-0.09218758
59	0x3dcf4ea9	0.10122425
60	0xbe2ee165	-0.17078169
61	0xbdaafe59	-0.08349294
62	0xbe01ac9f	-0.12663506
63	0x3de494e0	0.11161208
64	0xbdbfbb40	-0.09361887
65	0x3f0615b9	0.52376896
66	0xbdff37e3	-0.124618314
67	0xbf1fb520	-0.6238575
68	0x3da86010	0.082214475
69	0xbd69abe8	-0.05704871
70	0x3e592445	0.21205242
71	0x3aa2823f	0.0012398436
72	0xbf175add	-0.5912302
73	0xbeb384b6	-0.35062188
74	0xbf5bf35d	-0.8591822
75	0x3da5c51c	0.08094236
76	0x3e170fe4	0.14752156
77	0xbd962b9b	-0.07332536
78	0xbdf3223a	-0.118717626
79	0x39a4bc5c	0.00031420856
80	0xbf42154b	-0.7581374
81	0x3736754c	1.0875356e-05
82	0xbd88bf90	-0.06677163
83	0xbe1c2667	-0.15249024
84	0x3ef9c99d	0.4878663
85	0x3f19e94a	0.60121596
86	0xbe3b7e2a	-0.18309847
87	0x3e3d5705	0.18490227
88	0xbe967f97	-0.29394218
89	0x3ee4c3b5	0.44680563
90	0x3e8969b3	0.26838455
91	0xbea15073	-0.3150669
92	0xbf3e63d7	-0.74371094
93	0xba05bbb2	-0.0005101516
94	0x3a9a7941	0.0011785404
95	0xbee73e2b	-0.45164618
96	0x3f6d2cd6	0.9264654
97	0x3d62ae7a	0.055342175
98	0xbdef0a4d	-0.116718866
99	0x3e2617d0	0.16220021
