hddm/torch_models/7821dc4c15f811eca1553cecef057012_seq2_angle_no_bias_torch_state_dict.pt (torch, 87439 bytes, 7 tensors)

layers.0.weight f4 [100, 8]
00000000: 4560 ba3c f49c 19bc 4b9b c3bb 2daa 80bf
00000010: 6824 55bf a144 a63e 03d2 423f 8a16 a63c
00000020: 9c9e b4bc 288c 2a3c 9aea eabb d843 be3d
00000030: 6156 20bf 1769 f4be 00c1 2d3f 81c4 9bbc
00000040: e5fb 26bf 517e 503c 7548 073c 2159 ee3e
00000050: 82b2 d63c 9b3c 293f 8e61 e9bc 3192 9cbc
00000060: e1e5 87ba fc30 603b a49e 30bb 3f69 5c3e
00000070: 2c85 f03f 9925 233f 2e02 f0bf 2224 6839
00000080: 47ee 843e c12e 62bb 9e78 a9bc f7d0 433e
00000090: 4f29 8c3d 6927 853f 7584 81bd 8461 d03e
000000a0: 0230 7cbd e4bf 0a3c a08b 72be 1c60 d63d
000000b0: 94ad 2d3b 7c62 be3e a3fa d5ba 74d4 92bf
000000c0: 4b52 4c3d 7c6a 033c 6c35 03bb 705e 753d
000000d0: 9b8b e63e c8d8 01bf 4a26 02bf 5548 2fbd
000000e0: ce14 e7bc 6a86 aa3c e72a 94bc 2ac4 873e
000000f0: 50d8 573d 0257 8fbf b3a5 da3b c9e2 993b
00000100: d6b7 dab9 4fb1 a8bb 5799 29bf 130d cf3d
00000110: 17de db3c f2e1 89bd 36ba f5bc dddb a63e
00000120: ad77 34bc d7c5 c03b 4dea 7e3b 1367 64c0
00000130: e6f3 003d 98fd 48bf e4a2 0d3c 8f05 a83b
00000140: c3fd 2a3e 526a ee3b fef1 a03c b06d bcbe
00000150: 58af bdbe ab8e 863e b08d c23e 1fdc 97be
00000160: 863e b43c e948 1dbf 599c 45bb b690 603e
00000170: 63f7 b23c 34d7 0bbe c4a8 c1bc b7e3 143f
00000180: 91d4 0e38 f06a d0bd d259 103c e728 fabc
00000190: 9b8a e4bd f97d 6d3e 2b37 e03d 0169 bb3e
000001a0: e1c4 6cbd cd11 0cbe 4ba1 973c 59ec b33c
000001b0: a1e1 3abe 5a79 e63e de48 523e b93b 26bf
000001c0: 61fe 7dbe 407d 523d 210d d0bb 95eb 72be
000001d0: bce5 bbbc 8b6e 33be e513 b13c 20d6 fe3e
000001e0: 4568 83be 0165 c23d e09e e83a 954c 89bc
000001f0: 1cd4 c6bd 3c5d 3a3f 4f6b b33d bf9a 36bf
00000200: 72eb 33be bd9c b6bc 799b 37bb 6356 9ebe
00000210: e96e 38bf a4c8 ec3e 9684 373f 053d 053d
00000220: c872 ccbd 8ab9 32bf 00c2 76bb 7524 5fbe
00000230: 9ee0 c5bc 9abd 8fbe 0b6d c53c 0c93 873f
00000240: e221 44be b2e9 7fbe b527 14bb d6c8 c1be
00000250: c4dd 313d ddc0 85bd 61ad 67bd fbf0 8dbf
00000260: 0145 d23c ed62 883d 8c96 06bd 502f 64bf
00000270: 4885 213e aed7 59bf 57ac bbbd a4b7 86bd
00000280: a5a4 f83e d736 8fbc a19e d93a 967c c8be
00000290: 8f26 35be 7d5e de3e 388f 2f3e ef4b 573e
000002a0: e3a1 b7bd 2a20 dc3b dc55 90bc 51c1 7b3f
000002b0: cd8b 94be c601 873f a354 953e 13fe 55bb
000002c0: 4144 073d 763e c8ba ca3d 063c 78f1 15bf
000002d0: 72af 3abf 4298 19bf 0a59 443f ba6a c73c
000002e0: b477 ac3d a14d 653e 153a d0ba e854 0f3d
000002f0: f7cf d83a 2a18 b6be b9f8 323b bf96 143f
00000300: 8965 9e3c 466f 953e e645 723c 8df2 7a3d
00000310: 7e5d 9fbc b24a 783f 1ebe ea3b 8602 4dbf
00000320: d4f3 173c 9e96 ae3b 098e 8a3c ed7a 1b3f
00000330: 2ffa e53e 85be b6be 9f47 4bbf bca2 69bb
00000340: 4877 49be b651 283e 317b b3bc 0ed2 60be
00000350: 371f 04bd e396 97be 880e d93c ddce 73bf
00000360: 375f 613e 6b8e 33be e409 4dbd 1e83 273e
00000370: e37c d0bc de44 eebc 2581 7b3c a3d8 cbbf
00000380: a36c 31bc 2df5 03bb edba 393b f2b5 ec3e
00000390: 1020 87bf 1093 91be af02 8b3f fd6e af3c
000003a0: 5d48 23be 0f3e 003b e9f0 46bb ee9a a83e
000003b0: 906c c23e 6db9 2ebf 9380 bebe a8a2 ea3c
000003c0: 9c24 1e3f df57 753b c6c4 633c 8111 ee3e
000003d0: 4556 333d 00fe 1c3f 111f 52bd c3c0 f6bd
000003e0: e130 7b3d 2d89 30be c18f cd3d d11f e3be
000003f0: 6f08 073e eb30 1abf 49c2 08be 7c95 e9be
0.022750983 -0.009375799 -0.00596944 -1.0051934 -0.83258677 0.32474235 0.761017 0.02027442
-0.022048287 0.010409392 -0.00716908 0.09290284 -0.62631804 -0.47736427 0.6787262 -0.019014599
-0.6522811 0.012725429 0.008257021 0.46552375 0.026208166 0.661081 -0.0284889 -0.019112678
-0.0010368192 0.0034208884 -0.0026950026 0.21524523 1.8790641 0.63729244 -1.8750665 0.00022138705
0.2596304 -0.003451273 -0.020687398 0.19122683 0.068438165 1.0402652 -0.06324092 0.406994
-0.06156922 0.008468602 -0.23686075 0.1046755 0.0026501166 0.37184513 -0.0016325306 -1.1471086
0.04988317 0.008020993 -0.0020020856 0.059904516 0.45028386 -0.50721407 -0.50839674 -0.04279359
-0.028208163 0.020816047 -0.018086864 0.2651685 0.052696526 -1.1198428 0.006672585 0.0046962244
-0.0004171717 -0.00514809 -0.66249603 0.101099156 0.0268393 -0.06732549 -0.029996019 0.32589617
-0.011014861 0.0058829593 0.0038896978 -3.5687912 0.0314826 -0.78511953 0.008644793 0.0051276158
0.16698365 0.007275858 0.01964664 -0.36802435 -0.3704784 0.26280722 0.37998724 -0.29660127
0.02200247 -0.6143938 -0.0030153005 0.21930203 0.021846479 -0.13656312 -0.023640044 0.58159965
3.4053406e-05 -0.10176647 0.008810477 -0.030537082 -0.111592494 0.23192586 0.109480225 0.3660355
-0.057804946 -0.13678665 0.018509528 0.021963285 -0.18250133 0.4501446 0.20535609 -0.6493488
-0.24804069 0.05138898 -0.0063492213 -0.2372268 -0.022936694 -0.17522638 0.021615932 0.4977274
-0.2566549 0.09491921 0.0017747544 -0.01676015 -0.097084254 0.72798514 0.08760702 -0.71329874
-0.17570284 -0.022291536 -0.0028016253 -0.30925283 -0.72044235 0.46246827 0.71686685 0.032528896
-0.0998283 -0.6981436 -0.0037652254 -0.21791251 -0.024154957 -0.28074342 0.024099847 1.059175
-0.1915355 -0.24991491 -0.0022606675 -0.37848538 0.043424383 -0.065309264 -0.05656183 -1.1089166
0.02566767 0.066594936 -0.032858416 -0.89134693 0.15773499 -0.85094726 -0.091637306 -0.065779954
0.48563114 -0.017482204 0.0016603061 -0.39157552 -0.1769049 0.43431464 0.17144477 0.2102506
-0.08966424 0.0067177014 -0.017619066 0.9834185 -0.2901291 1.0547416 0.29166135 -0.003265266
0.033024076 -0.0015277404 0.008193443 -0.5857158 -0.7292396 -0.5999795 0.7669836 0.024342883
0.08421269 0.22392894 -0.001588645 0.034993082 0.001654147 -0.3556531 0.0027308895 0.5804252
0.019335525 0.29186457 0.014787173 0.06126647 -0.01945376 0.96988976 0.007163777 -0.80081975
0.009274442 0.0053280136 0.01691343 0.60734445 0.44917437 -0.3569223 -0.7940616 -0.0035649976
-0.19674408 0.1643742 -0.021909328 -0.2195513 -0.03225633 -0.29607305 0.026496187 -0.95237523
0.22008978 -0.17534797 -0.05005826 0.16358611 -0.025450176 -0.029085573 0.015350615 -1.5925487
-0.010829124 -0.002013515 0.0028340176 0.46232563 -1.055666 -0.28432512 1.0860194 0.021415228
-0.15945573 0.001956824 -0.0030355996 0.32930702 0.37973452 -0.6825169 -0.3720747 0.028642014
0.6177461 0.0037436408 0.013901895 0.4649773 0.043783445 0.61325073 -0.05129916 -0.12048485
0.06132591 -0.17239828 0.100371845 -0.44360211 0.13186811 -0.6023089 -0.13355364 -0.4562186

layers.0.bias f4 [100]
00000000: 239c 42bd e11f 213e 54dc e1be e15f aabe
00000010: 5c6f 00bf 582d eb3f 9fd7 6c3f bed7 ee3d
00000020: 8483 7c3e aa93 353f 09a3 253f 6b27 a83e
00000030: ff4d 42bf 356d 543f 389c 13bf 5420 e0be
00000040: 2938 b23e 618b d5bb 8739 833e fb9b ac3e
00000050: e0d6 333e 13b5 34bf f008 a53e 7c45 d5be
00000060: ede9 b43e effb 3dbe 002c 693f bf79 8c3f
00000070: 8333 84be 5b70 173f 323d 76bd 7a98 c3bf
00000080: 9d4b bebe 8ad0 8c3e a6cc d8be 29c9 063f
00000090: b41a ddbe 32ee 513e 5fa8 65bd 5f4e fe3e
000000a0: e964 c9be c7cb 01bf cbf0 a6be c040 3c3e
000000b0: 6e08 993e f885 d0be 8a74 413e a652 063e
000000c0: 7170 bd3e a116 b7be 6236 83be ec3a 42bf
000000d0: 7d90 bdbf c67e 123f fd07 f0be 6442 053f
000000e0: 8afb 013f 925c bdbe 09d3 0f3f 1cff 07bf
000000f0: 5e99 5d3e 9f73 123f 1893 563f 1f18 0b3f
00000100: da49 40be 838d b73d dff9 493f 1d2c 0f3f
00000110: a07a b8be 8a88 843e 7eee 25be 2bd8 38be
00000120: 1323 9ebe 8a64 4e3f 9087 143f 00da 4bbe
00000130: a815 b9bd e416 75bf 5379 013e 7112 f53e
00000140: 3885 91be 2328 483f df0d 2bbe f892 e6bf
00000150: 2bb1 773e 8f78 5b3d 4b7e 38bf bfa6 1dbf
00000160: fcf1 53be 490f 04bf 4d9e b4be 7558 2abf
00000170: 8610 76bd b1d7 9a3e 293f 053f 41e0 6dbf
00000180: 0391 0bbf 5bbd 413e bcb4 aa3f c9f3 13be
-0.047512185 0.15734817 -0.4411341 -0.33276275 -0.5016992 1.8373213 0.9251651 0.11662243
0.24659544 0.7092844 0.64701897 0.32842574 -0.7590026 0.82979137 -0.57660246 -0.43774664
0.34808472 -0.0065168594 0.25629827 0.33712754 0.17562437 -0.705888 0.3223338 -0.41654575
0.3533472 -0.18553136 0.91082764 1.0974654 -0.2582055 0.59155816 -0.060116954 -1.5280907
-0.37167063 0.27502853 -0.42343634 0.52650696 -0.43184435 0.2050102 -0.056068774 0.49669167
-0.393348 -0.50701565 -0.32605585 0.18384075 0.29889244 -0.4072721 0.18892112 0.13117465
0.36999848 -0.35759452 -0.25627428 -0.7587116 -1.4809719 0.5722469 -0.46881095 0.5205443
0.50774443 -0.36984688 0.5618139 -0.5312364 0.21640536 0.57207674 0.838182 0.5433368
-0.18778172 0.08962538 0.788969 0.55926687 -0.36031055 0.2588542 -0.16204259 -0.18051212
-0.30886135 0.8062216 0.5801935 -0.19907379 -0.09037334 -0.95738053 0.12643938 0.47865632
-0.2842195 0.78186244 -0.1670451 -1.8013601 0.24188678 0.05358177 -0.7206771 -0.6158256
-0.20697778 -0.51585823 -0.35277024 -0.66541225 -0.06007435 0.30242684 0.520495 -0.9292031
-0.54518145 0.1891989 1.3336406 -0.14448465

layers.2.weight f4 [100, 100]
00000000: 93a1 0e3d 9231 26bd a60c 29bd 8b0d 803e
00000010: e2bd 083e 8112 e43d fd2c 933e 104d 90bd
00000020: b61b a03e 35c2 e63c 89c0 3fbe de93 54bd
00000030: 1a56 ce3d e56e 41be 8d93 273e aff7 1bbe
00000040: 6eb1 61be 3d50 d03b 7a96 783d 3fd0 d33d
00000050: db3d c53e 2dd4 b5bd 841f af3d 943d 2a3b
00000060: 0ef7 8ebe 96df 4b3c a8d0 8cbd 0fa3 45bd
00000070: 0edf 70be a513 013e 30bf 103e e43d f53d
00000080: 1c10 bd3e a396 4d3c 1f22 2b3d 988a 5ebe
00000090: 0b76 123f e202 fabc e3ff f1bd 9695 11be
000000a0: 7382 17bd 78b0 a73d 2f92 a2bc 85b5 cfbd
000000b0: 4d22 88be f8f7 1a3e 72e6 37bd ae27 6cbd
000000c0: c886 043d 9439 2cbd 81bb 43be 8826 6c3e
000000d0: a991 fcbe 3a37 23bd 8dc3 4b3e d516 4a3e
000000e0: 2577 18be 3a1f 28be dc9a af3d ab30 fa3d
000000f0: 5930 2a3e 514d d4bc 525e 59be 40be 39be
00000100: 9f75 b93e d6a6 013f 581a 66bc 882d a83d
00000110: 789c aabd afa8 4b3e 1899 81be 70a8 513d
00000120: 9422 f3bd ff52 d0be bdbc b93d ec44 52be
00000130: 92e5 873c 0c1a 183d f76c cfbd 1f91 61bd
00000140: 7d9c c9bc c673 c83d 710e 533f 4fc7 f03c
00000150: 8331 c6bd f933 553e a8fb 0b3d 936e d0bd
00000160: b0fb 4c3e 859a ffbd 7422 4f3e 4d93 d7bc
00000170: d4a8 153f 33fe 01be cf2d 4cbf ba6d b2be
00000180: 265b f73d 9173 a23c 4c57 acbd fb8b 4fbe
00000190: a4dd 0e3d ff91 aa3e 9ce7 863e 96f2 21bf
000001a0: 09d9 c63d c85c af3d a262 3d3c c2cc d5bc
000001b0: 2d0c 29be 92d3 1f3f cf30 983e 7e70 9dbe
000001c0: 6afb febd 5b95 fc3b 1daf 84be f7ff bf3e
000001d0: 9eca 9bbe de5b edbd 3b44 8d3e f9e6 323e
000001e0: 2507 213e 9492 08be 9cfb 663e e086 83bc
000001f0: 786b 6b3d 049d 50bc 702e bd3d c3c9 14bf
00000200: 4385 37be 3cf8 02bf f4b1 443e d4bb 8ebe
00000210: b0b7 b6bd 9ddf 57be 8739 423d acbf 353e
00000220: 33f9 2d3e bb5b 2c3e 6618 e8be b9be b83b
00000230: 8b32 c1bd f37f 16be d246 b8be efa2 e8bc
00000240: 29e0 8cbe 532e f73d 7ba2 813e 8c8e 4a3e
00000250: 8fd9 163e d1e5 e7bd 50c2 613d 02fd 6abe
00000260: 7b4f ea3e a2b0 01be a867 8dbd eee0 3fbe
00000270: 3360 bbbd a919 a9be b038 21bf e537 d3bd
00000280: 7901 91be e881 b23e 0ff6 acbe 0def 8a3d
00000290: cb5f eabe f7de 70be e7c8 afbb 3aa0 00bf
000002a0: c904 69be 2aad a83e cba6 83be aa2c 0cbd
000002b0: dfb2 32bd a227 ec3e 7682 473e 35fd 8dbb
000002c0: 325e 1bbb baf3 fb3e b370 433d 025d 6f3e
000002d0: 0566 e2be a1c1 ff3e e58e 68be 614a b2bc
000002e0: 8c8a b9bc 435b 82be 2f81 ad3e cbe2 033e
000002f0: 3c6a b4bd 1155 5abd 21bb 343e 77ae 1f3d
00000300: d9cb 173e 1d81 4b3d c04e 973e 5663 553e
00000310: 2c69 debd 9a92 d83e 4f32 55be a1f2 4d3e
00000320: 092e ae3e 991a 323e 2393 a5bd 479b 15bf
00000330: ffab 1b3d e09f 963e 0695 94bc 8ca5 19bf
00000340: 079e 383d d87b b13e caaa e73e ef35 1c3d
00000350: 4f9a 883c 2c87 54bc b35b e7bd 9613 503c
00000360: 5caf 3e3e ca9e 043e 3d44 013e 3625 4c3e
00000370: 3cb7 583e 1e37 01be fe2b 503f bdfe 70be
00000380: ba90 e33d 2baf 543c 9de8 9a3e 5bbc 91be
00000390: 37eb 933d 6c2f 793d c127 803d 2fe9 803d
000003a0: 2846 ac3d 9d5a 5d3e 2fc8 f739 f074 6f3f
000003b0: 44f6 c63d 8f11 87bc be2b 8b3e 28f0 dabd
000003c0: 300c 8fbd 6778 a1bd a1a0 2fbc 62bd a33d
000003d0: 15ad e83e 4c88 123e 783c 243d 4f52 043d
000003e0: 9b7f aa3d e284 4fbe 3838 9abc aef7 e7be
000003f0: 3052 ae3d a75b bd3c cd74 423e fe0d 65bd
0.034822058 -0.040574618 -0.041271828 0.25010332 0.13353685 0.11136342 0.2874526 -0.070459485
0.31271142 0.028168777 -0.1872579 -0.05189883 0.10075016 -0.18889959 0.1636488 -0.15231203
-0.2204034 0.0063572214 0.06069038 0.10342454 0.38523754 -0.0887836 0.08550933 0.0025976645
-0.27922863 0.012443444 -0.068757355 -0.048251208 -0.23522589 0.1260515 0.14135432 0.11974695
0.36926353 0.012548122 0.041780587 -0.21732557 0.5721137 -0.030518953 -0.11816385 -0.14217219
-0.03698964 0.081879556 -0.019845096 -0.10142044 -0.2658867 0.15133655 -0.044897504 -0.05765503
0.0323551 -0.0420471 -0.19114496 0.23061574 -0.4932988 -0.03984759 0.19898815 0.19735272
-0.148892 -0.16418162 0.08574459 0.12216314 0.16620006 -0.025915774 -0.21227387 -0.18138981
0.3622255 0.50645196 -0.014044367 0.082118094 -0.08330625 0.19888566 -0.25312114 0.051186025
-0.1187183 -0.4068832 0.09069202 -0.20534104 0.01658896 0.037134215 -0.10128205 -0.05507004
-0.024610752 0.09787707 0.8244391 0.029391913 -0.09677412 0.20820607 0.034175545 -0.1017734
0.20017886 -0.12480644 0.20227987 -0.026315356 0.58460736 -0.12694626 -0.797574 -0.3484934
0.12077932 0.019830497 -0.08415088 -0.20268242 0.03487934 0.3331451 0.2634858 -0.6326078
0.09709365 0.085626185 0.01155916 -0.026098613 -0.16508551 0.62432206 0.29724738 -0.30749887
-0.12450297 0.0077082342 -0.2591485 0.37499973 -0.30428022 -0.11589788 0.27591118 0.17470922
0.15725382 -0.13337165 0.22556919 -0.016055524 0.057475537 -0.012732748 0.09237373 -0.58120364
-0.17921929 -0.51160026 0.19208509 -0.27877676 -0.08921754 -0.21081395 0.047418144 0.17748898
0.16989593 0.16831867 -0.45331115 0.0056379703 -0.094334684 -0.14697246 -0.35991532 -0.028398005
-0.2751477 0.120693825 0.25319275 0.1978094 0.1473143 -0.11323131 0.05511695 -0.22948077
0.45763764 -0.12665036 -0.069045365 -0.18738148 -0.09149208 -0.3302739 -0.62977123 -0.103133954
-0.28321436 0.34864736 -0.33781478 0.067838766 -0.4577621 -0.23522554 -0.0053645256 -0.50244486
-0.22755732 0.32944614 -0.2571319 -0.034222282 -0.043627616 0.46123987 0.1948336 -0.004333163
-0.0023707268 0.49209386 0.0477149 0.23375323 -0.4421846 0.49952415 -0.2271076 -0.021763982
-0.022649072 -0.25460252 0.33887622 0.12879483 -0.08809325 -0.053303782 0.17649509 0.038984742
0.14823855 0.04968368 0.2955227 0.20838675 -0.10859904 0.42299348 -0.20819972 0.20112087
0.34019497 0.17392959 -0.08084705 -0.5844006 0.038005825 0.2941885 -0.018137466 -0.6001823
0.04507258 0.34664798 0.4524749 0.038137373 0.016675143 -0.012971681 -0.11296787 0.012699982
0.18621582 0.12951198 0.12623687 0.1993607 0.21163648 -0.12618682 0.81317127 -0.23534675
0.11111589 0.012981216 0.30255595 -0.28464016 0.07222598 0.06083624 0.062575825 0.06294476
0.08411819 0.21616597 0.0004726066 0.9353781 0.0971494 -0.016487865 0.2718181 -0.106903374
-0.069847465 -0.07884293 -0.010719449 0.07995106 0.4544455 0.14309806 0.04009673 0.032305058
0.0832512 -0.20265535 -0.018825635 -0.45306152 0.0851177 0.023114992 0.18989868 -0.055921547

layers.2.bias f4 [100]
00000000: 1f02 a2bd fb8d d43e abeb 2cbe b1ba efbc
00000010: b222 99be 2089 c7be 3ad1 dbbe 2f70 91bc
00000020: d143 b3bd bc52 673d fc56 533e 3dee 4b3e
00000030: 7924 a23c 28b4 3b3e 699b fe3b a4d1 143e
00000040: 7b0c c9be 9106 9bbe 8c03 57be d513 0dbc
00000050: 6eef 9dbd b5ec 0b3f 03fa 993e f369 f8bd
00000060: 32b0 06bf 9459 53be 0ea8 cabd 5b98 59bc
00000070: a7c1 813e c183 52be ed1a 173e 4a46 b33d
00000080: 3071 20bd 6332 973d c86e 34bf 834c 9ebd
00000090: 22b6 b73d 0c40 03bf cf44 abbe 016d 613e
000000a0: 9aef 373d d47f 75be 391a 97be fc72 bd3e
000000b0: 5dba 2b3e 1ca2 033e ac61 7d3f df1c 1cbe
000000c0: 6245 de3e 5a5d 9dbe 63ed ffbe b286 bdbd
000000d0: 084a 3cbe f576 3e3e aee5 06bf 2169 80be
000000e0: 58c8 043c 0771 3abe 43de 3dbe 1de5 f03d
000000f0: 0f13 a2be 1363 fa3d 4d13 673d c381 0b3e
00000100: 6ec3 fe3b 2433 0abe 075f 143f 977b 663e
00000110: fd4d 333e 392e 12bd 40c7 e7be e5b9 eb3c
00000120: 1b46 03be 66f7 efbe 1ca8 343d 70d1 403c
00000130: 9e8e 3cbe 16a3 b9be 2a38 993e 18f6 353f
00000140: b0b9 d63c 8ecc 47be 43cf 51bf c113 1abd
00000150: 9a71 09bf ba39 e43d 6051 fb3d 0365 0b3f
00000160: eae0 5cbe 6be4 803d e3ab 323e 3eab 113f
00000170: 2672 a4be 4382 a93e b8b2 b1bd 48b5 30bd
00000180: af14 bb3d 3f7a f4be ef4b 1dbe b771 853d
-0.07910561 0.41514573 -0.16886775 -0.029263826 -0.29909283 -0.38971806 -0.42933065 -0.017753689
-0.08753169 0.056475386 0.2063865 0.199151 0.019792782 0.18330443 0.007769991 0.14533097
-0.39267334 -0.30278447 -0.20997447 -0.008610685 -0.07711683 0.5465806 0.30073556 -0.12129583
-0.526126 -0.2063964 -0.09895335 -0.013280953 0.25343058 -0.20558073 0.14756365 0.08753641
-0.039170444 0.073826574 -0.7048154 -0.07729437 0.08970286 -0.512696 -0.33450934 0.22014238
0.044906236 -0.23974544 -0.29512194 0.3700179 0.1677031 0.12854809 0.9897716 -0.15245388
0.4341231 -0.30735284 -0.499858 -0.09254207 -0.18387616 0.18600066 -0.52694213 -0.25080207
0.008104406 -0.18207179 -0.18541817 0.1176245 -0.31655166 0.12225928 0.05641489 0.13623719
0.007774762 -0.13496071 0.579575 0.22508083 0.17510219 -0.035688613 -0.45269203 0.028775165
-0.12819712 -0.46868438 0.044105634 0.011768684 -0.18413779 -0.36257237 0.29925662 0.71078634
0.02621159 -0.19511625 -0.8195688 -0.037616495 -0.5368897 0.11143823 0.122713804 0.54451007
-0.21570173 0.06293567 0.17448382 0.5690192 -0.32118338 0.33107194 -0.08676666 -0.043141633
0.091348045 -0.47749516 -0.15360998 0.0651583

layers.4.weight f4 [100, 100]
00000000: a163 f6be 6932 823d 2215 4cbf 74de a23f
00000010: 3465 8cbf 4078 cbbe 3f62 2fbf 43dd 1e3f
00000020: 1477 e73e 8339 56bd 2643 5e3e 8724 343f
00000030: 4154 9d3f cc60 463e 7878 c03d 5f78 5440
00000040: 234d 3d3e 8cd2 08be 931f dc3d 4e96 e0be
00000050: eb1b a53e 813d 8abe 2458 ecbf 96f4 f43f
00000060: 42a1 10bf e326 ef3e 6784 b03e 2b94 fd3e
00000070: 61b3 9fbd 02bf 8c3e 79e3 903e 21ca a2be
00000080: fb13 b23e 8b2b 4b3f 4f32 4cbe 54e1 75bf
00000090: 9a55 a4be f1a0 2fbe 6919 afbf 8e93 5a3f
000000a0: 88d6 9dbe 82f7 cf3d ace9 c0be c607 14bf
000000b0: 277f f6bd 09d2 c93f 14a1 893e 29f1 fbbe
000000c0: 6216 e1bf e4d9 4bbf 4de8 4cbe 8386 1ebf
000000d0: 23ae 35bf b908 16bf e0ff cfbd 2976 efbd
000000e0: d926 023f 2426 a23e 79a2 26bf e2db 003d
000000f0: 1dcd 2fbc 4a1b 3a3f 948b cb3e 8680 a53f
00000100: 28c2 c23f 0ba7 9cbe 5480 4a3f afb1 e6bd
00000110: c444 f0be 6f90 3c3e d36c d7bf f2cb 4bbd
00000120: f922 943f 90df cfbf d227 b7be 5006 b13e
00000130: fe8b 8cbf bbdc a73f c00b 223f 9b8f 893e
00000140: 141b 1fbf 2459 00bf cea9 2840 a031 173f
00000150: 3c2a 98bc b398 87be 6894 703f 646a e03e
00000160: 1f74 b0be 7140 43bf 0155 02c0 6ec6 a23e
00000170: 04dd ea3f 89f0 393f b0fb 2940 8ce2 0d3f
00000180: 98f3 d23e 4af1 60bf 70c9 0bbf 2bf6 3c3e
00000190: e462 a3bd cfeb 943e ce30 c93e 7f91 bdbe
000001a0: 3101 8e3e fef0 933e 072f 2e3e e582 c4be
000001b0: b13a 7d3d b09b 9fbd ca7e 633c c254 34bd
000001c0: 4d0a 22bf 4bf7 373e b11d 1bbe cd85 d63d
000001d0: 9bfd 8b3e c269 893d 8a55 f83d 0d2c 413e
000001e0: c78c 423e 46b6 13be 9e71 dd3e e096 c53e
000001f0: 41f4 503e e2af 333d 052c f83d 97ae c93d
00000200: 80f3 e9bd 0207 583d 1c05 1bbe 4e2d d4bb
00000210: ee1e 333e f7ef 883e a4f7 4f3e f9e7 c6be
00000220: caa4 0fbe 264f 3b3e 31cd 313c d174 5a3c
00000230: 4cf2 e3bd a25a 3f3f 4da3 253d 156d 28be
00000240: 9208 b23e a8d6 0fbf 99c4 e9bd 5cf1 f2be
00000250: 83ff c43e 463c 92be 1f07 fb3d abc7 0bbe
00000260: ab12 5db9 4400 123d 97b7 713e bbc5 0c3e
00000270: 44ed 1fbd 2332 9e3d 13f6 b43d 3c48 5b3e
00000280: 84f4 bbbe b9f5 6f3d 8f31 823d a390 b6be
00000290: 0564 933d c7f2 71be ee76 16be 1865 153e
000002a0: 9cad 29be a977 2dbd 839a 1d3e 8d2c ca3d
000002b0: ca4e 5bbf 1aba 463e 4ff9 803e 4be3 14bf
000002c0: 1171 c0bd 5238 27bf 4dad 4d3d d9bc 06be
000002d0: 5ef4 18be 7fd1 1abe c235 4abe 0cde 033e
000002e0: b136 1b3e 3861 33be b4d9 28be 2019 5dbc
000002f0: b03b ae3e f895 df3d c05a 5c3e 8707 81bd
00000300: cdf2 c2be 56c8 debc 29b9 063f 26c2 4bbf
00000310: 99e5 873c 4764 2c3e 82a6 f63c a483 d23e
00000320: c45e e0be e329 6fbd 2322 c63e f9c9 2d3e
00000330: 73bf 0fbd 0dd6 bdbd 011d 87be ad0c 573f
00000340: 5a26 e73d 0eec 7fbe 2dfd 133e 6aa4 c03e
00000350: cd66 93bd f4fc a7be 0968 c53d ada1 cdbe
00000360: ab88 f3bd d770 26be fefc 0fbe fd94 d5be
00000370: a0e9 9ebe f920 3d3e f19a cebd d7d8 923a
00000380: d11c cfbe 4487 f33e d02b 983e 76a2 6dbe
00000390: b69a 953e 4e08 77be d4f7 b63e 29a1 8abe
000003a0: c134 6d3d c61c 693e ce61 58be aedd 68bd
000003b0: 43c4 773e 7b35 57be fe33 763c 23be c1bb
000003c0: e505 0d3e c740 3bbe 2f85 7abe 4279 923d
000003d0: c2cd 9e3f d11b 9bbd eda0 1a3e e44b d6bd
000003e0: 9882 d0be 32cf 90be 3bb1 a6be 8cef 713d
000003f0: b37a aebe 41ed 2abf d898 5bbd 1f0f 743e
-0.48122886 0.06357271 -0.79719746 1.2724137 -1.0968385 -0.3974018 -0.68509287 0.6205637
0.45208037 -0.05230094 0.21705303 0.70368236 1.2291337 0.19372863 0.093979776 3.3198469
0.18486457 -0.13361567 0.1074821 -0.43864673 0.32247862 -0.2700005 -1.8464398 1.9137142
-0.5649606 0.46709356 0.34476015 0.49527106 -0.07797886 0.27489477 0.28298548 -0.31794837
0.3478087 0.79363316 -0.19941066 -0.9604695 -0.3209656 -0.17151238 -1.367963 0.853814
-0.30827737 0.1015463 -0.37678277 -0.5782436 -0.12035971 1.5767223 0.26880705 -0.49207428
-1.7584956 -0.7962935 -0.2001049 -0.61924 -0.70968837 -0.5860706 -0.10156226 -0.11692459
0.50840527 0.31669724 -0.65091664 0.031459697 -0.010730055 0.7269789 0.39754927 1.2929847
1.5215502 -0.30596194 0.79102063 -0.11264359 -0.46927464 0.18414472 -1.6830086 -0.049755044
1.1573173 -1.6240101 -0.35772568 0.3457513 -1.0980222 1.3114237 0.6329918 0.26867375
-0.6215069 -0.5013602 2.635364 0.59060097 -0.018574826 -0.26483688 0.9397645 0.4383117
-0.34463593 -0.76270205 -2.0364382 0.31792015 1.8348699 0.7263265 2.6559868 0.5542381
0.41201472 -0.8786818 -0.54604244 0.1845328 -0.07977846 0.29086158 0.39295048 -0.37025067
0.27735284 0.288948 0.17010127 -0.38381115 0.06182355 -0.07793367 0.013885209 -0.044026144
-0.6329697 0.17965429 -0.15148045 0.10474739 0.27341923 0.06709625 0.1212569 0.1886446
0.18999015 -0.14425 0.43250746 0.3859167 0.20405675 0.043868907 0.12117771 0.098477535
-0.11423397 0.05274106 -0.15138668 -0.0064751273 0.17492267 0.2674558 0.20309311 -0.38848856
-0.14027706 0.18291911 0.010852144 0.013333515 -0.11130199 0.7474767 0.04043894 -0.16447861
0.34772164 -0.56186914 -0.11414451 -0.47449768 0.3847619 -0.2856161 0.122572176 -0.13650386
-0.00021083157 0.035644785 0.2360519 0.13747303 -0.039044634 0.077244066 0.088359974 0.21414274
-0.36709988 0.05858395 0.06357109 -0.35657224 0.071968116 -0.23627768 -0.14693806 0.14589345
-0.16570133 -0.042350445 0.15390973 0.09871779 -0.856671 0.1940693 0.25190207 -0.5815932
-0.09396566 -0.6532031 0.0502141 -0.13157977 -0.14936969 -0.15118979 -0.1974707 0.12877673
0.15157582 -0.17517555 -0.16489297 -0.01349476 0.34029913 0.10917276 0.21518993 -0.06300264
-0.38075867 -0.027195137 0.5262628 -0.7959312 0.016588973 0.16835128 0.030108694 0.4111606
-0.438223 -0.058389556 0.3869792 0.16971578 -0.03509469 -0.092693426 -0.26389316 0.84003717
0.11286612 -0.24992391 0.14452048 0.37625438 -0.07197342 -0.32810175 0.09638984 -0.4016241
-0.11891302 -0.16253982 -0.14061353 -0.41715232 -0.31037617 0.1846961 -0.100881465 0.0011203539
-0.40451673 0.47564137 0.29720926 -0.23206505 0.29219598 -0.24124262 0.35735953 -0.2707608
0.05791164 0.22764882 -0.2113106 -0.056852035 0.24195962 -0.21016495 0.015027044 -0.0059125586
0.1377178 -0.1828643 -0.24464868 0.07152034 1.2406542 -0.07573665 0.15100451 -0.10463694
-0.40724635 -0.28283077 -0.3255709 0.05906634 -0.34077987 -0.6676827 -0.05361256 0.23833893

layers.4.bias f4 [100]
00000000: aa85 073e 7609 16be 30d1 323e 7074 59be
00000010: a658 25be d4fd 07be 0eb4 e4be face 953e
00000020: 5b2e 96be 73c5 873e 88c5 123e 1ab5 e5be
00000030: 7132 243e f62b c03e 989a a7be 405b 95be
00000040: 6d7f 853e f408 b6bc bc25 e03d 957e f4bd
00000050: 3c0a 363e bb44 053f 99a5 14bf 187a 8dbe
00000060: 4a36 903e 951a ff3d 0f16 8b3e 7d7b 5e3e
00000070: 93f2 31be 2434 0bbf 6fb0 8c3d 8197 79be
00000080: 1a97 ad3b c05c 75be 452b 0bbf 51c1 69be
00000090: 4b6d a33e 342f 6bbe da91 40bd 7b3f 663e
000000a0: 0f5f 623e 78ec 9c3e 22f1 dfbe e878 2f3e
000000b0: 46ca c2bd 5f78 843e 7521 4abe e0d7 66be
000000c0: 1c75 e03e dd8c c13e a0f2 2c3e 4039 9bbe
000000d0: aa77 1fbe 1b9c a0be d9dd aebe b3a1 7f3e
000000e0: 1d72 dbbd c16a 6bbe cf1f 28be b33c d93e
000000f0: 3141 f73e 1c6a 703d 6214 97be 577b 8e3e
00000100: 2b60 2d3e 4bba 59be af7b 8b3e 94fd 363e
00000110: 8107 24be 3837 c03e f490 383e 44d7 24bd
00000120: 1b6e 45be a673 363e 39ab bf3e 3a5c 383e
00000130: b328 dcbd 933f 1e3e bc04 d4be 07e0 243e
00000140: 5992 87be 735b 0ebe 25d3 13be b91e 8ebe
00000150: 0b3b 703e 5260 26be 2b78 b23d 2288 20be
00000160: 664c f2bd f753 393e abf6 79bd 1ffe ffbd
00000170: 4ba2 b9be e687 b23e 42b6 713d 7125 e13d
00000180: 0ac4 33bd 7480 823e 78bf 1bbe 6d0f 6ebe
0.13234583 -0.14652047 0.17462611 -0.21235824 -0.16147098 -0.13280421 -0.4466862 0.29259473
-0.2933224 0.2651783 0.14333165 -0.44864732 0.16034867 0.3753354 -0.32735133 -0.2917118
0.2607378 -0.022221066 0.10944697 -0.11938206 0.17777342 0.52058 -0.5806518 -0.27632213
0.2816642 0.12456242 0.27165267 0.21726795 -0.17377691 -0.54376435 0.068695895 -0.243742
0.0052975537 -0.23961163 -0.543629 -0.2282765 0.3191932 -0.22967225 -0.047014095 0.22485153
0.22106574 0.3064916 -0.43738657 0.17135966 -0.09511237 0.25873086 -0.19739325 -0.22543287
0.43839347 0.37802783 0.16889429 -0.30317116 -0.15572992 -0.313691 -0.3415363 0.24964027
-0.10715125 -0.22989942 -0.16418384 0.42429122 0.48291925 0.058694944 -0.29507738 0.27828476
0.16931216 -0.21262471 0.272428 0.1787017 -0.16018488 0.3754213 0.18024045 -0.040244356
-0.19280283 0.17817554 0.3743532 0.18003932 -0.1074995 0.15453939 -0.41409862 0.16101085
-0.26478842 -0.13902073 -0.14436014 -0.27757815 0.23460023 -0.16247681 0.087143265 -0.1567693
-0.11830978 0.18098436 -0.061026257 -0.124996416 -0.36256632 0.34869307 0.059011705 0.109934695
-0.04388813 0.25488627 -0.15209758 -0.23248072

layers.6.weight f4 [1, 100]
00000000: 17db 95be cc37 ea3d 7578 d0bd f7e1 d33d
00000010: fa77 7a3e c546 253d 1ddb 3a3f 6910 96bd
00000020: 4b50 3c3e f87b edbc a18a 0fbe 54c4 093e
00000030: 5cbb 95bd e0a4 24be 456d 073e 6252 5e3e
00000040: a892 e6bd 10c0 543f d8a7 41be b9e0 223e
00000050: 5676 00bf 24e7 b2be bb5d 183e f300 b23e
00000060: f0fa 05be 628b eebd 055d 57be 920f 83be
00000070: c8ee 013e 4e36 2c3f f0ed bdbd 5de5 e33d
00000080: 87c0 e23d da41 453e a01c f63e a110 203e
00000090: c1fe 13be 1bd0 8a3e ed73 d13e 1d2f f6bd
000000a0: 20af 9abe a809 13be bb30 963e a8d2 a3bd
000000b0: 5511 403e f847 0dbf a3c1 2e3e 9cc9 013e
000000c0: 2780 4ebf 7596 7abe f2ea 1ebe 1f1a d33d
000000d0: 8e7c 523e 4931 3a3e 8b73 fa3d 82f2 31be
000000e0: 17a2 db3d b40c 8b3e da66 b43f 728c a9be
000000f0: 2e38 f7bd 2fc3 65be 6cb6 243f 23e0 73be
00000100: c106 5dbe 26b7 803e 0ce6 5bbe 82c2 17be
00000110: dda2 213e a51c 1dbe 63e2 4dbe 8a4d 0d3d
00000120: 2ff4 463d 5442 fabe 3233 acbd 1886 2dbd
00000130: 40a0 d83d 7c26 efbe 68e1 dd3d 8c53 0bbe
00000140: 6391 a23d fc4e 3b3e 12e8 fc3e fde6 253e
00000150: 14aa 4fbe 62bd 2d3e dfab b7bf 01a2 4b3d
00000160: 244c a73d 9b47 88be eb8f ae3d 6e88 b53d
00000170: bca4 f03d 9f28 f0bd 84ff 8abd d353 c7bd
00000180: 3c31 eb3e 64fc 18be 0be5 023e ab75 b43d
-0.29268715 0.11436424 -0.10179225 0.10345834 0.2445983 0.040350694 0.7299059 -0.07327349
0.18390004 -0.028989777 -0.14017726 0.134538 -0.073111266 -0.1607852 0.13225277 0.21711114
-0.11258441 0.83105564 -0.18911684 0.15906037 -0.50180566 -0.3494197 0.14879505 0.3476635
-0.13084006 -0.11647679 -0.21031578 -0.25597817 0.12688744 0.6727036 -0.092738986 0.11127732
0.11071878 0.19263402 0.48068714 0.15631343 -0.1445265 0.27111897 0.40908757 -0.12020705
-0.30211735 -0.14359152 0.29334053 -0.07999164 0.18756612 -0.5518794 0.17066054 0.12674564
-0.80664295 -0.24471457 -0.15519312 0.103077166 0.20555326 0.18182863 0.12229069 -0.17377666
0.107242756 0.2715813 1.4093888 -0.33114964 -0.12071262 -0.22437738 0.64340854 -0.2381597
-0.21584608 0.2513973 -0.21474475 -0.14820293 0.15784784 -0.15342958 -0.20105891 0.034497775
0.048572715 -0.4887873 -0.08408202 -0.04236421 0.1057744 -0.4670905 0.108340085 -0.1360609
0.079378866 0.18291849 0.49395806 0.16201396 -0.20279723 0.16966775 -1.4349326 0.049715046
0.081688195 -0.2661713 0.08523544 0.088639125 0.117501706 -0.11726498 -0.06787017 -0.09732785
0.45936 -0.1494003 0.12782685 0.08811506
