hddm/torch_models/80dec298152e11ec88b8ac1f6bfea5a4_levy_torch_state_dict.pt (torch, 87055 bytes, 7 tensors)

layers.0.weight f4 [100, 7]
0.04572054 0.5298412 -0.9397408 -0.54225594 0.32062376 -0.32965657 0.9546808 0.072198205
-0.0060364036 2.5260842 -0.13546704 -0.03989769 0.037424717 -1.2680231 -0.15668535 -0.18596642
0.71548486 0.39358345 -0.92292964 0.9408661 0.26151776 -0.07753509 0.38015488 1.0918795
-0.21267538 0.8414383 -0.81871855 -0.16984245 -0.46492675 0.047804132 1.5457814 1.2528341
-0.0067965924 0.09630875 1.366116 0.031508535 -0.20552687 0.82113844 -0.34932968 1.1366965
-1.160431 -0.46087876 0.00061214104 -0.0008564968 0.0029146336 -0.0037459794 0.004616281 -0.0024507085
0.0020968693 0.19357878 0.1243517 -1.2751702 0.7118162 -0.19232203 -0.0062402883 0.0060664634
-0.007813097 -0.10263292 -0.7564104 -0.023356263 -0.5506473 0.6617596 0.2473624 0.0008057732
0.002486249 -0.002244026 0.003487953 -0.007150423 -0.0005985053 0.001631517 1.0022925 0.47646025
0.64726603 1.1791757 0.14835994 -0.17214982 -0.02047286 0.05643814 -1.0098287 -0.20492616
-0.774521 -0.25525573 0.26463574 -0.056235913 -0.26528674 -0.48867312 -0.115344696 0.30042583
-0.07478536 0.7032173 -0.031449478 -0.057276156 -1.6308033 -0.36179173 0.8415283 -0.09320634
0.11037367 0.00885632 -0.01065445 1.3858538 -0.053339854 -0.041521907 1.7167112 -0.032601092
0.03229295 -1.0492887 -0.53286135 -0.46851423 -0.36900038 -0.07015498 0.09097348 0.04485827
0.011271059 0.19112642 -2.8962662 -0.055019982 -0.003287091 -0.009657322 -0.00030804618 0.100129664
-0.3006128 -0.5853948 0.21023615 1.1891972 -1.2320104 -0.014001604 -0.3364445 -0.5767826
0.58729994 -0.42041168 0.11555426 -0.122410335 0.5593216 0.026293887 -0.64712924 -1.0076154
0.09958269 -0.49884367 0.49855772 -0.53435224 0.033409715 -0.32247493 -0.46375376 0.14213492
0.7284661 -0.5843522 0.21108203 0.5822639 0.26554865 0.050906345 -0.7203372 0.011566102
0.0005574507 0.66990423 0.14206794 0.3454451 -0.77834886 0.19117448 -0.533295 0.4892618
-0.019075835 -0.003033293 0.09108719 -0.06515998 -0.084181465 3.6902864 -6.6298547 -0.010005706
-0.03006576 0.68608934 0.032334078 0.21702868 -0.29519805 -0.28517923 0.020698067 -0.055383965
-0.05642258 0.7978207 -0.2356394 0.3102431 -0.1914759 -0.5379125 -0.0011507911 0.5707157
0.0378649 -0.12899162 -1.866262 1.9168286 -0.034189276 -0.031617157 -0.052037723 -1.4262418
0.12085606 1.0968379 -1.0738522 0.9029372 0.0073357946 -0.28001642 -0.6593079 -0.24854009
0.16403772 -0.028282186 -0.5381676 -0.03257088 -0.031151578 -1.1806142 0.6199222 0.06354247
-0.026240716 -0.31052122 0.0001838643 0.24950615 0.38849264 0.078775115 0.077488944 0.11200629
-0.7935274 -0.25048566 0.42858592 -0.8842288 -0.5873001 -0.28470984 0.28984475 0.4032322
0.012972443 -0.027018178 0.043203052 0.05725477 3.0530224 -0.058391318 -0.00041258344 -0.017720902
-0.30145425 0.1399902 -0.3568778 -0.10949758 0.20651077 0.029191297 0.0054152654 0.23831637
1.5517414 -0.36075827 -0.11691128 -0.031812623 0.4337347 -0.016311154 0.40958962 0.48838136
0.08226832 0.10838854 0.0034850135 0.046788312 0.27015737 0.104081616 -0.3676959 0.27515975
00000000: 7645 3b3d aca3 073f da92 70bf 49d1 0abf
00000010: cc28 a43e bfc8 a8be f665 743f a7dc 933d
00000020: 06cd c5bb 5dab 2140 dfb7 0abe c36b 23bd
00000030: a94a 193d 954e a2bf 2072 20be fb6d 3ebe
00000040: 042a 373f c583 c93e 1e45 6cbf 9adc 703f
00000050: a8e5 853e b8ca 9ebd a9a3 c23e b5c2 8b3f
00000060: 93c7 59be 8068 573f 8a97 51bf 2eeb 2dbe
00000070: e10a eebe 44ce 433d 2adc c53f de5c a03f
00000080: f3b5 debb 863d c53d e4dc ae3f 180f 013d
00000090: a375 52be 2136 523f 57db b2be 457f 913f
000000a0: 0189 94bf 4df8 ebbe 1778 203a 8786 60ba
000000b0: 7003 3f3b 1b7f 75bb 2c44 973b 119c 20bb
000000c0: a16b 093b 8439 463e 1bac fe3d c738 a3bf
000000d0: 9639 363f 11f0 44be 557b ccbb 2fc9 c63b
000000e0: 8102 00bc 3531 d2bd 1da4 41bf a255 bfbc
000000f0: 39f7 0cbf 1469 293f 924c 7d3e 863a 533a
00000100: 56f0 223b 8210 13bb 2496 643b 184e eabb
00000110: 03e5 1cba a0d8 d53a 1f4b 803f 99f2 f33e
00000120: 3ab3 253f 3bef 963f abeb 173e 0b48 30be
00000130: b3b6 a7bc ae2b 673d 1142 81bf 2ad8 51be
00000140: 0247 46bf e1b0 82be 567e 873e a157 66bd
00000150: aad3 87be 5d33 fabe d739 ecbd 6ad1 993e
00000160: 1129 99bd 0d06 343f 2bd1 00bd 679a 6abd
00000170: 2abe d0bf c43c b9be 666e 573f f7e2 bebd
00000180: 970b e23d 191a 113c 0190 2ebc a863 b13f
00000190: e47a 5abd e012 2abd 31bd db3f b988 05bd
000001a0: 9d45 043d 184f 86bf 9a69 08bf 19e1 efbe
000001b0: 9eed bcbe 6aad 8fbd 4e50 ba3d 4ebd 373d
000001c0: 3faa 383c a5b6 433e 6d5c 39c0 a25c 61bd
000001d0: 3c6c 57bb bf39 1ebc 4281 a1b9 c810 cd3d
000001e0: ece9 99be 6fdc 15bf 2548 573e 9d37 983f
000001f0: 84b2 9dbf fc66 65bc 7442 acbe 06a8 13bf
00000200: 4a59 163f 3340 d7be b6a7 ec3d 45b2 fabd
00000210: b32f 0f3f 4766 d73c 43aa 25bf 8bf9 80bf
00000220: 02f2 cb3d 7068 ffbe f542 ff3e 4fcb 08bf
00000230: a0d8 083d 6f1b a5be 2271 edbe d18b 113e
00000240: c17c 3a3f 1b98 15bf e325 583e 3f0f 153f
00000250: fef5 873e 2c83 503d 0568 38bf bf7f 3d3c
00000260: e221 123a d87e 2b3f 427a 113e 2ede b03e
00000270: df41 47bf 3ec3 433e 0586 08bf 8680 fa3e
00000280: ed44 9cbc 36ca 46bb ec8b ba3d 9872 85bd
00000290: 5567 acbd a72d 6c40 c527 d4c0 f9ee 23bc
000002a0: 784c f6bc 8da3 2f3f bd70 043d c43c 5e3e
000002b0: 3324 97be 0303 92be fe8e a93c 4cda 62bd
000002c0: 5d1b 67bd fa3d 4c3f 744b 71be 2fd8 9e3e
000002d0: 4212 44be a2b4 09bf 24d6 96ba 6d1a 123f
000002e0: 3a18 1b3d 6116 04be ace1 eebf a45a f53f
000002f0: 0e0a 0cbd fe80 01bd 8225 55bd 178f b6bf
00000300: 6283 f73d 2f65 8c3f fd73 89bf e426 673f
00000310: 1b61 f03b 505e 8fbe 67c8 28bf 4b81 7ebe
00000320: 81f9 273e 0bb0 e7bc 5ac5 09bf 0b69 05bd
00000330: 9831 ffbc 5e1e 97bf 39b3 1e3f 8e22 823d
00000340: c5f6 d6bc a3fc 9ebe b2cb 4039 8a7e 7f3e
00000350: 82e8 c63e d954 a13d 86b2 9e3d 8e63 e53d
00000360: 9d24 4bbf a83f 80be 9d6f db3e d25c 62bf
00000370: 4d59 16bf 7dc5 91be 8866 943e 7374 ce3e
00000380: 5f8a 543c 3a55 ddbc aff5 303d fa83 6a3d
00000390: b864 4340 bc2b 6fbd 0350 d8b9 6d2b 91bc
000003a0: 3658 9abe 9759 0f3e b0b8 b6be 4440 e0bd
000003b0: 8f77 533e 9622 ef3c 8a72 b13b 3509 743e
000003c0: 769f c63f 4fb5 b8be 2e6f efbd f44d 02bd
000003d0: 7912 de3e f89e 85bc bbb5 d13e 1f0d fa3e
000003e0: 4b7c a83d d0fa dd3d d364 643b 1aa5 3f3d
000003f0: 1152 8a3e be28 d53d a342 bcbe bde1 8c3e

layers.0.bias f4 [100]
0.15228398 -1.026465 -0.47003803 -0.7187846 0.7291736 0.36091468 -0.0022253853 -0.20174462
0.21570484 -0.0015170735 0.93385285 0.6255029 -0.052200373 -0.7128572 -0.36793905 -0.7800333
0.35649928 0.19217598 0.6845967 0.38829634 0.14982736 -0.1490744 -0.3025966 -0.142526
0.13862504 0.4779357 0.116224624 0.37205192 0.81150424 -0.5383905 -0.4071583 -0.18587585
0.17894374 0.5169856 -0.53485245 -1.0705849 0.25738913 0.0014832189 -0.10962974 0.28215903
-0.43531594 0.10266537 0.8597132 -0.3550885 -2.5371506 -0.18837616 0.2854349 0.00082057714
-0.76563585 -0.2005669 -1.2410203 0.2586653 0.7502447 0.3826854 0.083397366 -0.06119126
-0.12164031 0.4064519 -0.18753159 0.5650162 -0.5504655 -0.39917973 -0.7433713 0.3298477
-0.7129456 -0.8091569 0.11545268 -0.024396772 -0.51083827 1.2710723 -0.3778469 -1.2135341
-0.023967806 -0.786104 -0.04152849 -0.45041636 0.4245042 0.054079253 0.51083344 -0.80561936
0.6085403 0.35851407 1.0685955 0.33718467 0.1509976 -0.35244995 0.048789017 -0.22635095
0.3545578 -0.38788056 -0.058261506 0.04373013 0.31249654 0.17496915 0.047896415 -0.23069291
-0.24169257 0.22593878 0.013404505 0.6136651
00000000: 55f0 1b3e 3563 83bf d3a8 f0be 4402 38bf
00000010: 1fab 3a3f cfc9 b83e c5d7 11bb 2496 4ebe
00000020: bbe1 5c3e 8ad8 c6ba fb10 6f3f f520 203f
00000030: 0fd0 55bd cf7d 36bf 8262 bcbe 43b0 47bf
00000040: 1387 b63e c8c9 443e bb41 2f3f c7ce c63e
00000050: 586c 193e f6a6 18be f1ed 9abe 56f2 11be
00000060: b9f3 0d3e fdb3 f43e 2d07 ee3d 977d be3e
00000070: bebe 4f3f f6d3 09bf 0d77 d0be 3d56 3ebe
00000080: 073d 373e 2b59 043f 17ec 08bf ed08 89bf
00000090: 82c8 833e 9168 c23a 8f85 e0bd 2677 903e
000000a0: bbe1 debe 3942 d23d 2a16 5c3f 29ce b5be
000000b0: ad60 22c0 aee5 40be 8624 923e 001c 573a
000000c0: b600 44bf 6961 4dbe c1d9 9ebf c76f 843e
000000d0: 0910 403f 57ef c33e 3dcc aa3d b0a3 7abd
000000e0: 8e1e f9bd 771a d03e 4808 40be e7a4 103f
000000f0: 4feb 0cbf 4961 ccbe 954d 3ebf cce1 a83e
00000100: 9a83 36bf e824 4fbf 7472 ec3d bddb c7bc
00000110: 4cc6 02bf 7fb2 a23f 2675 c1be 1655 9bbf
00000120: 2258 c4bc 1d3e 49bf c719 2abd f99c e6be
00000130: 9d58 d93e 3582 5d3d fbc5 023f 123d 4ebf
00000140: 4cc9 1b3f 288f b73e bdc7 883f 78a3 ac3e
00000150: 1d9f 1a3e 5274 b4be fed6 473d 8bc8 67be
00000160: 9a88 b53e 4898 c6be 9ea3 6ebd 5d1e 333d
00000170: 8cff 9f3e 1d2b 333e 082f 443d c33a 6cbe
00000180: 427e 77be 7f5c 673e 929e 5b3c 2819 1d3f

layers.2.weight f4 [100, 100]
0.26128832 0.39524695 -0.16781206 0.034876652 -0.08502163 -0.10155287 0.017352069 -0.10647255
0.27517274 0.009494557 0.090297334 0.08797141 0.031978376 -0.44749698 -0.040290643 -0.025237925
0.13814135 0.11469265 0.23006994 0.4671681 -0.24528499 -0.063391656 0.04854628 -0.06375642
0.01695696 0.28332353 -0.06354269 -0.087251455 0.35731733 0.5174677 0.0019007978 0.2778805
0.0025368875 -0.14295097 0.016378531 -0.07320258 -0.18314277 -0.0006406242 -0.10816646 0.14287923
0.00225813 -0.034632534 0.24847178 0.5233317 0.20286381 0.020326326 -0.33280239 -0.0010205559
-0.28405926 -0.10689168 0.24615508 -0.1609873 -0.07135521 0.18365833 -0.053989246 -0.05677518
-0.12648079 0.0012716111 0.6312119 0.17217614 -0.20850046 -0.7575245 0.007157431 -0.052844424
-0.12402194 0.20219062 0.07543378 0.092080265 0.74229556 0.38775826 0.29629162 -0.5750662
0.12211582 0.30301243 -0.09500369 -0.39311844 -0.1833825 0.2526045 -0.34911814 -0.27779526
0.022157447 0.061281484 0.10629486 0.32968238 -0.033109594 -0.040951807 -0.0010220556 0.1232257
0.026673606 0.19330662 -0.2581066 -0.07749911 0.007001952 -0.08527977 0.288519 -0.40231916
-0.27041757 -0.11622162 0.3139013 -0.2511411 -0.17699678 0.40252396 0.07834305 -0.14106402
0.038060512 -0.2205949 -0.0025974025 0.23583117 0.06546168 -0.004978192 0.17568013 0.21601363
0.12594295 0.04968503 -0.10135505 -0.3263881 -0.0447098 -0.22725667 -0.3110815 0.70666504
-0.36433372 -0.06812033 0.15959303 -0.33894688 -0.16145796 0.240358 0.25104085 -0.006034836
0.2307167 0.19722258 0.32280025 0.14984336 0.02702511 -0.24699926 -0.10247949 -0.18218614
-0.047005292 -0.0017720342 -0.16683212 -0.2129868 -0.017538289 -0.039309923 0.2677743 0.36891255
0.07807212 0.10475 -0.1763418 -0.0031429394 0.26260406 0.3022119 0.105805695 0.00031799875
0.1410481 0.71237844 0.005289119 0.13479625 0.056169417 0.37068054 0.10521473 -0.12329462
-0.17658772 -0.19295318 0.47533518 -0.020496987 -0.27430665 -0.03309986 0.21351334 -0.08690237
-0.10300012 0.17646448 0.10708284 -0.06851997 -0.15189543 -0.106873706 -0.16088267 -0.19330591
-0.054859348 -0.2858647 0.2136268 0.24221943 -0.44886935 0.09543717 0.06250654 0.3971077
0.13444819 0.025313135 0.020344777 -0.10460471 0.1260608 -0.08158252 -0.15422586 0.26389503
0.020655882 0.007909833 0.104482815 0.002328442 -0.19024065 0.5413794 0.26538935 -0.119405404
-0.066666946 0.74327594 0.20287196 0.32260522 0.39344323 0.05917487 0.0002441929 -0.25584918
-0.20261219 0.002088279 -0.20269121 0.054608557 0.14671226 0.511986 0.03653589 0.75005823
-0.4911709 -0.21192251 -0.15703596 0.6520567 0.00013779981 0.12100293 -0.14988595 0.038249873
0.11250297 0.2707255 0.027350165 -0.48427206 0.29508626 -0.23596957 0.35942894 -0.43950722
-0.039186943 -0.026684472 -0.36964267 -0.1294084 -0.0035783872 0.0051947692 0.18684329 -0.009385924
0.24739516 0.023525182 0.17450033 -0.007658851 -0.34055418 0.11287027 -0.057066098 -0.006036562
0.55233574 -0.124158286 -0.3671486 0.26080042 0.57255745 -0.43539676 0.014218708 0.5021078
00000000: 95c7 853e cf5d ca3e edd6 2bbe d2da 0e3d
00000010: d21f aebd f3fa cfbd ed25 8e3c 480e dabd
00000020: 71e3 8c3e 0f8f 1b3c cfed b83d 5b2a b43d
00000030: c2fb 023d 531e e5be cd07 25bd c4bf cebc
00000040: ed74 0d3e fbe3 ea3d 7497 6b3e a830 ef3e
00000050: fd2b 7bbe 7cd3 81bd 77d8 463d ba92 82bd
00000060: 53e9 8a3c c80f 913e ab22 82bd e4b0 b2bd
00000070: 4cf2 b63e c378 043f 3124 f93a 5a46 8e3e
00000080: e941 263b bd61 12be 452c 863c 3ceb 95bd
00000090: c789 3bbe 90ef 27ba 6186 ddbd ef4e 123e
000000a0: 23fd 133b d8da 0dbd 636f 7e3e 11f9 053f
000000b0: 88bb 4f3e 6583 a63c 1365 aabe 2cc4 85ba
000000c0: 3770 91be 06ea dabd 1410 7c3e dbd9 24be
000000d0: ae22 92bd ee10 3c3e d423 5dbd 178d 68bd
000000e0: 2e84 01be 30ac a63a 1a97 213f f14e 303e
000000f0: 2581 55be 20ed 41bf e288 ea3b 6573 58bd
00000100: 37ff fdbd 0f0b 4f3e 077d 9a3d 9494 bc3d
00000110: 1507 3e3f 4088 c63e 89b3 973e 8a37 13bf
00000120: dc17 fa3d 7224 9b3e 4b91 c2bd d246 c9be
00000130: 9fc8 3bbe 6155 813e 9dbf b2be 2e3b 8ebe
00000140: 8983 b53c 4b02 7b3d 1fb1 d93d 21cc a83e
00000150: ed9d 07bd 15bd 27bd 7ff6 85ba c15d fc3d
00000160: 9b82 da3c 2cf2 453e 8c26 84be dab7 9ebd
00000170: a170 e53b 29a7 aebd c3b8 933e c7fc cdbe
00000180: 2c74 8abe 9a05 eebd acb7 a03e 9195 80be
00000190: a53e 35be 9f17 ce3e 5272 a03d 1673 10be
000001a0: 57e5 1b3d a1e3 61be 2f39 2abb ba7d 713e
000001b0: c610 863d 1a20 a3bb 7ee5 333e ad32 5d3e
000001c0: 30f7 003e 8882 4b3d 3d93 cfbd 571c a7be
000001d0: a021 37bd f9b5 68be 1346 9fbe 00e8 343f
000001e0: f389 babe ac82 8bbd 5b6c 233e 728a adbe
000001f0: 3c55 25be 6820 763e 6d88 803e e0bf c5bb
00000200: 0041 6c3e b7f4 493e 1346 a53e 8a70 193e
00000210: c363 dd3c 60ed 7cbe c4e0 d1bd 018f 3abe
00000220: 9f88 40bd 9a43 e8ba 0ad6 2abe 3619 5abe
00000230: 75ac 8fbc 7103 21bd b719 893e 1be2 bc3e
00000240: 47e4 9f3d 2b87 d63d f292 34be c6f9 4dbb
00000250: 0a74 863e 85bb 9a3e a8b0 d83d 12b9 a639
00000260: ea6e 103e 6f5e 363f 5950 ad3b 0708 0a3e
00000270: e711 663d d7c9 bd3e d27a d73d e481 fcbd
00000280: 69d3 34be 8595 45be 225f f33e 4ce9 a7bc
00000290: ec71 8cbe b893 07bd 3ea3 5a3e dff9 b1bd
000002a0: baf1 d2bd 1bb3 343e 3f4e db3d 3354 8cbd
000002b0: 7a8a 1bbe 9ae0 dabd 6dbe 24be fcf1 45be
000002c0: 32b4 60bd dc5c 92be fcc0 5a3e 5f08 783e
000002d0: 34d2 e5be 9074 c33d 6e03 803d b351 cb3e
000002e0: c9ac 093e 7e5d cf3c 17aa a63c ff3a d6bd
000002f0: 1516 013e bc14 a7bd 62ed 1dbe 401d 873e
00000300: 8636 a93c 3f98 013c 16fb d53d c698 183b
00000310: 72ce 42be d797 0a3f 1de1 873e d28a f4bd
00000320: ae88 88bd 5547 3e3f abbd 4f3e 832c a53e
00000330: 6471 c93e 5961 723d 0407 8039 aafe 82be
00000340: 9279 4fbe 82db 083b 498e 4fbe 39ad 5f3d
00000350: bd3b 163e 8411 033f a8a6 153d d103 403f
00000360: c17a fbbe 3702 59be 09ce 20be 30ed 263f
00000370: 5b7e 1039 62d0 f73d b47b 19be e6ab 1c3d
00000380: f567 e63d 889c 8a3e 740d e03c 82f2 f7be
00000390: 8c15 973e 02a2 71be 1207 b83e 1707 e1be
000003a0: 7d82 20bd 6599 dabc ce41 bdbe a383 04be
000003b0: 6083 6abb e238 aa3b d953 3f3e 6bc7 19bc
000003c0: 2855 7d3e e2b7 c03c 37b0 323e 19f7 fabb
000003d0: 1e5d aebe 8728 e73d 24be 69bd 5ace c5bb
000003e0: e065 0d3f b346 febd e7fa bbbe a287 853e
000003f0: 2093 123f 53ec debe 95f5 683c 238a 003f

layers.2.bias f4 [100]
-0.11474108 0.11604185 0.38778302 -1.070248 -0.54953676 -0.23477237 -0.50804406 0.20620507
0.40460494 -0.2377819 -0.04249787 -0.33312467 -0.25627163 -0.86011016 0.525337 0.9281507
0.15761499 0.14502037 0.2556139 -0.01545196 -0.49057594 -0.07435313 -0.5759227 0.23488618
0.6702733 0.34586984 -0.31621993 -0.36230418 -0.0614087 0.054130677 0.054092217 0.061435387
-0.21327958 -0.13936172 -0.01794722 0.36256185 0.7285457 -0.3032004 -0.026807785 0.6941877
-0.6850065 -0.2965554 -0.7076499 -0.67578167 0.28702512 0.78526944 -0.25942144 0.1677877
-0.099063456 0.567195 0.09007136 0.021050334 0.752115 0.48500916 -0.2684035 0.34396374
-0.15926786 -0.10851111 0.017248612 -0.36268723 0.2991199 0.7009689 -0.21181776 0.6586585
-0.3061737 0.4425186 -0.014862603 1.0003798 0.39194256 -0.18030323 0.2137342 -0.075022876
0.08922017 0.06773665 -0.7344913 -0.0665814 0.79136884 -0.41619924 0.30182302 -0.41619077
-0.01956074 -0.04807799 -0.34181607 1.2148585 0.18547183 -0.057880666 0.31572646 0.13835272
0.49767485 -0.29774186 0.1255125 -0.42198503 -0.28357157 -0.5601993 -0.3377241 0.18807608
-0.16689776 0.7712196 -0.023849312 0.05560927
00000000: 5ffd eabd 59a7 ed3d 7f8b c63e e3fd 88bf
00000010: 71ae 0cbf 2b68 70be 2d0f 02bf 6c27 533e
00000020: 6128 cf3e 197d 73be 3f12 2ebd 518f aabe
00000030: 0936 83be 2e30 5cbf 7c7c 063f 499b 6d3f
00000040: d365 213e 3880 143e d3df 823e 382a 7dbc
00000050: c52c fbbe 7446 98bd ac6f 13bf 0186 703e
00000060: 0897 2b3f da15 b13e 94e7 a1be ef7f b9be
00000070: b087 7bbd 21b8 5d3d cd8f 5d3d aca3 7b3d
00000080: f665 5abe d7b4 0ebe 0c06 93bc b5a1 b93e
00000090: f981 3a3f 153d 9bbe 009c dbbc 49b6 313f
000000a0: 965c 2fbf 1cd6 97be 8b28 35bf 0700 2dbf
000000b0: f5f4 923e 6b07 493f e3d2 84be 8ad0 2b3e
000000c0: c8e1 cabd b133 113f 5577 b83d c071 ac3c
000000d0: 9c8a 403f 1f53 f83e 2f6c 89be 041c b03e
000000e0: 1d17 23be 133b debd f64c 8d3c 24b2 b9be
000000f0: 3e26 993e b372 333f c1e6 58be d89d 283f
00000100: cdc2 9cbe cc91 e23e 4682 73bc 720c 803f
00000110: b2ac c83e 69a1 38be 23dd 5a3e 98a5 99bd
00000120: 11b9 b63d 83b9 8a3d 9f07 3cbf d45b 88bd
00000130: 2697 4a3f 1118 d5be 8c88 9a3e f516 d5be
00000140: d83d a0bc 6ded 44bd 8402 afbe 7c80 9b3f
00000150: 54ec 3d3e 4714 6dbd e6a6 a13e 56ac 0d3e
00000160: 3dcf fe3e 9f71 98be 5986 003e 6c0e d8be
00000170: 4b30 91be 3969 0fbf 2cea acbe 0497 403e
00000180: 3fe7 2abe a66e 453f a25f c3bc 8cc6 633d

layers.4.weight f4 [100, 100]
-0.2720874 0.9956629 1.6591382 -1.4872319 -1.2202468 -0.031340763 -2.2537262 0.72160816
-1.8965429 -3.9477756 -1.1913146 1.3087116 -1.448061 -0.9169248 -2.1078641 0.66457283
1.2740759 2.0204065 -1.6737981 1.2802997 -3.0283692 0.72443134 -0.83446574 0.2524185
0.7085399 1.0134585 -1.7882617 -2.6299343 1.4202602 2.1847777 -0.04191155 1.1537544
-1.0390446 -2.694757 -0.77750856 0.5701576 0.4285099 0.95885766 4.654266 0.3687454
-0.98860353 -1.3033142 -0.9733951 -0.8867467 1.4818461 0.64826894 0.5370663 -2.6253133
-1.5074682 2.9490209 0.7516815 1.1618973 0.55657446 0.4977047 -0.76875985 -0.31907097
0.31707367 -0.92420036 -2.2247138 -0.6676778 -0.47852254 0.40540966 0.619304 3.025439
0.33512515 1.8681732 2.8317943 1.2503092 1.6282555 1.9703455 2.0529044 0.39475638
2.4964693 -0.5371876 -1.2605245 2.8516185 1.2544005 -3.7447524 1.8402886 -0.5821984
0.18083964 -3.7535174 3.3048143 0.8692539 0.18066129 -1.7345618 0.37772435 0.13987672
-3.4238749 -0.62180156 -0.5885849 -1.6762428 0.50899994 -1.0869163 -0.56606436 0.34295824
-0.5324969 0.3862346 -0.984789 1.2418026 -0.6162126 -0.01777749 -0.30172235 -0.39231056
0.08246377 -1.0319695 0.93882364 -0.8220447 -2.7608755 0.6643753 0.9292127 -0.45356792
-0.15763909 -0.29089555 0.29676473 0.5721697 -0.6293039 -1.358409 2.6531942 1.1665394
-0.23880881 -0.31882024 -0.53057885 0.6984208 0.5260541 0.18953587 -0.13272066 0.64291775
0.31659526 0.42902774 -0.25959432 -0.023840614 -0.1433665 0.4903912 -0.8274647 0.47614372
0.58214366 -1.6396275 0.13781142 0.44390523 0.11097373 -0.04189571 -0.8077241 -0.54408026
0.6751873 0.46198457 0.13857362 -2.580163 -0.90258557 0.049968503 0.38741705 1.5165055
0.73623157 0.3478726 2.6097577 -0.6139532 1.2519145 -0.57294905 0.13506624 -1.1516862
-2.6110606 0.37707198 0.7690106 -0.2307697 1.7028515 -0.43134603 0.4597288 0.58649856
-0.14281337 0.17219737 -0.045503277 -0.26034242 -0.27850434 -0.4298405 -0.44262812 0.8276026
0.27980754 0.0097790435 0.123871446 -0.023921486 2.4347873 -0.23017459 -0.16062109 0.58456767
0.65870976 -0.012216015 0.74698985 -1.6434337 0.15945104 -0.345662 0.17806666 0.3678207
2.7245853 -0.018988725 -2.0448637 -0.07415431 0.17634788 0.51363546 2.66204 -0.5346852
0.03740524 0.81773776 0.37978116 -0.428224 -1.026812 -0.1381947 -0.9270453 0.13462038
-0.56784534 -1.5317962 -0.057303477 0.24776581 -1.0044023 0.074374646 -0.7920282 0.11171107
0.9812802 0.76121557 -0.20045787 0.34007952 -1.1575872 0.2966764 -0.26491454 0.6708983
0.2876503 0.49194515 -0.54779285 -1.220368 0.44439048 0.643933 0.25963077 0.3827005
-0.5736182 -1.1307667 -0.04274025 0.24230489 0.3319675 0.38605896 1.5703311 0.30693984
-0.24882211 -0.39237857 -0.0105302455 0.020292811 0.7473719 0.46029887 0.089747585 -0.21253489
-0.41116732 1.033131 0.2743724 0.33543193 0.15493858 0.6524938 0.48187447 -0.19416422
00000000: 0a4f 8bbe c4e3 7e3f a45e d43f 9d5d bebf
00000010: 0c31 9cbf 2c5f 00bd 0d3d 10c0 50bb 383f
00000020: ebc1 f2bf 5ba8 7cc0 ff7c 98bf dd83 a73f
00000030: 105a b9bf 95bb 6abf 3fe7 06c0 7221 2a3f
00000040: eb14 a33f 574e 0140 043f d6bf dce0 a33f
00000050: cdd0 41c0 5574 393f 8c9f 55bf ff3c 813e
00000060: df62 353f 02b9 813f c2e5 e4bf d850 28c0
00000070: 16cb b53f 66d3 0b40 72ab 2bbd 39ae 933f
00000080: 6aff 84bf e676 2cc0 cd0a 47bf d9f5 113f
00000090: a665 db3e b277 753f bfef 9440 32cc bc3e
000000a0: 1f15 7dbf 00d3 a6bf 6c30 79bf d501 63bf
000000b0: 22ad bd3f f4f4 253f 2d7d 093f 2205 28c0
000000c0: b8f4 c0bf c2bc 3c40 336e 403f 0db9 943f
000000d0: aa7b 0e3f 27d3 fe3e 72cd 44bf 455d a3be
000000e0: 7b57 a23e 6598 6cbf b661 0ec0 efec 2abf
000000f0: e800 f5be db91 cf3e b58a 1e3f cba0 4140
00000100: 8695 ab3e 4d20 ef3f 1e3c 3540 220a a03f
00000110: ad6a d03f 4834 fc3f c962 0340 821d ca3e
00000120: 27c6 1f40 2085 09bf de58 a1bf eb80 3640
00000130: 3290 a03f 06aa 6fc0 948e eb3f f40a 15bf
00000140: 072e 393e a139 70c0 1482 5340 6c87 5e3f
00000150: 46ff 383e 1f06 debf 1665 c13e d83b 0f3e
00000160: c420 5bc0 632e 1fbf 80ad 16bf 208f d6bf
00000170: d24d 023f 1320 8bbf 98e9 10bf 3998 af3e
00000180: b851 08bf 8bc0 c53e 221b 7cbf 63f3 9e3f
00000190: 1cc0 1dbf 19a2 91bc 5a7b 9abe eedc c8be
000001a0: c4e2 a83d 9417 84bf bf56 703f 8571 52bf
000001b0: 2fb2 30c0 8014 2a3f e2e0 6d3f 0e3a e8be
000001c0: 246c 21be 43f0 94be 8cf1 973e b779 123f
000001d0: 0f1a 21bf 59e0 adbf efcd 2940 2a51 953f
000001e0: 4c8a 74be 683c a3be 04d4 07bf b5cb 323f
000001f0: 7bab 063f b115 423e ede7 07be 4296 243f
00000200: c618 a23e 86a9 db3e 8ce9 84be 644d c3bc
00000210: abce 12be 8e14 fb3e bad4 53bf 1cc9 f33e
00000220: 5e07 153f 50df d1bf 701e 0d3e 8c47 e33e
00000230: 3246 e33d d69a 2bbd 02c7 4ebf d848 0bbf
00000240: 13d9 2c3f 3e89 ec3e 3ee6 0d3e 6421 25c0
00000250: d90f 67bf c6ab 4c3d 875b c63e da1c c23f
00000260: ac79 3c3f 5c1c b23e 4506 2740 092c 1dbf
00000270: bc3e a03f caac 12bf ce4e 0a3e 746a 93bf
00000280: 9e1b 27c0 940f c13e e1dd 443f e44e 6cbe
00000290: 0af7 d93f 63d9 dcbe 9361 eb3e c524 163f
000002a0: ab3d 12be 8254 303e a561 3abd 9a4b 85be
000002b0: 1f98 8ebe 0e14 dcbe 27a0 e2be c4dd 533f
000002c0: ef42 8f3e 4838 203c 50b0 fd3d fef6 c3bc
000002d0: 8ed3 1b40 e3b2 6bbe db79 24be 3aa6 153f
000002e0: 34a1 283f ae25 48bc ba3a 3f3f 095c d2bf
000002f0: 2247 233e 9cfa b0be 1b57 363e ff52 bc3e
00000300: 9b5f 2e40 3e8e 9bbc 0cdf 02c0 37de 97bd
00000310: 8a94 343e 9d7d 033f dd5e 2a40 21e1 08bf
00000320: 3d36 193d 4357 513f ad72 c23e 2d40 dbbe
00000330: 936e 83bf e982 0dbe d752 6dbf edd9 093e
00000340: 505e 11bf e611 c4bf 0db7 6abd 52b6 7d3e
00000350: 4190 80bf bc51 983d 5cc2 4abf c6c8 e43d
00000360: 2e35 7b3f 06df 423f d444 4dbe e71e ae3e
00000370: d12b 94bf f8e5 973e e1a2 87be febf 2b3f
00000380: e646 933e 3ce0 fb3e 273c 0cbf 0535 9cbf
00000390: 2687 e33e cbd8 243f 53ee 843e 52f1 c33e
000003a0: a4d8 12bf f7bc 90bf 6610 2fbd c61e 783e
000003b0: a5f7 a93e 85a9 c53e 9c00 c93f 3827 9d3e
000003c0: 39cb 7ebe d8e5 c8be 0d87 2cbc 1c3d a63c
000003d0: c453 3f3f 4bac eb3e 95cd b73d bfa2 59be
000003e0: 8684 d2be a33d 843f 8a7a 8c3e bcbd ab3e
000003f0: 38a8 1e3e d509 273f 40b8 f63e fcd2 46be

layers.4.bias f4 [100]
0.34073457 0.52635616 0.13171443 -0.21805316 0.257958 0.16621412 0.29779938 0.30769703
0.35358664 -0.057408497 0.19758436 -0.10223173 -0.071114376 0.21105403 0.40582734 -0.61833584
0.407647 0.48841715 -0.17693031 0.4821199 0.2651337 0.33606446 -0.4670769 0.25652832
-0.305211 0.15736344 -0.17861584 -0.21200755 -0.31494254 -0.49545804 -0.12741709 -0.32956412
0.38532868 -0.36741206 -0.06836716 0.24259625 -0.3048331 -0.30113968 -0.55672383 0.36773095
-0.28747994 -0.037395347 0.5283446 0.32984266 -0.38096526 0.14575456 0.1417779 0.25175226
-0.2967996 -0.3479602 -0.24066931 -0.21573566 -0.43626097 0.25662214 -0.47533426 -0.14988783
0.35698605 0.21103679 -0.27858523 0.10412209 -0.22016735 -0.14173624 -0.10338047 -0.35248467
0.27484143 -0.04901337 0.21576764 -0.762586 0.40651178 -0.35450765 -0.20172665 -0.29543725
-0.30360284 0.0048208935 -0.2812066 -0.2976342 -0.2666221 0.08432809 0.2331448 -0.14472602
0.20280336 -0.23743114 0.35797533 0.21371464 0.44029188 -0.27300233 0.2777756 -0.2344633
-0.2155016 -0.5333792 0.17415993 -0.020140557 -0.23686272 0.25219974 -0.42369324 -0.46760193
0.38419965 -0.2919428 -0.27592897 -0.045002848
00000000: c374 ae3e 47bf 063f 26e0 063e 5449 5fbe
00000010: 1213 843e 0934 2a3e 2979 983e 778a 9d3e
00000020: 4f09 b53e 2c25 6bbd 8e53 4a3e df5e d1bd
00000030: 6aa4 91bd 8c1e 583e 9ac8 cf3e 424b 1ebf
00000040: 1cb7 d03e d011 fa3e 382d 35be 6bd8 f63e
00000050: 9bbf 873e a410 ac3e b424 efbe ae57 833e
00000060: 9e44 9cbe e223 213e 12e7 36be 8218 59be
00000070: 2640 a1be adac fdbe a079 02be a1bc a8be
00000080: cd49 c53e 6f1d bcbe 1504 8cbd 276b 783e
00000090: 1613 9cbe fb2e 9abe 7485 0ebf 3b47 bc3e
000000a0: 9230 93be dd2b 19bd 9741 073f 23e1 a83e
000000b0: e10d c3be af40 153e 3a2e 113e ace5 803e
000000c0: 1ef6 97be d727 b2be 0472 76be cfe9 5cbe
000000d0: 995d dfbe fa63 833e 035f f3be 327c 19be
000000e0: e0c6 b63e 071a 583e b9a2 8ebe f63d d53d
000000f0: 8d73 61be 4e23 11be 24b9 d3bd df78 b4be
00000100: 04b8 8c3e 3ec2 48bd 31f2 5c3e d638 43bf
00000110: 5022 d03e 0782 b5be 6e91 4ebe 8d43 97be
00000120: d571 9bbe 96f8 9d3b 50fa 8fbe 8363 98be
00000130: b182 88be 35b4 ac3d 83bd 6e3e 0f33 14be
00000140: afab 4f3e 2621 73be 8b48 b73e 03d8 5a3e
00000150: f06d e13e f6c6 8bbe 9a38 8e3e 2617 70be
00000160: 74ac 5cbe 8a8b 08bf fb56 323e cffd a4bc
00000170: 248c 72be 5320 813e 52ee d8be 8569 efbe
00000180: d1b5 c43e 8779 95be 9046 8dbe e854 38bd

layers.6.weight f4 [1, 100]
-0.5756707 -0.29245412 0.60857165 0.26054353 -0.107002996 -0.123625785 -0.25268427 -0.19912441
-0.21936508 -0.6122178 -0.095303856 0.118633285 0.21779893 -0.34701326 -0.22520393 0.25244406
-0.28537974 -0.21434282 0.051904257 -0.25009096 -0.18222898 -0.45142865 0.23178622 -0.04860337
0.1522689 -0.077777006 0.33712262 0.18791474 -0.8137726 0.16243689 0.16149965 0.068193905
-0.2607376 0.3970834 0.5127152 -0.28705704 0.09882035 0.21830863 0.30059588 -0.30173635
0.10055216 -0.01702897 -0.42034918 -0.045655087 0.2257059 -0.39041862 -0.20926233 -0.044376947
0.097751625 0.357663 0.15431733 0.35109022 0.24918926 -0.2589404 0.54851484 0.021748113
-0.114822626 -0.16054529 0.1932002 -0.1241798 0.3193757 0.12972207 0.2855831 0.34574023
-0.120898455 0.1768935 -0.15696478 0.23727371 -0.28749222 0.2765101 0.0832807 0.13973323
-0.3569261 0.27022007 0.2604142 0.20763814 0.097486086 -0.07781282 -0.1298001 0.30043304
-0.25348607 0.27223867 -0.3073857 -0.11992725 -0.022502962 0.06540121 0.64148515 0.43354133
0.17230201 0.31042215 -0.07087703 0.40938997 0.0686309 -0.14727937 0.19495006 -0.81753385
-0.12072386 0.057253674 0.42291817 -0.58713955
00000000: 285f 13bf 8cbc 95be 5acb 1b3f f665 853e
00000010: 6324 dbbd 842f fdbd d55f 81be 45e7 4bbe
00000020: 3da1 60be 4eba 1cbf ab2e c3bd 02f6 f23d
00000030: af06 5f3e b9ab b1be dc9b 66be 5940 813e
00000040: 4b1d 92be af7c 5bbe 8f99 543d ec0b 80be
00000050: 3c9a 3abe a821 e7be 5e59 6d3e 5414 47bd
00000060: 61ec 1b3e 8d49 9fbd 569b ac3e b96c 403e
00000070: 6753 50bf db55 263e 2a60 253e 3fa9 8b3d
00000080: 667f 85be 844e cb3e 4e41 033f 24f9 92be
00000090: 5362 ca3d 4c8c 5f3e b4e7 993e 307d 9abe
000000a0: 4aee cd3d 5780 8bbc 0238 d7be d400 3bbd
000000b0: 731f 673e f3e4 c7be dd48 56be 9ac4 35bd
000000c0: 0132 c83d 9b1f b73e 5d05 1e3e 19c2 b33e
000000d0: 782b 7f3e d693 84be 786b 0c3f 1929 b23c
000000e0: 2028 ebbd fc65 24be 46d6 453e fb51 febd
000000f0: 3685 a33e ddd5 043e f337 923e dd04 b13e
00000100: 9c99 f7bd 9223 353e 60bb 20be e1f7 723e
00000110: 2e32 93be bb92 8d3e 128f aa3d 3a16 0f3e
00000120: 05bf b6be 495a 8a3e 0355 853e 189f 543e
00000130: c9a6 c73d 545c 9fbd 51ea 04be 5cd2 993e
00000140: edc8 81be de62 8b3e a961 9dbe 6b9c f5bd
00000150: 2258 b8bc 12f1 853d 5f38 243f 21f9 dd3e
00000160: f06f 303e a7ef 9e3e fa27 91bd 909b d13e
00000170: 5b8e 8c3d 67d0 16be fda0 473e e649 51bf
00000180: 123e f7bd d482 6a3d bb88 d83e c74e 16bf
