hddm/torch_models/a5e6bbc2160f11ec88173cecef056d26_par2_weibull_no_bias_torch_state_dict.pt (torch, 128839 bytes, 9 tensors)

layers.0.weight f4 [100, 9]
000000 26 ee 38 3b 55 99 8c bb 84 6b 8f 3b bf 53 2c bf
       0.002821812 -0.0042907395 0.0043768305 -0.67315286
000010 8e 0d 2c 3f 0b 9a 89 3e ed dc fa 3d 02 b5 27 bf
       0.6720818 0.26875338 0.122491695 -0.6551057
000020 43 22 a7 3a c4 31 7a 3e 38 48 23 bc 52 e0 02 bf
       0.00127513 0.24433047 -0.009965949 -0.51123536
000030 5f 97 e1 bc 73 1c 53 bd 8b 4c 97 bb 23 6a 94 ba
       -0.027538 -0.051540803 -0.004617279 -0.0011323135
000040 14 71 70 3d c3 8c 99 3e 5b ad 6d bd 79 0c c3 bc
       0.05870159 0.29990205 -0.058026653 -0.023809658
000050 5a 17 99 3d 6c 5c 8a 3e 6e 31 38 3b f5 73 23 3c
       0.07475157 0.27023637 0.0028105634 0.009976377
000060 16 df 7d 3c f0 7d ab 3c 53 18 1e bf 44 10 55 bc
       0.015495082 0.020934075 -0.61755866 -0.013004366
000070 3c e2 f7 bb 6f dd b8 ba b6 c1 ab bf ec 68 8f be
       -0.007564811 -0.0014104078 -1.3418491 -0.28009737
000080 8a b4 ab 3d 78 59 04 bb 9b 77 91 3e 34 a3 21 3d
       0.083840445 -0.002019493 0.28411564 0.039462283
000090 ce ad ff 3d 1a 13 fc 3b 1d e4 fe 3e 37 ac d9 bc
       0.124843225 0.007692707 0.49783412 -0.026571376
0000a0 2e a0 02 be c0 33 a0 bb 16 ec 01 bb 06 56 01 3e
       -0.12756416 -0.0048889816 -0.0019824556 0.12630472
0000b0 b6 4c 15 be 5e 68 93 ba af c7 fe bb cd 1b 9d 3b
       -0.14580044 -0.0011246314 -0.007775269 0.004794574
0000c0 f1 af aa 3d ab da b1 3f ed 9c 20 3d 30 a9 d7 3b
       0.083343394 1.3894857 0.039212156 0.006581448
0000d0 51 e5 b4 bf 33 65 4d 3d 38 63 d8 3d 19 70 00 3d
       -1.4132482 0.05014534 0.105657995 0.031356905
0000e0 a2 90 2f 3d 00 e2 95 bf a7 80 94 be 9d 45 af be
       0.042862542 -1.1709595 -0.29004404 -0.34232798
0000f0 04 b7 f2 be 2b c1 39 3e 58 78 64 be 4d 82 b9 3c
       -0.47405255 0.18140094 -0.22311532 0.02264514
000100 94 ea 8d bb d0 fb 48 3a ad 68 76 3f e2 b8 d7 be
       -0.0043309424 0.00076669175 0.9625347 -0.42133242
000110 7b a5 01 3d ca 09 96 3d 1e a1 09 be 77 64 2c bc
       0.031651955 0.07326086 -0.13440368 -0.010522
000120 5b 14 36 3c a7 83 dc 3c f8 db a6 3b 3a fb 83 be
       0.011113252 0.026918245 0.0050921403 -0.25777608
000130 0b 76 37 bd 52 9c 8e 3d c0 c9 29 3d 1a 7e 40 3d
       -0.04479031 0.069634095 0.04145217 0.04699526
000140 51 00 0f bf 0d 61 14 3c 3a 65 3c 3f 7c 60 a9 3b
       -0.5585986 0.009056342 0.7359196 0.0051689725
000150 d2 28 d2 3d f9 fc 6b 3d 82 85 4e 3c de 0a 07 3c
       0.10261692 0.0576143 0.012605073 0.008242337
000160 db 23 7a bd 69 bf 22 40 a4 f2 0a 3f 62 8d b1 3c
       -0.06106935 2.5429327 0.5427649 0.021673862
000170 1b d9 1e bc 38 11 c5 be ec 0c 4e be d9 c8 23 be
       -0.009695317 -0.384897 -0.20122117 -0.15994586
000180 ac c8 dc bd fb 52 30 3e 30 fa 7c 3d 52 b7 a0 bc
       -0.107804626 0.17219155 0.061762035 -0.019618664
000190 7f 7b 38 3c ba ea 7f bb fd db 88 3f f9 cc ba be
       0.0112599125 -0.003904982 1.0692135 -0.36484507
0001a0 4b e9 e9 bd 17 17 db 3c b0 64 cd 3e 71 40 a4 3b
       -0.1142145 0.026744409 0.4011588 0.005012565
0001b0 79 2f d3 be f9 31 f0 bc 41 52 0b bc 8e 0c 00 bf
       -0.41247156 -0.029320704 -0.008503498 -0.50019157
0001c0 4d 22 19 be 48 0c 9e bd 39 7a 14 bd 96 0c 1f 3e
       -0.14954491 -0.07717186 -0.036249373 0.15532145
0001d0 bc e3 b2 3d e5 f6 e3 bd dc 0c ae 3c 79 6b 10 bb
       0.08734843 -0.11131076 0.021246366 -0.0022036715
0001e0 3d f5 8d bf db 19 93 3e f3 da 8d be 94 4f a3 be
       -1.1090466 0.28730664 -0.27706107 -0.3189665
0001f0 4d bb 8b be 2a 3b c0 3d 33 ef ce 3d ae c9 a1 bc
       -0.27291337 0.09386285 0.101042174 -0.019749489
000200 ea ef 05 bf 3d b7 40 be c8 f9 4a 3b f8 5e 88 bc
       -0.52319205 -0.188199 0.0030971635 -0.016646847
000210 38 03 b9 3a b2 82 8b bc 60 5e ab be 2c e4 13 bd
       0.0014115339 -0.017030094 -0.3347044 -0.036106274
000220 c7 86 8b 3c 20 b7 bf 3c ec c4 61 3f 21 64 e7 be
       0.01703204 0.02340275 0.88191104 -0.4519358
000230 50 32 50 3e ce fa 13 3f cc d3 f0 3e 1d da 6d 3d
       0.20331693 0.5780457 0.47036588 0.058069337
000240 11 16 75 be 37 6b e7 3b 78 93 1d 3f 07 9d 0c bd
       -0.23934199 0.0070623416 0.61553144 -0.03432944
000250 60 74 7f 3c 3d 0b 98 bb 07 11 45 3a 5c a5 b8 bc
       0.015591711 -0.0046400116 0.0007517491 -0.022539787
000260 5e 2b fc 3d 71 86 ae 3b 14 c6 be 3b 80 27 be ba
       0.12312959 0.0053260853 0.0058219526 -0.0014507622
000270 25 33 f1 be 4c 13 9c 3d f9 f9 29 bd 3d 65 42 40
       -0.47109333 0.07620868 -0.041498158 3.037429
000280 b7 a9 65 bd 77 5a bd bc 59 40 c2 3d 65 3a 89 bb
       -0.056070056 -0.023114426 0.094849296 -0.0041878694
000290 10 69 e0 3a db 0f f9 be 55 80 5a bb d5 36 1b bc
       0.0017121155 -0.4864491 -0.0033340652 -0.009473522
0002a0 08 ee 41 bd bb 71 c7 3b f6 15 ad bd fd 01 e2 bb
       -0.047346145 0.006086556 -0.08451454 -0.0068972097
0002b0 4f 8f 50 bb 47 4c 9c 3a a0 a1 48 be 65 a3 32 be
       -0.00318237 0.0011924588 -0.19592905 -0.17445143
0002c0 9f a5 57 bf 6d a6 0b be cd df 57 3e 1e 63 c9 3c
       -0.8423709 -0.13637705 0.21081467 0.024583396
0002d0 e5 0e 26 ba e0 fd c0 ba 72 20 58 bb 13 c0 2c bf
       -0.0006334617 -0.0014724098 -0.0032978323 -0.6748058
0002e0 77 90 8b 3e fc 79 02 3f d2 7e b9 3e ca 1f 91 be
       0.27258655 0.50967383 0.3622957 -0.28344566
0002f0 12 fa 43 3c 3f 58 89 bc 93 93 8b bb 04 f3 51 ba
       0.011961477 -0.016765712 -0.0042595356 -0.00080089294
000300 56 7f f9 be a0 c1 21 3d 67 2a 3d bf 0b 4d 4a 3e
       -0.48729962 0.039491296 -0.73892826 0.19755952
000310 cc ac c6 bd f2 7d a2 3c 4c 45 b0 3b e6 bc 42 bb
       -0.09700927 0.019835446 0.0053793546 -0.0029714643
000320 b7 88 43 3a 83 b5 fa 3e 87 96 04 bf 46 6c 96 be
       0.0007459032 0.48966607 -0.51792186 -0.2937948
000330 ca d3 db be 77 9a 06 3f e2 5a 86 bb 55 4b 94 3b
       -0.4293502 0.52579445 -0.0041001895 0.004525582
000340 1f 89 f2 3b cc 7b 33 3d bd 87 df 3e 5c c2 fe 3d
       0.0074016 0.043819234 0.43658248 0.12439415
000350 a6 4b 1c 3d 63 40 b1 3d 43 53 8b bd b9 9c f3 bd
       0.03815808 0.08654859 -0.0680299 -0.11895127
000360 b6 68 39 be 19 de 48 be 04 e9 bf ba f1 4e 61 3e
       -0.1810635 -0.19615974 -0.0014641588 0.2200277
000370 ef fb 1e bc cc b6 0a 3c 0a c0 09 bc 91 86 0d 3c
       -0.00970362 0.008466434 -0.008407602 0.00863804
000380 99 ad 81 3e 0f 53 56 3f 04 02 bb ba ac c9 2f bb
       0.25327757 0.8372049 -0.0014267568 -0.0026823087
000390 44 73 8c 3d 4e 83 78 3d 0c 3c 53 3c d5 63 5a 3c
       0.06857923 0.060672097 0.012892734 0.013329466
0003a0 f6 89 6f bd 1b bf 74 3e 11 45 27 3e 61 44 6e 3d
       -0.05848118 0.23901026 0.1633494 0.05817068
0003b0 c8 b7 e2 3b 27 43 8d 3e ce 27 f8 3d ff 0a 2a bb
       0.006918881 0.27590296 0.12116967 -0.0025946496
0003c0 d6 ce 45 3c ae 55 d8 bd 6f 17 3a bf 45 b9 db bd
       0.012073239 -0.10563217 -0.72692007 -0.10728697
0003d0 e2 c1 49 bf 12 cb 01 3c e8 78 81 be 87 ca 08 be
       -0.78811467 0.007921951 -0.25287557 -0.13358508
0003e0 22 01 4a bc 2f 9d b4 3b c7 98 0f 3e 6f d9 41 3f
       -0.012329372 0.005511902 0.14023124 0.757224
0003f0 3e 27 a2 bc a4 70 4e bf f0 3f de b8 b1 09 2d 3e
       -0.019794103 -0.80640626 -0.00010597694 0.16898228

layers.0.bias f4 [100]
000000 b7 f0 31 bf 83 85 f2 bf 84 27 73 3f 41 c2 32 be
       -0.69507927 -1.8946995 0.9498217 -0.17456914
000010 90 ea 04 bf 55 29 99 be 1c 21 db be 00 d2 87 be
       -0.51920414 -0.29914346 -0.42798698 -0.26527405
000020 3b be 40 3f 14 49 5e 3e a8 4f 80 be bd bd a3 be
       0.7529027 0.21707565 -0.25060773 -0.31980696
000030 ee 5e 4c bd a7 73 94 be 45 f8 c4 3d dc 35 17 3f
       -0.04989522 -0.28994486 0.09617666 0.5906656
000040 92 bf 8d be 9d 7b 43 3e db df 6f 3f 27 a1 04 3f
       -0.2768522 0.19090123 0.9370095 0.518084
000050 ba cf ec be 7f 11 76 3e ed 1b 17 3f da 5c 2a bf
       -0.46252233 0.24030112 0.59026986 -0.6654793
000060 c9 26 24 bf 4b 88 1b 3f ef 21 6d 3f 22 ba 4a 3d
       -0.6412168 0.6075484 0.92629904 0.049493916
000070 e3 23 87 3f a8 7f 91 3e eb 6d 97 bd e9 ae 52 bd
       1.0557827 0.28417706 -0.07394012 -0.05143634
000080 10 02 05 3e 7a 04 4b bf fc d3 2b 3f 85 37 63 bd
       0.12989068 -0.79303706 0.6712034 -0.05547287
000090 51 ad 1e bd 61 94 b5 be 1f 5d ab 3e ba c9 d9 3e
       -0.038739506 -0.35464767 0.33469483 0.42536718
0000a0 95 31 99 3b 06 4d d5 be dc 8a 24 bc cb bd 0e bf
       0.0046751 -0.41660327 -0.010042872 -0.5575835
0000b0 29 fe df be 44 eb ca bf 54 95 9b be 46 5b b9 be
       -0.43748596 -1.5853047 -0.30387366 -0.3620245
0000c0 c6 49 5a bf 1a c9 3f 3d 10 e1 ff 3d b1 51 6e bf
       -0.8526882 0.046822645 0.12494099 -0.930934
0000d0 e8 ec 9f 3e 55 cf a6 3c 09 f2 32 3f ac d8 a1 3e
       0.31235433 0.020362535 0.69900566 0.3161062
0000e0 0d d5 8a be 1b f0 cc bd 47 ea 35 be c2 b8 c2 38
       -0.2711567 -0.10006734 -0.17765151 9.285055e-05
0000f0 4e f4 70 3f b6 09 62 3f 62 7e 4c 3a 77 d7 56 be
       0.9412278 0.8829607 0.0007800815 -0.20980631
000100 61 14 ba be 9c 04 9e 3f 3b 92 19 bf bc 48 00 be
       -0.36343673 1.2345157 -0.59988755 -0.12527746
000110 87 db b2 bf cf 62 c4 3e 51 09 23 bf 4b da 24 be
       -1.3973244 0.38356635 -0.6368609 -0.16098897
000120 b7 f4 1e bf 45 87 be bd e5 80 84 be a4 3b c5 be
       -0.62092155 -0.09303144 -0.2587959 -0.38522065
000130 e7 cd f1 be 4b 0f 82 bf 75 7a 25 be 01 9c 29 bf
       -0.47227404 -1.0160917 -0.16159995 -0.6625367
000140 0f f1 2a bf f8 52 e5 be 40 45 c3 39 ba e8 4d bf
       -0.66774076 -0.44789863 0.00037244894 -0.8043324
000150 05 b6 1a 39 a0 f1 16 bf 13 43 ca be fa 07 88 bd
       0.00014754392 -0.5896244 -0.395043 -0.066421464
000160 9a 3e 03 bf d6 07 32 be be 59 3a 3e e4 b2 8f be
       -0.512674 -0.17385802 0.18198296 -0.2806617
000170 5e 31 4c 3e 98 54 59 bf 0f f9 2a 3e 00 4d 29 bf
       0.19940707 -0.84894705 0.16696571 -0.6613312
000180 a4 c3 00 bf f8 b0 47 3f 50 8f e1 bd 2b 52 22 3f
       -0.50298524 0.7800441 -0.11013663 0.6340663

layers.2.weight f4 [100, 100]
000000 52 e6 8e 3f 6c 6a d3 3d 69 91 44 3f 71 e6 dc bc
       1.1164038 0.10323033 0.7678438 -0.026965352
000010 5a c2 29 bc f4 e7 20 3f 6c d9 c6 be 25 96 ba 3d
       -0.010361278 0.6285393 -0.38837755 0.09110669
000020 ce 1d 0a bd 6f 71 c8 3d 93 50 a7 bd bc ba ff 3c
       -0.03371983 0.09787261 -0.08169665 0.031216972
000030 9e fd 54 bd b4 da d9 be 4b 2b 96 3c 4f 7a ad 3e
       -0.05199968 -0.4254967 0.01833119 0.33882377
000040 8b 9f 21 3d 54 cc 2f 3f c3 47 b4 bd 30 7c b3 3d
       0.039458793 0.68671155 -0.0880275 0.08763921
000050 be 63 e4 3e 46 cf 5c be b6 dc ad bf dc e7 68 bd
       0.44607347 -0.21563444 -1.3582981 -0.056861743
000060 67 2f 59 ba 95 19 fd bd 92 6a 0c 3e 25 b8 2e bd
       -0.00082849566 -0.12358395 0.13712528 -0.042656083
000070 e1 a2 34 be 08 b0 3f be d5 2f 54 3f 4a e2 9f bf
       -0.17640258 -0.18719494 0.82885486 -1.2490933
000080 1c c4 ef 3d 51 b6 d1 3e 51 32 e7 3f 2f ff a6 be
       0.11707327 0.4095941 1.806223 -0.32616565
000090 44 b3 8c be 41 cc d6 3d 8b 3d 15 be fb 3c 97 be
       -0.2748052 0.10488177 -0.14574258 -0.29538712
0000a0 07 7b 18 ba 50 56 03 40 80 1a 1d bd 88 e9 90 3c
       -0.00058166723 2.052143 -0.03835535 0.017689481
0000b0 38 73 44 3f 97 f3 ac 3d 9f ce fe 3d 86 14 ac 3e
       0.7673831 0.084448986 0.124417536 0.33609408
0000c0 7d 42 1c 3e 18 f7 64 3e b5 8b 3a 3f 79 47 37 3e
       0.15259738 0.22359884 0.72869426 0.17898358
0000d0 88 e2 49 3d 71 4c 7b 3e 15 47 4b be 84 7b 5d be
       0.049288303 0.24540879 -0.19851334 -0.21629149
0000e0 bf 65 fd bc e6 70 87 be f6 a4 c5 bd a7 d5 5a bb
       -0.030932305 -0.26453322 -0.096506044 -0.0033391507
0000f0 d2 6e 0f 3f 80 42 a1 be f7 71 03 3a 3d 54 70 3d
       0.56028473 -0.31496048 0.00050142355 0.058674086
000100 d0 a4 35 be 9f a7 81 bc 57 1c bc 3d e5 04 5b 3e
       -0.17738652 -0.015826998 0.09185093 0.21388586
000110 34 bd ce be 53 4a 8c 3d 6f 94 92 3e 83 15 10 bf
       -0.40378726 0.06850114 0.2862887 -0.56282824
000120 dd 55 19 bd 6d 41 82 be b7 1e 3e bf de d7 8c 3e
       -0.0374354 -0.2544054 -0.7426562 0.27508444
000130 52 52 b9 3c e7 df c8 bd 24 65 41 bf 07 10 be be
       0.022622261 -0.09808331 -0.75544953 -0.37121603
000140 18 25 83 3e 5d 6e f7 3e c9 c0 79 3a 56 62 b4 bd
       0.25614238 0.48326388 0.00095273234 -0.088078186
000150 31 24 8a bb 40 39 2e 3c d8 66 84 3e d3 bc 4e 3e
       -0.00421574 0.010633767 0.25859714 0.20189218
000160 95 95 a9 be 7c 3c 57 3f 56 36 9a be 01 3f b5 3e
       -0.33121935 0.84076667 -0.3011958 0.3539963
000170 c1 bf 3b bd ee ce 38 3e 11 1e 36 be 14 4f 00 3e
       -0.045837168 0.18047687 -0.17784907 0.12530166
000180 a2 c7 28 bd f3 3c 17 3d ad cd 54 be 33 7f 79 be
       -0.04120601 0.03692336 -0.20781584 -0.24364929
000190 4c 78 5f 3e 5a 00 e1 3d d1 35 93 be e1 86 c8 3e
       0.21823233 0.10986395 -0.28751996 0.39165404
0001a0 02 26 2a 3e 11 52 15 bf 7d f6 28 3d 50 d9 a9 3d
       0.16616061 -0.5832835 0.041250695 0.08293402
0001b0 3c af 8d be c7 75 82 be e5 7e d6 3d ac e4 28 3e
       -0.27672756 -0.25480482 0.10473422 0.16493481
0001c0 f3 22 de 3d 78 0a af bc b8 1d 10 3e 36 a4 14 3c
       0.1084651 -0.021367297 0.14073837 0.009072354
0001d0 62 db 87 3d f3 56 c0 3d 00 3e 82 be 52 8b 38 3e
       0.06633641 0.09391584 -0.25437927 0.18021896
0001e0 43 1d de 3d c6 20 d0 3c 61 51 1e bd 0b bd f2 3b
       0.10845425 0.025406253 -0.038651828 0.0074077896
0001f0 71 0a be 3d bc 9e 6b be f6 93 71 be 50 0d 25 bd
       0.09279335 -0.23009771 -0.23591599 -0.0402959
000200 16 2a 6d 3c 83 a5 af 3e bd 82 a0 be 3b dc 1c bc
       0.014475366 0.34305963 -0.31349745 -0.009573991
000210 5e f4 ff 3d a2 53 f9 3c 79 62 df 3d 16 7c 1d bf
       0.12497781 0.030435387 0.10907454 -0.61517465
000220 d8 38 03 be 39 96 4c 3e c0 ae 80 3e fd 97 c5 bd
       -0.12814653 0.1997918 0.25133324 -0.0964813
000230 a9 58 96 3c 20 91 9b 3e 9e 9a 9c bd 9a 95 f6 bd
       0.018352823 0.3038416 -0.076466784 -0.12040253
000240 37 24 33 3e 27 a6 ba be 37 96 00 3e 31 52 82 bd
       0.17494284 -0.3645489 0.12557302 -0.06363333
000250 c8 c9 d2 3c 41 b2 8d bd 60 92 88 3d 64 cb 23 3e
       0.025730982 -0.06918765 0.06668544 0.15995556
000260 b4 14 82 bb 4a 4e 64 bc 9d 0f 0c 3e c5 7e 65 3e
       -0.003969753 -0.013934681 0.13677831 0.2241164
000270 a2 96 30 3e 37 42 92 bd 09 ab c7 be 4d d4 00 bc
       0.17244962 -0.07141536 -0.38997677 -0.007863116
000280 5a f0 60 be cc 6e b1 bc 4c 55 10 bc fb b3 8f 3d
       -0.21966687 -0.021659277 -0.008809399 0.070167504
000290 0a 04 5c be 2c 67 d2 3d 88 81 23 3e 10 0a 88 be
       -0.21485916 0.10273585 0.15967381 -0.26570177
0002a0 70 b5 cb bd 4b 7c dc 3d 68 e3 b4 3c b1 19 93 3c
       -0.09946716 0.107658945 0.022081092 0.017956587
0002b0 55 71 72 3d eb 67 a0 bd 2e c7 ee bd 0e 16 f4 bc
       0.059190113 -0.07832321 -0.11659084 -0.029795673
0002c0 44 aa 74 3d 1b c7 52 be 5e e2 c6 3e 97 d1 33 bd
       0.05973269 -0.20583765 0.3884458 -0.043901052
0002d0 0f 2e 03 bd ea 3a ac be ef 14 87 bc 6d 1d c5 bd
       -0.032026347 -0.33638698 -0.016489474 -0.09624753
0002e0 42 9f 3c bc b8 1a 3f bd 10 ba 83 bb 98 11 92 3c
       -0.011512579 -0.04665634 -0.004019983 0.017830655
0002f0 f7 53 ce bd 0a d9 09 be 3c 1e 45 3e 55 20 6a 3e
       -0.10074609 -0.134617 0.19249815 0.22863896
000300 b9 4a f9 3d 78 83 6d bc 85 37 bd be c0 16 98 be
       0.12172455 -0.014496677 -0.3695642 -0.29704857
000310 93 3f 03 be b0 3e 22 3d 1e 9e 05 3e 67 6e 59 be
       -0.1281722 0.039610565 0.13048598 -0.21233521
000320 ac f7 94 3d 2f f7 62 be 80 50 03 c0 1f 60 e3 3d
       0.07273802 -0.22164606 -2.0517883 0.11102318
000330 ff 3c db 3d 57 7f 4a 3e c9 6f 15 3e e2 25 04 3c
       0.107049935 0.19775139 0.14593424 0.008065673
000340 30 38 26 bf 7f 95 b7 bd 60 62 92 bd 63 31 02 3e
       -0.64929485 -0.08964061 -0.0714767 0.12714152
000350 30 76 33 3e 07 f7 a9 3d d7 7a 39 be 00 64 9a bd
       0.17525554 0.0829907 -0.18113266 -0.07538605
000360 cb 47 87 bd c6 9f d1 bd d4 0c 83 bf ef bc ba 3d
       -0.0660549 -0.102355525 -1.023829 0.091180675
000370 bc 76 0e 3d b9 21 ff b8 60 51 82 3d 3c 2f 33 3c
       0.034781203 -0.00012165629 0.06363177 0.0109365545
000380 f6 03 23 3e 78 92 ae bd bc 26 92 bf 2f 1f 41 bd
       0.1591948 -0.085240304 -1.1418071 -0.04714888
000390 bc 07 72 be 8a b4 d1 3d cd e8 43 3d 7f e3 48 3d
       -0.23635763 0.10239513 0.047829438 0.049045082
0003a0 06 c0 06 bd 7b 3e 57 3b 76 00 01 be 3b d2 9c bd
       -0.03289797 0.0032843638 -0.12597832 -0.07657286
0003b0 79 74 6b 3d 63 5f 03 3d af 24 cc 3d 3d fb 36 bd
       0.057484124 0.03207339 0.09967934 -0.044673193
0003c0 2d 3a 1c 3a 6a 76 00 be 8f cd bd 3e 52 d5 40 3e
       0.00059595966 -0.12545171 0.3707089 0.18831375
0003d0 dd 42 94 3c 9d 9a 24 3e 61 1c ac 3e db eb 81 be
       0.01809829 0.16074605 0.336154 -0.25375256
0003e0 c8 cb 1a 3f 5a a3 f1 3d dc 03 f3 3c f8 4d 95 bd
       0.60467196 0.11798735 0.029664926 -0.07290262
0003f0 fc 6d 96 bd 59 7f ca bb 64 17 1e be 91 a4 b8 ba
       -0.073451966 -0.006179732 -0.1543861 -0.001408713

layers.2.bias f4 [100]
000000 d3 2c 98 3e dc 20 d8 3d 5d ee 22 be 9e 44 ca bd
       0.29721698 0.105531424 -0.15911241 -0.09876369
000010 8c 0c 1a 3f c1 60 86 ba f3 3d a9 3e 8d 17 52 be
       0.60175395 -0.0010252224 0.33055076 -0.20516796
000020 04 44 23 3c ea 19 85 3e 90 2f 31 3e fe 97 5b 3e
       0.009964947 0.25996333 0.173033 0.21444699
000030 ed 0c 19 be 04 82 28 be 46 90 af 3e ea 9b 14 be
       -0.14946337 -0.16455847 0.3428976 -0.14512601
000040 43 5e 78 be ea b4 92 be 2c 1a b9 3d e9 c3 17 3f
       -0.24254708 -0.2865365 0.09038195 0.5928331
000050 98 b0 ca 3c 9c d4 b9 3e fd 17 72 3d 49 bc 31 3d
       0.02474241 0.3629502 0.05910491 0.043392453
000060 c5 8e 64 be 05 ad 1b be bf 74 e8 bd be 37 b2 3e
       -0.22320087 -0.1520272 -0.113503926 0.34808153
000070 35 25 d4 3e 54 7e 64 3e ec 02 9d be 43 11 10 bc
       0.41434637 0.22313815 -0.30666292 -0.008793178
000080 04 60 66 3e 11 66 d7 bd e1 e6 d9 bd 8b 21 d0 ba
       0.22497565 -0.105175145 -0.1063974 -0.0015879137
000090 26 39 20 3d f6 f6 67 be 9c 1a 5d 3e 94 f3 e7 bd
       0.039117 -0.22652802 0.21592182 -0.11325756
0000a0 00 ee d6 3c 1b 15 ea 3c 6b 0c 34 3c 95 f7 90 bd
       0.026236534 0.028574517 0.010989289 -0.070784725
0000b0 d7 c4 8c 3e eb 86 b9 be c8 63 d4 3e 71 b4 6a 3e
       0.27493927 -0.36235747 0.41482377 0.22920395
0000c0 1c 86 a5 bc b4 69 2f 3e 0d 4e a2 bc 13 cb c5 3d
       -0.02020555 0.17130166 -0.019812608 0.09657874
0000d0 52 5c be 3e f0 3e 86 3e b3 c0 0f be e3 66 6d 3e
       0.3717981 0.26219893 -0.14038353 0.2318378
0000e0 67 68 57 be 4a f4 ec 3c fb af 30 bd 7f 06 03 be
       -0.2103592 0.02892508 -0.043136578 -0.12795447
0000f0 71 9e 98 3d ed 7a 91 bd d5 67 8f be 8e a0 96 bd
       0.07452095 -0.07103524 -0.28008905 -0.07354842
000100 89 b5 4a 3d 86 51 d6 3d 2c 7e 03 3e a9 8f 0b be
       0.04948953 0.10464768 0.128411 -0.13629021
000110 90 53 2b 3e a1 e3 a5 bc e3 b5 e5 3d 5d 59 30 3e
       0.16731095 -0.020250143 0.11216333 0.1722159
000120 37 06 2e bc 2e 38 28 3e a1 1d 53 3d ea f9 99 3b
       -0.010621599 0.16427681 0.05154193 0.0046989815
000130 77 f7 3d 3e dd 3b 2e 3e cb f0 47 3d a9 5b 03 be
       0.18551432 0.17015024 0.048813622 -0.12827934
000140 79 7d ef 3d 48 94 b1 bc 88 48 23 bd bb 0f 1a be
       0.11693854 -0.021677151 -0.039864093 -0.15045063
000150 12 62 76 be 04 11 bc be 25 a7 64 be 49 d7 64 be
       -0.24060848 -0.36731732 -0.22329386 -0.2234775
000160 d1 97 b9 bd ba 1e 28 be 1b 8c c8 bd 93 71 3d be
       -0.0906216 -0.16417971 -0.09792348 -0.18500356
000170 62 14 a8 3e 13 0c 71 be 38 30 ab 3b 8e bf d2 bc
       0.3282805 -0.23539762 0.005224254 -0.025726106
000180 2b b4 27 3e 11 6a a6 bd 64 ef 9b 3e e9 8e f9 3d
       0.16377322 -0.08125699 0.30456078 0.12185461

layers.4.weight f4 [100, 100]
000000 56 3f 1b 3e e4 e8 38 bd bc fa 0a 3e ce a9 90 3c
       0.1516088 -0.045143977 0.1357221 0.017659094
000010 33 48 f0 3d e1 06 94 bc f8 63 73 3e fe 29 a0 3d
       0.11732521 -0.018069686 0.23768604 0.078205094
000020 12 32 26 3d cd 29 19 bc 15 dd 2e 3e db ff b6 ba
       0.040575095 -0.009348345 0.17076524 -0.0013961749
000030 10 ba a0 bc 2a bf 09 3d 64 ee 93 3e d2 e3 72 3c
       -0.019619972 0.033629574 0.28892815 0.014824824
000040 5b 2f 0d 3d b6 0a 12 bd a0 db 88 bc b7 30 91 3d
       0.03446899 -0.035654746 -0.016706288 0.0708937
000050 06 ae 88 3e f4 39 bd 3c c3 41 c5 3c 13 b6 15 bf
       0.2669527 0.023098923 0.02407921 -0.5848095
000060 71 2f 9c bd 6a e4 a2 3c 67 8f b8 bc d7 c4 0a 3d
       -0.07626236 0.019884307 -0.022529317 0.033879127
000070 47 bf fc 3e 43 11 a1 3c 78 d6 85 be 0f 21 a0 bd
       0.49364683 0.019661551 -0.2614019 -0.078188054
000080 0e 79 ae 3d d0 45 98 3c cc 11 49 3e 30 61 15 3e
       0.08519183 0.018587977 0.19635695 0.14587855
000090 c1 22 3e 3f 19 c2 8c be 29 c3 ac bd 96 71 00 3b
       0.7427178 -0.27491835 -0.08435661 0.0019598952
0000a0 3c df 6c 3c 49 2b d6 3d 67 e9 b0 3e 6a 24 06 be
       0.01445752 0.10457475 0.34553072 -0.13099828
0000b0 ce e7 10 3e 80 18 d8 3e 61 7c 11 3e 55 b6 70 3c
       0.14150926 0.42206192 0.14207603 0.014691909
0000c0 db ba d6 bd be 39 02 3f 68 1f 13 bc 14 f4 70 3d
       -0.104848586 0.5086936 -0.008979656 0.05882652
0000d0 31 55 b6 3d 0c 0a 72 3e 8d 8a 75 bc 24 4e da 3d
       0.08902968 0.23636645 -0.014986646 0.106594354
0000e0 1f b2 73 be c1 11 72 3e eb 35 3e 3d 98 18 c1 bd
       -0.23798417 0.23639585 0.04643814 -0.09428519
0000f0 0d 07 99 3e 98 c5 8a bf e5 4f 23 be 7a e4 0d be
       0.29888192 -1.0841551 -0.15948446 -0.13856688
000100 6d cb 2d 3d 0a 76 e9 3d 2d 9c 23 3e e4 02 eb 3d
       0.04243033 0.11399467 0.15977545 0.11475161
000110 48 e0 26 3f 42 bc 8f 3e 57 ac e1 bd 7f 26 0c 3c
       0.65185976 0.28073317 -0.11019199 0.0085541
000120 69 58 31 3d 97 ed a2 3d 83 5a ca bc 99 0d 87 3d
       0.043297205 0.07955473 -0.024701362 0.065943904
000130 9b 3a 56 be eb 40 27 3e 5a 4b 72 3c f5 c7 53 3d
       -0.20920794 0.16333358 0.014788473 0.051704366
000140 be 85 c9 3c e8 aa 18 3e fa a2 2f be 67 87 f8 bd
       0.024599906 0.14908946 -0.17152014 -0.12135201
000150 dc cc ec bd 00 d1 51 be ae 5a d0 bf de 17 ac bd
       -0.11562511 -0.20489883 -1.6277673 -0.0840299
000160 2e ed b0 bc 56 25 7f 3c 03 f4 33 3d 2e ce 2f bf
       -0.021597471 0.015572866 0.04393388 -0.6867398
000170 4d ee 47 3e 93 92 c0 bd 83 70 86 3b ae bc cb 3c
       0.19524498 -0.09402957 0.004102768 0.024870243
000180 44 9c d0 3e 35 ce e0 be d8 a1 08 3e 31 b9 1b be
       0.4074422 -0.43907323 0.13342988 -0.15207364
000190 ae 4e 17 3e 8c b3 c9 bd d3 22 d2 bd 2f 5d aa be
       0.14776108 -0.09848699 -0.102605484 -0.33274218
0001a0 48 75 02 be 09 f5 7a be 1f e3 60 3e 97 7d 14 3e
       -0.12740052 -0.24507536 0.2196164 0.14501034
0001b0 73 0a 38 3e 1f fb 37 bf 01 ec 11 3e e9 5f df bd
       0.17972736 -0.71867555 0.14250185 -0.10906965
0001c0 81 46 a5 3e e8 55 cd bd 54 32 87 be 6a 63 22 3e
       0.32280353 -0.10026151 -0.26405585 0.15858236
0001d0 0e ac 20 3e 7d 3c 5f 3d 4b 9b b0 3e 0e 0b 9e bd
       0.15690634 0.054501045 0.3449348 -0.07716952
0001e0 99 66 97 ba a6 6a df be 17 de b8 bd f5 cd 60 3e
       -0.0011550962 -0.43636054 -0.09026735 0.21953566
0001f0 9e e0 dd 3d 0a 59 af be ce 57 ed 3e 79 46 62 be
       0.10833858 -0.3424762 0.46356052 -0.22097196
000200 96 d4 80 3e f0 4c c2 3d 2d f4 ab 3e b6 83 db 3d
       0.2516219 0.09487331 0.3358473 0.10718481
000210 45 58 86 be 26 7d 87 3d 63 74 85 3d 69 81 48 3e
       -0.2623922 0.06615667 0.0651634 0.19580616
000220 6b 78 71 be 8b 08 c2 be 6e 88 da be ed 16 e2 be
       -0.23581092 -0.37897143 -0.42682213 -0.44158116
000230 e7 30 cb 3e 83 ae 00 bd 16 97 8c bd 79 4a fd be
       0.39685747 -0.031416427 -0.06864755 -0.4947088
000240 1b d8 00 be 80 d0 8f 3d 24 06 88 be 2c f5 04 be
       -0.12582438 0.0702219 -0.26567185 -0.1298415
000250 a3 8a 48 bd 3f fb 30 3d 0b e3 86 bd 27 d0 6d be
       -0.04896034 0.043208357 -0.06586274 -0.23223935
000260 a0 d7 61 be 99 0e 42 be 02 31 00 bf aa 43 25 be
       -0.2205491 -0.18950881 -0.5007478 -0.16139093
000270 c1 4c 87 3e 82 8d 02 be 21 21 ad bd 81 4f d1 3e
       0.26425746 -0.12749293 -0.084535845 0.4088097
000280 8a df f8 3e d3 43 6d 3d 4e fa 69 3e 58 c9 7c be
       0.48608047 0.05792601 0.2284939 -0.24686182
000290 66 c9 cb be 46 c9 f2 be f7 85 32 bd de 22 bd 3e
       -0.39802092 -0.47419184 -0.04358479 0.36940664
0002a0 28 36 54 3e 66 3e 64 3e 3a d0 39 be e0 d3 b2 bd
       0.20723784 0.22289428 -0.18145838 -0.08731818
0002b0 70 a5 ac 3e 54 c6 5c 3f b5 43 11 be a5 d3 62 3e
       0.3371997 0.86240125 -0.14185984 0.22151048
0002c0 da 08 a7 bd d6 6e 68 be 3e 7b bb bb 31 77 50 bd
       -0.08155985 -0.2269853 -0.0057214787 -0.05089492
0002d0 1e e4 38 3e 22 3f 8f 3c c3 56 ea 3d ba 91 1e bf
       0.1805577 0.017486159 0.1144233 -0.6194111
0002e0 16 b4 1b 3e b7 b8 63 3e 44 6b 51 bd ef 16 f2 3d
       0.15205416 0.22238432 -0.051127687 0.118207805
0002f0 f1 dc a1 3e c5 91 4b 3f 71 f4 44 be 2a 5a 24 bd
       0.31613877 0.795193 -0.19233872 -0.04012505
000300 be e6 88 be 92 87 37 3e 1b ec 5c be d5 74 d0 3d
       -0.26738542 0.1792281 -0.21574442 0.10178534
000310 d5 a0 b3 3e 81 b9 34 3d a4 a1 fd 3d ce f4 8d bc
       0.35083643 0.044122223 0.12384346 -0.017328646
000320 20 4b 49 be 04 f3 8a 3d e4 df 3b bd fa af 37 3e
       -0.19657564 0.06784633 -0.045867816 0.17938223
000330 90 ee a0 bd 77 a6 c6 be f5 46 4c 3e af dd 13 be
       -0.07858002 -0.38798878 0.19948943 -0.14440034
000340 f7 6d 81 3e 99 71 7c bd fe 76 62 bd dc 3b 0a 3e
       0.2527921 -0.061631773 -0.05528926 0.13499397
000350 e8 06 97 bd 26 de 0f be 35 ca a8 bd 10 04 59 bd
       -0.07374364 -0.14049587 -0.08241693 -0.05298239
000360 67 92 3a bd 26 5b 6b 3e dc 43 86 3e 90 34 80 3d
       -0.045549776 0.22983989 0.26223648 0.062600255
000370 78 a6 b7 be a9 d7 2a 3d ee b2 f6 bd 73 f3 df bd
       -0.35869193 0.041709576 -0.12045847 -0.10935106
000380 dd 80 c3 be da 9e 6b bd 2d d0 a4 be 67 bf b6 be
       -0.38184252 -0.05752454 -0.32190076 -0.35692903
000390 6c eb fc 3e 6e 04 f6 3d 7e 08 87 3e 25 82 6c 3e
       0.49398363 0.12012564 0.26373667 0.23096521
0003a0 81 5f 88 be 14 d7 83 3d e0 8e 4d 3d 15 59 a2 be
       -0.26635364 0.06437507 0.050185084 -0.3170859
0003b0 11 b9 64 3e e0 7e 50 3d 5e cc 36 3e 05 74 ac be
       0.22336222 0.050902247 0.17851397 -0.33682266
0003c0 2b d3 55 bc c1 e5 d0 bc 78 7b 08 be fa 69 e1 bd
       -0.013050835 -0.02550018 -0.1332835 -0.110065416
0003d0 b1 48 8e 3e 5c 47 e9 3e 7b 48 75 bd a5 db 04 3e
       0.27789834 0.45562255 -0.059883576 0.12974413
0003e0 ef ff a3 3e b5 21 0b 3e af 32 84 3d 22 a4 c5 be
       0.320312 0.13587077 0.0645498 -0.38601786
0003f0 7a 60 af bd 2c 89 2d bd 04 d5 f0 bd 88 66 46 3d
       -0.08563323 -0.042367145 -0.117593795 0.048437625

layers.4.bias f4 [100]
000000 1d de 82 3e 29 90 88 be c1 6d a6 bd b6 61 03 3e
       0.25560084 -0.26672485 -0.08126403 0.12830243
000010 4a 35 bb bc 45 46 86 3e 46 6b 02 3e 4a 3e 3c bc
       -0.022852559 0.26225486 0.12736234 -0.01148946
000020 77 a1 94 be 7c bb d9 bd 35 e6 3c be 8e 05 84 3d
       -0.29029438 -0.10631463 -0.18447192 0.06446372
000030 a6 c3 ba 3d fe 19 ca bd 33 9d ea be 5c 92 9f bd
       0.09119348 -0.09868239 -0.45823058 -0.07791588
000040 62 da 0d be d1 ca e4 3a bb c2 6e 3d 4d b1 32 be
       -0.13852838 0.0017455464 0.05829118 -0.17450447
000050 47 85 ff bd 51 93 c5 bd b7 7d a4 be 8a f5 91 bc
       -0.124765925 -0.09647239 -0.32127163 -0.017817277
000060 12 47 bf 3d de bb 44 be 54 ac 2d 3e b7 06 a9 3e
       0.093397275 -0.1921229 0.16960269 0.33012936
000070 b3 da 20 be e2 25 4f 3c 9e 9a 2f bd 0d a8 b0 bc
       -0.15708427 0.012643309 -0.042872064 -0.021564508
000080 9c f3 e7 3c 7c c4 cc bd 54 bb a3 bd e6 be 29 be
       0.028314404 -0.09998414 -0.079947144 -0.16576728
000090 2b 02 1f 3e cb 0f 9b bd 4f 53 7d 3d 84 58 93 be
       0.15528171 -0.07571372 0.061847027 -0.2877847
0000a0 07 da b8 3d 8e 29 32 3e 5e 9d ce 3d 7f 65 1f 3e
       0.090259604 0.17398664 0.10088609 0.15566061
0000b0 a3 62 21 3e eb dc a6 3e b4 e3 09 bf 5d 54 a7 bd
       0.15760283 0.32590422 -0.5386307 -0.08170388
0000c0 65 16 86 be ed a2 e1 3d 28 35 ca 3e 8e 76 8c be
       -0.2618896 0.11017404 0.3949368 -0.274342
0000d0 af e2 ba 3d 50 74 6b bd 7e f5 eb 3d f4 96 4b be
       0.09125268 -0.05748397 0.11521433 -0.19881803
0000e0 66 7b 64 be 7b ad 32 3e 34 fe 42 3e b8 ae b7 3c
       -0.22312698 0.1744899 0.19042283 0.02242218
0000f0 e9 80 a3 be 33 8e 28 be 0a 76 54 be ad f1 8b bc
       -0.31934288 -0.16460495 -0.20748153 -0.017083013
000100 09 07 0c 3e 46 7b 5f be f1 b9 e2 3d 7b 36 14 bd
       0.13674559 -0.21824369 0.11070622 -0.03618477
000110 9f 73 94 3e 0e be cc 3d 6f ba e6 bc e9 31 ed bd
       0.28994462 0.099971876 -0.02816507 -0.11581785
000120 01 f7 5f 3d a7 80 ae bd fc f7 3c 3d 8a 3b 33 be
       0.05467892 -0.08520632 0.046134934 -0.17503181
000130 47 18 50 3d e9 f8 ce bd c4 a0 80 3e 26 a3 9a bd
       0.050804403 -0.101060696 0.25122654 -0.07550649
000140 3d ad a2 be 8b 25 4d bd 3d 6e 8e 3c d2 0f ac 3c
       -0.31772795 -0.050084632 0.01738655 0.021003637
000150 08 5f 6e 3c 8d fa 04 be f9 c3 11 3e 0a f7 0f 3c
       0.014549024 -0.12986203 0.14234914 0.008786926
000160 86 ce 4e 3e b1 db 1f 3e e3 24 0e be ad 03 32 be
       0.2019597 0.1561115 -0.13881259 -0.17384215
000170 3b a7 3f be 50 81 d9 bd d8 6e 20 bd 82 3e 11 be
       -0.18716137 -0.106203675 -0.03916821 -0.14184001
000180 85 5b 59 3d 25 2c ba be 2b ff 30 be f9 51 88 3c
       0.053065795 -0.36361805 -0.17284839 0.01664065

layers.6.weight f4 [100, 100]
000000 0a cc ae 3e df 73 b4 3d d2 a1 a2 3a 43 0d 69 be
       0.34140044 0.08811163 0.0012407845 -0.22758965
000010 4e 91 9a bd e6 95 20 be e1 9e 0d bd c0 fc ee be
       -0.07547246 -0.15682182 -0.034575347 -0.46677208
000020 29 aa e7 3d 3b aa de 3d 76 bd 91 3d 55 dd 88 3d
       0.11311752 0.10872313 0.07116215 0.06682841
000030 4c 99 ab be 35 f4 4c 3d 7b 2c 5b 3e 53 d2 ca 3d
       -0.33515394 0.05003758 0.21403687 0.099033974
000040 4e f0 30 be eb e0 43 3e 92 a5 b2 bd a2 62 d2 3e
       -0.17279169 0.19128768 -0.08722986 0.41090876
000050 89 ed 61 3e b7 b8 0b 3f 17 d5 8c 3d 06 e3 10 be
       0.22063269 0.5457873 0.06876581 -0.14149103
000060 a3 d2 84 3d 75 f7 28 3e 2c 11 26 be e6 10 92 be
       0.06485488 0.16500647 -0.16217488 -0.28528517
000070 e4 ae b0 3c 87 46 99 3e 07 8f c1 3e aa 83 8e 3e
       0.02156777 0.2993662 0.37804434 0.27834827
000080 36 ef 35 3d b9 87 82 3d 10 e1 aa 3d 7c 0e 0c 3d
       0.044417582 0.06373543 0.083437085 0.0341935
000090 76 57 4a bd 8c 61 01 3e 0d 9b 1a bd bf 66 44 3e
       -0.049399815 0.12634867 -0.037745524 0.1917982
0000a0 cf a7 30 be 92 c9 74 bd b2 22 fa bd d6 ff 81 be
       -0.17251514 -0.059762545 -0.12213649 -0.253905
0000b0 b1 43 8b be f9 b9 87 be 98 cd 6f 3e 93 d4 45 3d
       -0.27200082 -0.26509073 0.23418272 0.04829843
0000c0 d0 4f 70 3e f9 5b b3 bd b1 d0 12 be 57 1d 9c 3b
       0.23467946 -0.08757777 -0.14337422 0.00476424
0000d0 6a 65 bf bd 00 4c 11 be 5d 29 2c be 62 ae 88 be
       -0.09345515 -0.14189148 -0.16812654 -0.26695544
0000e0 24 9f c2 3d 2a 90 8c bd 16 67 8d 3d dd b5 07 be
       0.0950301 -0.068634346 0.06904428 -0.13252969
0000f0 75 8b 0f 3e c5 86 07 3e 46 91 cc 3d b1 ad f0 3e
       0.14018042 0.13235004 0.09988646 0.47007516
000100 64 96 80 bd c2 d6 98 3e ea 80 28 be d5 cb 0c be
       -0.06278685 0.29851347 -0.16455427 -0.13749631
000110 a3 d9 3e be 0d d3 b9 bd 88 40 3d be 6d ab a8 3e
       -0.1863771 -0.09073458 -0.18481648 0.32943287
000120 17 58 d8 bd 6a 11 ab bd 9f 27 fd 3d 65 f3 bc 3d
       -0.10563677 -0.08352931 0.12361073 0.09226111
000130 e9 a5 c3 3b 18 cf a1 3d f4 82 9b bd 0f 97 0f 3c
       0.0059707058 0.07900828 -0.07593337 0.0087640425
000140 db 0f 3c 3e a6 70 6a 3c f8 1d 83 3d be 05 16 be
       0.18365423 0.014309084 0.064022005 -0.14650628
000150 b3 2c a6 3e da f9 ea 3c 60 cf 94 be ac 4c 4e 3d
       0.32455978 0.028683592 -0.29064465 0.05036609
000160 f5 ea d4 be 7e fe 1b bd b0 0d d9 bd 41 bd 9f 3d
       -0.41585508 -0.0380845 -0.10598314 0.07799769
000170 0f 27 0b 3d 8e f9 8c 3d 5b f7 3d 3e 25 c7 ad 3d
       0.033972796 0.06883536 0.1855139 0.084852494
000180 6d 52 94 3e 47 ad d4 3d 39 15 4f 3e 53 74 11 3e
       0.28969136 0.103846125 0.2022294 0.1420453
000190 ad 92 9e 3e e5 5c 79 3d 39 b0 de 3e 2d 22 8d bd
       0.3097128 0.060879607 0.43493822 -0.06891284
0001a0 db 9d 00 be 55 6f 30 be 3a 5e c2 bd 0c d3 fa 3d
       -0.12560217 -0.1722997 -0.094906285 0.12247285
0001b0 c5 d1 40 3e 0f f0 d1 3d a2 81 37 3d 6b bc 50 be
       0.1883002 0.10250866 0.04480136 -0.20384376
0001c0 87 40 34 3e 49 37 b7 3e 3c 36 5b 3d ab 70 93 3e
       0.1760274 0.35784367 0.05351852 0.28796896
0001d0 8c ce a4 be 83 1e 1f 3d a2 f8 dc be 6a e8 09 3e
       -0.32188833 0.038847458 -0.43158442 0.13467565
0001e0 ac d2 29 3e 74 61 cc 3e 3d 2b 66 bd 81 29 7c 3d
       0.16584271 0.399181 -0.05619358 0.06156302
0001f0 a7 2c 08 bf b0 6a 11 3e b7 c4 4f 3d a1 6a 80 bd
       -0.53193134 0.14200854 0.05072471 -0.06270338
000200 1e f7 fd bd c7 6a 66 3e fc 0c 82 3e 33 52 17 3d
       -0.124006495 0.2250167 0.2540053 0.036943626
000210 0b 25 08 3e db 5e 53 3e 75 72 23 3b d9 87 d8 be
       0.13295381 0.20641653 0.0024940048 -0.42291144
000220 bf ae 67 3e de cc ab 3e b6 4c 77 bd 27 0e 28 3e
       0.22625254 0.3355474 -0.06037589 0.16411649
000230 df 6b d5 bd 0a 70 a3 bd a3 1f 2c be 98 be b9 bd
       -0.104209654 -0.07980354 -0.16808943 -0.09069556
000240 c0 25 87 bc 9a 46 85 be a0 1b 30 3e a1 4e c5 3e
       -0.016497493 -0.26030427 0.17198038 0.38536552
000250 6f 80 71 3d 11 eb a5 be 3d 35 01 be 2a 35 05 3e
       0.058960374 -0.32405904 -0.12617965 0.13008562
000260 61 1c af bc e2 06 41 3e 56 25 2d be 25 55 da be
       -0.021375837 0.18850282 -0.16908774 -0.42643085
000270 0f a2 97 bd bb 82 0d be 3b 8f a5 3e a7 de 17 bd
       -0.07403957 -0.13819401 0.3233584 -0.037077572
000280 ef 79 a1 3d cd e9 4f 3e 7e b3 95 3c 59 be 7d 3e
       0.07884585 0.20304032 0.018274065 0.24779643
000290 a3 75 45 3e 04 51 53 3e fc 80 ed be de ff 5f bc
       0.19283156 0.20636374 -0.4638747 -0.013671843
0002a0 84 75 33 be ac fe 33 bd ce f2 7c bd 4f 71 b6 bd
       -0.17525297 -0.043944046 -0.061754994 -0.08908331
0002b0 4f 5c 8a b9 02 e8 31 3e 35 57 11 3c 1b 69 70 3f
       -0.00026390186 0.1737366 0.008870889 0.9391038
0002c0 bd 7e 61 bd 93 4c 28 be a1 7b 46 be fc 20 ff 3e
       -0.055052508 -0.16435461 -0.19383098 0.49829853
0002d0 d7 20 94 3d ae 1a 86 3e 39 b4 ac 3e d8 19 bf 3d
       0.07232826 0.2619223 0.3373125 0.09331101
0002e0 29 f0 42 3e fb 69 8c be 77 30 56 be b8 cf 50 be
       0.19036926 -0.27424607 -0.20916925 -0.20391738
0002f0 89 3b 9b bc be b6 62 3e e2 70 c2 3d 7d b2 23 be
       -0.018949287 0.22140023 0.09494187 -0.15986057
000300 68 eb 6d 3e b4 c0 dd 3e 1a 9f 82 3e 21 4a 0e be
       0.23234332 0.43311083 0.2551201 -0.13895465
000310 cd d2 b7 3e 29 86 8a 3d be 10 38 3e 01 24 86 3d
       0.35903016 0.0676387 0.17975137 0.06549836
000320 d8 cb 1f be ca f4 99 be f9 22 34 be dc 7e 5b bd
       -0.15605104 -0.30069572 -0.17591466 -0.05358778
000330 4f e0 0d 3f 12 20 aa 3e ad 31 d5 3d d7 a2 ab 3d
       0.5542039 0.33227593 0.104098655 0.083806686
000340 dd 1d 8f bd 31 d5 bf bd 3f 3e 24 3d 37 cb 2b bf
       -0.06988118 -0.09366835 0.040098425 -0.67106956
000350 eb c7 81 3e 03 81 06 be 0e b2 ed be 32 b4 19 3e
       0.25347838 -0.13135152 -0.46424907 0.15010145
000360 38 7e 26 be 45 33 3b 3c 84 24 d6 3c 15 b1 2b be
       -0.16259086 0.011425798 0.026140459 -0.1676677
000370 b1 8e 92 3d af 7d 90 3c 72 e1 90 bc a9 22 1f bd
       0.071561225 0.017638056 -0.017685626 -0.038851414
000380 41 f6 fc bd 57 e3 83 3e a5 99 52 be ce cb b9 3e
       -0.12351657 0.25759384 -0.20566423 0.36288303
000390 65 c4 15 bf 82 04 71 be 70 68 da bd f7 47 10 3e
       -0.585028 -0.23536876 -0.10664451 0.14089952
0003a0 19 87 76 bd 4e f6 1d bd 1e bc bc 3e 28 5c 7d 3e
       -0.060187433 -0.038564973 0.36862272 0.24742186
0003b0 75 71 82 bc 36 0b be bd 0e 02 6d 3e 41 2e 1d be
       -0.015923241 -0.09279482 0.23145315 -0.15349676
0003c0 e8 4c 13 be ac 73 36 3e 15 ea 98 bd 82 4e 3d 3e
       -0.14384806 0.17817563 -0.074665226 0.1848698
0003d0 69 a1 2f bf de 00 df 3e 62 ce c2 bd 15 05 d6 bf
       -0.6860567 0.4355535 -0.09512021 -1.6720301
0003e0 71 63 84 be 30 6e 30 3e 43 41 b3 3e 17 29 38 3d
       -0.25857118 0.17229533 0.35010728 0.04496106
0003f0 da 9d 37 be e8 e9 50 bc 4e fe 44 3e 16 d6 dd bb
       -0.1793131 -0.01275108 0.19237635 -0.006769906

layers.6.bias f4 [100]
000000 9f a9 63 be eb d4 3b be 4b 56 79 3e bd bd 9a 3e
       -0.22232674 -0.1834294 0.24349324 0.30222884
000010 49 bc 54 3e df 9c 5b 3e d0 eb a6 be 56 b9 1e bf
       0.2077495 0.2144656 -0.32601786 -0.6200155
000020 88 a8 57 3e 74 43 35 3d d0 43 d8 3d bd 25 d3 be
       0.21060383 0.04425378 0.10559809 -0.4123973
000030 e6 f3 f3 bd 8d c6 77 be 2b cf 06 3d 40 69 97 3e
       -0.11911754 -0.24196835 0.032912415 0.29572487
000040 62 2f 2a 3e e5 8b 7d 3e 0d 0a 8d 3e 17 c8 6f be
       0.16619638 0.24760397 0.2754673 -0.23416172
000050 a8 b3 87 3e b4 c6 84 3e 39 55 31 be 49 7a 28 3e
       0.26504254 0.25932848 -0.17317666 0.16452898
000060 d2 ee d0 3d 8a da 14 3e 9e fe d0 3d 60 f0 7a be
       0.10201801 0.14536491 0.102048144 -0.24505758
000070 f1 eb 3d 3e 86 37 ca be 85 77 ce bd 1b 88 78 3e
       0.18547036 -0.39495486 -0.1008139 0.2427067
000080 48 5b b8 3d e0 b0 c4 be 42 31 44 3e 02 43 86 be
       0.090017855 -0.38416195 0.19159415 -0.26222998
000090 bd 7b 49 be 93 e4 0b 3e fe b9 61 3e 08 67 86 3e
       -0.19676109 0.13661413 0.22043607 0.26250482
0000a0 f0 36 b7 3e b4 49 5d 3e 13 d3 9a bd a3 93 c6 3d
       0.357841 0.21610147 -0.075597905 0.09696128
0000b0 46 30 c5 be aa 56 aa 3b ab ed 8a 3e 61 ad 89 bd
       -0.38513392 0.0051983194 0.2713445 -0.067225225
0000c0 aa aa b4 be e4 5f c9 3b 9f 63 ab 3d 36 c4 0d bf
       -0.35286456 0.0061454643 0.083686106 -0.5537752
0000d0 37 b3 cb bd 08 a9 1d be 70 66 56 be b0 97 85 bd
       -0.09946292 -0.15396512 -0.20937514 -0.06523073
0000e0 a6 04 ec bc d7 49 cf 3e 32 88 b1 bd 9b 5d ae 3e
       -0.02881081 0.40486023 -0.08668555 0.3405579
0000f0 5a a6 00 bf 40 0a f1 3e e2 02 1b 3e 83 6e 5a be
       -0.5025383 0.47078133 0.15137818 -0.2133122
000100 4d bb c6 3e 08 4e a2 bc ec 57 98 be c1 9f 86 be
       0.38814774 -0.019812599 -0.2975458 -0.26293758
000110 a0 11 fd 3e 8f 42 9c 3d 51 ee 8f be 22 47 96 be
       0.4942751 0.076298825 -0.28111508 -0.29351145
000120 8a 07 e1 bd f6 65 45 3e 73 df 02 bf 8f ce 7e 3e
       -0.10987766 0.19277176 -0.51122206 0.24883483
000130 f9 12 08 be 28 45 6f 3e c0 db f5 3d 3b f3 8e be
       -0.13288487 0.23366225 0.120048046 -0.27919945
000140 5d b6 96 be b1 0c 06 3c f9 2b 96 be 10 96 40 3f
       -0.29436007 0.008181737 -0.29330423 0.7522898
000150 5f 93 1f 3e fa 14 97 3c cd 47 37 3e a3 42 21 bd
       0.15583561 0.01844262 0.17898484 -0.03937019
000160 df 6e 30 3e 24 14 fd be e4 b5 82 be 61 4c 05 3e
       0.17229794 -0.4942943 -0.25529397 0.13017417
000170 c3 48 bf bd d9 ce 62 be 16 66 3c 3e 6f ea 33 3f
       -0.0934005 -0.22149219 0.18398318 0.7027959
000180 0d ec 8f bd 74 eb da 3d 92 6c ea 3e e0 b7 94 3e
       -0.07027445 0.1068944 0.45785958 0.29046535

layers.8.weight f4 [1, 100]
000000 fe b4 2b 3e ca 97 5c 3c e5 72 e6 bd 79 e1 f3 be
       0.16768262 0.013463924 -0.11252383 -0.4763296
000010 e5 2f cb bd ce 4d 0a be 17 28 33 3e b4 ee 4b 3e
       -0.099212445 -0.13506243 0.17495762 0.19915277
000020 72 41 ea bd c8 b1 0a be 0e fc 74 be ff 2f 4a 3e
       -0.11438264 -0.1354438 -0.23924276 0.19744872
000030 20 3a 70 3e 2a 49 15 3e d0 cd 63 be e8 e6 3a be
       0.23459673 0.14578691 -0.2224648 -0.18252146
000040 88 c4 01 be 75 26 01 be 7a 6f 4d be 87 37 25 3e
       -0.12672627 -0.12612326 -0.20062056 0.16134463
000050 c9 44 3f be de 00 84 bd 52 81 9c 3d 9a a2 3a be
       -0.18678583 -0.06445478 0.076418534 -0.1822609
000060 3c 00 36 be 55 33 f5 bd b2 d1 db bd 40 d4 17 3e
       -0.17773527 -0.119726814 -0.107333556 0.1482706
000070 b5 0e 1b be d5 db 37 3e 00 72 2e 3e ff 99 7b be
       -0.15142329 0.17954953 0.17035675 -0.24570464
000080 44 01 ab bd 1a 7b 20 3e fb 49 c0 bd 1c 6d e4 3d
       -0.08349851 0.1567196 -0.09389111 0.111536235
000090 18 02 01 3e 5d f8 b0 bd 0f 15 62 bd 83 b2 28 be
       0.12598455 -0.086411215 -0.055195864 -0.16474347
0000a0 6c cc 6f be 14 54 d6 bd 56 5d 04 3e 90 06 64 be
       -0.23417825 -0.104652554 0.1292623 -0.22268128
0000b0 ed b4 2a 3e 7c 93 3f be 4e c4 06 be 82 99 91 3e
       0.1667058 -0.18708605 -0.13160822 0.2843743
0000c0 c8 9e 15 3e f3 05 63 3e 60 5c 8c be ce 3a af 3e
       0.14611351 0.22170238 -0.27414227 0.34224552
0000d0 79 f9 f7 3d 69 ca 19 3e 47 1f 9f 3d 50 10 63 3e
       0.1210813 0.1501862 0.077696376 0.22174191
0000e0 e0 a1 3f 3e 75 17 34 be 0e 88 61 3e c8 32 6b be
       0.18714094 -0.17587073 0.22024557 -0.2296859
0000f0 de 32 3f 3e 87 9b 16 be 6d 74 4b be 02 b5 72 3e
       0.18671748 -0.14707766 -0.19868632 0.23701862
000100 9d 4a 4f be de 5e 23 3e f4 cb 01 3e 0a 4c 80 3e
       -0.20243306 0.15954158 0.12675458 0.25058013
000110 75 a8 48 be d0 16 27 b9 a1 2c 17 3e c0 8f 4c 3e
       -0.19595511 -0.0001593486 0.14763118 0.19976711
000120 53 02 66 3e d3 c3 16 be 6e 04 4a 3e 7d df 2b be
       0.22461824 -0.14723139 0.19728252 -0.16784473
000130 c1 17 8c 3e 0c 23 4b be eb 95 61 be e9 c4 76 3e
       0.27361873 -0.19837588 -0.22029845 0.24098553
000140 35 85 40 3e d6 65 57 be 44 77 ac 3d 91 af 34 be
       0.18800814 -0.21034941 0.084211856 -0.17645098
000150 61 bf 4e be 8a 4c aa be 36 1f 0f be 0f d0 35 3e
       -0.20190193 -0.3326152 -0.1397675 0.1775515
000160 5d ef 85 bd 6f 90 81 3e 11 63 23 3e b8 6c c5 be
       -0.065397955 0.25305507 0.1595576 -0.38559508
000170 a8 b6 2b 3e e0 19 fb 3d 83 78 a7 bd cd 36 1d be
       0.16768897 0.12260795 -0.08177283 -0.15352936
000180 18 b9 84 3d 61 ca 3a be d7 96 2d be ee ae 63 be
       0.06480616 -0.18241264 -0.16952072 -0.22234699
