hddm/torch_models/c611f4ca15dd11ec89543cecef056d26_par2_angle_no_bias_torch_state_dict.pt (torch, 87439 bytes, 7 tensors)

layers.0.weight f4 [100, 8]
0	0x3f87aa6e	1.0598886
1	0x3c035afe	0.0080173
2	0xbbe624e8	-0.0070234425
3	0xbdbdd462	-0.092690244
4	0x3d02c923	0.0319301
5	0x3f303e16	0.68844736
6	0xbcca3a52	-0.024686012
7	0xbd00276e	-0.031287603
8	0x3d930d9a	0.07180329
9	0x3b91bf14	0.004447827
10	0xbb0d9429	-0.0021603203
11	0x3e56c8c4	0.20975024
12	0x3cf97942	0.030453328
13	0xbf31db4a	-0.69475234
14	0xbd0195cf	-0.03163701
15	0xbefd498d	-0.49470177
16	0x3d6ba345	0.057528753
17	0xbc1e888b	-0.009676109
18	0xbe7a6b46	-0.24454984
19	0x3d5b3605	0.053518314
20	0x3bc7fa1b	0.006102813
21	0xbd33d005	-0.043899555
22	0xbbf1dbeb	-0.0073809526
23	0x3f85782f	1.0427302
24	0x3e819f62	0.25316912
25	0xbca6725a	-0.020318199
26	0xbca49819	-0.020092057
27	0xbf06be30	-0.52633953
28	0xbf078082	-0.5293046
29	0x3eb47603	0.35246286
30	0x3f024e93	0.50901145
31	0x3d226855	0.03965028
32	0xbd0abf2d	-0.033873726
33	0xba4dd102	-0.0007851274
34	0xb8bf0a69	-9.109529e-05
35	0xbf792dc4	-0.9733546
36	0xbec245c1	-0.37943843
37	0xbf34cf7c	-0.70629096
38	0x3ed83469	0.42227486
39	0x3d4df28f	0.05028015
40	0x3dd00bc4	0.10158494
41	0xbcaf5924	-0.02140481
42	0x3ceb7206	0.028740894
43	0xbf99b958	-1.2009687
44	0x3dc223ad	0.09479461
45	0xbf980bf1	-1.1878644
46	0xbdb57fff	-0.08862304
47	0xbce8b7ea	-0.02840801
48	0x3aaa37c8	0.0012986595
49	0xbb77f98b	-0.0037837948
50	0x3f895051	1.0727636
51	0x3d6d277c	0.057898983
52	0xbc8547a5	-0.016269514
53	0xbd8b0a64	-0.06789091
54	0x3c8e0ffe	0.01734161
55	0x3dc72b5a	0.097250655
56	0xbd5601c9	-0.052247796
57	0xbb934721	-0.004494563
58	0x3de930ad	0.11386237
59	0xbe6a532c	-0.2288329
60	0x3cc83fde	0.024444517
61	0xbf2ffe19	-0.687471
62	0xbc0d14e4	-0.008610938
63	0x3b1e371b	0.0024141732
64	0xbd2bd2e8	-0.041949183
65	0xbde15518	-0.110025585
66	0x3cf279e3	0.029599136
67	0xbe89a6d4	-0.26885092
68	0xbe3c70f4	-0.18402463
69	0xbea83a7d	-0.32857123
70	0x3e20a205	0.15686806
71	0x3f0d7b6c	0.5526645
72	0x3cda6835	0.026661018
73	0xbb90350b	-0.0044008545
74	0x3bf1473d	0.0073632286
75	0xbd7cd8cc	-0.06173019
76	0x3f8eb7c5	1.1149832
77	0x3e92e1c6	0.28687876
78	0xbf9256ea	-1.1432774
79	0x3dbd80d7	0.0925309
80	0xbd0c82d5	-0.03430446
81	0xbcf347ba	-0.029697288
82	0x3ca2b0e7	0.019859744
83	0x3cb859c9	0.02250375
84	0x3eb1bf2a	0.3471616
85	0xbf046a18	-0.51724386
86	0xbca05058	-0.01956956
87	0x3d6f71f3	0.05845828
88	0xbce80eab	-0.028327307
89	0x39a7946d	0.00031963308
90	0x3b85e74d	0.004086411
91	0xbeb57e85	-0.3544809
92	0xbe9fe8fc	-0.3123244
93	0x3f01c9a1	0.50698286
94	0x3f701cbe	0.9379386
95	0x394ee98d	0.00019732695
96	0x3c865538	0.016398057
97	0x3b4b6f10	0.003104154
98	0xbbe14a71	-0.006875329
99	0x40635de3	3.5526054
100	0xbe94efbc	-0.29089153
101	0x3fd72850	1.6809177
102	0x3e72af96	0.23699793
103	0xbcc6e3b8	-0.024278507
104	0xbe59a446	-0.21254072
105	0x3c84f85b	0.016231706
106	0xbecc46a6	-0.3989765
107	0x3df85bea	0.12126906
108	0x3de9c64a	0.11414774
109	0x3e4288ff	0.18997572
110	0xbde179a2	-0.11009528
111	0x3e3f7f18	0.18700826
112	0xb9d2d3df	-0.00040212178
113	0xbb6203ee	-0.0034487206
114	0x3e626a6e	0.22110912
115	0xbef44a57	-0.47712967
116	0xbeebf1c2	-0.46082884
117	0x3df277b8	0.11839241
118	0x3eee361a	0.4652565
119	0x3e1ee586	0.15517244
120	0x3da3cb37	0.079977445
121	0xbf2b555c	-0.66927123
122	0xbbd39384	-0.006456794
123	0x3e0aec73	0.1356676
124	0xbc13b584	-0.009015445
125	0x399204ac	0.0002785077
126	0x3c2b2e9e	0.010448126
127	0xc0689e6e	-3.6346698
128	0x3ea1aff2	0.31579548
129	0xbe39187b	-0.18075745
130	0xbd1c5ca9	-0.038174305
131	0xbd83605f	-0.06414866
132	0xbba5a1eb	-0.0050547025
133	0xbe73ae23	-0.23796897
134	0x3bb12ebd	0.005407183
135	0x3fa41bf1	1.2821027
136	0x3d95c756	0.07313411
137	0xbf272161	-0.6528531
138	0x388d6f30	6.744114e-05
139	0xbd93122a	-0.07181199
140	0x3bdeb66d	0.006796649
141	0x3e89c162	0.26905352
142	0xbbdebf6a	-0.0067977207
143	0x3f4d9c57	0.8031668
144	0xbdb886d6	-0.09010093
145	0x3b0c1e44	0.0021380344
146	0xbe99b68e	-0.3002209
147	0xbdfe0e14	-0.12405029
148	0xbc664da3	-0.014056596
149	0xbf38b052	-0.72144043
150	0x3c693672	0.014234172
151	0x3f0149a8	0.50503016
152	0xbb3f8fc2	-0.0029229973
153	0x3d2940c2	0.041321523
154	0x3b33baa6	0.0027424484
155	0x3f8fd308	1.1236277
156	0xbea8b97f	-0.32954022
157	0x3ea6010f	0.32422683
158	0x3e61a56d	0.22035761
159	0x3dea5c01	0.114433296
160	0x3dc543f1	0.096320994
161	0x3d71b9ed	0.059015203
162	0x3d1b25a1	0.037877683
163	0x3e763f9f	0.24047707
164	0xbf0e25bc	-0.5552633
165	0x4004d0f2	2.075253
166	0x3f0a7d2f	0.54097265
167	0x3de5a146	0.11212401
168	0x3dd4d943	0.10393002
169	0x3dc6b3a4	0.097022325
170	0xbd5b2fac	-0.05351226
171	0xbf20ec38	-0.6286044
172	0xbd3cc960	-0.046090484
173	0xbf05e259	-0.52298504
174	0xbd8933f7	-0.06699365
175	0xbe359cf0	-0.17735648
176	0x3c154672	0.009111034
177	0xbb8cd027	-0.0042972746
178	0xbae37109	-0.0017352413
179	0x3e8a50d9	0.27014807
180	0xbf689cfc	-0.9086454
181	0x3e786300	0.24256516
182	0x3f2e8c4f	0.68182844
183	0x3cc021a8	0.023453549
184	0xbe54547f	-0.20735358
185	0x3c8c8037	0.017150981
186	0xbf0a710d	-0.5407875
187	0x3d080f7d	0.033217896
188	0x3ca485d8	0.020083353
189	0x3e05da55	0.13071568
190	0xbcd220fe	-0.025650498
191	0xbf67c334	-0.9053223
192	0xbd2b62ac	-0.041842148
193	0xbea70c9b	-0.32626805
194	0x3b905692	0.0044048512
195	0xbe8a465e	-0.2700681
196	0xbedb5b19	-0.4284294
197	0x3c5d2ab7	0.013498954
198	0x3edcfa61	0.43159774
199	0xbe91c41a	-0.28469926
200	0x3d6fa795	0.058509428
201	0x3c37deee	0.011222584
202	0x3ce3a7af	0.027789919
203	0xbea01581	-0.31266406
204	0xbf6fae62	-0.9362546
205	0x3ec0b7fe	0.37640375
206	0x3f6593e2	0.89678776
207	0xbe607a20	-0.21921587
208	0xbd952b81	-0.07283688
209	0xbc8f1ab9	-0.017468797
210	0xbd83a419	-0.064277835
211	0xbe2bf390	-0.1679213
212	0xbf3d76c2	-0.74009335
213	0x3ec498cc	0.38397825
214	0x3f3108f9	0.69154316
215	0xbc5e2826	-0.013559377
216	0xbd0fd447	-0.035114553
217	0xbb1afe74	-0.00236502
218	0x3ce9fc13	0.028562581
219	0xbeb775e5	-0.35832134
220	0xbf3f3aa3	-0.7469885
221	0xbefe58af	-0.49677035
222	0x3f5eab62	0.8698026
223	0xbbf3b1f3	-0.0074369847
224	0x3debd375	0.115149416
225	0x3c2bb24b	0.01047952
226	0x3cf81566	0.030283641
227	0x3f266ca9	0.6500955
228	0x3f1cab64	0.6119902
229	0x3ea40b6c	0.32039964
230	0xbf272282	-0.6528703
231	0xbe3bc3c5	-0.18336399
232	0x3cb46622	0.022021357
233	0x3d720f21	0.05909646
234	0x3d8b0674	0.0678834
235	0xbf81133f	-1.0083998
236	0x3e855149	0.26038578
237	0xbf8962ae	-1.073324
238	0xbe980aeb	-0.2969583
239	0x3bd32bab	0.0064444146
240	0xbd44bb54	-0.048030213
241	0x3cee7f3f	0.02911341
242	0x3ce07841	0.027401092
243	0x3f73c97f	0.95229334
244	0xbea5a723	-0.32354078
245	0x3fbe257c	1.4855189
246	0x3e96ce68	0.2945435
247	0x3da89397	0.082312755
248	0xbc9ea764	-0.019366927
249	0xbcb84677	-0.022494538
250	0x3e0fb243	0.14032845
251	0x3e65c37d	0.22437854
252	0x3ecdf392	0.40224892
253	0xbe4f2833	-0.20230179
254	0xbed98d37	-0.4249055
255	0x3f05ce33	0.5226776

layers.0.bias f4 [100]
0	0xbe5d94ea	-0.21638837
1	0x3f325b61	0.69670683
2	0xc00066f0	-2.0062828
3	0xbdf37ca7	-0.1188901
4	0x3ea6e7a1	0.32598594
5	0x3f95c28a	1.1699994
6	0x3d6cd83b	0.0578234
7	0x3f2666c1	0.6500054
8	0xbe8ff613	-0.28117427
9	0x3bf2758c	0.0073992666
10	0xbe3047d4	-0.172149
11	0x3e1d5248	0.15363419
12	0xbf876d0e	-1.0580156
13	0x3ea0e3e7	0.31423876
14	0xbe64057f	-0.22267722
15	0xbf35e227	-0.71048206
16	0xbf338639	-0.7012668
17	0xbeff30cd	-0.4984192
18	0xbfb27878	-1.3943014
19	0x3e6d836d	0.23194666
20	0x3f167d88	0.58785295
21	0xbf6f55eb	-0.93490475
22	0xbbbda0b4	-0.0057869796
23	0x3f01d026	0.50708234
24	0x3f0f6cc2	0.56025326
25	0x3e8d66cd	0.27617493
26	0x3e81dafb	0.2536238
27	0x3e5870aa	0.21136728
28	0x3e922320	0.28542423
29	0x3f1ebb9c	0.6200502
30	0xbf3c3bcf	-0.7352876
31	0xbf2f38fa	-0.68446314
32	0xbeea912b	-0.4581388
33	0x3e80d19a	0.25159913
34	0x3f0cd629	0.5501428
35	0xbcb5fa2b	-0.022214016
36	0xbd64692f	-0.055764373
37	0xbe543302	-0.20722583
38	0x3f2f8dfa	0.68576014
39	0xbdf3bfa1	-0.11901785
40	0x3f224ece	0.63401496
41	0xbeae4386	-0.3403589
42	0xbef405ab	-0.47660574
43	0xbedc14b3	-0.42984542
44	0x3fd8f393	1.6949333
45	0xbf227242	-0.63455594
46	0x3eded346	0.43520564
47	0x3e5e8458	0.21730173
48	0x3e893230	0.26796103
49	0xbe9833a4	-0.297269
50	0x3ed32916	0.41242284
51	0x3f803a5e	1.0017812
52	0x3f490e93	0.78537863
53	0xbe735e01	-0.23766328
54	0xbdcafb0a	-0.09911163
55	0x3d74071e	0.0595771
56	0x3f0670f7	0.5251612
57	0x3e9f9d9b	0.3117493
58	0xbe3006d5	-0.17190106
59	0xbdc923fb	-0.09821316
60	0x3f3b6554	0.7320149
61	0x3eb08fea	0.34484798
62	0xbf675da7	-0.9037728
63	0xbf23d76d	-0.6400059
64	0x3edfbc83	0.4369851
65	0xbf44743b	-0.76739854
66	0xbdfc756d	-0.12327085
67	0x3e6970a3	0.22796874
68	0x3f87e44f	1.0616549
69	0x3e79a82d	0.2438056
70	0xbe6aeab3	-0.22941093
71	0x3ed8d52c	0.42350137
72	0xbea46c6b	-0.32113966
73	0x3f1b0ce1	0.60566527
74	0x3f3c4f67	0.7355866
75	0x3f0f7116	0.5603193
76	0xbd082b46	-0.033244394
77	0xbeac51cb	-0.33656153
78	0x3ca498f7	0.02009247
79	0x3f442aa2	0.7662755
80	0x3e994825	0.29937854
81	0x3f3b0240	0.7305031
82	0x3d53f8ad	0.051750828
83	0x3f5789df	0.8419475
84	0xbe77a9b7	-0.24185835
85	0x3f3bdc3a	0.73382914
86	0xbe3c68d7	-0.18399368
87	0xbf229d32	-0.6352111
88	0x3cfa0b3d	0.030522937
89	0xbe049915	-0.12949021
90	0x3f348a86	0.7052387
91	0xbf8a97ed	-1.0827614
92	0x3f0e9f59	0.55711895
93	0xbef0d2ee	-0.47035927
94	0xbed8a198	-0.42310786
95	0xbf259a00	-0.6468811
96	0xbe855744	-0.2604314
97	0x3be1c47c	0.006889878
98	0x3e3b4028	0.18286192
99	0xbf27a279	-0.6548229

layers.2.weight f4 [100, 100]
0	0x3e31ab7a	0.1735057
1	0x3e82d561	0.2555342
2	0xbdbc12f0	-0.091832995
3	0xbedff762	-0.43743426
4	0x3b9e4562	0.0048300484
5	0xbf2d005a	-0.6757866
6	0xbd6ceaff	-0.057841297
7	0x3ed47b83	0.41500482
8	0x3cdbf9f4	0.026852585
9	0x3ec66ee8	0.3875649
10	0x3e036c72	0.12834337
11	0xbe2f9d76	-0.1714991
12	0xbeba71d0	-0.36414957
13	0x3e4fb639	0.20284356
14	0xbf41482f	-0.7550077
15	0xbda2acbb	-0.07943102
16	0xbd31d8f3	-0.04341979
17	0x3e83b84a	0.2572654
18	0xbeb9e18c	-0.3630489
19	0x3e90d60a	0.282883
20	0x3dc1ff8a	0.09472568
21	0xbe83942c	-0.25698984
22	0xbeaa362e	-0.3324446
23	0xbd1d0d64	-0.03834285
24	0x3f21bcf2	0.6317893
25	0x3f0d5965	0.5521453
26	0xbbae7469	-0.0053239358
27	0xbf103dd2	-0.5634433
28	0xbb286b8a	-0.0025698864
29	0xbf3f9d5c	-0.74849486
30	0x3ed4e8b2	0.41583782
31	0xbf028d91	-0.50997263
32	0xbe0a8feb	-0.13531463
33	0x3e9f6ef3	0.31139335
34	0xbd798f22	-0.060927518
35	0xbe5a2f9f	-0.21307229
36	0x3d893bf3	0.067008875
37	0x3c57da1d	0.013174561
38	0x3f369d77	0.7133402
39	0x3e5451db	0.2073435
40	0x3e6cf3ae	0.23139831
41	0xbec44dfb	-0.38340744
42	0xbe980851	-0.29693845
43	0xbf0b4cc3	-0.54414004
44	0xbe43b22f	-0.1911094
45	0xbf0c7670	-0.5486822
46	0x3f21aef6	0.63157594
47	0x3df5e672	0.120068446
48	0x3e4fab89	0.20280279
49	0x3d87f7cb	0.0663906
50	0x3f3ad375	0.7297891
51	0x3c93b3ad	0.018030012
52	0x3b8049e1	0.003915057
53	0x3e2abc0b	0.16673295
54	0xbd3a34d0	-0.045460522
55	0x3cd6322c	0.02614697
56	0x3c7c48e3	0.015398237
57	0xbeca4b6e	-0.39510673
58	0x3e5c1389	0.21491827
59	0xbec30579	-0.38090113
60	0x3dd5deb4	0.10442868
61	0xbddea227	-0.10870772
62	0xbe183277	-0.14863001
63	0x3ea7feb5	0.32811514
64	0x3ee18b9c	0.44051826
65	0xbec35cac	-0.3815664
66	0x3f6c6e41	0.92355734
67	0x3e31d5fa	0.17366782
68	0x3e772ea0	0.2413888
69	0xbebe46b6	-0.37163323
70	0xbec5df2f	-0.38646838
71	0xbe031a52	-0.12803009
72	0x3e8d151e	0.27555174
73	0x3ee53c19	0.44772413
74	0x3dfa7b12	0.12230505
75	0x3d6e2b50	0.058146775
76	0xba06c9d0	-0.0005141767
77	0xbd2b349b	-0.041798215
78	0xbe116e80	-0.14202309
79	0xbd6a05ba	-0.057134368
80	0x3efda4c1	0.4953976
81	0x3eca07fd	0.3945922
82	0xbe4cc4ff	-0.19997023
83	0x3ef5cafd	0.4800643
84	0xbde1d762	-0.11027409
85	0xbe10fcc1	-0.14158918
86	0x3cf4583b	0.029827228
87	0xbeca2c48	-0.3948691
88	0x3f789e0f	0.9711618
89	0xbcc16438	-0.023607358
90	0x3f3c1c50	0.734807
91	0xbe8f61bc	-0.28004253
92	0xbe413abe	-0.18870065
93	0xbd8fff0c	-0.07031068
94	0xbf62379a	-0.8836609
95	0xbec5b304	-0.3861314
96	0xbec4e08e	-0.38452572
97	0x3f0e6d47	0.55635494
98	0x3d22ec0d	0.039775897
99	0xbdd4e390	-0.103949666
100	0x3e6f6d7f	0.23381613
101	0x3e935090	0.28772402
102	0xbf21866f	-0.63095754
103	0x3db68e74	0.089138895
104	0xbcd91797	-0.026500506
105	0xba92cfd4	-0.0011200854
106	0x3f01776a	0.50572836
107	0xbc0bd70f	-0.008535161
108	0xbc69d0f4	-0.01427101
109	0x3ea650c0	0.32483482
110	0x3d6adcad	0.05733936
111	0x3df2fd71	0.11864746
112	0x3d7be0f9	0.061493848
113	0x3da8e0df	0.08246016
114	0xbe544355	-0.2072881
115	0x3e2f5b2e	0.17124626
116	0x3e7828b1	0.24234273
117	0x3e1d6129	0.15369095
118	0xbe25e10e	-0.16199133
119	0x3c97473a	0.01846658
120	0x3db8493d	0.08998344
121	0xbe074c0e	-0.13212606
122	0xbceed16f	-0.0291526
123	0x3df55732	0.11979522
124	0xbeaa1288	-0.33217263
125	0xbe918d4f	-0.28428122
126	0xbca2b36d	-0.019860948
127	0xbe573f64	-0.21020275
128	0xbe401cc2	-0.1876097
129	0xbdfae1a8	-0.12250072
130	0xbd286940	-0.041116
131	0x3ebe02fe	0.37111658
132	0xbde50360	-0.11182284
133	0xbeb3838f	-0.3506131
134	0xbda7a81b	-0.081863604
135	0xbe328263	-0.17432551
136	0x3d039b62	0.032130606
137	0x3df5922c	0.11990771
138	0xbe1c8a6d	-0.1528718
139	0xbe308628	-0.17238677
140	0x3e422073	0.18957691
141	0x3cce6326	0.025193762
142	0x3e6075fe	0.2192001
143	0x3e80768d	0.25090447
144	0xbeb3c78e	-0.35113186
145	0x3e8e9fb8	0.2785623
146	0x3de82878	0.11335844
147	0x3daf9d40	0.08574915
148	0xbe8d037a	-0.27541715
149	0x3e38d9b5	0.18051799
150	0x3e35dcc4	0.17759997
151	0x3e81e776	0.25371903
152	0xbec20747	-0.37896177
153	0x3dc3c55c	0.09559128
154	0x3dba8583	0.091074966
155	0x3ea22f14	0.31676543
156	0xbd2df780	-0.042472363
157	0xbee0645e	-0.43826574
158	0x3d9208af	0.071305625
159	0xbeb7077a	-0.35747892
160	0xbe025cee	-0.12730762
161	0x3c91feaf	0.017821638
162	0x3e15afb1	0.14617802
163	0x3ce10416	0.027467769
164	0x3d4250c9	0.047440324
165	0xbed29597	-0.41129753
166	0x3ec8e4db	0.39237103
167	0x3dafe327	0.08588248
168	0x3e0272f4	0.12739164
169	0x3c2fc419	0.010727906
170	0x3e847e9c	0.25877845
171	0xbe2b0a3c	-0.16703123
172	0x3ddaf02d	0.10690341
173	0x3ab9d204	0.0014176969
174	0xbed655c0	-0.41862297
175	0xbe3a92f6	-0.18220124
176	0xbe269d74	-0.16271001
177	0x3dd4350e	0.10361682
178	0xbe295776	-0.1653727
179	0x3cd7bc7d	0.026334995
180	0x3e468895	0.1938804
181	0xbe4b53e3	-0.19856219
182	0xbd154aad	-0.03644817
183	0x3ec1ec74	0.37875712
184	0xbe59bcc5	-0.21263416
185	0xbda9a2dc	-0.08283016
186	0x3ee2e113	0.44312343
187	0xbd96b306	-0.07358365
188	0xbdcf48f1	-0.10121334
189	0x3e184eeb	0.14873855
190	0xbdf876c7	-0.1213203
191	0x3e90c328	0.28273892
192	0xbd115eff	-0.035490986
193	0xbd394b9d	-0.045238126
194	0x3e7e0944	0.24808222
195	0xbd71eb4c	-0.059062287
196	0x3dc0018c	0.09375295
197	0xbe44d000	-0.1921997
198	0xbe742815	-0.23843415
199	0xbdfe75cf	-0.12424814
200	0x3d8f7a40	0.07005739
201	0xbf2e4069	-0.6806703
202	0xbeea7c28	-0.4579785
203	0xbd6b1cdb	-0.057400566
204	0xbdac30bb	-0.08407732
205	0xbe03a7c3	-0.12856965
206	0xbf6d99fe	-0.928131
207	0xbb164938	-0.0022931825
208	0x3e04ea73	0.1298006
209	0xbd848e31	-0.06472433
210	0x3e7ff477	0.249956
211	0xbdcdfd49	-0.10058076
212	0xbda27ed3	-0.07934346
213	0xbea2c642	-0.31791884
214	0x3c1642e4	0.009171221
215	0x3ee08018	0.43847728
216	0x3dfc7bc5	0.12328295
217	0x3efd18c1	0.49432948
218	0x3e212fa3	0.15740828
219	0x3dc63bda	0.096793845
220	0xbd1c8fea	-0.038223185
221	0xbc49ced3	-0.012317377
222	0x3d9c043d	0.07617996
223	0x3db296a6	0.0872014
224	0xbd9253ab	-0.07144865
225	0x3dc4dfd8	0.09613007
226	0xbba55a57	-0.0050461697
227	0x3d5593c7	0.052142885
228	0xbdab5cee	-0.08367334
229	0xbd351700	-0.044211388
230	0x3e0843db	0.13307135
231	0x3d627822	0.05529035
232	0x3ee4ab32	0.44661862
233	0x3e9d90a3	0.30774412
234	0xbe295540	-0.16536427
235	0x3d731d93	0.059354376
236	0x3ddb28ad	0.10701118
237	0xbe9fea82	-0.31233603
238	0xbe3f50c9	-0.18683161
239	0x3ecd5ce0	0.4010992
240	0xbc239ed7	-0.009986601
241	0xbea40915	-0.3203818
242	0x3dcae523	0.099069856
243	0x3df8c12a	0.12146218
244	0xbc6372c2	-0.013882341
245	0x3ea40151	0.32032254
246	0x3e7e08d1	0.2480805
247	0xbe878349	-0.2646735
248	0x3f571ea5	0.84031135
249	0x3ea072b4	0.31337512
250	0x3dc86ad9	0.097860046
251	0xbd0f64bc	-0.035008177
252	0xbde141f8	-0.10998911
253	0x3d47cb60	0.048777938
254	0xbdcebf1f	-0.10095047
255	0x3da36f9f	0.079802744

layers.2.bias f4 [100]
0	0x3ef247eb	0.47320494
1	0x3d3fcb35	0.046824653
2	0x3e38920d	0.18024464
3	0x3e9f73c0	0.31142998
4	0xbf1691db	-0.5881631
5	0xbd8d53f4	-0.069007784
6	0x3e6c72e1	0.23090698
7	0xbd2328ae	-0.039833717
8	0x3eb63323	0.3558589
9	0x3f004700	0.5010834
10	0x3e84ccd1	0.25937513
11	0x3dbd4c4e	0.092430696
12	0x3e2e5f9b	0.17028658
13	0x3b132e29	0.0022457934
14	0xbede6b97	-0.4344146
15	0x3e345244	0.17609507
16	0xbf34c54e	-0.70613563
17	0xbd54b0a4	-0.05192627
18	0x3ec56482	0.38553244
19	0xbdbb2ba0	-0.0913918
20	0xbe368b65	-0.17826612
21	0xbf89772c	-1.0739493
22	0x3f2439d7	0.64150757
23	0x3e47bf7d	0.1950664
24	0xbe1a7246	-0.15082654
25	0xbed41ed7	-0.4142978
26	0x3eba3e7c	0.36375797
27	0x3d778e76	0.060438596
28	0xbc92ab3b	-0.017903915
29	0xbecd60ad	-0.4011282
30	0xbf017de6	-0.5058273
31	0x3e6b30d2	0.22967842
32	0x3ef44115	0.47705904
33	0x3ccbcfd6	0.024879377
34	0x3dfa7b32	0.12230529
35	0xbe951b6f	-0.29122493
36	0x3f028693	0.50986594
37	0xbe05b632	-0.13057783
38	0xbeb247d6	-0.3482043
39	0x3e77bacf	0.24192356
40	0x3e2c5393	0.16828756
41	0x3d9d9e70	0.07696235
42	0x3e859096	0.26086873
43	0xbce69864	-0.028148837
44	0xbcf719cd	-0.03016367
45	0xbde45f14	-0.11150947
46	0x3f17a9fe	0.5924376
47	0x3ec036be	0.37541765
48	0x3e338672	0.17531756
49	0xbed2a177	-0.41138813
50	0x3e4d6a54	0.20060092
51	0x3e111d2e	0.14171287
52	0x3ce054df	0.02738422
53	0x3e5f655f	0.21816014
54	0x3d63ba8c	0.055597827
55	0x3e2a1377	0.16608988
56	0x3e37b16c	0.17938775
57	0xbe5e576f	-0.21713041
58	0xbe9b272b	-0.3030332
59	0x3d715ff1	0.058929387
60	0xbe41c2b4	-0.1892193
61	0x3e9520b9	0.29126528
62	0xbd0e5b73	-0.03475518
63	0xbd7a9de8	-0.061185747
64	0xbc48895a	-0.012239778
65	0x3e148048	0.1450206
66	0x3cdb337a	0.026757944
67	0x3d6b7c40	0.05749154
68	0xbed4f3f0	-0.4159236
69	0x3d2107c7	0.039314058
70	0xbe803e7f	-0.2504768
71	0xbe6f9aaf	-0.23398851
72	0xbf6ff175	-0.9372781
73	0xbd63a248	-0.055574685
74	0x3e8c0712	0.27349144
75	0x3d507929	0.050896797
76	0x3e8c2939	0.273752
77	0x3f01606a	0.5053774
78	0x3ea2ff9a	0.31835634
79	0x3ed479c0	0.41499138
80	0xbe2dba11	-0.1696551
81	0xbea8910e	-0.32923168
82	0x3d1da2a1	0.038485173
83	0x3f020728	0.5079217
84	0xbef8e395	-0.4861113
85	0xbe777cd4	-0.24168712
86	0x3e65e29c	0.22449726
87	0x3eb75d99	0.35813597
88	0x3d52c52d	0.051457573
89	0x3e7db05c	0.24774307
90	0xbedd9c4c	-0.43283308
91	0xbc922170	-0.01783821
92	0x3d27f950	0.041009247
93	0xbea7ca99	-0.32771757
94	0xbd88767b	-0.06663223
95	0x3ce24fb4	0.027625896
96	0x3e20791c	0.156712
97	0xbdbb4dae	-0.091456756
98	0x3f37bc7e	0.7177199
99	0x3e3a0900	0.18167496

layers.4.weight f4 [100, 100]
0	0xbe630712	-0.22170666
1	0xbe6bba49	-0.23020281
2	0xbeea7adc	-0.4579686
3	0x3e7ad6f3	0.24496059
4	0xbdcd2b1c	-0.10017988
5	0xbe30b468	-0.1725632
6	0xbd82baea	-0.06383307
7	0xbe1f696f	-0.15567563
8	0x3bb7a389	0.0056042117
9	0xbe4b972d	-0.19881888
10	0x3ec91e6b	0.3928102
11	0x3c8c148f	0.017099647
12	0x3f1d4c58	0.61444616
13	0xbd0573b8	-0.03258106
14	0xbf28708c	-0.6579673
15	0x3e72948d	0.2368948
16	0x3ed04c6d	0.40683308
17	0x3f08e7c9	0.53478676
18	0x3d64bd4b	0.055844586
19	0xbed1e07c	-0.4099158
20	0x3d55208d	0.052032996
21	0xbf779e2d	-0.9672573
22	0xbec6b617	-0.388108
23	0x3ded57f9	0.11589045
24	0xbe5ba93d	-0.21451278
25	0xbd1cf435	-0.03831883
26	0x3e05b5db	0.13057654
27	0xbe1a060c	-0.15041369
28	0xbe9898a0	-0.29803944
29	0x3e86f057	0.2635524
30	0x3e68f96c	0.22751397
31	0x3d17016f	0.0368666
32	0xbe429964	-0.19003826
33	0xbde25280	-0.11050892
34	0x3ea27f8c	0.31737936
35	0xbe99ba03	-0.30024728
36	0x3f48306b	0.7819888
37	0x3ea082fe	0.3134994
38	0xbfa013b9	-1.2506019
39	0xbf2a20a8	-0.6645608
40	0xbe4001bc	-0.18750662
41	0x3e4adc55	0.19810612
42	0xbe417836	-0.18893513
43	0x3eba2f1c	0.36364067
44	0x3efcb15c	0.49354064
45	0x3e07d4e8	0.13264811
46	0xbea411c3	-0.320448
47	0x3cff1fdb	0.03114312
48	0x3f63a396	0.8892149
49	0x3ec72961	0.38898757
50	0xbe004604	-0.12526709
51	0xbee37243	-0.44423112
52	0x3d9911a6	0.07474069
53	0x3daa6eab	0.083218895
54	0xbe286a2a	-0.16446748
55	0x3eed429f	0.4633989
56	0x3f0dd52b	0.55403394
57	0x3f185f0f	0.5952005
58	0x3e747922	0.23874334
59	0xbebd3373	-0.36953315
60	0xbe86cfcc	-0.2633041
61	0x3ca04c68	0.019567683
62	0xbec3f1d5	-0.3827044
63	0x3ee47cc7	0.44626448
64	0xbe5459c9	-0.20737375
65	0x3eb14bc6	0.34628123
66	0xbe6f28dc	-0.2335543
67	0x3e39f56e	0.1816003
68	0x3dd97171	0.1061734
69	0xbde25aa8	-0.110524476
70	0xbe9e398a	-0.30903274
71	0x3d5e9a68	0.054346472
72	0x3ea0a099	0.31372526
73	0xbe870f58	-0.26378894
74	0x3ea00fdc	0.312621
75	0x3e73d831	0.23812939
76	0xbeae1ddd	-0.3400716
77	0x3f556325	0.8335441
78	0xbebd49b4	-0.36970294
79	0xbe915cb6	-0.28391045
80	0x3ee5a5e2	0.4485312
81	0x3d3fc353	0.046817135
82	0xbedc5912	-0.43036705
83	0x3f46919c	0.7756593
84	0xbc26719b	-0.010158922
85	0x3ea53304	0.32265484
86	0x3e8431a6	0.2581913
87	0xbf095d93	-0.5365841
88	0xbeacd112	-0.33753258
89	0xbe3ffe6a	-0.18749395
90	0x3e2ad496	0.16682658
91	0x3d929349	0.07156999
92	0x3d830771	0.06397904
93	0xbe64a1a2	-0.22327283
94	0x3e246580	0.16054344
95	0x3dab2a25	0.08357648
96	0xbf3c784f	-0.73621076
97	0x3e683606	0.22676858
98	0xbe9674ff	-0.29386136
99	0x3d8cf865	0.06883315
100	0x3e8eb484	0.27872097
101	0xbdb7ddb4	-0.089778334
102	0xbe755126	-0.23956737
103	0x3e875153	0.26429233
104	0xbe1738da	-0.14767781
105	0xbc9d72f8	-0.01921986
106	0xbe31d8f3	-0.17367916
107	0x3d5c61e4	0.053804293
108	0x3e3fb19b	0.18720095
109	0x3e8d55f4	0.2760464
110	0xbed4eaf4	-0.41585505
111	0x3f24a7cf	0.64318556
112	0xbed1d642	-0.40983778
113	0xbe686116	-0.22693285
114	0x3e5ffebe	0.2187452
115	0x3ebad561	0.3649092
116	0xbe302888	-0.17202961
117	0x3e88fbd2	0.26754624
118	0x3b64ddf7	0.003492234
119	0xbd8e935d	-0.06961701
120	0x3e8beb11	0.2732778
121	0x3e0c15bf	0.1368017
122	0x3c8811a0	0.016609967
123	0xbb27d0b0	-0.0025606565
124	0xbc619876	-0.01376926
125	0x3e143899	0.14474715
126	0x3e5dd0a6	0.21661624
127	0xbe5b57d5	-0.21420224
128	0xbe9c86b8	-0.30571532
129	0xbe0beb39	-0.13663949
130	0xbe78efcb	-0.24310224
131	0x3d5a8e95	0.053358633
132	0x3e6ea618	0.23305547
133	0xbedde444	-0.43338215
134	0xbe8b6edf	-0.27233025
135	0x3e9c65a4	0.30546296
136	0xbe80cc43	-0.2515584
137	0x3da5ae22	0.08089854
138	0x3ea5d804	0.3239137
139	0xbf647e55	-0.8925527
140	0xbeb0972c	-0.34490335
141	0x3f2e1a21	0.6800862
142	0x3dc60a6a	0.09669955
143	0xbe0c1fc0	-0.13683987
144	0x3e1be855	0.15225346
145	0x3c880426	0.01660354
146	0x3e020e10	0.12700677
147	0x3e490eb0	0.19634509
148	0xbe87869f	-0.26469895
149	0x3d8d4af9	0.068990655
150	0xbd9e0405	-0.077156104
151	0x3ebb8a7d	0.36629096
152	0x3f0d0204	0.550812
153	0x3daf6c04	0.08565524
154	0x3bb41c50	0.005496539
155	0x3c0706e4	0.008241389
156	0xbd533a8c	-0.051569507
157	0x3e0577d0	0.13033986
158	0xbe6942a6	-0.2277933
159	0xbd55c578	-0.052190274
160	0xbd970a5e	-0.07375024
161	0x3d3122b3	0.043245982
162	0x3da4f588	0.08054644
163	0x3d1f22d1	0.038851563
164	0xbef6fc0d	-0.48239174
165	0xbe851535	-0.25992742
166	0xbf63269a	-0.88730776
167	0x3e8db596	0.27677602
168	0xbe852803	-0.2600709
169	0x3e60d93e	0.21957871
170	0xbec73a22	-0.3891154
171	0xbea1b13d	-0.31580535
172	0xbea973cf	-0.33096167
173	0xbd8af98e	-0.0678588
174	0x3e1250b5	0.142886
175	0x3e96f2ac	0.2948202
176	0xbe92fc71	-0.28708223
177	0xbe3a0380	-0.18165398
178	0x3f19eced	0.60127145
179	0xbce75bcd	-0.028242016
180	0xbb1c1ebb	-0.0023822028
181	0xbdd3f71a	-0.10349865
182	0x3d686eda	0.05674634
183	0xbecb1941	-0.39667705
184	0xbc69d1b2	-0.014271187
185	0x3e8786a7	0.2646992
186	0xbebe7b20	-0.37203312
187	0x3c8d1fce	0.01722708
188	0x3ed7b19b	0.4212769
189	0xbe0111a0	-0.1260438
190	0xbe80d12b	-0.25159582
191	0x3dfe192a	0.124071434
192	0x3d28ebd7	0.04124054
193	0xbe7ae5ba	-0.24501696
194	0xbed62974	-0.418285
195	0xbd1b4587	-0.037908103
196	0xbf28fea7	-0.6601357
197	0xbc4728f3	-0.012155759
198	0xbd4a748d	-0.049427558
199	0xbe5d894a	-0.21634403
200	0x3e0acfaf	0.13555788
201	0x3ba686c6	0.005081984
202	0xbb995be0	-0.004680142
203	0xbd80b29d	-0.06284068
204	0xbe5e643f	-0.21717928
205	0xbce4d2b4	-0.027932502
206	0xbe3afb02	-0.18259814
207	0xbd7665e9	-0.060155783
208	0x3dc2d378	0.09512991
209	0xbc7c361f	-0.015393763
210	0xbecbdb23	-0.39815626
211	0x3dab81e3	0.08374383
212	0x3f24a866	0.64319456
213	0xbe24b741	-0.16085531
214	0xbd2d1962	-0.042260535
215	0x3ec8aebe	0.39195818
216	0xbe4a717e	-0.19769856
217	0x3ec8e2d9	0.3923557
218	0x3dfd9fc9	0.12383992
219	0xbc669181	-0.014072777
220	0xbebc78e1	-0.36810973
221	0x3f623903	0.8836824
222	0x3e8eec0e	0.2791447
223	0xba590901	-0.0008279235
224	0x3d91495d	0.07094071
225	0xbd90c3a9	-0.07068569
226	0x3c8a57f9	0.016887652
227	0x3dadb7e2	0.084823385
228	0xbe9faa5f	-0.3118467
229	0xbd8c8c9a	-0.06862755
230	0xbe6f278f	-0.23354934
231	0xbda4bc62	-0.08043744
232	0x3e0db129	0.13837112
233	0x3ba1cb9e	0.004937603
234	0xbdcbead8	-0.09956902
235	0xbec00409	-0.3750308
236	0x3f173fd2	0.5908176
237	0xbdedb3e4	-0.11606577
238	0xbef6bdbd	-0.48191634
239	0xbc3f6ad7	-0.011683187
240	0xbf97d2eb	-1.1861242
241	0x3ea5a0ae	0.3234915
242	0x3c3b1302	0.011418106
243	0xbe710161	-0.23535682
244	0xbf1aaaed	-0.6041706
245	0xbe1f73b1	-0.15571477
246	0x3d89c395	0.067267574
247	0x3dc28ec0	0.09499884
248	0x3ebe0d45	0.371195
249	0xbe95557a	-0.29166776
250	0x3dd3d9e4	0.10344294
251	0x3df154e2	0.11783768
252	0x3eb5431c	0.35402763
253	0x3f8a4ed9	1.0805312
254	0x3e56121e	0.20905349
255	0x3d3867d6	0.0450209

layers.4.bias f4 [100]
0	0xbe342237	-0.17591177
1	0x3e8306da	0.25591165
2	0xbe11f52d	-0.14253683
3	0x3eb77080	0.35828018
4	0x3ea955b6	0.33073205
5	0xbaeea84d	-0.0018208117
6	0x3e591b4d	0.2120182
7	0x3de2f284	0.110814124
8	0x3e0174a9	0.12642159
9	0xbe8841a2	-0.26612574
10	0x3e81ff77	0.25390217
11	0xbedf569a	-0.4362076
12	0x3e528f35	0.20562442
13	0xbf0d2a92	-0.5514308
14	0xbdaca247	-0.084293894
15	0xbe6b0199	-0.22949828
16	0x3e695695	0.22786935
17	0x3e7c7d21	0.24657108
18	0x3e47dbf5	0.195175
19	0x3d7ea222	0.06216634
20	0xbe97e55a	-0.2966717
21	0xbe8bb92c	-0.27289712
22	0xbe5df914	-0.21677047
23	0x3e4583fe	0.19288632
24	0xbe143878	-0.14474666
25	0xbe9a2daf	-0.3011298
26	0xbe425094	-0.1897605
27	0xbe9a04d2	-0.30081803
28	0x3d06b564	0.03288783
29	0x3e8b9305	0.27260605
30	0x3e782765	0.24233778
31	0x3e5543ed	0.20826693
32	0xbeb9cb9d	-0.36288157
33	0x3e9e425c	0.30910003
34	0xbe58978d	-0.21151562
35	0x3e1e5d8c	0.15465373
36	0x3e624c98	0.2209953
37	0x3e245a32	0.16050032
38	0xbe94fb86	-0.29098147
39	0xbedec3e9	-0.43508843
40	0xbe9c7fee	-0.30566353
41	0xbd68abc6	-0.05680444
42	0x3e28eb91	0.16496111
43	0xbe030d7f	-0.12798117
44	0xbea1d36d	-0.31606618
45	0xbe5d57cc	-0.21615523
46	0xbcc21ef7	-0.023696406
47	0x3edab931	0.42719415
48	0x3dd0d919	0.10197658
49	0xbeb09932	-0.3449188
50	0xbcd2f6e9	-0.025752502
51	0xbefdc7da	-0.49566537
52	0x3e7b62fc	0.24549478
53	0xbe86f4e1	-0.26358703
54	0xbf2b5521	-0.6692677
55	0x3e13c0f9	0.14429082
56	0x3db48996	0.08815305
57	0x3eb4e855	0.35333505
58	0x3f1305a6	0.57430494
59	0xbf5b5012	-0.8566905
60	0xbe3e54fa	-0.18587103
61	0xbe518b85	-0.20463379
62	0xbec68566	-0.3877365
63	0x3e046617	0.12929569
64	0x3e8d52ef	0.27602336
65	0xbed36c99	-0.4129379
66	0x3f1f7fa1	0.6230412
67	0xbcb0aec9	-0.021567719
68	0xbe850df7	-0.25987217
69	0xbef3e8ed	-0.47638646
70	0xbf161ce9	-0.58637863
71	0xbe2c30be	-0.16815469
72	0xbdcfb1ec	-0.10141358
73	0x3e2ae0b6	0.16687283
74	0xbda2be99	-0.0794651
75	0xbe5f7100	-0.2182045
76	0xbf1e18b3	-0.6175644
77	0x3e95c668	0.29252934
78	0xbe95efb0	-0.2928443
79	0x3e36cd08	0.1785165
80	0xbda8b146	-0.08236937
81	0x3e44e69f	0.192286
82	0x3ebec714	0.3726126
83	0x3dfed32a	0.1244262
84	0x3e871bb8	0.26388335
85	0x3e33cab4	0.17557794
86	0xbe8802a2	-0.2656451
87	0xbefa0727	-0.48833582
88	0xbe6f8fb3	-0.2339466
89	0xbe60b31d	-0.21943326
90	0xbdf963bb	-0.12177225
91	0xbd1d8c2d	-0.03846376
92	0xbe39b9d3	-0.18137293
93	0x3e60d05e	0.21954486
94	0xbe36b56c	-0.17842644
95	0x3ec2ee85	0.380726
96	0xbe1afcb7	-0.15135466
97	0xbdf6a10a	-0.120424345
98	0x3dd83499	0.10556907
99	0xbe71da1b	-0.23618357

layers.6.weight f4 [1, 100]
0	0x3ecd3fed	0.40087834
1	0xbd773c83	-0.060360443
2	0x3f597024	0.8493674
3	0xbe1e9ed8	-0.15490282
4	0xbe33a01a	-0.17541543
5	0xbcd52f34	-0.026023485
6	0xbecfd80a	-0.40594512
7	0xbf442767	-0.76622623
8	0xbe10774d	-0.1410801
9	0x3f301dee	0.6879567
10	0xbe0f069c	-0.13967365
11	0x3e2857c2	0.16439727
12	0xbf0ef895	-0.55848056
13	0x3ee2d842	0.44305617
14	0x3d0b0a8c	0.033945605
15	0x3e72771c	0.23678249
16	0xbe4e478d	-0.20144482
17	0xbeb23919	-0.34809187
18	0xbdaf2466	-0.08551864
19	0x399540e2	0.00028467836
20	0x3e167be6	0.14695701
21	0x3d3ae043	0.04562403
22	0x3f14c121	0.5810719
23	0xbe076d8c	-0.13225383
24	0x3e4257e6	0.18978843
25	0x3e383abf	0.1799116
26	0x3d934cce	0.07192384
27	0x3f834acb	1.02572
28	0xbd5a662e	-0.053320102
29	0xbe4e9888	-0.20175374
30	0xbe6ab8db	-0.2292208
31	0xbdd50591	-0.10401452
32	0x3e2514e0	0.16121244
33	0xbdcd2498	-0.10016745
34	0x3db8c8e1	0.090226896
35	0xbec0d6b3	-0.37663803
36	0xbf0d4fb4	-0.5519974
37	0xbf5bf030	-0.8591337
38	0x3e1ca06e	0.15295574
39	0x3e02b558	0.1276449
40	0x3dc0f125	0.09420995
41	0x3c463429	0.012097397
42	0xbe22ac90	-0.1588614
43	0x3d9d89cc	0.07692298
44	0x3e560b0c	0.20902652
45	0x3e44d9e1	0.19223739
46	0x3777336d	1.4734321e-05
47	0xbdd75ef1	-0.105161555
48	0xbea91cbe	-0.3302974
49	0x3e96336f	0.29336116
50	0x39d25558	0.00040117907
51	0x3e4045d4	0.18776637
52	0xbe0ffdc5	-0.14061649
53	0x3d95d5c4	0.07316163
54	0x3f0a7b8f	0.54094785
55	0xbf137368	-0.5759797
56	0xbeb37048	-0.350466
57	0xbe00cce2	-0.12578157
58	0xbde346ad	-0.11097465
59	0x3ed9b7d7	0.4252307
60	0x3ddd7516	0.10813348
61	0x3ddfb7e6	0.10923748
62	0x3e08fbf4	0.13377362
63	0xbdf86db9	-0.12130303
64	0xbd8611c3	-0.065463565
65	0x3e48394a	0.19553104
66	0xbe6ef242	-0.23334602
67	0xb8459482	-4.710677e-05
68	0x3dea4125	0.114382066
69	0x3e311978	0.17294872
70	0x3e584a1b	0.21122019
71	0x3dd5b26b	0.10434421
72	0x3ee247f4	0.4419552
73	0xbdadae86	-0.08480553
74	0x3e116739	0.14199533
75	0x3e46be4b	0.19408529
76	0x3f3daf34	0.74095464
77	0xbd977442	-0.07395221
78	0x3d6a84e4	0.05725564
79	0xbdb3e966	-0.087847516
80	0x3eb8ad9f	0.36069962
81	0xbd284690	-0.04108292
82	0xbde8a769	-0.11360056
83	0x3e8cd884	0.27508938
84	0xbe7003df	-0.23438977
85	0xbe0e3abb	-0.13889591
86	0x3e6c1164	0.23053509
87	0x3e4d08c8	0.20022881
88	0x3d9f6851	0.07783569
89	0x3ea2e83c	0.31817806
90	0x3eb2897d	0.3487052
91	0x3d30c101	0.043152813
92	0x3e00d876	0.12582573
93	0xbe473a97	-0.19455944
94	0x3db37b11	0.087637074
95	0xbdc4b070	-0.09603965
96	0x3e3c6be8	0.18400538
97	0x3e806b4e	0.25081867
98	0xbdbd6087	-0.09246927
99	0x3e284f38	0.1643647
