hddm/torch_models/d27193a4153011ecb76ca0423f39a3e6_ddm_torch_state_dict.pt (torch, 86671 bytes, 7 tensors)

layers.0.weight f4 [100, 6]
000000 fa 74 a4 3e 7e 73 81 be 35 64 e2 3e 3e eb dd be
       0.32120496 -0.25283426 0.44217077 -0.43343538
000010 53 74 b6 3e b6 36 57 be 95 87 12 bf 5c a8 59 3f
       0.35635623 -0.21016964 -0.5723813 0.8502252
000020 64 b6 4b bf 32 9d fc bd b6 09 b2 3d 43 22 84 3f
       -0.7957518 -0.1233467 0.086932585 1.0322956
000030 96 64 08 bf da 8f 5e bf e3 10 18 bd 48 65 21 bd
       -0.5327848 -0.8693825 -0.03712548 -0.03940323
000040 e9 a0 28 3d ff 13 de bf 3c a9 0d 3f 37 2b 14 3f
       0.04116908 -1.7349852 0.55336356 0.5787844
000050 9d 6a 9b bf c1 b1 0a be 80 cc 27 3e af 96 17 3f
       -1.2141911 -0.1354437 0.16386604 0.592143
000060 1f 1c 00 3f 9f 9e 40 3f 71 62 35 3f dc 33 4d 3d
       0.5004291 0.75242037 0.70853335 0.050098285
000070 da e2 b7 bd e9 29 04 3f c5 e3 d8 3e 30 9e 1f 3f
       -0.089788154 0.5162645 0.42361274 0.6235075
000080 00 f0 27 bf d7 2c 9b bd 9a a6 ce be 80 92 be 3e
       -0.65600586 -0.07576912 -0.40361482 0.37221146
000090 50 b0 bb bc 61 77 13 bf 82 f2 14 3e ea 63 d3 c0
       -0.02291122 -0.5760403 0.14545634 -6.6059465
0000a0 52 38 6b 3a 4b dc c1 3d 64 66 2d ba 9a 13 da 3a
       0.0008972931 0.09465846 -0.00066146837 0.0016637922
0000b0 ec 30 32 3b 21 ab c6 bb 6e cd fa 3a b6 ac bb bb
       0.0027189804 -0.0060628806 0.0019134709 -0.005727376
0000c0 c9 3e 43 ba 7e 1e 32 3a 23 a8 b1 3b 42 f7 62 bc
       -0.00074480154 0.0006794705 0.005421655 -0.013852896
0000d0 f1 d6 af b9 82 96 dc ba e2 9e 02 3e 45 f0 0a 3f
       -0.00033538745 -0.0016829523 0.12755921 0.5427287
0000e0 16 c1 9d 3f f6 79 2e 3f 4d c2 25 bf cd a7 25 bc
       1.232455 0.6815485 -0.64749604 -0.010110808
0000f0 c9 85 dd 3b f8 96 cf bd 70 95 5a 3c bc 66 d5 c0
       0.006760333 -0.10136217 0.013341293 -6.668791
000100 58 be 62 41 97 8d 40 bd ad 03 ba 3f 38 b7 96 3e
       14.171471 -0.04701003 1.4532372 0.2943666
000110 8a 3f 17 3e df 1e 95 3b b0 c3 e4 3c 0a 89 c7 bc
       0.14770332 0.0045507993 0.027925342 -0.024357338
000120 83 a3 5f bb 92 d8 86 3f 3d e9 a1 3e db bf 93 3f
       -0.003412456 1.0534842 0.3162326 1.1542925
000130 71 22 8d bf d2 21 55 bd 2a 4a a1 3f be 7f f6 be
       -1.1026136 -0.052034207 1.2600758 -0.48144335
000140 53 90 1a bd d0 79 a8 bd 9e 77 a9 3d b5 a9 9e bd
       -0.037735295 -0.08226359 0.08274768 -0.07747213
000150 07 44 1f be c3 eb 23 be 49 71 35 3f d0 46 16 3f
       -0.15553294 -0.16007905 0.70875984 0.587018
000160 21 4f 0e bf 82 ce 0e bf 59 50 e5 3e f8 e8 89 bf
       -0.5558949 -0.55783856 0.44787863 -1.0774221
000170 e2 dc 8b 3e cc b5 87 be 56 d6 8c 3e 7d 19 ea bd
       0.27316958 -0.26505888 0.27507275 -0.11430643
000180 f4 fb 62 bd 52 10 b0 bc 49 71 e4 bf 94 6c 25 3f
       -0.055416062 -0.021492157 -1.7847072 0.646188
000190 84 ee 1f bf 39 43 b1 3f a3 7e 85 bf 16 96 da be
       -0.6247332 1.384864 -1.0429271 -0.4269263
0001a0 21 5a 32 be 8f d9 54 3d b3 f0 c5 bc 72 81 98 3e
       -0.17417194 0.051965293 -0.024162626 0.2978626
0001b0 7e a7 de 3d 8a bb 98 bd c1 10 f2 bf 6a d8 9b 3d
       0.1087179 -0.07457645 -1.8911363 0.07609637
0001c0 62 0c dc bd e8 8c da 3f f0 a4 2a 3f b5 3c ca 3e
       -0.10744549 1.7074251 0.66657925 0.3949944
0001d0 28 7d 30 be 6f 86 54 be 5a 23 77 3e f5 b7 17 bf
       -0.17235243 -0.20754407 0.2413458 -0.5926507
0001e0 c2 d3 e2 3e 40 76 e8 3d 1e f2 92 3f 37 fc b3 bd
       0.44302183 0.113506794 1.1480138 -0.087883405
0001f0 51 a2 85 3d 32 b6 00 3f 7d 1c 4c bb 25 87 e7 3a
       0.065251 0.5027801 -0.003114491 0.0017664178
000200 cc cf 46 38 67 a4 2a 3c dc 68 c4 39 8b dd 3d 3b
       4.7400405e-05 0.010415173 0.0003746216 0.0028971161
000210 41 f8 c7 3f 34 41 06 bf 90 00 8e 3e d4 5d 81 bc
       1.5622636 -0.5244324 0.27734804 -0.015791811
000220 c4 a1 c7 bc 18 59 90 bd ef d4 42 3f 43 fe 4c 3f
       -0.024369128 -0.07048243 0.7610616 0.8007547
000230 53 38 87 bf 21 53 1e bd 6a e6 37 3d 81 98 5d 3e
       -1.0564064 -0.038653497 0.044897474 0.21640207
000240 ec 92 41 3e 98 d7 a1 3c 89 a7 08 3f 16 93 2b 3e
       0.18903702 0.019756123 0.5338064 0.16755328
000250 87 5b 2f be 88 ad b2 be 5d 80 1e 3c 57 1b 5f 40
       -0.17124759 -0.3489802 0.009674159 3.4860437
000260 42 5e 32 be 05 b7 2a 3e cd 09 4b be a2 a9 2a bb
       -0.17418769 0.16671379 -0.19827957 -0.002604105
000270 03 e2 5f 3c 80 bd 3d be bb 6d f5 3f 6c 25 6b 3f
       0.013664725 -0.1852932 1.9174112 0.91853976
000280 23 a0 69 bf 29 1d 27 bf 18 49 35 3d 2a 6a 55 bd
       -0.91259974 -0.6527887 0.04425916 -0.0521032
000290 2e f0 4a 3e ea 5c 99 3d 9a ed 0c be 40 c3 92 3e
       0.19818184 0.07488425 -0.13762513 0.2866459
0002a0 5a f5 7f bc b3 a5 b1 3d c7 c1 21 3f 3d 4d 0b bf
       -0.015622461 0.08674183 0.63186306 -0.5441473
0002b0 d3 4d 24 3f 95 64 17 be 57 68 0a 3f 4b 08 a6 be
       0.6418125 -0.14784463 0.5406546 -0.32428202
0002c0 7f 6b 93 be 2c a4 54 3f a5 fc 4d bf d1 54 9b bd
       -0.2879295 0.83063006 -0.8046363 -0.07584537
0002d0 59 08 8d 3e 1d 32 00 bf 0b 37 43 bf db 38 d6 3e
       0.2754543 -0.50076467 -0.76255864 0.41840252
0002e0 ab 50 8f be c4 e3 ab 3e 8c 59 aa bd 1d dc fd be
       -0.27991232 0.3357221 -0.08317861 -0.49581996
0002f0 60 65 b0 be c5 04 84 bf 18 8b 83 3f e3 ba da 3d
       -0.34452343 -1.0313956 1.0276823 0.10680177
000300 9c 48 e6 be e2 d1 20 3f ba 72 75 bf 75 fb c2 3d
       -0.44977272 0.62820256 -0.95878184 0.09520618
000310 d9 14 1e be ef 85 d3 be 2b e6 f0 3c 05 13 0d be
       -0.1543764 -0.4131312 0.029406628 -0.13776787
000320 c7 95 a9 3e 73 6c 59 bf 38 12 17 3f c0 cd 17 be
       0.33122084 -0.84931105 0.59012175 -0.14824581
000330 67 20 44 bb cc 6c 4d ba f2 6e 25 bc c0 e8 1e bc
       -0.002992654 -0.00078363414 -0.010097252 -0.009699047
000340 49 b5 c9 3a 80 7a 93 3b a0 08 20 3d 1b e1 68 3e
       0.001538911 0.004500687 0.039070725 0.22742121
000350 f3 40 c4 3e 14 1c 65 3e 83 86 2f be e7 9d e0 be
       0.38330802 0.22373992 -0.17141156 -0.4387047
000360 47 8c 3c 3e 58 5a 00 3f 42 39 e6 be 3a 7f 81 bf
       0.18412887 0.50137854 -0.4496556 -1.0116951
000370 a1 0a 85 3f 73 c5 8b 3e dd 3c 18 bb 30 c8 c7 3a
       1.0393869 0.2729908 -0.0023229637 0.0015242156
000380 2d 50 0c 3b fd d0 85 bb 41 16 14 ba 4d ed b8 bb
       0.0021410093 -0.0040837512 -0.0005649068 -0.005643523
000390 1a 93 82 bd 2c 6a c9 3e a7 8f f4 3e 11 c0 c3 bf
       -0.06375714 0.39338815 0.47765848 -1.5292989
0003a0 16 7c ca 3f 68 b7 fd bd 1b a2 7b 3c a5 43 e1 3e
       1.5819118 -0.123884976 0.015358473 0.4399692
0003b0 bf e3 78 bf e4 c1 11 bd 1e d5 4f 3d 88 91 a1 3f
       -0.9722251 -0.0355853 0.050740354 1.2622538
0003c0 94 f0 0f be c3 72 18 40 d3 ef 16 3e 86 a6 83 3e
       -0.14056617 2.3820045 0.14739923 0.25712985
0003d0 4b 4a 87 be 55 f5 f4 bd 19 91 04 3f f6 b6 6e 3e
       -0.2642387 -0.11960856 0.517839 0.23311982
0003e0 72 4f be 3f ff 56 87 bd 84 de 4c 3d 17 9a 80 bf
       1.4867995 -0.0660839 0.050016895 -1.0047024
0003f0 da 03 2b 3c d9 1e a5 bd fc cc 5b 3f aa b6 df be
       0.01043793 -0.08062524 0.85859656 -0.4369405

layers.0.bias f4 [100]
000000 e3 b7 11 bf 4f c5 fc 3e c4 36 e1 3e 5f b8 4a 3e
       -0.56921214 0.49369285 0.43987095 0.19796894
000010 ac 4e 07 bf ac 47 99 be c8 a1 35 be 57 83 48 3c
       -0.5285442 -0.29937494 -0.17737496 0.012238345
000020 b5 8d f3 3b a1 ab af be 6e d1 15 3e bb 3b 60 be
       0.0074326643 -0.3431063 0.14630672 -0.21897785
000030 14 6a 05 bf 31 84 17 3f 4d e4 23 be 4b e9 32 bd
       -0.5211499 0.59186083 -0.16005059 -0.043679517
000040 19 4c cb 3d 85 83 94 3e 3e ac a4 3d 6d bc 07 bf
       0.09926624 0.2900659 0.08040665 -0.5302189
000050 ba cf b4 bf 80 ff f1 bb e6 d4 bc 3e 6f dd 12 bf
       -1.4125893 -0.0073851943 0.3688118 -0.5736913
000060 00 1b 3b 3f 2c 53 5e bf 57 a1 0d bf b0 a8 db be
       0.73088074 -0.8684566 -0.5532431 -0.42902136
000070 b7 e1 33 bf 10 05 3f bf a1 64 7e 3e eb e0 a9 3e
       -0.7026629 -0.746171 0.24843074 0.3317941
000080 d9 9a bf 3e 76 bc da bd fe 2f f8 bb 2f e7 1f bd
       0.37422827 -0.10680477 -0.0075740805 -0.039038833
000090 a2 ce 36 3e 40 0b 46 3b 07 a5 df be 5d 47 ec 3e
       0.17852262 0.0030219108 -0.43680593 0.46148196
0000a0 ab 3b 13 bf f2 46 b4 bf 09 99 49 be b6 21 12 3e
       -0.5751292 -1.4084151 -0.19687285 0.14270672
0000b0 bd cd 2e bf 75 95 b6 be 57 e0 5c bc 41 11 9f bd
       -0.6828268 -0.35660902 -0.013481221 -0.07766963
0000c0 6e 42 06 bd dc 6e 9e 3d 23 47 08 3f 1f b3 67 3f
       -0.032778196 0.077359885 0.53233546 0.9050769
0000d0 0d 0e 3d bf a7 b7 b4 bb 63 0b 20 bf 54 5f 1e bf
       -0.73849565 -0.005515057 -0.62517375 -0.6186421
0000e0 59 6c 08 bf b1 23 be bf 9b 47 65 be 23 20 92 3d
       -0.53290325 -1.4854642 -0.22390597 0.07135036
0000f0 0f 13 bb bd d2 30 75 be c8 16 dd 3e 93 87 c2 be
       -0.091344945 -0.23944405 0.43181443 -0.3799406
000100 73 79 15 3f ca 99 3d bf 2b e9 81 bc fe c4 7e bd
       0.5838844 -0.7406279 -0.015858253 -0.062199585
000110 18 b4 68 bf 0e 67 48 bf c3 2c 05 be 1e de 42 3e
       -0.908998 -0.7828225 -0.13005356 0.19030043
000120 8c c4 bf 3e ff 6a 8e 3e be c5 cc bd 58 fc f5 be
       0.3745464 0.27816007 -0.09998654 -0.48044086
000130 36 7e a3 3d 64 2a 95 3e 74 54 f4 bf 88 d4 d5 be
       0.07983057 0.29133904 -1.9088273 -0.4176371
000140 d5 a0 10 3f a2 b8 97 3e d7 78 22 bf ea 44 8e bf
       0.5649541 0.2963305 -0.63465637 -1.1114781
000150 dd 89 f6 bd 78 6b b7 3e 0b 91 be bf fd 66 a2 bf
       -0.12038014 0.3582418 -1.4888014 -1.268768
000160 ba 3e ba 3e 59 d2 e9 3e 72 fe 9a bb 94 98 17 3f
       0.36375982 0.45668295 -0.0047300393 0.5921719
000170 f4 83 b5 be 90 ca 53 3f 3c d8 b8 3e 1d fc 0a bf
       -0.35452235 0.8273096 0.36102474 -0.54290944
000180 f9 f5 2d bf 91 56 b2 be 61 fc db 3e 78 e2 2a 3e
       -0.6795345 -0.3483167 0.42965987 0.16687953

layers.2.weight f4 [100, 100]
000000 75 03 f1 3d 92 ac 10 bc 41 3a 07 3f 34 0c 6e 3e
       0.117682375 -0.0088302065 0.52823263 0.23246843
000010 16 2a 10 bf 9a 52 81 3c 47 70 64 3a 97 e3 a5 3b
       -0.5631422 0.015786458 0.00087142404 0.005062531
000020 f2 8f d7 ba 75 63 b8 bc 9e 09 3b 3d 80 cb 87 bd
       -0.0016446097 -0.022508362 0.04566347 -0.066306114
000030 b7 09 26 be c0 15 ec 3d f6 51 72 3c 25 d6 91 3e
       -0.16214643 0.11527586 0.014790049 0.28483692
000040 41 6a 30 bd b3 c0 c0 ba 41 d2 02 be f1 d8 3b 3e
       -0.04307008 -0.0014705866 -0.12775518 0.18344475
000050 6c f5 0c bf df 7f 13 3a 1e 71 2a bc a2 14 15 bf
       -0.55061984 0.0005626659 -0.010402946 -0.5823461
000060 07 b6 46 bd d8 d7 1f 3d 5e 73 ec bd 03 d9 af 3d
       -0.04851344 0.039024204 -0.11545442 0.085863136
000070 9a a9 10 bd e8 3d 9b 3e 1a 28 d4 3d 6c c7 db bb
       -0.035317995 0.30320668 0.10359211 -0.0067071225
000080 f7 6e 4e 3e b3 f4 8c 3d 2a 61 c3 3a a4 a2 ba 3e
       0.20159517 0.0688261 0.0014906276 0.3645221
000090 71 6e fc bc 99 80 f8 3b 7c f2 ee 3c 27 d5 b7 bd
       -0.030814381 0.0075836894 0.02916836 -0.089762025
0000a0 c0 ea 7e be 1b 05 3c 3e a3 ba 8c be 34 fd 41 3e
       -0.24894238 0.18361323 -0.27486143 0.18944246
0000b0 21 bc 90 bd 2f 23 22 be 14 49 b1 bb c1 23 92 3d
       -0.07067133 -0.15833734 -0.005410323 0.07135726
0000c0 52 e9 37 be 05 7e 22 3f 63 21 85 3c b1 ff f8 be
       -0.17960098 0.6347354 0.016251272 -0.48632577
0000d0 16 7f 97 3e eb 65 77 3b e9 fe 39 bf 71 4f ad be
       0.29589146 0.0037749957 -0.7265459 -0.3384967
0000e0 9d bb 0e 3e 87 9b 61 be b9 15 70 bd e3 9d ba bc
       0.13938756 -0.22031985 -0.058614466 -0.022780364
0000f0 2f b7 99 bd a9 ae 2d bf b7 1b 82 3d 0d 8b 31 bd
       -0.075056426 -0.67844635 0.063529424 -0.0433455
000100 3d 97 a3 3c b8 3d 25 bf da ac 6f 3e 0b 6f 86 be
       0.019969577 -0.645473 0.23405781 -0.26256594
000110 33 eb 0e be 79 6d d5 3d fd 1c e9 be b9 de 20 bf
       -0.13956909 0.10421271 -0.4552993 -0.6283985
000120 fb 17 0e 3f a6 dc 82 3e d4 ad 2d 3e a0 12 7a be
       0.5550534 0.25558966 0.16960841 -0.24421167
000130 07 57 ef bd b4 ac 0f bf 54 dc f4 3d 77 12 69 bf
       -0.11686521 -0.561229 0.11956087 -0.910438
000140 38 41 fe bd a6 b3 b6 be 30 fc 95 3e ee ae be be
       -0.12414783 -0.35683936 0.29293966 -0.37242836
000150 70 43 0e 3e 39 b2 90 bd 81 cc 44 be a5 7c 29 bd
       0.13892913 -0.07065243 -0.19218637 -0.041378636
000160 9f 12 ce 3e 0c b2 6c 3e 0b 88 ef bb 66 98 ae bd
       0.40248582 0.23114794 -0.0073099188 -0.085251614
000170 07 4d 20 3e 0d cd 8a be 6c e2 4f 3e 8d 6d d0 3c
       0.15654384 -0.27109566 0.20301217 0.025442863
000180 44 0f 10 3e bf 4b d3 3d 1a ac 17 be 17 94 18 bb
       0.14068323 0.10317182 -0.14811745 -0.0023281628
000190 57 88 11 3d 56 e9 9b 3c 54 93 0f 3e 10 3f 06 3e
       0.035530414 0.019032162 0.14021045 0.13109994
0001a0 48 62 90 be 59 d9 8d bd b5 f5 63 bd d0 7e 0c bc
       -0.28199983 -0.069262214 -0.055654246 -0.008575156
0001b0 b8 b8 8e bb 8c a1 de bd bd 6d 8f 3e 63 5f 34 be
       -0.0043555163 -0.10870656 0.2801341 -0.17614512
0001c0 f1 0d b9 be da 1c fa 3c e8 69 ba bd 81 99 73 3e
       -0.3614345 0.030531336 -0.09102231 0.23789026
0001d0 de 75 94 bf e8 50 e8 bd 77 d5 e5 be a7 1a 3c be
       -1.159847 -0.11343557 -0.44889423 -0.18369542
0001e0 74 9b a0 3f 4a 5a 28 3b 01 32 69 3c 0c f0 e1 be
       1.254744 0.0025688582 0.014233113 -0.44128454
0001f0 8f 16 a2 3e b1 36 9e be 2e 06 3f 3d 46 43 d0 bd
       0.31657836 -0.309011 0.046636753 -0.101690814
000200 21 09 d6 3d d5 fb c0 bc 3c 74 4b be c7 37 2b 3f
       0.1045096 -0.023557583 -0.19868559 0.66881984
000210 e2 a8 0e bf e2 fb 26 be 3a bb 1b bb 78 06 3e 3e
       -0.55726445 -0.16307023 -0.0023762719 0.18557155
000220 92 08 d7 3e ae 1e 01 bc 22 68 f5 3e 3c f7 00 3f
       0.41998726 -0.00788085 0.4793101 0.5037725
000230 aa bb db be 68 eb fe 3e 99 77 9a 3e 7f db 6a 3e
       -0.42916614 0.49788976 0.3016937 0.22935294
000240 45 67 15 3d 80 86 97 bc 87 fc 17 bc a1 3e 89 3e
       0.03647544 -0.018496752 -0.009276516 0.26805595
000250 f3 9e ba 3d cf 10 eb bd 21 c9 2d bf b8 f2 a1 3e
       0.091123484 -0.11477815 -0.67885023 0.31630492
000260 f8 21 dd 3e b4 9c 64 3b 76 34 9c be 69 43 10 3e
       0.4318998 0.0034883441 -0.30508775 0.14088215
000270 44 89 9c be f2 8f 87 3d 45 48 11 3b e8 97 20 3e
       -0.30573475 0.06619252 0.002216832 0.15682948
000280 08 7d a2 3e f7 1c 1d bf 3b 03 a3 3d 86 f7 44 bd
       0.31736016 -0.6137232 0.079596005 -0.04808762
000290 5f 25 87 bd b6 19 1b be 2d 2e b0 3e 3f ac b4 be
       -0.06598925 -0.15146527 0.3441023 -0.35287663
0002a0 a1 ef 25 be 65 3c 94 bd 7a 34 2b be 03 ba 3c 3e
       -0.16204692 -0.07238082 -0.16719237 0.18430333
0002b0 95 5a 53 bf 1e c0 07 3f 62 ca 26 be 1f 3f 6e be
       -0.8256009 0.5302752 -0.1628814 -0.23266266
0002c0 f1 1d 41 bc 37 0f 88 3d e2 ca b1 3e a5 17 3e 3f
       -0.011786924 0.06643527 0.347251 0.7425483
0002d0 af 6a 0a 3e db 1c 3d be 44 03 0b be 3d 26 90 3e
       0.13517259 -0.18468039 -0.13575464 0.28154173
0002e0 f4 8f a6 3e 56 30 b8 3e 5b c1 15 be a0 08 f9 be
       0.32531703 0.35974377 -0.1462454 -0.48639393
0002f0 7e 4c 5e 3e 0e 19 81 3c f6 2c 1d 3c 13 4d 83 3c
       0.21708867 0.015759017 0.009593239 0.016027963
000300 7f c9 74 3e 0d ef a9 3e 13 bc 3d bf 12 60 a4 bd
       0.2390499 0.33190194 -0.74115103 -0.080261365
000310 35 7c 20 3e 89 38 f0 bd b7 51 5f 3c fb cc 27 3d
       0.15672381 -0.11729533 0.013630322 0.04096697
000320 90 57 1a bf 43 7b 12 be 0d fc cf 3e 6d 09 92 3e
       -0.6028986 -0.14304833 0.40621987 0.28522816
000330 26 82 37 be d2 2d 9c 3c 4a a3 ed bd be 70 e1 3a
       -0.17920741 0.019064818 -0.116034105 0.0017199737
000340 9e 70 da bb 44 3d 74 3e 13 1c af 3d 1c db 09 3c
       -0.006666257 0.23851496 0.085502766 0.008414056
000350 ab 17 14 bf 7a 0e 03 be 91 45 8a 3e 26 d6 9c ba
       -0.57848614 -0.12798491 0.270062 -0.0011965677
000360 a6 09 70 bd 48 38 0b 3d 70 8e 87 3d df 34 de be
       -0.05860295 0.03398922 0.06618965 -0.43399712
000370 89 d6 2a 3e 04 9b e9 39 c0 1f 28 ba 93 e3 48 be
       0.16683401 0.0004455672 -0.00064134225 -0.19618063
000380 ab c9 c6 3e 8c 48 4e 3c 7a e4 a5 bd 2d b4 0c 3e
       0.38825735 0.012590539 -0.08100219 0.13740607
000390 f3 83 15 be 9e 13 de bc 4f c9 29 3e 7c 7c 1d 3f
       -0.14601116 -0.027108964 0.165807 0.61518073
0003a0 4f b4 31 bd 6e 4b 3f bc da 1d 77 b9 a0 6c 96 3d
       -0.043384846 -0.011675699 -0.00023566876 0.07344937
0003b0 16 68 6a be bd 16 06 bc 9b 41 9d bd ba 41 e6 3c
       -0.22891268 -0.008184132 -0.07678529 0.028107513
0003c0 d8 5e 18 be e4 6a c0 be 50 3c f8 3c 95 3b 1e be
       -0.1487993 -0.3758155 0.030302197 -0.15452416
0003d0 33 9a 89 be 7b c8 af bd a1 59 83 bb 1c f0 86 bd
       -0.26875457 -0.085831605 -0.0040084873 -0.06588766
0003e0 e2 9e fc bb 04 00 12 3e 3d 3f 4a 3e 7d 96 d9 3d
       -0.00770937 0.14257818 0.19750686 0.106244065
0003f0 54 db 50 3e 92 1b 65 bc 8f 58 66 bf 51 59 50 3d
       0.20396167 -0.013983624 -0.8997888 0.05086643

layers.2.bias f4 [100]
000000 fe 8a 76 be dd d7 95 3e ef c4 31 be dd be 91 be
       -0.24076459 0.29266253 -0.1736028 -0.2846593
000010 35 8a ad be 9f d7 a7 be 2b 84 43 3f 14 04 62 bd
       -0.33894506 -0.32781693 0.7637355 -0.05517967
000020 d9 e8 c6 3d ed ed b6 bd 23 b6 19 bf 92 76 fe 3e
       0.09712381 -0.089320995 -0.60043544 0.49699837
000030 39 dc b0 bf a4 11 00 bf 0c 78 97 be ae d5 c5 3f
       -1.3817207 -0.5002692 -0.29583776 1.5455835
000040 38 b1 85 be dc 59 15 3d 28 19 7c be b8 ab 80 3e
       -0.2611177 0.03646265 -0.24618971 0.2513101
000050 f5 fb ec 3e 97 d5 c8 3d ad a5 4a 3e 13 cc 0a 3b
       0.46285978 0.09806364 0.19789763 0.0021178767
000060 30 1f 7c be c4 1c e5 be cd 00 1e bf 78 f4 1f bc
       -0.24621272 -0.4474851 -0.6171997 -0.009762876
000070 cc 66 df 3f 75 9a 97 3e 30 25 c7 3f 2f a2 84 3f
       1.7453246 0.2961003 1.5558224 1.0361995
000080 b0 89 90 be fc c9 aa 3d 08 62 af be 69 09 0f bd
       -0.28230047 0.08339307 -0.3425448 -0.034921084
000090 21 73 c7 bf f0 c8 4b bf 20 db 27 bd 16 1c e9 bf
       -1.558201 -0.7960348 -0.04098046 -1.8211696
0000a0 26 d5 d4 3f f5 6a 51 3f 32 77 b9 be 3b 8c 6e 3e
       1.6627548 0.8180383 -0.3622375 0.23295681
0000b0 41 0f 06 3f 14 e1 dc bc 9b b7 5d 3e 8e b7 ae be
       0.52367026 -0.026962794 0.21652071 -0.34124416
0000c0 41 b2 84 3e af 02 e5 3e 7b 39 a8 bf af 9f 90 3e
       0.25917247 0.4472861 -1.3142542 0.2824683
0000d0 34 93 20 3f e9 ab 55 3c 8f 4c 14 3e 78 09 72 be
       0.62724614 0.013041475 0.1448233 -0.23636425
0000e0 27 97 55 3c 29 e3 15 bf dd 18 62 3e 28 61 3e 3d
       0.013036526 -0.58549744 0.22079797 0.046479374
0000f0 fe c4 79 3e 3a d7 a8 bd 2b 0e 6f be 43 22 77 be
       0.24391553 -0.08244176 -0.23345248 -0.24134164
000100 b9 4e 31 be 4e 43 34 3f 1c 5c 31 3f f4 79 ae 3e
       -0.17315187 0.704152 0.6928117 0.34077418
000110 ee 08 cd 3c f4 3c 3f 3f 0b 68 0d bf 00 f0 3a be
       0.025028672 0.7470238 -0.5523688 -0.18255615
000120 5c f0 73 3e 6a 6a 34 3f 65 7b 72 be 45 4d 97 be
       0.23822159 0.70474875 -0.23679884 -0.2955114
000130 4b f6 60 bf f9 55 f8 3f 2d 2f 3a be 62 a8 1e 3d
       -0.87875813 1.9401237 -0.18182059 0.0387348
000140 cb a0 a4 3f 5b a9 e6 3d 9b ae 20 3f d0 a7 c3 3e
       1.286157 0.11262771 0.62766427 0.38213968
000150 77 0a 24 3f ab 99 4f 3e 2b 04 c0 bf 24 fd 8d 3e
       0.6407847 0.20273463 -1.5001272 0.27732193
000160 7d fc 3a be 7a 4a 24 bf 69 16 a0 be 25 82 1a be
       -0.18260379 -0.6417614 -0.31267098 -0.15088709
000170 24 60 95 3d 4e 46 65 3e 48 55 51 be 0b e1 25 3f
       0.07293728 0.223901 -0.20442688 0.64796513
000180 9d ff e1 3d d8 45 09 bf 6e 1a d1 3e 1f 2b 2d bf
       0.110350825 -0.536222 0.40840477 -0.6764392

layers.4.weight f4 [100, 100]
000000 16 26 12 be c4 97 c2 3e 55 ad c3 be 1f 8d 35 3e
       -0.14272341 0.38006413 -0.3821818 0.17729615
000010 8d 90 ed bd 8b 21 84 3d 8c 38 cc bd 18 5f fd 3e
       -0.115998365 0.0645171 -0.09971723 0.49486613
000020 71 91 c2 3e e8 a8 bd 3d 53 e1 de 3e 0b cf 2f be
       0.38001588 0.09260732 0.43531284 -0.17168824
000030 96 d1 82 be b4 a7 b1 3e 45 0a 01 be 79 95 f6 3e
       -0.25550526 0.3469826 -0.12601574 0.48160914
000040 6a f9 ad 3e e6 90 57 bf 5a 72 99 3e 2d 35 d7 3e
       0.3397935 -0.8420547 0.29970056 0.42032757
000050 7d b6 e7 be 64 f2 c8 be 64 0a e8 be a6 24 9d 3e
       -0.45256415 -0.3924743 -0.45320427 0.30692023
000060 e4 c4 82 3f 48 8e c5 bd ad b0 5f bf f4 5f ca be
       1.0216336 -0.096462786 -0.8737896 -0.3952633
000070 6f 41 ad 3e 7a 5b 25 3f 91 79 bf 3e f2 ee 38 bf
       0.33838984 0.6459271 0.37397435 -0.722396
000080 0a 8c 91 3c 01 ff 3d bf 1e 6e 47 3f 76 4d e7 3f
       0.017766971 -0.7421723 0.779024 1.8070514
000090 73 eb 06 bf b8 95 8c be 1c 8a 2b 40 e8 ae 03 be
       -0.52703017 -0.27457976 2.6803045 -0.1285969
0000a0 dd 9e 8d 3e dc f4 e4 3e 37 cd 99 3e 44 37 a9 3d
       0.27660266 0.44718063 0.3003938 0.08262494
0000b0 ca eb b2 bd 19 2a 54 be e5 00 3a 3e 61 00 7f 3f
       -0.087363794 -0.20719184 0.18164404 0.99609953
0000c0 1f e1 7b bf dd fa 96 be 7d e9 83 be b7 82 2a bf
       -0.9839038 -0.29488268 -0.25764075 -0.66605705
0000d0 fc 17 7f 3f 1a 76 c3 bf 7b e3 ec be 8c ec 03 be
       0.9964597 -1.5270417 -0.46267304 -0.12883204
0000e0 e7 1e a3 3f f8 ef d2 be 80 cb 79 3f 2b d5 f5 be
       1.2743806 -0.41198707 0.9757614 -0.48014197
0000f0 6f cb 00 bf e1 b9 f3 bd ec ac 99 bf 51 14 55 3f
       -0.50310415 -0.11900688 -1.2005897 0.83234125
000100 48 37 c4 3d 51 41 c6 3e ce 23 06 3e 86 55 75 3f
       0.095808566 0.38721707 0.13099596 0.95833623
000110 7e e6 10 bf 91 00 a4 be 6f 77 19 be 8a 88 58 be
       -0.56601703 -0.32031682 -0.14986967 -0.21145836
000120 d5 0a 83 bb 9f 1c 45 3e 68 40 90 3f 33 14 67 bf
       -0.003999094 0.192492 1.1269655 -0.90265197
000130 ae 87 50 be 1f 33 be 3e 0c eb fc bd b5 7d 64 3f
       -0.20364258 0.37148377 -0.12349519 0.89254314
000140 4f a6 8d 3e ba 6f 4d be 0c 87 5d 3e d9 85 0f 3e
       0.27665946 -0.20062152 0.21633548 0.14015903
000150 4b 48 1d 3f 09 0c c2 be ab b5 9b be 8b 0f 5b be
       0.61438435 -0.37899807 -0.3041204 -0.21392648
000160 85 ec e0 3e 72 f2 5e be 86 f5 17 3e 9e 1c 42 bf
       0.4393045 -0.21772173 0.14839754 -0.75824916
000170 ac 81 e3 be 3f ad c6 3e 22 96 2b 3e bc 65 e4 3e
       -0.4443487 0.3880405 0.1675649 0.44608867
000180 af df 50 bd 44 5e 85 be ec bf 13 3f d4 59 11 3c
       -0.05099457 -0.2604848 0.57714725 0.008871514
000190 aa 8e 2e bf eb 3a 36 3e d3 11 9f be 9b 2d 74 bc
       -0.6818644 0.17795913 -0.31068286 -0.014903451
0001a0 5b e2 2e 3e dc 01 78 3d 8e 0a 0a 3e 57 18 5e bc
       0.17078535 0.06054865 0.13480589 -0.013555608
0001b0 84 34 0f 3e 01 1f 13 3e cf 99 a8 bd 2d 68 ce 3d
       0.13984877 0.14367296 -0.08232462 0.10078464
0001c0 c6 f9 8e be 4c 4f ce 3e 8b 24 29 3e 5c 58 51 3e
       -0.27924937 0.40294874 0.16517846 0.20443863
0001d0 79 1c 9c 3e 2d 19 c3 be b0 a0 82 be f5 26 a5 3e
       0.30490473 -0.38105145 -0.2551322 0.32256284
0001e0 68 66 c6 bc 68 ab 61 be f6 fa c2 be 5e d7 29 3e
       -0.024218753 -0.22038043 -0.38082093 0.16586062
0001f0 2a 0c c6 3c 4d 9c 08 3c 63 b9 2a bd d5 86 66 3e
       0.024175722 0.008338046 -0.041680705 0.22512372
000200 11 0d 3d 3e 52 c0 26 bf d6 90 2d 3e 9f 02 2e 3e
       0.18462016 -0.6513721 0.16949782 0.16993187
000210 4e 94 78 3d 25 88 22 bb 21 c7 eb 3d fa 08 75 bd
       0.06068831 -0.0024800387 0.1151259 -0.059823014
000220 ab bc c0 be 9f 68 69 be fb d7 e5 3e 6c 4a 77 be
       -0.37643942 -0.22793816 0.44891343 -0.24149483
000230 ae 24 83 3e e9 d1 fb 3e 17 c8 5f bd e2 2e 25 bd
       0.25613922 0.49183586 -0.05463418 -0.040327914
000240 db bf d5 3d 82 cc a1 bd e8 5a c5 3e 41 de f7 3e
       0.10436984 -0.07900335 0.38545918 0.48411754
000250 f1 d5 2e 3e 8b 67 79 3c 0d 7c fb bd 83 3c 88 bc
       0.170738 0.0152224405 -0.1227952 -0.016630417
000260 a8 24 97 3d 28 3a 26 3e f9 79 a2 be c5 3a 98 3c
       0.073800385 0.16233122 -0.31733683 0.018582711
000270 68 c3 b7 be 72 2f 39 bd ff aa 43 be ca 46 32 be
       -0.3589127 -0.045211263 -0.19108199 -0.17409816
000280 99 b0 07 3f 4a eb 08 3e 67 57 2d 3e 35 01 a8 3f
       0.5300384 0.13371006 0.16927873 1.3125368
000290 fa f1 2e bf 12 01 e0 3d 0d 0b 09 3e fc f9 e0 3d
       -0.68337977 0.10937704 0.13383122 0.10985181
0002a0 08 a5 94 bd 3a 6e 55 be 37 15 46 bc 96 24 cc bd
       -0.0725804 -0.2084283 -0.012090019 -0.09967916
0002b0 7b e9 5b be c3 7f 2d 3e 9c cb 52 3f 00 ee 61 be
       -0.21475784 0.16943268 0.82341933 -0.22063446
0002c0 3b b8 c3 bd 2e 49 82 3e 54 61 53 be c7 d5 80 be
       -0.095566235 0.25446457 -0.20642596 -0.251631
0002d0 91 57 8a 3e 9b c4 2a bf db 3f 00 3e 85 5d 53 3e
       0.27019933 -0.66706246 0.12524359 0.20641144
0002e0 12 99 18 3e ab 85 ab 3d b5 99 d6 bd a3 85 fb bc
       0.14902142 0.083751045 -0.10478536 -0.030703371
0002f0 ba 0d 65 3c 29 55 41 be e4 5a 95 3c 6f bd 9f bc
       0.013980323 -0.18880142 0.018231817 -0.019499509
000300 6e fe c6 bd 59 84 be 3e 78 29 3f be af 72 3d 3e
       -0.09716497 0.37210348 -0.18668163 0.1850078
000310 cc 8a 93 be a8 86 ce bd 38 83 0b 3e 03 17 4f 3d
       -0.2881683 -0.100842774 0.13624275 0.050559055
000320 ab 9f f7 bf db 23 1f bf e8 1b 01 bd a1 7a cf bf
       -1.9345602 -0.62164086 -0.031520754 -1.6209298
000330 d0 00 4f 3d 16 3b 63 bf 0d 20 54 3f ae 1b b2 bf
       0.050537884 -0.88762033 0.82861406 -1.3914697
000340 98 5d 02 c0 d2 4f e2 bf de ef 8c bf d7 57 36 3f
       -2.0369625 -1.7680609 -1.1010702 0.7122778
000350 47 65 0b bf e9 d6 9a 3e 5e 3a 99 bf 52 1a 03 3f
       -0.5445141 0.30242088 -1.1970937 0.51212037
000360 6b c3 d8 3e 41 c1 98 bf bf de cb bd 5f e0 60 3f
       0.42336592 -1.1933976 -0.09954595 0.87842363
000370 03 54 f6 3e f7 dd 2a c0 ab 73 0d bf 31 a6 42 40
       0.4811097 -2.6697977 -0.5525462 3.0413935
000380 64 5f a3 bf e1 8a 08 bf db aa b3 bf 31 58 eb 3e
       -1.2763486 -0.5333691 -1.4036516 0.45965722
000390 92 ea 22 3f 3f f2 cb bf 2d 12 3d 3f c3 66 36 3f
       0.63639176 -1.5933303 0.7385586 0.7125055
0003a0 81 ec b1 bf bc 37 eb bf 09 ad 87 bf e0 5c aa bf
       -1.39003 -1.8376384 -1.0599681 -1.3309593
0003b0 8f dc 4b bf 4d 43 36 bf 07 88 1d be 6b be 85 bf
       -0.7963342 -0.7119644 -0.15383922 -1.0448736
0003c0 8f ff 03 3f 0c aa 8a 3f 25 fc 02 bf 25 24 42 3f
       0.51561826 1.0833144 -0.5116599 0.758364
0003d0 a7 28 6b 3f 29 f8 b7 bf af ff a8 3e 70 f5 1b 3f
       0.91858906 -1.4372607 0.3300757 0.6092138
0003e0 b5 d5 a4 3f 8f e0 d5 3f a3 f7 46 bf 0d 89 c6 3f
       1.2877718 1.6709155 -0.77721614 1.5510575
0003f0 70 46 32 3f ca 3b 20 bf 5f 20 91 be cd c2 c3 3f
       0.6963873 -0.6259123 -0.2834501 1.5293823

layers.4.bias f4 [100]
000000 07 1c ad 3e 8f c7 0d 3e a7 d3 c2 3e c5 3a 5d be
       0.33810446 0.13845657 0.38052103 -0.2160445
000010 b3 6d 84 be 34 b6 8d be 4a 49 1a bf c9 26 4f 3e
       -0.25864944 -0.27678072 -0.6026808 0.20229639
000020 cb 50 92 3e 4d c5 92 be 3b 0c c5 be 61 1c d8 be
       0.28577265 -0.28666154 -0.38485894 -0.4220915
000030 fd c9 9c be bf 53 97 be ea 73 c4 3d 5a 80 1b be
       -0.30622855 -0.2955608 0.09592421 -0.15185681
000040 70 a2 1a bf 81 80 12 be bd 0a 78 3e 1e 61 b6 be
       -0.6040411 -0.14306833 0.24222846 -0.3562097
000050 25 16 f3 be 94 87 87 3e 16 77 7c be 1a 90 ca be
       -0.47477832 0.26470625 -0.24654803 -0.39563066
000060 36 1c 02 be 7f f9 94 3e 5b 57 60 3e 51 ec 92 be
       -0.12706074 0.290966 0.21908323 -0.2869592
000070 31 cf 91 3e 8c cb 04 be 97 79 6b 3e e3 45 d2 3d
       0.28478387 -0.12968272 0.22995602 0.10267236
000080 72 c6 04 bd 09 54 85 be bd ce 24 be 21 2c 5d be
       -0.032415815 -0.26040676 -0.1609449 -0.21598865
000090 16 32 bf 3e 6a c6 da bd ba 9e d8 be b8 36 db bd
       0.373429 -0.10682376 -0.423086 -0.10703796
0000a0 9b 22 9d be bc 3d ac 3e fc 09 3a bf d3 a7 be be
       -0.30690464 0.3364085 -0.72671485 -0.37237415
0000b0 10 6d 61 be 3d f4 4e 3e c6 3d cd be 67 9d bd be
       -0.2201426 0.20210357 -0.40086192 -0.3703415
0000c0 f1 ad d3 be d1 5c 8b be c1 92 a6 3e 18 c6 84 3e
       -0.41343644 -0.2721925 0.3253384 0.25932384
0000d0 9f 58 5f be 28 43 1c bf 68 2d c5 bd 7d 4b eb be
       -0.2181115 -0.6103997 -0.09627801 -0.4595603
0000e0 07 5e d2 bd 59 46 96 be df 71 0d bf b7 80 03 3e
       -0.102718405 -0.29350546 -0.5525188 0.1284207
0000f0 4c a5 b6 be b6 85 07 3f 2d ba 2b be 7e da ae be
       -0.35672987 0.529384 -0.16770239 -0.3415107
000100 f7 54 c3 3e be 96 a9 be 52 5b 0a 3f 16 63 82 3e
       0.3815076 -0.3312282 0.54045594 0.25466222
000110 14 c9 41 be 48 70 32 be 10 d5 b9 3e 30 f4 26 3e
       -0.18924361 -0.17425644 0.36295366 0.16304088
000120 ba 7e b8 be 0d c1 8a 3e 47 5d 9e 3e 5f 6c 02 be
       -0.36034185 0.2710041 0.3093054 -0.12736653
000130 88 ce 89 be 9c 47 54 be f7 a2 a2 3e e6 8b 53 be
       -0.26915383 -0.20730442 0.31764957 -0.20658836
000140 f3 e5 c9 be 75 4c c4 be 24 71 9c 3e 5b 82 b9 3e
       -0.3943325 -0.38339582 0.3055507 0.36232266
000150 de 6a bf 3e f3 dc d1 3e 19 92 80 be c2 34 a8 3e
       0.3738622 0.40988883 -0.25111464 0.3285275
000160 d8 35 d7 3e 8a 0f 8d 3e b3 8c 97 3e c2 b7 50 be
       0.42033267 0.27550918 0.29599532 -0.20382598
000170 fa 70 14 3f 84 9d 41 3e 91 6f 0e be c5 c3 b6 be
       0.5798489 0.18907744 -0.13909747 -0.35696235
000180 6b 74 9a 3e 5a a1 1f 3e ab cc 32 3e f3 4e aa be
       0.30166945 0.15588894 0.17460887 -0.33263358

layers.6.weight f4 [1, 100]
000000 51 ef 38 be 54 e5 59 be b4 40 cb be 00 0d 9b 3e
       -0.18060042 -0.21278888 -0.39697802 0.30283356
000010 de 30 d2 3d 80 06 1f 3e d1 12 c7 3e 54 82 23 be
       0.10263227 0.15529823 0.38881543 -0.15967685
000020 47 7e 2b be 32 d5 8e 3e 6a a4 41 3e de fc ea 3d
       -0.1674739 0.2789703 0.18910375 0.11474012
000030 f5 a1 c7 3d 12 65 33 3d 79 8a 01 be 36 cc 7b 3d
       0.09747688 0.04379756 -0.1265048 0.061474048
000040 b0 ff 39 3e 02 4b e3 be 16 70 15 bd 14 1c ea 3c
       0.18163943 -0.44393164 -0.036483847 0.028577842
000050 b1 2a 81 3e 5b 13 a1 bd 50 b9 3d 3e 5f f6 46 3e
       0.25227883 -0.0786502 0.18527722 0.1942992
000060 30 ff 11 3e ed 36 ac be 7e 1b e7 bd 4d 42 06 3e
       0.14257503 -0.33635655 -0.112845406 0.13111229
000070 83 2b a4 bd ac ab 89 3e b1 aa 68 bb 1b d5 10 3f
       -0.08016112 0.26888788 -0.003550213 0.56575173
000080 dd e7 ee 3e d5 0b 8d 3d f4 46 33 3e a4 32 ad 3e
       0.46661273 0.068870224 0.17507535 0.33827698
000090 c6 a2 91 bc 07 89 0d 3f 72 ca 32 3e 5b 93 41 3f
       -0.017777812 0.5528721 0.1746004 0.7561547
0000a0 b9 78 dd 3d 03 23 18 be 90 de f8 3e 10 66 99 3d
       0.10814042 -0.14857106 0.48607302 0.0749017
0000b0 73 79 73 3e b4 26 74 be 9a 8e 3d 3e f4 99 c1 3e
       0.23776798 -0.23842889 0.1851143 0.3781277
0000c0 6b 31 c7 3e 97 7f 6a 3d 7e 30 3e bd 7c 02 a9 bc
       0.3890489 0.057250585 -0.046432965 -0.020631067
0000d0 b8 3a 0e 3f 76 f5 aa 3e a2 1f 9f 3e 08 24 78 3d
       0.5555835 0.33390397 0.3107882 0.060581237
0000e0 13 fb 6a 3e e6 ff cb 3d 78 f5 4a 3e 76 04 1e be
       0.2294734 0.09960918 0.19820201 -0.15431389
0000f0 55 12 f2 3d 87 ae a5 be 95 ba 98 3e 99 6f 1d 3d
       0.11819903 -0.32359716 0.2982985 0.038436506
000100 b6 42 48 be e0 db cb 3d df ab cc be d0 c3 b1 bd
       -0.19556698 0.09954047 -0.39974877 -0.086799264
000110 10 80 20 3e a0 ba e6 3d 68 35 2f be c9 de 8d bd
       0.15673852 0.11266065 -0.17110217 -0.069272585
000120 06 7b 7e 3e 61 d7 79 bd 92 20 95 be 3b 68 7d 3e
       0.24851617 -0.060996417 -0.29126412 0.24746792
000130 c7 00 78 3d 10 b3 71 3e d0 bd 1f be bd 4b 87 3e
       0.060547616 0.23603463 -0.15599751 0.2642497
000140 63 ef 48 3e b2 99 56 3d ad 89 65 be 55 5e 35 be
       0.19622569 0.05239267 -0.224158 -0.17711766
000150 95 8d 42 be b9 a1 bb bd 3f 55 47 bf ea 72 81 bd
       -0.18999322 -0.091617055 -0.7786445 -0.06320746
000160 17 9c 85 be 69 ab b0 be 45 9f 94 be d2 f1 90 3d
       -0.2609565 -0.34505776 -0.29027763 0.070773736
000170 41 d8 66 be 80 2c 8b be 72 36 07 3d 0b 97 a1 3e
       -0.22543432 -0.27182388 0.033010907 0.3156055
000180 30 50 9f bd 18 1c 9f be 0a 3c dc ba 14 ab 10 3e
       -0.077789664 -0.3107612 -0.0016802561 0.14127761
