hddm/torch_models/eba53550128911ec9fef3cecef056d26_angle_torch_state_dict.pt (torch, 87055 bytes, 7 tensors)

layers.0.weight f4 [100, 7]
0	0xbbe03048	-0.006841693
1	0x3e6c57a5	0.23080309
2	0xbe435cfd	-0.19078441
3	0xbe76a23c	-0.24085325
4	0xbf00f167	-0.5036835
5	0x3bd1164e	0.0063808328
6	0x3e01f1a7	0.1268984
7	0x3f4a4481	0.7901078
8	0xbe27dd09	-0.16392912
9	0xbc13716f	-0.008999213
10	0xbe185ae0	-0.14878416
11	0x3ecfd9cc	0.40595853
12	0x3e08db37	0.13364874
13	0xbc9db36f	-0.0192506
14	0x3e31d0fb	0.17364876
15	0x3e67a7f6	0.22622666
16	0x3f0f12c5	0.55888015
17	0xbb15cb44	-0.0022856751
18	0x3f1fe88c	0.62464213
19	0x3b421933	0.002961707
20	0xbd975c0d	-0.07390604
21	0x3ea2d865	0.3180572
22	0x3e049ac4	0.12949663
23	0x3f800241	1.0000688
24	0x3dd6dfd8	0.104919136
25	0xbddbf45c	-0.10739967
26	0xbde871fc	-0.11349866
27	0xbf4cb3e5	-0.79962
28	0xbb8c1391	-0.0042747934
29	0xc015e609	-2.3421652
30	0x3d891523	0.06693485
31	0xbc9174f9	-0.017755972
32	0xbe420b99	-0.18949737
33	0x3c2aaefb	0.010417695
34	0x3daf12b8	0.08548492
35	0x3d4bd10d	0.049759913
36	0xbf39477f	-0.7237472
37	0x3e35c319	0.17750205
38	0x3e65c611	0.22438838
39	0x3f064dd0	0.5246248
40	0x3cd31f85	0.025771866
41	0x3d2809b9	0.041024897
42	0x3ea00fdf	0.3126211
43	0x3efea2be	0.49733537
44	0xbf0b1d5f	-0.5434169
45	0xbe0c27bf	-0.13687037
46	0xbe66d4fa	-0.22542182
47	0x3e0f0061	0.13964988
48	0x3f6c1629	0.92221314
49	0x3cb5865a	0.02215879
50	0xbf7550f7	-0.9582667
51	0x3e3f233c	0.18665785
52	0x3e0c59d9	0.13706149
53	0xbf9304fa	-1.1485894
54	0xbe1c2019	-0.1524662
55	0x3df5faef	0.120107524
56	0xbe24e54d	-0.16103096
57	0xbe9105ba	-0.28324682
58	0x3f324a3b	0.69644517
59	0x3f35fd6c	0.71089816
60	0x3e671091	0.22564913
61	0xbf2f1666	-0.6839355
62	0xbe9e6542	-0.3093663
63	0xbeedbf4d	-0.46435013
64	0xbb93f807	-0.004515651
65	0x3f6f5fad	0.93505365
66	0x3da875aa	0.08225568
67	0x3f9151bc	1.1353068
68	0xbda370ed	-0.07980523
69	0x3f3cf9b4	0.73818517
70	0xbe3afa49	-0.18259539
71	0x3faecd37	1.3656377
72	0xbef7ca0c	-0.48396337
73	0xbe1a2fb4	-0.1505726
74	0x3e66564c	0.22493857
75	0x3e1b883f	0.15188693
76	0xbecfb8bc	-0.4057063
77	0xb9318f60	-0.00016933447
78	0x39ef80e7	0.00045681672
79	0xbb095be6	-0.0020959317
80	0x393e76be	0.00018164047
81	0x3ab14540	0.0013524666
82	0xbb0b2462	-0.0021231403
83	0xbb20a651	-0.0024513195
84	0xbf058ea6	-0.5217079
85	0x3d2c5c2f	0.0420801
86	0xbdd25b23	-0.10271289
87	0xbed2e33d	-0.41188994
88	0x3f4d3f09	0.8017431
89	0x3ed231dc	0.41053665
90	0x3e6fa5a5	0.23403032
91	0x3dbb50b8	0.09146255
92	0xbfb365aa	-1.40154
93	0xbf6e6be3	-0.9313337
94	0xbc40ba2d	-0.011763138
95	0xbe08393d	-0.13303085
96	0x3bfc8774	0.007706577
97	0xbf4a8b14	-0.79118466
98	0x3e2e239b	0.1700577
99	0xbef5a04e	-0.47973865
100	0x3f46219e	0.77395046
101	0x3f4e762e	0.8064908
102	0x3e25c536	0.16188511
103	0xbf5b6204	-0.85696435
104	0xbd8c8b6a	-0.068625286
105	0x3c9e6ed9	0.019339966
106	0xbee55aa1	-0.44795707
107	0xc010a5ff	-2.2601316
108	0x3f0e73b1	0.5564528
109	0xbdbf3821	-0.093368776
110	0xbf0a40a4	-0.54004884
111	0x4003a5ec	2.057002
112	0x3d93eb5a	0.07222624
113	0x3dd4e6d1	0.10395587
114	0xbf50d7a9	-0.8157907
115	0xbefe7e4e	-0.49705738
116	0x3e39a63d	0.18129821
117	0x3f17651b	0.5913865
118	0x3f0bd7c8	0.5462613
119	0xbdd39aa4	-0.1033223
120	0xbec43f4a	-0.38329536
121	0x3f45a5e4	0.77206254
122	0xbb8c3ff2	-0.004280084
123	0x3f501938	0.8128848
124	0xba28a03b	-0.00064325676
125	0x3eea5b1c	0.45772636
126	0x3d806d68	0.062708676
127	0x3e376942	0.17911246
128	0x3e2a6cf8	0.16643131
129	0xbf836a92	-1.0266898
130	0xbed74ce0	-0.42050838
131	0x3f8d2b0c	1.1028762
132	0xbc43cb7d	-0.011950371
133	0xbd8c3d5b	-0.0684764
134	0x3f8bc39b	1.0919069
135	0xbe8c4182	-0.27393728
136	0x3f287c3c	0.65814567
137	0xbec31407	-0.38101217
138	0xbf269f7f	-0.6508712
139	0xbe7c4f6e	-0.24639675
140	0xbeb7b256	-0.35878247
141	0xbf323af4	-0.69621205
142	0x3e90f80d	0.28314248
143	0x3ea9ead4	0.33186972
144	0xbf2ba69c	-0.670511
145	0xbeaa81ed	-0.3330225
146	0xbf038196	-0.5136961
147	0x3ea97a93	0.3310133
148	0x3de6ad76	0.11263554
149	0xbf11081c	-0.56653
150	0xbf599075	-0.8498605
151	0x3f00dbac	0.5033519
152	0x3f60e94b	0.87855977
153	0x3db3a38c	0.087714285
154	0x3eaceb90	0.3377347
155	0xbe5126d8	-0.20424974
156	0x3d85b1ca	0.06528051
157	0xbd00d958	-0.031457275
158	0x3f5622ef	0.83647054
159	0x3c8a7779	0.016902672
160	0xbe289f68	-0.16467059
161	0xbaa6fe68	-0.0012740614
162	0x3a8bf321	0.0010677316
163	0x3b223ea3	0.0024756573
164	0x3b09fd9f	0.002105571
165	0x3ab8abcc	0.0014089285
166	0xb80e732d	-3.3962704e-05
167	0xb7dccff3	-2.6322878e-05
168	0xbd806f24	-0.062711984
169	0xbf187ced	-0.5956562
170	0x3e128619	0.14308967
171	0xbd869966	-0.06572227
172	0x40881cbf	4.253509
173	0xba83248b	-0.0010005397
174	0x3d70e182	0.05880881
175	0xbd5f940b	-0.054584544
176	0xbf53e65a	-0.82773364
177	0xbed686c8	-0.41899705
178	0xbf487cf9	-0.78315693
179	0x3f07c769	0.5303865
180	0x3f310ca6	0.69159925
181	0xbd8d07d9	-0.068862624
182	0x3c75b332	0.014996337
183	0x3f50f6f6	0.8162683
184	0xbe61ddcd	-0.22057267
185	0xbf9c94f3	-1.2232956
186	0xbdb028cf	-0.086015336
187	0x3fa161de	1.2607992
188	0x3d80fe0a	0.06298454
189	0x3ebd9040	0.37024117
190	0xbe44c330	-0.19215083
191	0xbd81ef0b	-0.06344422
192	0x3d9db303	0.077001594
193	0x3f69461f	0.9112262
194	0xbd9099da	-0.07060595
195	0x3fd02958	1.6262617
196	0x3df88e25	0.12136487
197	0x3daa0501	0.08301736
198	0xbf425262	-0.75906956
199	0xbde29b7d	-0.11064813
200	0xbfedda9f	-1.8582343
201	0x3ddb8039	0.10717816
202	0x40098599	2.1487792
203	0xbd4ed00b	-0.050491374
204	0x3ece0e67	0.40245363
205	0x3d90475c	0.07044861
206	0x3f7de9d3	0.9918491
207	0x3c4512f2	0.012028443
208	0xbf81942e	-1.0123346
209	0x3d7abc9e	0.061215036
210	0x3ef34e37	0.4752061
211	0x3f3e75e2	0.74398625
212	0xbe889822	-0.26678568
213	0x3d955b26	0.07292776
214	0x3e8fe287	0.28102514
215	0xbd92e577	-0.07172673
216	0xbd9b87e3	-0.07594278
217	0x3e35833e	0.17725846
218	0xbec750ec	-0.38928926
219	0x3f821dee	1.0165384
220	0xbe29d0c1	-0.1658354
221	0x3e148a93	0.14505987
222	0x3e192112	0.14954022
223	0xbeb02bf0	-0.34408522
224	0xbe4be7db	-0.19912665
225	0xbe813e74	-0.2524296
226	0xbf443674	-0.7664559
227	0xbe6043f6	-0.21900925
228	0x3f8825b8	1.0636511
229	0x3e58712a	0.21136919
230	0xbe3ff03e	-0.18743989
231	0xbbb95f56	-0.005657117
232	0x3d5a7b29	0.05334011
233	0xbeda0257	-0.4257991
234	0x3ddecbca	0.108787134
235	0xbe2a89bb	-0.16654103
236	0x3d3958b5	0.045250613
237	0xbe708d61	-0.23491432
238	0x3f438d3a	0.7638737
239	0xbe8c231e	-0.27370542
240	0x3e89b148	0.26893067
241	0x3cff1c58	0.031141445
242	0xbf06ca1c	-0.52652144
243	0xbd12f403	-0.03587724
244	0xbd627135	-0.055283744
245	0xbc0cdc44	-0.008597437
246	0xbf7d8393	-0.9902889
247	0xbe694c01	-0.227829
248	0xbf72c1c6	-0.94826925
249	0xbf0951bf	-0.5364036
250	0x3f756b82	0.9586717
251	0x3ca4adf4	0.020102479
252	0x3ed565c1	0.41679195
253	0x3ec3cd72	0.3824268
254	0x3d8fa64d	0.07014141
255	0x3d4084c3	0.04700161

layers.0.bias f4 [100]
0	0x3ef4a254	0.47780097
1	0xbe65285b	-0.22378676
2	0xbfab4eed	-1.3383461
3	0xbe44990c	-0.19199008
4	0x3f1ddc5e	0.6166438
5	0xbe894cef	-0.26816508
6	0xbe0e485d	-0.13894792
7	0x3fa4cd59	1.2875167
8	0xbf0e3db6	-0.55562913
9	0x3ebc177b	0.36736664
10	0xbdd64b57	-0.10463589
11	0xbb85bee6	-0.0040815948
12	0xbe3979e5	-0.18112905
13	0x3e96283f	0.2932758
14	0x3edd9d73	0.43284187
15	0x3f066b7c	0.5250776
16	0x3e945f48	0.28978944
17	0xbf374072	-0.7158271
18	0x3e5ade5a	0.21373883
19	0x3e970bb7	0.29501125
20	0x3e3f196e	0.18662044
21	0x3ea35b0e	0.31905407
22	0xbeb388d8	-0.3506534
23	0xbbf84fb6	-0.0075778617
24	0x3f30ff22	0.691393
25	0xbcaa79b9	-0.020809995
26	0xbe3aa0e5	-0.18225439
27	0xbf1a85b6	-0.60360277
28	0x3f5d4a20	0.8644123
29	0xbdd0c431	-0.101936705
30	0x3f3e2b90	0.7428522
31	0xbe941755	-0.2892405
32	0xbedde5c9	-0.43339375
33	0x3e7e1f2e	0.24816582
34	0xbe3b1dff	-0.18273161
35	0x3f8b235d	1.0870167
36	0x3f133d78	0.5751567
37	0x3d013d64	0.031552687
38	0x3f2c8db7	0.6740374
39	0xbf0e35a4	-0.555506
40	0x3d4f0e0b	0.0505505
41	0xbf514fcd	-0.8176239
42	0x3e8469f7	0.25862095
43	0x3e7701cc	0.24121779
44	0xbe88db6a	-0.267299
45	0x3e006aa4	0.1254068
46	0x3f480a29	0.78140503
47	0x3e56608c	0.20935267
48	0x3edf7e59	0.43651083
49	0xc03673a3	-2.850808
50	0x3ed6bbb6	0.41940087
51	0xbec6e081	-0.38843158
52	0x3ebdfdeb	0.37107787
53	0x3e815f84	0.25268185
54	0x3e0d7d36	0.13817295
55	0x403e4333	2.9728515
56	0x3e455347	0.19270049
57	0xbc37d399	-0.011219882
58	0x3eb79be9	0.35861138
59	0x3e88e99d	0.26740733
60	0xbe424696	-0.18972239
61	0x3929226c	0.00016129919
62	0xbeb5e83c	-0.35528743
63	0xbcca8dc0	-0.024725795
64	0xbf855a0a	-1.0418103
65	0x3bec18a9	0.007205088
66	0x3f1e79d1	0.6190463
67	0x3f6778de	0.90418804
68	0xbdbffae4	-0.093740255
69	0xbe904312	-0.2817617
70	0x3f804b38	1.0022955
71	0x3f7f35e4	0.99691606
72	0x3e5fdc1d	0.2186131
73	0x3f016be7	0.5055527
74	0x3ec495b6	0.3839547
75	0xbf1bd396	-0.6086973
76	0xbdc16f2c	-0.094450325
77	0x3e84855a	0.2588299
78	0xbd884387	-0.06653505
79	0xbf3cda25	-0.7377036
80	0xbd76a62b	-0.060217064
81	0x3ea7af27	0.32750818
82	0xbdebb8ff	-0.115098946
83	0x3fa390ec	1.2778602
84	0x3f52bbbc	0.8231771
85	0xbf224bc5	-0.63396865
86	0xbe18d2a2	-0.149241
87	0x3ef18883	0.47174463
88	0x3f0b5b25	0.5443595
89	0x3dc9ec12	0.0985948
90	0x3cebee7a	0.028800238
91	0xbf785961	-0.9701138
92	0x3df2b294	0.11850467
93	0x3dd0e21d	0.10199378
94	0x3d8b1ee7	0.067930035
95	0x3f08192a	0.531634
96	0x3eae9d96	0.34104604
97	0x3ebc935b	0.36831173
98	0xbf504c76	-0.8136667
99	0xbd5f4df0	-0.054517686

layers.2.weight f4 [100, 100]
0	0xbdb6a9f8	-0.08919138
1	0x3ddfb2aa	0.10922749
2	0xbe927348	-0.28603578
3	0xbf4c446e	-0.79791915
4	0x3e0ce1ef	0.13758062
5	0xbd5a1420	-0.05324185
6	0x3ec9540d	0.39321938
7	0x3d906ad3	0.07051625
8	0xbeb0a193	-0.3449827
9	0x3df804a4	0.1211026
10	0x3e08f2d0	0.13373876
11	0x3b1f6b93	0.0024325594
12	0xbeb159ac	-0.34638727
13	0xbdc13866	-0.09434585
14	0x3e91ceee	0.28478187
15	0x3ea471ed	0.32118168
16	0xbe199c78	-0.15001094
17	0x3eb42b9b	0.35189518
18	0x3eb926f6	0.36162537
19	0xbe2b3f0f	-0.16723274
20	0xbe966ef1	-0.29381517
21	0x3d584490	0.05279976
22	0xbb50126a	-0.0031749257
23	0x3aed33a5	0.0018097056
24	0xbd3901ec	-0.04516785
25	0x3daf5ff2	0.08563222
26	0x3d536014	0.0516053
27	0x3e382eae	0.17986557
28	0x3e160a82	0.14652446
29	0xbe8aed42	-0.27134138
30	0xbeef130b	-0.46694216
31	0xbd94704e	-0.07247983
32	0xbe964432	-0.29348904
33	0x3df53b8f	0.119742505
34	0xbea1ee43	-0.31627092
35	0x3e2fabf0	0.17155433
36	0xbdf01c6b	-0.1172417
37	0xbef89211	-0.4854894
38	0xbd681909	-0.0566645
39	0xbdf15e25	-0.11785535
40	0x3d42427a	0.04742668
41	0x3e503bc3	0.20335297
42	0xbdca4c24	-0.09877804
43	0x3e502e14	0.20330077
44	0x3e040b0d	0.1289484
45	0xbf5e3533	-0.86799926
46	0xbd577ca2	-0.052609093
47	0x3ca4ff61	0.020141305
48	0x3dae8f5c	0.085234374
49	0xbb8e5b9b	-0.0043444163
50	0xbdf392e1	-0.11893249
51	0xbd0e4666	-0.034735106
52	0xbe3e81b6	-0.18604168
53	0xbd50df61	-0.05099428
54	0xbe1aceda	-0.1511797
55	0x3df9fc5c	0.12206337
56	0x3ea929d8	0.33039737
57	0x3cb7efa0	0.02245313
58	0xbde7b9e2	-0.11314751
59	0x3cabf2af	0.020989744
60	0x3efd5a7a	0.4948309
61	0x3bec0e23	0.0072038337
62	0x3d092bf4	0.033489183
63	0x3e263108	0.16229641
64	0x3df8cbbe	0.12148236
65	0x3a71fc92	0.00092310563
66	0xbeb01028	-0.34387326
67	0x3e52cbe5	0.20585592
68	0x3ea3d57e	0.3199882
69	0xbcdb1562	-0.026743595
70	0x3f48e62b	0.7847621
71	0x3e4d2672	0.20034197
72	0xbf35b0da	-0.7097298
73	0x3d58b7dd	0.05290972
74	0xbe50c77a	-0.20388594
75	0x3d724dd0	0.05915624
76	0x3dc50038	0.09619182
77	0xbd5de464	-0.05417289
78	0x3d903efe	0.07043265
79	0xbb9d9b82	-0.0048097977
80	0x3e86e195	0.2634398
81	0xbe1154e2	-0.14192536
82	0x3e101726	0.1407133
83	0x3e3b1999	0.18271483
84	0x3e747792	0.23873737
85	0xbe653220	-0.22382402
86	0x3c859ce1	0.016310157
87	0xbd030e4e	-0.031996064
88	0x3dc0edd9	0.09420366
89	0xbf87c828	-1.0607958
90	0x3e2f4f0f	0.17120002
91	0x3e862cbf	0.26206014
92	0x3e9869f6	0.29768342
93	0x3de1aaf6	0.11018936
94	0x3e5011a2	0.20319226
95	0x3efc2ba3	0.49252042
96	0x3d9d6fb8	0.07687324
97	0x3db2a49a	0.087228015
98	0xbc889772	-0.016673777
99	0xbc813e02	-0.015776638
100	0xbccd7998	-0.025082394
101	0xbf40cde2	-0.7531415
102	0xbde8dae7	-0.11369877
103	0xbebd5f9c	-0.36987007
104	0x3f336297	0.7007231
105	0x3e2abe73	0.16674213
106	0xbef53c2e	-0.47897476
107	0x3eb752a4	0.35805237
108	0xbf03a49f	-0.51423067
109	0x3e97813d	0.29590788
110	0xbefad397	-0.48989555
111	0x3b62f706	0.00346321
112	0xbf1fbfaa	-0.6240183
113	0xbe91e3d4	-0.28494132
114	0x3f49cad0	0.7882509
115	0x3dee108a	0.11624248
116	0x3ddc4a74	0.10756388
117	0xbea9f82f	-0.33197162
118	0x3e8c7429	0.27432373
119	0x3f33868f	0.70127195
120	0xbed26d01	-0.41098788
121	0x3e4d6de2	0.20061448
122	0xbd4f13f0	-0.050556123
123	0x3c1130a0	0.008861691
124	0x3e8180e2	0.25293642
125	0x3e7f184e	0.24911615
126	0x3dbc1a80	0.09184742
127	0x3e5a9fd7	0.21350037
128	0xbde4b1b0	-0.11166704
129	0xbe1dd442	-0.15413001
130	0xbd788947	-0.060677793
131	0x3de5de10	0.11223996
132	0x3ed61c11	0.41818288
133	0x3e630400	0.22169495
134	0xbe8dcddf	-0.2769613
135	0x3e239ed9	0.15978564
136	0x3d15f4e9	0.036610518
137	0x3ee5ac02	0.44857794
138	0xbe7290dc	-0.23688072
139	0x3e904232	0.28175503
140	0xbb10d835	-0.0022101526
141	0xbd4c1497	-0.049824324
142	0xbdca6bf1	-0.098838694
143	0x3d475699	0.04866657
144	0xbf592c58	-0.8483329
145	0x3d125f9d	0.035735715
146	0x3f16ff3a	0.58983195
147	0x3e8b1162	0.271617
148	0x3f5f024a	0.8711287
149	0xbede3bdd	-0.43405047
150	0xbf2e1bd3	-0.68011206
151	0xbe9d86b6	-0.3076684
152	0x3eeff6a8	0.4686787
153	0xbe88125b	-0.26576504
154	0x3e0c1391	0.13679339
155	0xbfab152b	-1.3365835
156	0xbe91a7f7	-0.2844846
157	0x3c2a849c	0.010407593
158	0x3eb4f4fe	0.35343164
159	0xbf779a07	-0.967194
160	0xbe952ab1	-0.29134133
161	0xbc24c9ed	-0.0100579085
162	0x3c7adf7e	0.015312074
163	0xbee60bbe	-0.44930834
164	0xbf1ce34b	-0.6128432
165	0xba5b8a4b	-0.0008374794
166	0x3ede5b99	0.43429258
167	0xbeaf6a42	-0.34260756
168	0xbe53a0a1	-0.20666744
169	0xbc441e78	-0.011970155
170	0x3e235156	0.15948996
171	0xbeb879e5	-0.36030498
172	0x3ee9512f	0.4556975
173	0x3ebe41ac	0.3715948
174	0x3c513f82	0.012771489
175	0xbdde43d4	-0.10852781
176	0x3effc453	0.4995447
177	0x3ef99bb3	0.48751602
178	0x3eb92475	0.36160627
179	0xbf4c9faa	-0.7993113
180	0xbf241e6a	-0.6410891
181	0xbcdc83bc	-0.026918285
182	0xbefe25e4	-0.49638283
183	0xbf4d4fc2	-0.80199826
184	0x3e81a762	0.25323015
185	0xbe6b53d6	-0.229812
186	0x3ed00bdd	0.4063405
187	0x3edae975	0.4275624
188	0x3ee1a9d5	0.44074884
189	0xbe677d29	-0.22606339
190	0xbcc311f8	-0.02381228
191	0x3d786c37	0.060650077
192	0xbe906b57	-0.28206894
193	0x3b81c55c	0.0039602946
194	0x3f5f5b10	0.87248325
195	0x3ee03638	0.43791366
196	0xbd10ee1d	-0.035383333
197	0x3eac7fcc	0.3369125
198	0xbdf049ef	-0.11732852
199	0xbd54c285	-0.05194332
200	0xbec1277a	-0.3772543
201	0xbe6e5859	-0.2327589
202	0x3efba133	0.49146423
203	0x3f825810	1.0183125
204	0x3ed8d62f	0.4235091
205	0x3c6a67ef	0.014307006
206	0xbeb6e23a	-0.35719472
207	0x3dead1fb	0.11465832
208	0x3e959aeb	0.29219756
209	0xbd62717c	-0.05528401
210	0xbe5afd62	-0.2138572
211	0x3ab735e4	0.0013977853
212	0x3d899e13	0.067196034
213	0xbd490b9d	-0.04908334
214	0x3ead9a17	0.33906624
215	0xbf0a7a3a	-0.5409275
216	0xbe83bd38	-0.257303
217	0xbe64666d	-0.22304697
218	0x3e87d4e9	0.26529625
219	0xbe54f27d	-0.20795627
220	0x3dce561f	0.1007502
221	0xbec5e403	-0.38650522
222	0x3e7fecbc	0.24992651
223	0x3c397ad8	0.011320792
224	0x3c94ef04	0.018180378
225	0x3c0486f3	0.008088815
226	0x3e49e4aa	0.19716135
227	0xbe95a81d	-0.29229823
228	0xbf08b1b8	-0.5339618
229	0xbc03a50a	-0.008034954
230	0xbe0f792f	-0.14011072
231	0xbd74cd59	-0.059766147
232	0x3ca4bf29	0.020110684
233	0x3e021865	0.12704618
234	0x3dd2d2ea	0.10294135
235	0x3e3717e4	0.17880207
236	0xbcc5f708	-0.024165645
237	0xbd89d268	-0.06729585
238	0x3e137c0c	0.14402789
239	0x3eb3503a	0.35022146
240	0x3e5fbc36	0.2184914
241	0xbe973857	-0.2953517
242	0x3e8ea208	0.27857995
243	0x3d9eaf91	0.077483304
244	0x3dc89614	0.0979425
245	0xbff8a8cf	-1.9426516
246	0x3ea895f8	0.32926917
247	0x3e27e1f0	0.16394782
248	0xbe493dba	-0.19652453
249	0x3e205f36	0.1566132
250	0xbe071258	-0.13190591
251	0x3e3c28c8	0.18374932
252	0xbe39fc6f	-0.18162702
253	0xbd2b6c08	-0.041851074
254	0x3e461c50	0.19346738
255	0xbf14463b	-0.57919663

layers.2.bias f4 [100]
0	0x3ded21c1	0.11578704
1	0x3ecada51	0.39619687
2	0xbd50b378	-0.050952405
3	0xbc0f367f	-0.00874102
4	0xbe91fb69	-0.28512123
5	0xbf6c48a0	-0.92298317
6	0x3e953346	0.2914068
7	0x3c2fe728	0.010736264
8	0xbdd338bf	-0.10313558
9	0xbec5fe03	-0.38670358
10	0x3f3a109b	0.7268159
11	0x3f0f0127	0.55861133
12	0xbe7e807d	-0.24853702
13	0x3eb517d1	0.35369733
14	0x3f353590	0.70784855
15	0xbf903826	-1.1267135
16	0xbee0b458	-0.4388759
17	0x3ea06ab5	0.3133141
18	0x3d9dc816	0.07704179
19	0xbde7e10b	-0.113222204
20	0x3e63a740	0.2223177
21	0xbe901437	-0.28140423
22	0xbf443ebc	-0.76658225
23	0x3d2855ae	0.041097336
24	0x3eac95bf	0.33707997
25	0xbf1ae608	-0.6050725
26	0x3e2b8e45	0.1675349
27	0x3fcca0eb	1.5986608
28	0xbf2f01c2	-0.6836206
29	0x3d8fd633	0.07023277
30	0x3eb91416	0.36148137
31	0xbdb37213	-0.08761992
32	0xbb244bda	-0.0025069625
33	0x3e47a758	0.1949743
34	0x3df4d856	0.11955325
35	0xbe5ebcec	-0.21751755
36	0xbd45a116	-0.048249327
37	0x3f8cd525	1.1002547
38	0x3e2fc4b7	0.17164885
39	0xbe5e1017	-0.21685825
40	0xbeeb8ed2	-0.460074
41	0x3f152b74	0.5826943
42	0xbdedac45	-0.116051234
43	0xbf7011b1	-0.93776995
44	0x3da7d7a7	0.08195429
45	0x3ecc3079	0.39880732
46	0xbe3db0c9	-0.1852447
47	0xbe92383b	-0.28558525
48	0x3ed68bf7	0.4190366
49	0xbe2a3cde	-0.16624781
50	0xbddeef17	-0.108854465
51	0xbe4988f1	-0.19681145
52	0x3dccd14f	0.1000086
53	0x3d54e6ea	0.05197803
54	0x3c03c1cb	0.008041809
55	0x3cb1b81b	0.021694234
56	0xbccfba75	-0.025357464
57	0xbdbc0577	-0.0918073
58	0xbd562cef	-0.052288946
59	0xbefedd89	-0.49778393
60	0x3e77e82e	0.24209663
61	0xbf043949	-0.5164991
62	0x3e99e2b4	0.30055773
63	0xbdecd2df	-0.11563658
64	0xbf302300	-0.68803406
65	0xbea9f827	-0.33197138
66	0xbee2bdcc	-0.4428543
67	0x3c82c873	0.015964722
68	0xbe3ac443	-0.1823893
69	0xbdc2058d	-0.09473715
70	0xbe075798	-0.13217008
71	0xbfaeaa81	-1.3645784
72	0x3e546fc8	0.20745766
73	0xbd76535d	-0.060138095
74	0x3f0e5483	0.55597705
75	0x3ec2b460	0.3802824
76	0xbe5acbe6	-0.21366844
77	0xbd152aaa	-0.03641764
78	0xbe0aadee	-0.13542911
79	0xbd18aa76	-0.03727194
80	0x3e2b1040	0.16705418
81	0x3f213f61	0.62987334
82	0xbe5afcf0	-0.2138555
83	0x3d9e05d9	0.07715959
84	0x3f14ba0f	0.580964
85	0x3dbcc4f7	0.092172556
86	0xbdac4938	-0.08412403
87	0x3e2d7cc7	0.1694213
88	0xbe040735	-0.12893374
89	0xbeb893e8	-0.36050344
90	0xbf26b8b5	-0.6512559
91	0x3e2b2ddf	0.16716717
92	0xbe366e2c	-0.17815465
93	0x3edea602	0.4348603
94	0xbe50fd7b	-0.20409195
95	0x3e8ba310	0.27272844
96	0x3e636cf4	0.22209531
97	0xbea91517	-0.33023903
98	0xbe0ab524	-0.13545662
99	0xbed6873d	-0.41900054

layers.4.weight f4 [100, 100]
0	0xbee56c31	-0.44809106
1	0xbefa9375	-0.48940626
2	0xbe49ef02	-0.1972008
3	0xbf530d73	-0.82442397
4	0x3f5b5def	0.85690206
5	0xbecc9d3f	-0.3996372
6	0xbfcd1083	-1.6020664
7	0xbd8214ee	-0.06351648
8	0xbfab3e96	-1.3378475
9	0x3ee2e076	0.44311875
10	0x3e532448	0.20619309
11	0x3ee750e1	0.45178893
12	0x3e0ff540	0.14058399
13	0x3e8d19ac	0.2755865
14	0xbe0b393d	-0.13596053
15	0xbee0a1e0	-0.438735
16	0x3e86dc1a	0.263398
17	0xbe99e493	-0.300572
18	0x3f1e5b47	0.6185803
19	0x3d02560a	0.031820334
20	0xbecee738	-0.4041078
21	0x3eb40e34	0.35167086
22	0xbec78654	-0.38969672
23	0x3e237ba5	0.15965135
24	0xbe8da331	-0.27663568
25	0xbefd6a76	-0.49495286
26	0x3f9b4d71	1.2133008
27	0x3e091602	0.13387302
28	0xbe743d0a	-0.2385141
29	0xbed2406f	-0.41064784
30	0xbd11d77e	-0.0356059
31	0xbf16627a	-0.58744013
32	0x3df37932	0.118883505
33	0xbf69ea7a	-0.9137341
34	0x3ed97715	0.42473665
35	0xbd4e0359	-0.05029616
36	0x3de94502	0.11390115
37	0x3eb79c3c	0.35861385
38	0x3de9261f	0.11384224
39	0xbccc51a2	-0.02494127
40	0xbeb8f92b	-0.361276
41	0xbe70a7c4	-0.23501498
42	0x3f18d738	0.597034
43	0xbeac69e9	-0.33674553
44	0x3eb1aec1	0.3470364
45	0x3f004bf5	0.501159
46	0xbe717ba6	-0.23582324
47	0xbe01e0dc	-0.12683433
48	0x3ed2b246	0.41151637
49	0x3e5d0553	0.21584062
50	0xbe817a23	-0.25288495
51	0xbf04ccad	-0.5187481
52	0x3e045560	0.12923193
53	0xbe1c16dd	-0.15243097
54	0xbecd7239	-0.40126207
55	0xbd8d230d	-0.06891451
56	0x3d27680a	0.040870704
57	0xb838b2b6	-4.4035456e-05
58	0xbda566be	-0.08076237
59	0xbf05f8e7	-0.5233292
60	0x3e76df65	0.24108656
61	0xbec992ec	-0.39369905
62	0xbebba1bc	-0.3664683
63	0x3ed71ddb	0.42014965
64	0xbec4c7e3	-0.3843375
65	0x3bb1d58f	0.0054270695
66	0xbeb520c2	-0.35376555
67	0x3e33f768	0.17574847
68	0xbea71875	-0.32635847
69	0x3e9f90bd	0.31165114
70	0x3d71bd5d	0.05901848
71	0xbeaad125	-0.3336269
72	0x3e90c56a	0.28275615
73	0x3da05a55	0.078297295
74	0x3e46c568	0.19411242
75	0x3f463e68	0.77438974
76	0x3e0dd7a0	0.13851786
77	0xbf1dcc64	-0.6164
78	0x3ecf1f00	0.4045334
79	0x3e4ce9df	0.2001109
80	0x3e19a512	0.15004376
81	0x3e6bc3b3	0.23023872
82	0xbf106c9c	-0.56415725
83	0xbdc70c4c	-0.09719142
84	0x3dfd0a5d	0.12355492
85	0xbf5e6e9a	-0.86887515
86	0xbf1db465	-0.61603385
87	0x3f1e79ef	0.61904806
88	0x3ec73f2a	0.38915378
89	0xbecdfb61	-0.4023085
90	0x3f0b5b18	0.54435873
91	0xbe60d655	-0.21956761
92	0x3df91244	0.12161687
93	0xbf225085	-0.63404113
94	0x3dce8387	0.100836806
95	0x3efabd4f	0.48972556
96	0xbf243ea8	-0.64158106
97	0x3d732305	0.05935957
98	0x3f1f19ef	0.62148947
99	0x3f0d27c1	0.55138785
100	0xbe5b4d46	-0.21416196
101	0xbde6ffab	-0.112792335
102	0xbd39b319	-0.045336816
103	0xbe0c2f7e	-0.13689992
104	0xbea43c37	-0.3207719
105	0xbedc452d	-0.43021527
106	0xbf087131	-0.53297716
107	0xbc427c83	-0.011870506
108	0x3d483d57	0.048886623
109	0x3ea5d0a5	0.32385746
110	0x3edef79d	0.4354829
111	0x3f093132	0.5359069
112	0x3ef2f327	0.47451136
113	0x3f3b399e	0.7313479
114	0xbf839c7a	-1.0282128
115	0xbefbf430	-0.49209738
116	0x3ee38775	0.44439283
117	0x3f390012	0.7226573
118	0xbe25f82b	-0.1620795
119	0xbe05504f	-0.13018917
120	0x3ea5b7ad	0.32366696
121	0xbf0c0fe7	-0.54711765
122	0xbeeda06b	-0.46411452
123	0xbf41c0bd	-0.7568472
124	0x3e11be1a	0.14232674
125	0xbec780f0	-0.3896556
126	0xbebf5e09	-0.3737643
127	0x3e797e12	0.24364498
128	0xbed0bee5	-0.4077064
129	0x3f9e4059	1.2363387
130	0xbdeae068	-0.11468583
131	0x3ead13fa	0.33804303
132	0x3ebe6168	0.3718369
133	0xbf779f51	-0.9672747
134	0x3f32e098	0.6987395
135	0x3b069076	0.0020532883
136	0x3ea1f357	0.31630966
137	0x3ee95324	0.45571244
138	0x3f70f88d	0.9412926
139	0xbe9cfed9	-0.30663183
140	0xbd87e6a5	-0.06635789
141	0x3e6179d3	0.22019129
142	0x3eb1b578	0.34708762
143	0xbefa93cb	-0.48940882
144	0xbdcb615f	-0.099306814
145	0x3f0280ae	0.509776
146	0xbf943c45	-1.1580893
147	0x3e0af3f8	0.13569629
148	0x3f2d9d0b	0.67817754
149	0x3e626a66	0.221109
150	0x3e250899	0.16116561
151	0x3f23dac7	0.640057
152	0xbd7533df	-0.05986392
153	0xbf3341b6	-0.7002214
154	0xbe8e8c4e	-0.2784142
155	0x3f0f3354	0.55937696
156	0x3e8d3c11	0.2758489
157	0xbe8966cf	-0.2683625
158	0xbe30ad36	-0.17253575
159	0xbe4968b3	-0.19668846
160	0x3f043630	0.51645184
161	0x3d9d7482	0.07688238
162	0x3f5a17f5	0.85192806
163	0xbdefecbe	-0.11715077
164	0xbe9aaba0	-0.30209064
165	0xb9c4dead	-0.0003754994
166	0xbdbcd514	-0.09220329
167	0xbe269ff8	-0.1627196
168	0xbed15164	-0.4088241
169	0x3e5649e1	0.2092662
170	0xbf88c3d3	-1.0684761
171	0xbeb49859	-0.35272482
172	0xbed5ce87	-0.4175913
173	0x3ee1f79a	0.44134218
174	0x3e92a4b2	0.28641278
175	0xbf3f45f8	-0.7471614
176	0xbe31d8e5	-0.17367895
177	0x3f625714	0.8841412
178	0x3e129793	0.14315633
179	0x3e1f0be1	0.15531875
180	0xbdaadc1c	-0.08342764
181	0x3d7eb0fa	0.062180497
182	0x3db9241a	0.09040089
183	0x3f2699f2	0.6507865
184	0x3ef41372	0.47671086
185	0xbf2f917e	-0.6858138
186	0x3e80a835	0.25128332
187	0x3e20af93	0.15691976
188	0x3eefb03d	0.46814147
189	0xbe14508d	-0.14483853
190	0xbf72c720	-0.9483509
191	0x3f88a889	1.0676433
192	0xbf793948	-0.9735303
193	0xbe9f985d	-0.3117093
194	0x40b05546	5.5104094
195	0xbe06d4ab	-0.13167064
196	0xbecc7512	-0.39933068
197	0xbd95e293	-0.07318606
198	0x3f09e489	0.5386434
199	0x3ee44384	0.4458276
200	0xc0346421	-2.8186114
201	0xbf1117f2	-0.5667716
202	0xbf7c81fe	-0.9863585
203	0xbf21e8bf	-0.6324577
204	0x4000d277	2.0128458
205	0x3f25c4aa	0.6475321
206	0xbf68a07f	-0.908699
207	0x3e82715c	0.2547711
208	0xbf66d199	-0.9016357
209	0x3f5b4923	0.8565847
210	0x3c5b95b6	0.013402393
211	0xbf036077	-0.5131907
212	0xbf1cb826	-0.6121849
213	0xbe3dcae3	-0.18534426
214	0x3f2f0d6c	0.68379855
215	0x3f164aa2	0.5870763
216	0x3ea63afd	0.3246688
217	0x3f1f932b	0.62333935
218	0x3e7164ed	0.23573656
219	0x3f1ac956	0.60463464
220	0xbf3b3770	-0.73131466
221	0x3fc1b671	1.5133802
222	0xbd2860ba	-0.04110787
223	0xbea396fb	-0.31951126
224	0x405b44cd	3.4260743
225	0x3e6a0495	0.2285331
226	0xbf273ed8	-0.65330267
227	0xbd23bb1a	-0.039973356
228	0x3f0073a1	0.50176436
229	0xbd32bd15	-0.043637354
230	0xbe1d0af9	-0.15336217
231	0xbee7580e	-0.45184368
232	0x3f5d411b	0.8642747
233	0xbf277cdf	-0.65424913
234	0xbe3c7c0b	-0.18406694
235	0x3f898e27	1.0746506
236	0x3ea065de	0.31327718
237	0xbec5e64c	-0.38652265
238	0x3ebc93bc	0.36831462
239	0x3fc57a22	1.5427897
240	0x3e1d8431	0.15382458
241	0xbf956476	-1.1671283
242	0x3ed656c5	0.41863075
243	0x3e7fe56c	0.24989861
244	0xc016d0da	-2.3564973
245	0xc00d47ba	-2.2075028
246	0xbf8aae0d	-1.0834366
247	0x3e8db5fe	0.27677912
248	0x3fac4185	1.3457495
249	0x3e89b54c	0.2689613
250	0xbe53632f	-0.20643304
251	0x3eba3e44	0.3637563
252	0x3e8ba07c	0.27270877
253	0x403d7aaf	2.960613
254	0x3ff3d563	1.9049495
255	0xbe572729	-0.21011032

layers.4.bias f4 [100]
0	0x3ec5be00	0.3862152
1	0x3eeffe1a	0.46873552
2	0xbf2c5178	-0.6731181
3	0x3e3bf5dc	0.18355507
4	0xbf12051c	-0.57039046
5	0xbde69f69	-0.11260874
6	0x3ebffd85	0.37498108
7	0x3eb61983	0.3556634
8	0xbe9fb285	-0.31190887
9	0xbd3c5ed2	-0.045988865
10	0x3eef025b	0.46681485
11	0x3e8a2bc9	0.2698653
12	0x3f4380d8	0.76368475
13	0xbf15655b	-0.5835778
14	0x3f089211	0.5334788
15	0xbdbf2502	-0.093332306
16	0x3f032318	0.51225424
17	0xbee6b48b	-0.45059618
18	0xbf0f6fc1	-0.560299
19	0x3e795569	0.24348988
20	0x3efdbe71	0.49559358
21	0x3e85a667	0.26103517
22	0xbe6288f8	-0.22122562
23	0x3eaf1162	0.3419295
24	0x3e44269e	0.19155356
25	0xbeb223d5	-0.34792963
26	0xbed09b26	-0.4074337
27	0xbe6595e3	-0.22420458
28	0xbea54c85	-0.32284942
29	0xbe95162e	-0.29118484
30	0xbe867fa6	-0.26269263
31	0xbd526795	-0.051368315
32	0xbe9a6c9f	-0.30160996
33	0x3e23042c	0.1591956
34	0xbe029503	-0.12752156
35	0xbdb057b7	-0.0861048
36	0x3f0c2acd	0.5475281
37	0xbe84d56e	-0.25944084
38	0xbe85c16f	-0.2612414
39	0xbe80d51c	-0.2516259
40	0x3eaa9e4b	0.33323893
41	0xbe3af808	-0.18258679
42	0x3ea012dc	0.3126439
43	0x3d8471a9	0.064669915
44	0x3e5e55b9	0.21712388
45	0x3e6ae4ca	0.22938839
46	0x3eba2fd6	0.3636462
47	0x3e871f29	0.2639096
48	0x3e31d701	0.17367174
49	0x3e3ebf08	0.1862756
50	0x3ea20306	0.31642932
51	0xbdcff18e	-0.10153495
52	0x3e75731a	0.23969689
53	0x3e87e394	0.26540816
54	0x3f0bc9a0	0.5460453
55	0x3e020fc0	0.1270132
56	0x3f02fbf6	0.5116571
57	0xbe49e010	-0.1971438
58	0x3ea87b8c	0.3290676
59	0x3f294f3a	0.66136515
60	0x3e8b5e31	0.272203
61	0x3e79a762	0.24380258
62	0x3c761124	0.015018735
63	0x3e6b5915	0.22983201
64	0xbea22188	-0.31666207
65	0x3e9bbecf	0.30419013
66	0xbe70ebba	-0.23527423
67	0xbe9bde83	-0.304432
68	0xbea10cb0	-0.31454992
69	0x3f2d2774	0.67638326
70	0xbea84d2c	-0.32871377
71	0xbf04e176	-0.51906526
72	0x3f02af30	0.51048565
73	0xbebe818f	-0.3720822
74	0xbe6147f0	-0.22000098
75	0x3ec0b605	0.3763887
76	0xbef74cc8	-0.48300767
77	0x3ec06583	0.37577447
78	0xbe833f42	-0.256342
79	0xbf16670b	-0.5875098
80	0xbe0098d6	-0.12558302
81	0x3e93d5f0	0.2887416
82	0xbef2f4e8	-0.47452474
83	0x3e5e3450	0.21699643
84	0x3f05bb24	0.5223868
85	0x3ea071fc	0.31336963
86	0x3eab92a3	0.33510312
87	0x3e9bee02	0.30455023
88	0xbe3f7cba	-0.18699923
89	0xbe8bc8f9	-0.27301767
90	0xbf39598b	-0.72402257
91	0x3f0935c7	0.5359768
92	0xbefdf846	-0.4960348
93	0xbf27f672	-0.6561042
94	0x3e9dddec	0.30833375
95	0xbe873e85	-0.26414886
96	0xbf21e0d5	-0.6323369
97	0xbdef92d2	-0.116979256
98	0x3e950673	0.29106483
99	0xbe4d9424	-0.20076042

layers.6.weight f4 [1, 100]
0	0xbe817401	-0.25283816
1	0xbedbe7c9	-0.42950276
2	0x3df894a6	0.121377274
3	0xbe1644cc	-0.14674681
4	0x3eeb8d5a	0.4600628
5	0x3f794b6d	0.97380716
6	0xbe7ff8fe	-0.24997327
7	0xbe258b47	-0.16166411
8	0x3eb4b0f9	0.3529127
9	0x3db79988	0.08964831
10	0xbeb066b2	-0.3445335
11	0xbe34a729	-0.17641892
12	0xbf500f80	-0.8127365
13	0x3e9f412b	0.31104407
14	0xbe52c0a6	-0.20581302
15	0xbf0da2b1	-0.5532637
16	0xbe53d55e	-0.20686862
17	0x3e497a31	0.19675519
18	0x3eb4ef07	0.35338613
19	0xbd182647	-0.03714588
20	0xbe6fb0eb	-0.23407333
21	0xbdea8cda	-0.114526466
22	0x3e7e30a9	0.2482325
23	0xbe619f75	-0.22033484
24	0xbdae5f18	-0.085142314
25	0x3e1ea7b2	0.15493658
26	0x3e1ab784	0.15109068
27	0x3e21adbb	0.15788929
28	0x3e213d8d	0.15746136
29	0x3e1da244	0.1539393
30	0x3dc74ad7	0.097310714
31	0xbe693ed4	-0.22777873
32	0x3ed8cf81	0.42345813
33	0x3ea143ee	0.3149714
34	0x3e489246	0.19587049
35	0xbeb8c5c8	-0.36088395
36	0xbe7c1be0	-0.24620008
37	0x3ebd4147	0.36963865
38	0x3dc84fc5	0.0978084
39	0x3e0b5f87	0.1361066
40	0xbe4754b6	-0.19465908
41	0x3e6a650f	0.22890113
42	0xbd9c349c	-0.07627222
43	0x3eb37b6f	0.3505511
44	0xbdede540	-0.116159916
45	0xbe4e08c1	-0.20120527
46	0xbe31bc2a	-0.17356935
47	0xbdcf4845	-0.10121206
48	0xbe82d1db	-0.25550732
49	0xbdcbf048	-0.099579394
50	0xbe4b1b88	-0.19834721
51	0x3dcf509b	0.10122796
52	0xbde8634d	-0.11347065
53	0xbdc7df58	-0.09759396
54	0xbf3e33a1	-0.7429753
55	0x3f2071db	0.6267373
56	0xbedb3369	-0.4281266
57	0x3e22e96f	0.1590936
58	0xbe7f5537	-0.2493485
59	0xbe559a45	-0.2085963
60	0xbdee4505	-0.11634258
61	0xbe39c94b	-0.18143193
62	0xbf1825ed	-0.5943287
63	0xbdef0467	-0.116707616
64	0x3e3e8a4a	0.1860744
65	0xbd4c78e8	-0.049919993
66	0x3e23629c	0.15955585
67	0x3e454b55	0.19267018
68	0x3e22d08e	0.1589987
69	0xbedce5d6	-0.431441
70	0x3ea9bc38	0.33151412
71	0x3ec10fc0	0.3770733
72	0xbe826861	-0.2547026
73	0x3e6fb43d	0.23408599
74	0x3d6abf3f	0.057311293
75	0xbe301175	-0.1719416
76	0x3eb09c35	0.34494177
77	0xbe4ccbe3	-0.19999652
78	0x3e7e98cf	0.2486298
79	0x3e216820	0.15762377
80	0x3e47036d	0.194349
81	0xbe2a0785	-0.16604431
82	0x3e69dd49	0.2283832
83	0xbe2d20c2	-0.16907027
84	0xbe8546a3	-0.26030454
85	0xbe41f089	-0.18939413
86	0xbd60d903	-0.05489446
87	0xbec29e2e	-0.38011307
88	0x3dbe5da3	0.092952035
89	0x3e2cf7fd	0.16891475
90	0x3f09fb2f	0.538989
91	0xbebe8a62	-0.37214953
92	0x3eca40b6	0.39502496
93	0x3e99ad92	0.30015236
94	0xbf39848a	-0.72467864
95	0x3dadb8af	0.08482491
96	0x3f0519a7	0.5199227
97	0xbecc85f9	-0.39945963
98	0xbe6850a9	-0.2268702
99	0x3d16a469	0.036777887
