hddm/torch_models/ebd46a9c15e411ecb4b43cecef057012_mic2_no_bias_torch_state_dict.pt (torch, 87439 bytes, 7 tensors)

layers.0.weight f4 [100, 8]
00000000: d914 7f3e e7c4 d73d 085a ecbd 61ac 8740
00000010: 287c 77be e932 e73e 7b7d 823e c7ba 7ebe
00000020: 93fb d53e cd8a e53a 8cd3 9abb 9865 a83e
00000030: 2b2d b83e c366 013e 804b 00be 4c8a 1abe
00000040: 4972 4f3d edd9 32bb ca4a 93bf 1aed eb3e
00000050: 49a7 043d 380b c0bb 7a6f ce3c 6d32 843d
00000060: 6697 01be 85cf 5d3c e3a3 0e3c 38ba 0d3e
00000070: 94ac b1be 5d7a 3bbe 6545 c63c fb71 aebe
00000080: 4f59 5a3e e889 af3c d8cf 13bf 4f20 0cbf
00000090: 86cc 203d 1fdd 1ebd 8e9a dd3c 1e3e 8fbf
000000a0: 4f31 a7be c4e2 2c3d 13d5 24bc d49d 8c3f
000000b0: 8dd6 813e 85eb 52bf 99a3 1e3f b5ee 5f3f
000000c0: c795 f6ba 8d8e babf dba5 d9ba 7932 d53b
000000d0: d9bb ddbb 2760 833b 31fa 85bc 7bc9 db3e
000000e0: 3efc 22bf 9f5c 1cbf 9951 313c 5ac2 f9bd
000000f0: 3bd1 79be 9d7f 28ba b5a1 1c3c 2f21 92bf
00000100: 00a5 8abd 69e9 d2bc cd96 e63d 64cd 113f
00000110: 271e d0bd eac3 9ebd 9eb8 483c 19c9 99bd
00000120: 552b 063e 3bfb 6ebb 13c6 173f d404 04bf
00000130: 428d 1cbe 3f55 aabc b1ab be3c 1e34 cb3e
00000140: b71c 94be ac6f dcbb ad8f 34bd d3ff 593f
00000150: e286 ff3e 1918 c83d ad68 29bd 0da1 41be
00000160: fd66 0ebe a60d 9ebc 17a0 8fbc 6a7f 303e
00000170: fe80 0cbc 510e a83f 334f a7bf 790f 8c3e
00000180: a118 7e3e abef 37bc ae35 083f 0771 85be
00000190: d86a ac3e 9292 fd3c da00 b7bc fd5c f0be
000001a0: fcb3 e9bc 856c b3bf 6b17 1e3b bbc6 853d
000001b0: 5fea 0ebd 7f62 32bc e8ce 563c d45a 32be
000001c0: 3c8d a7bf d3c5 fa3a 541c bb3f dc90 043e
000001d0: 922a 05bd 2c73 54bc 7b0c a0bb f1e4 07be
000001e0: b72c 203d 74be 3abb 392a 9cbd 55b9 ddbe
000001f0: 10e9 87bb 699e f3be bcf8 da3e 60a9 e1bd
00000200: 527c 81be 635a 9ebe 9439 56bc f4ca 493f
00000210: 50bf ce3d 9811 f5bd e276 0a3e 4196 163f
00000220: cebb 0ebe d284 3cbc 2a17 be3c 0b8b c9bf
00000230: a26c 393e 9339 44be cd4d 963d 003c 6f3d
00000240: 5d0d 0e3e 0a7d 893a da74 84bf 9b17 de3c
00000250: e671 2fbd 834d 38bd 9273 2b3d 8564 083f
00000260: ba20 1bbc b05b 20bb 1160 253c dcec 20bf
00000270: a3dc 2abc 45d1 20bd a38e da3b fc68 b7bc
00000280: 0bb1 d2bf aa0f 98bb 5625 0cbb 298c a7be
00000290: 0d3b 4ebd 288d 843c e841 d7bc 222e c83d
000002a0: 7dc5 c43e cbb5 8abb 0158 08bf f9de f4be
000002b0: f3e5 59be d30d d5bc 98f9 e43c b588 9bbe
000002c0: 72ec 3dbf 6a2d b2bb e7fd 963c cd88 9b3e
000002d0: 6802 cebe c729 9d3b b45d 87bb f4b7 5a3d
000002e0: 9247 e43e 0d36 20be 18ff f4bb 357e eebd
000002f0: d7ca 0d3c f73f e23b 07b0 1fbc 2fed ab3f
00000300: b7e1 82bc 8a12 3fbd 56b1 0e3a 123d 0cbf
00000310: ab4f 8cbe 86d2 fdbe e82f 153f c718 803e
00000320: edef 1ebe 165f 473b 8749 c2bd eedb 0bbf
00000330: 5f09 90bd a6da 2cbe b673 103f cfc0 2dbe
00000340: 0b85 a8be dce8 9ebd 9045 88bc c799 253f
00000350: 3f1e 0cbf 1f7c 8f3e cfc8 a8be 9579 a83e
00000360: 8279 d13e 360b c8be f6bc 443c a4f9 88be
00000370: 5cdd b73e bc68 06be 1c9c 103e b127 a3be
00000380: 0d72 7ebd 042a 233c 1d23 8c3d ea02 d5bd
00000390: b016 183d e4fc 24bf 9684 7a3f 8d09 d23b
000003a0: c516 89be bdb8 a6bc 048b fabe 6f2a 103e
000003b0: da28 ba3e ab26 c23c 4d61 d3bc e6bb 38bf
000003c0: 429d a0be 086c 1e3d 9e93 26bd 4278 813e
000003d0: 38b2 883f 8ecb 083e e000 c33c 41ad 17bd
000003e0: b64d d4bf f0c0 cc3f eccd adb9 8be2 0cbe
000003f0: 3d74 9cbe 00b1 37bb 66bc f0bb 4fc5 9e3e
0.24910296 0.10535603 -0.115406096 4.2397923 -0.24168456 0.4515603 0.2548636 -0.24875937
0.41793498 0.0017512679 -0.0047249254 0.3289001 0.3597196 0.12636857 -0.12528801 -0.15091819
0.0506461 -0.0027290538 -1.1507199 0.46079332 0.032386098 -0.0058607124 0.02519964 0.064549305
-0.1265541 0.013538246 0.008706066 0.13840568 -0.3470198 -0.18308397 0.024203012 -0.34071335
0.21323131 0.021428064 -0.5773902 -0.547368 0.03925755 -0.038785096 0.027051236 -1.1190832
-0.32654807 0.042208448 -0.0100605665 1.0985665 0.25359002 -0.82390624 0.6196838 0.87473613
-0.0018812948 -1.4574753 -0.0016605215 0.006506261 -0.006766778 0.004009265 -0.016354652 0.42927155
-0.6366614 -0.6107883 0.010822677 -0.12195273 -0.24396221 -0.0006427707 0.009560038 -1.1416377
-0.067697525 -0.025746064 0.11259232 0.56954026 -0.10162001 -0.077522114 0.012251047 -0.075090595
0.13102467 -0.0036465663 0.5928661 -0.5156987 -0.1528826 -0.020792602 0.023275228 0.396882
-0.28928158 -0.0067271795 -0.044082332 0.8515598 0.49907595 0.09770221 -0.041359592 -0.18909092
-0.13906474 -0.019293617 -0.017532391 0.17236105 -0.008575676 1.3129369 -1.3071045 0.27355555
0.24814083 -0.011226575 0.5320691 -0.26062796 0.33675265 0.03095368 -0.022339273 -0.46945944
-0.028528206 -1.4017493 0.0024122845 0.065320455 -0.034891482 -0.010887741 0.013110854 -0.1741746
-1.3089976 0.0019132443 1.461802 0.12945884 -0.0325113 -0.012966912 -0.0048843003 -0.13270928
0.039105143 -0.0028494867 -0.07625241 -0.4330546 -0.0041476563 -0.47581795 0.42767894 -0.11018634
-0.2529016 -0.30928335 -0.013075251 0.78825307 0.10095084 -0.11966246 0.13521913 0.5882302
-0.1393883 -0.011506276 0.023204405 -1.5745558 0.18107846 -0.19162588 0.07339058 0.05840683
0.13872285 0.0010489535 -1.034816 0.027110865 -0.04283323 -0.044995796 0.041858263 0.5327838
-0.009468252 -0.0024468713 0.010093705 -0.6286142 -0.01042858 -0.039262075 0.0066698357 -0.022388928
-1.6460279 -0.004640539 -0.0021384559 -0.3272412 -0.050349284 0.01618059 -0.026276544 0.09774424
0.38431922 -0.004233097 -0.53259283 -0.47826365 -0.21279125 -0.026007568 0.027951047 -0.30377737
-0.7418891 -0.0054375427 0.018431617 0.30377808 -0.4023621 0.00479624 -0.0041310433 0.053398088
0.44585854 -0.15645619 -0.0074766986 -0.11645166 0.008654318 0.006904598 -0.009746558 1.3431758
-0.01597677 -0.04664854 0.0005443295 -0.54780686 -0.27404532 -0.4957468 0.58276224 0.25018904
-0.15521212 0.0030421666 -0.094866805 -0.5463246 -0.070330374 -0.16880283 0.5642656 -0.16968082
-0.32914004 -0.07759258 -0.016634732 0.6468777 -0.5473365 0.28024384 -0.32965705 0.3290526
0.40913016 -0.39071053 0.012007942 -0.2675296 0.3591107 -0.1312589 0.14122051 -0.3186622
-0.062120486 0.009958748 0.06842635 -0.104009464 0.03713101 -0.6444838 0.9785856 0.00640983
-0.26775184 -0.020351762 -0.48934186 0.14078687 0.36359292 0.023700079 -0.025803233 -0.7216171
-0.31369978 0.038677245 -0.040668122 0.25287062 1.0679388 0.133589 0.023804128 -0.037030462
-1.6586215 1.599638 -0.00033150555 -0.13758294 -0.30557433 -0.0028029084 -0.0073466776 0.3100991

layers.0.bias f4 [100]
00000000: 9cdb 293f 5fc4 9e3e a0a8 47bf e7a5 513e
00000010: 899b 2d3f b939 8e3f f8ce 2bbf 396c 1dbd
00000020: a115 32be 34c0 86bd 3802 06bf 08d3 e8be
00000030: 752b 8f3e faa2 e83e 2296 6639 c37f b53d
00000040: e78e 40be 818e 9a3e 34a8 c0be 414b 4d3f
00000050: 21eb 503e b651 ed3e 5d9d a9be 16d8 14bf
00000060: 641d 213c 4f92 293f ba3b f8be 7197 d73e
00000070: 5c22 8c3c 36ce 753e 7175 d53f 1e93 523f
00000080: a1c0 8dbf eb02 b2bf 748a 143f 6fc1 ffbd
00000090: 52f9 a63e c6b1 7a3e 6591 86bf f433 6dbe
000000a0: ea50 8fbd 7684 fe3d 5204 c1be 2d16 933e
000000b0: f4b8 bb3e 6428 f13e aecc 853e b9e8 c9be
000000c0: 7a13 5a3f 873d 3abf dbcf 713e 5790 593e
000000d0: 2d5c 0dbf 3b21 74be 61f4 bebe 8afb 1cbf
000000e0: 1e01 85be e9f2 dabe d648 913f b752 86bf
000000f0: 29bf 0a3f 318a a13e 9ea2 6cbf 7d66 91be
00000100: 3778 4f3f 27ef a13f fef0 843c 013f 813e
00000110: db7f 13bc b01d 99bf 9513 41bf 2b2a 22be
00000120: 73ca 933e f594 323e 7ab8 a6bd 05cf 113f
00000130: 80be 13c0 895c e0bd 2855 39be ab88 983f
00000140: a87c 4abf 0229 39bf e39d c0be 2f19 59bf
00000150: 8d40 3cbf 648a 203e 4ed9 073f 2b81 19bf
00000160: 8932 ce3d 1879 d0be 6f32 de3f d870 b83e
00000170: 2729 e0be fb8f 4e3f 29d4 e03d 340a db3e
00000180: be5f d93e fd0a f1be d973 44bf 6a50 9f3e
0.6635072 0.31009194 -0.77991676 0.20473443 0.6781545 1.1111366 -0.67112684 -0.038433287
-0.17391063 -0.065796286 -0.52347136 -0.45473504 0.27962843 0.4543684 0.00021990438 0.08862259
-0.18804513 0.30186847 -0.3762833 0.80192953 0.20402195 0.46351403 -0.3312787 -0.5814222
0.009833667 0.66238874 -0.48483068 0.42107728 0.017106228 0.24004444 1.6676465 0.82255733
-1.1074411 -1.390714 0.5802376 -0.124880664 0.3261209 0.24481878 -1.0513121 -0.2316435
-0.06997855 0.12427609 -0.3769861 0.28727856 0.36664546 0.47101128 0.2613272 -0.39435366
0.8518597 -0.72750133 0.23614447 0.21246468 -0.55218774 -0.23840801 -0.3729582 -0.6132132
-0.25977415 -0.4276345 1.1350353 -1.0493993 0.5419794 0.31550744 -0.92435634 -0.28398505
0.8104281 1.2651109 0.016228195 0.2524338 -0.009002651 -1.1962185 -0.75420505 -0.15836398
0.28865394 0.17439635 -0.08140655 0.5695651 -2.3085022 -0.1095515 -0.18098891 1.1916708
-0.7909646 -0.723282 -0.37620458 -0.8480405 -0.73535997 0.15677792 0.53065956 -0.5996272
0.100682326 -0.40717387 1.7359141 0.36023593 -0.43781397 0.80688447 0.10977966 0.42781222
0.42455858 -0.47078696 -0.7673927 0.3111604

layers.2.weight f4 [100, 100]
00000000: c6c3 d6bc 7de7 4a3e 5012 483e 0cec 5e3d
00000010: e2a4 fe3c 10ea 10be 1d9b 28bf 9720 2f3c
00000020: ce34 8b3d f83c 933e a249 2cbe 2846 96bd
00000030: 92ee 9bbd 1298 333f 1950 f73d c21a 65be
00000040: 4d0b 293e 9273 ce3d 4840 28bd 24fe 493f
00000050: f29f 37bf da73 303c 5b96 30bf 2390 48be
00000060: d920 8abd 2fd5 b6bd b8d0 cdbd c190 853c
00000070: 908a d73d 425f 34bd d7ce 19bd d770 81bd
00000080: 8c06 f3bd 985c 763e 3981 cf3d 02eb 2b3e
00000090: a379 6fbf 25f9 adbc 07ed 03be 141e 41bd
000000a0: e043 243e 0050 833d 3754 24be 8d3f 91bc
000000b0: 969a 08bd 5100 aa3d 3b08 be3c cfc4 553e
000000c0: 28de 093d d2c4 e3bc a344 583d 4d67 81bb
000000d0: b899 e6bd f121 e03b 8c13 57be ddd9 84be
000000e0: e65a 30be d0af a7be edef 213e d5cc 4ebe
000000f0: 671f 793d 05bb 7ebd 6a44 9c3c 9486 f1bd
00000100: 5d12 7dbe 66a2 b13e 94cd b33d 0014 533d
00000110: aef2 cc3c 4052 12bf 4750 0cbc 15a1 ae3d
00000120: 9738 06be da55 013f f9b4 cbbe 091a a03e
00000130: 336c eebc b99d 6cbd be6c 21be 2e26 85bc
00000140: 283b 5e3e fc25 fa3b e03b c6bd e938 84be
00000150: c115 1ebf 8efe 3f3e 14c0 ac3d b88d 0abe
00000160: 481a 8a3d 36a4 80be 6488 66bc 9a22 853e
00000170: 0875 82be 3bdf f9bd 9904 e33d 1e19 923e
00000180: f94f c23c 1658 5b3d ca85 85bd 4e35 853d
00000190: bd58 383e 9ffe 843d 4650 68be 7cd0 393e
000001a0: 49a4 113e 125c 213e 106f 48bf ec4a 133f
000001b0: bc8a 103e ab63 5dbd 6216 4fbe 0b28 f53d
000001c0: 2881 58be 769a 473f 67eb 803d 8b0b 723e
000001d0: 9d16 b33d 4a52 243e a14f a0bb f279 4ebe
000001e0: 7392 053f 8e71 a2be 8bc6 aa3e fedd 3fbf
000001f0: 2d7f c5bd c574 0cbd 6321 51bd db77 06be
00000200: 41ad b7bd 53b8 46be 6c49 983e e066 3d3d
00000210: 577e e23e 8ef0 743e 6004 cdbd 01ab fcbd
00000220: 3a09 213f 3cee 9bbd cb31 c03d 766e 2abd
00000230: 1622 dabe d004 173e 91ca 70be a3aa 993c
00000240: e582 07be 65af 3cbd ba51 da3e 6fe4 80be
00000250: 0906 c3bd a1ef a3be b6d8 dabc 6dfa 863d
00000260: 79fd e5bc 491e d0be 35c3 a6bd dd03 e0be
00000270: c7c3 c03d d550 813d 3102 5fbf 2a0e b03c
00000280: 238c 663e debd a0bd 4479 613e d169 0ebe
00000290: 535d 0ebe 3fdb 783f 2f0d 08be 41a5 9a3c
000002a0: a384 a5bd cec9 69bf 21e6 273d ff42 8fbe
000002b0: dabd e03d 74ca 6abe 00a3 a53d 959e 1a3d
000002c0: 51c7 53be 74a1 a3be 9f59 1bbd bf53 d73d
000002d0: c803 e8bd 6cc1 aabd a613 2bbd dc87 933e
000002e0: aaa6 edbc 0e93 1e3d bdf6 893e aa7c 85be
000002f0: 18e1 0a3d 6000 1f3e 1ac0 45bf 1e83 84be
00000300: 7e98 09bc c049 2bbf 82ca 51bd bc54 e3bb
00000310: 273b 043e ce83 39be 85de 373e 9751 8e3e
00000320: 42dd 69be 24e0 34bf 2f14 e8be 52e4 473e
00000330: 5e47 9b3e 5f49 7bbe e5eb 9abe 1855 38be
00000340: c872 7bbd a968 d93e bf0f c83e 5b37 33bd
00000350: 11c1 a6bd f32e 003e 6e1f 7dbd 58fa 3c3d
00000360: 592f efbd e937 6b3e 2ed0 28bf 11a9 dabf
00000370: 8c92 9cbf 8c62 e23d 8d0f debe 369c 09be
00000380: 542b 67bd 4d64 3c3d 96d2 703e 0e88 46bd
00000390: 2dd0 f8be 2add 393e c126 b7be 63d3 dfbd
000003a0: 1e56 283e 5830 003e f744 f1bd 9327 a6be
000003b0: 76f6 22bf 0b9c e4be dc37 f23e 6041 6bbe
000003c0: 639c b839 3351 08bf c834 763e 55a9 e2be
000003d0: 9011 10be 428b c33e 4135 dd3d 11b8 a5bd
000003e0: 0185 353e 0526 86be 722a 013f 77e4 e7be
000003f0: 6f7e d73d 40ac 6b3e 3a6b 383e 188a f83d
-0.026216399 0.19814868 0.19538236 0.05442433 0.031084482 -0.14151788 -0.65861684 0.010688922
0.06797181 0.28757453 -0.16824964 -0.073376 -0.07613863 0.70153916 0.12075824 -0.22373489
0.16508217 0.10080637 -0.04107693 0.7890341 -0.7172843 0.010769809 -0.68979424 -0.19586234
-0.067445464 -0.0892738 -0.100495756 0.016304376 0.105244756 -0.044036157 -0.037550773 -0.063203506
-0.11866483 0.24058759 0.10132069 0.16788867 -0.9354498 -0.021236965 -0.12883388 -0.047147825
0.16041517 0.06411743 -0.1604775 -0.017730499 -0.03335055 0.083008416 0.023197284 0.20875858
0.03365913 -0.027803812 0.052799832 -0.003949082 -0.11259788 0.0068399836 -0.2100355 -0.25947466
-0.17222175 -0.32751322 0.1581418 -0.20195325 0.060820963 -0.062190074 0.019075591 -0.11793247
-0.24714036 0.34694213 0.08779445 0.051532745 0.025018062 -0.57156754 -0.0085640615 0.08526818
-0.13107525 0.50521624 -0.3978651 0.31269863 -0.029104328 -0.057767604 -0.15764138 -0.016253557
0.21702254 0.0076339226 -0.09679389 -0.2582467 -0.61751944 0.18749449 0.084350735 -0.13530624
0.06743294 -0.25125283 -0.014070604 0.2600296 -0.25479913 -0.12200781 0.11084861 0.28534788
0.023719775 0.053550802 -0.06519659 0.06504308 0.18002601 0.064938776 -0.22686872 0.18145937
0.14222826 0.15757778 -0.7829447 0.57536197 0.14115423 -0.05405013 -0.20223382 0.11970528
-0.21143019 0.77970064 0.062948994 0.23637216 0.087445475 0.16047016 -0.004892305 -0.20163706
0.5217659 -0.3172726 0.333546 -0.7494811 -0.096433975 -0.034291048 -0.05105723 -0.13131659
-0.089685924 -0.19406252 0.29743516 0.046240687 0.44237015 0.2391989 -0.100106 -0.12337304
0.62904704 -0.07613799 0.09384497 -0.04160925 -0.4260413 0.1474793 -0.23514773 0.018758124
-0.13233526 -0.046065707 0.42640477 -0.2517428 -0.095226355 -0.3201876 -0.026714664 0.06590734
-0.028074967 -0.40648106 -0.081427015 -0.43752947 0.094123416 0.063142456 -0.8711272 0.021491129
0.22514395 -0.07848714 0.22018915 -0.13907553 -0.13902788 0.97209543 -0.13286279 0.018877627
-0.08081939 -0.91323555 0.040990952 -0.279808 0.10973711 -0.22928792 0.080877304 0.03774889
-0.20681502 -0.31959116 -0.037927266 0.1051402 -0.11328846 -0.083376735 -0.041766785 0.2881459
-0.029010136 0.03871446 0.2694606 -0.26071674 0.033906072 0.15527487 -0.7724625 -0.25881284
-0.008398173 -0.6690941 -0.051218517 -0.0069375914 0.1291319 -0.18116686 0.17955978 0.27796623
-0.2283831 -0.7065451 -0.453279 0.19520691 0.30327886 -0.24539708 -0.30258098 -0.1800121
-0.06138876 0.42462662 0.39074513 -0.043753963 -0.08142293 0.1251791 -0.06179755 0.046137184
-0.11678953 0.22970547 -0.65942657 -1.7082845 -1.2232223 0.110539526 -0.4337124 -0.13438496
-0.056437805 0.04599409 0.23517832 -0.048469596 -0.48596326 0.18150774 -0.35771754 -0.10928991
0.16439101 0.12518442 -0.11780732 -0.32452068 -0.6365732 -0.446503 0.47308242 -0.22974157
0.00035211732 -0.532489 0.24043572 -0.44269815 -0.140692 0.38192183 0.10801173 -0.080917485
0.17726518 -0.26200882 0.5045539 -0.45291492 0.10522162 0.23014927 0.18009654 0.12135714

layers.2.bias f4 [100]
00000000: fd4e a7bc c124 c03e 5a42 8cbe 1359 d2bd
00000010: 869f 0cbf 4671 3dbe f548 d13e bbd9 52be
00000020: 7458 28bd 885c c7bb 59aa 2ebe ded2 d93e
00000030: fd24 35bd b9dc 8ebe c1e3 58be fa95 e83d
00000040: 0470 5dbe 82a0 24be 90f1 12bf 8870 243f
00000050: 27ca a63c 3be7 1d3e 3737 ebbe f80b fc3e
00000060: a938 c0be 312b 453e 115c 44bf 4a68 153e
00000070: 5f60 0abf 37e9 17bf 80c9 42bf a1f9 f13d
00000080: ba14 80be f8a2 863e 3a1c 91be 5256 263c
00000090: 687b 5cbd bab7 3138 eee5 0f3e 8346 05be
000000a0: 55c2 a3bd 9cab 623e ddca 44be 9c2f efbe
000000b0: 5cfd 01bf 2cf2 59bd 8b53 74be 0eaa cabb
000000c0: 129d d83e cc89 c1be 928b 9e3e cd46 fbbd
000000d0: de62 bc3d 2aa6 473f 96e9 a1be e965 0a3e
000000e0: 4589 ce3b 6cbb 14be 8e27 ce3e 4123 0f3e
000000f0: 84f7 8e3e 69ae 97bd 6150 7a3e dc72 a33c
00000100: bcde c4bd 880a 32bf 951d 13be 3bea b9be
00000110: 98ac 883e 7d03 f2be 03a5 113f 9805 3a3d
00000120: 5b80 25bf 7d30 44bd 165a 3d3e 1d5a fd3e
00000130: c5ba 0e3d 87c6 af3e f06a 98be c731 753e
00000140: bf58 12bf d116 2b3e 8f90 7ebf 6bd4 663e
00000150: 1afe bdbe 9bbe 0fbf c34e b0bc 19a9 093f
00000160: a4a1 9e3d 2b4c f9be ef88 d83e 4aa5 0bbf
00000170: 5f04 b23e 7df4 633f b558 523e 2072 543e
00000180: 1a3d 7a3e 603f 40be 71d0 e53e 79fb 3d3d
-0.020423407 0.3752804 -0.27394372 -0.10270896 -0.54930913 -0.18500242 0.40875974 -0.2059087
-0.04109998 -0.0060840286 -0.1705717 0.4254369 -0.044224728 -0.27902773 -0.21180631 0.11356731
-0.21624762 -0.16076854 -0.57399845 0.6423421 0.020360066 0.15420239 -0.45940563 0.4922788
-0.37543228 0.19254757 -0.7670298 0.14590564 -0.540533 -0.5934023 -0.76088715 0.11815191
-0.25015813 0.2629621 -0.28341848 0.010152416 -0.053828627 4.2371197e-05 0.14052555 -0.1301518
-0.0799605 0.22135776 -0.19218011 -0.4671601 -0.5077722 -0.05320947 -0.23859994 -0.006184823
0.42307335 -0.37800443 0.3096586 -0.122693636 0.09198545 0.7798792 -0.31623524 0.13515438
0.006302985 -0.14524621 0.40264553 0.13978292 0.27923214 -0.07406313 0.24444725 0.01995223
-0.09612796 -0.6954732 -0.14366753 -0.36311516 0.2669418 -0.47268286 0.5689241 0.04541549
-0.6464898 -0.047897805 0.18491396 0.49482813 0.034846086 0.34331152 -0.29769087 0.2394477
-0.57166666 0.16707923 -0.9943933 0.22541969 -0.37107927 -0.56150216 -0.021521932 0.5377365
0.07745674 -0.48690924 0.42291972 -0.54549086 0.3476896 0.89044935 0.20541652 0.2074666
0.24437371 -0.18774176 0.4488559 0.0463824

layers.4.weight f4 [100, 100]
00000000: 043b 1bbf f944 6e3e 71d2 6bbd 34b4 50be
00000010: 9a2d e5bd ad44 c2be a5a4 293e 84de 433f
00000020: 9be0 773e 17b3 18bf 6ba6 b7be 6c26 7e3e
00000030: fd24 973d 5217 e63d 6584 373e 9b29 0e3c
00000040: 0c00 1a3e 16c7 6d3e de22 6dbe f20d 1a3d
00000050: d8fb 2bbe 531a 953d 3dac fc3e 6f0b 383e
00000060: e0e2 0ebd 4a25 493f ea52 38be 222a b33e
00000070: 73f9 5dbe 559d 8fbd f114 54bd 3685 7abe
00000080: 2e57 d93d 8917 56be c387 193f b77c 5b3e
00000090: 0bee 18be 9c8b 843d 50e2 373f 6696 2f3e
000000a0: bf97 c4be f716 f23e 8f8f 92be 2a40 bbbd
000000b0: ba9f 2dbe 9fe7 d23e 71f7 d23d 88a1 b5bc
000000c0: 31f5 8f3e 6c1a aebe 2f96 093f 158e 1b3e
000000d0: 9565 1c3d b825 d03d eb3f ecbd 04ba 8ebc
000000e0: 058a 143e 8889 5dbe 8d3e 753e 2eca 643c
000000f0: deef 843e c986 85be a480 4b3e 3cce b63d
00000100: f65e 55be 710a b6be df53 dfbe e089 debd
00000110: 2329 c2be 230e 8bbe 4928 443e b04b 4cbe
00000120: 2f7a 9cbd b187 a33e b404 e13c a630 0cbf
00000130: 4e3a 94be 211a 0e3d 1680 7abe d27f 853d
00000140: 52f8 31be 445d ac3b b8d8 8bbd 1384 d13e
00000150: 9f1d f73e 8841 4e3f 1650 b63e 0d4d 043d
00000160: 3857 70be 9b3e 57be 0227 1f3e 597f 06be
00000170: 91a9 cbbe 5ed6 8d3d 1240 55be 4dbd b5be
00000180: 79c5 883d 044e 3dbe d6e1 5cbf 692b 2c3d
00000190: dc38 3ebe c0f5 b0be 3840 223e 6cbf 5abe
000001a0: 3c97 ae3d 47dc 3ebd 5dbf 6cbd dff1 debe
000001b0: c2de 17bf b1b2 933e d5ba 8d3d 73fe 74be
000001c0: 693e c1bd 4a46 96be 4b9b a9be 74cb 7d3d
000001d0: d089 0c3e 946a 81be ed4c 093e 6380 1bbe
000001e0: d326 053e 7e07 0c3e 8083 83be fc51 14be
000001f0: f4a1 6a3e 1a4b 80be 521d d53d 3f5e afbd
00000200: a22e 5a3e fdde a23d 124c 2b3e faba c83e
00000210: b6a0 47be 84f3 0c3f 1d08 debe 6a38 6c3e
00000220: d137 f5bb 44a5 86be f7c3 a43e 28a6 0ebe
00000230: e839 413f 5fd5 0ebf e0d3 cd3e 857d e43d
00000240: ca90 003e 75e7 4fbe ef7b 6cbe 6fc6 b63d
00000250: 721c 24be 77e1 013e f773 05bd 9296 8dbe
00000260: 7e65 4cbe f5f3 94bd adc9 a0be 6d84 8abd
00000270: 3e28 db3e 87a0 4a3e 16ec a2bc c6ad 96be
00000280: 9ca2 9d3c f5cd 0c3f d7c1 24be 1249 f7be
00000290: 2f52 23be 7800 1b3e 0283 20be 2292 32bd
000002a0: f471 9f3e 347f a93d ac86 3bbe 47f6 473e
000002b0: de86 103e 6bfd 2e3e 0f7e 523e 769e 4c3e
000002c0: 8e9d 553e 0bac 58be f18d bc3e 2302 f2bd
000002d0: 3c25 43be ece9 e93e 38e6 213e 8921 1abe
000002e0: 7a48 2c3e a0b3 80be 97ab 403e 1ba7 32bb
000002f0: 8f6f 813e 280f 173e 47dc 47be 4ea3 3a3e
00000300: 3630 2ebd eedd d1bd 347a b03e 80b7 cabd
00000310: 4751 1d3e 2d3a 843e 7c27 773e 30e2 ebbe
00000320: 7a53 b03c 3e30 913d 34de f43d f8e2 b73d
00000330: 0e91 b43d e4b2 803d 74f5 05be ae03 33bf
00000340: abb4 08bf 5e3e b43e 53a3 bfbd 9565 5fbe
00000350: 6fff 4dbe 3aa9 4ebe 20d3 7fbd d431 8ebd
00000360: 17b5 82be 138d 1fbe ea28 3fbd 9379 54be
00000370: 9acc 143e ce41 803e be5f eabe e031 21be
00000380: d47b bc3d 2e69 31bf 589e d43d 8ff4 c7bb
00000390: 8f28 663e eb59 7b3e b799 7c3e 92d1 f53c
000003a0: ee8f 25be 7324 383f 78f9 d9be 9aec e8bd
000003b0: 45b3 31bc dbe8 86be 704c c3be 5faf 5bbe
000003c0: 0a22 0e3f 44f4 c4be 7dcc 9a3d e2e2 b13d
000003d0: d650 183c a415 00bf a018 28be 6e1b 8b36
000003e0: 9676 2fbd be49 f13d 0f2f 193e 0202 28be
000003f0: accd 8ebc 3e18 2dbe 0acf dcbb afe5 9ebd
-0.60636926 0.23268498 -0.05757374 -0.20381242 -0.111903384 -0.3794302 0.16566713 0.76511407
0.24206774 -0.5964827 -0.35869154 0.24819344 0.07380102 0.11234917 0.17921598 0.008676912
0.1503908 0.23220477 -0.23157832 0.037610956 -0.1679529 0.072804116 0.49350157 0.17973112
-0.034884334 0.78572524 -0.18000379 0.34993082 -0.21677189 -0.070124306 -0.051777784 -0.24464878
0.10612331 -0.20907415 0.5997278 0.21434294 -0.14934556 0.06471941 0.718297 0.17147216
-0.38397023 0.47283146 -0.28625152 -0.09143098 -0.16955462 0.41192338 0.10301102 -0.02217175
0.28116754 -0.34004533 0.53744787 0.15190919 0.038182814 0.10163444 -0.11535629 -0.017422684
0.14505775 -0.21634495 0.23949642 0.013964219 0.25964254 -0.26079395 0.19873291 0.08926055
-0.20837006 -0.3555484 -0.43618676 -0.10866141 -0.3792201 -0.27159223 0.19155993 -0.19950747
-0.07640492 0.31939462 0.027468063 -0.5476173 -0.28950733 0.034692887 -0.24462923 0.065185204
-0.17379883 0.0052601416 -0.06828445 0.40921077 0.48264787 0.8056874 0.35607976 0.032300044
-0.23470771 -0.21019976 0.15542224 -0.13134517 -0.39777806 0.06925653 -0.20825222 -0.35495988
0.0667829 -0.18486792 -0.862821 0.042033587 -0.18576378 -0.34562492 0.1584481 -0.21362084
0.085249394 -0.04659679 -0.057799686 -0.43543908 -0.59324276 0.28847268 0.06920401 -0.2392519
-0.09435732 -0.293505 -0.33126292 0.061961606 0.13724446 -0.25276625 0.13408251 -0.15185694
0.13003092 0.13674733 -0.25686264 -0.144844 0.22913343 -0.25057298 0.10405983 -0.08562898
0.21306852 0.07952688 0.16728237 0.39205152 -0.194949 0.55059075 -0.43365565 0.23068395
-0.0074834605 -0.26297963 0.3218076 -0.13930571 0.7547898 -0.5579433 0.4020071 0.111567535
0.12555233 -0.20303138 -0.23094152 0.08924567 -0.16026476 0.12683664 -0.032581296 -0.2765394
-0.19960591 -0.072730936 -0.31403866 -0.067635395 0.4280414 0.19787799 -0.019887965 -0.29429454
0.019242577 0.55001765 -0.16089569 -0.48297936 -0.1594932 0.15136898 -0.15674976 -0.043596394
0.31141627 0.08276215 -0.18313092 0.19527541 0.14113948 0.17088859 0.205559 0.19982323
0.20860884 -0.21159379 0.36827043 -0.11816814 -0.19057173 0.4568628 0.15810478 -0.15051855
0.16824523 -0.25137043 0.18815456 -0.0027260247 0.25280425 0.14751875 -0.19517623 0.18226358
-0.042526446 -0.10247408 0.34468234 -0.09898281 0.15363036 0.25825635 0.24136156 -0.46071005
0.02152418 0.070892796 0.119564444 0.08978838 0.088167295 0.06284121 -0.13081914 -0.6992749
-0.5340068 0.35203832 -0.093573235 -0.21816094 -0.20116971 -0.20181742 -0.062457204 -0.06943098
-0.25528786 -0.1558116 -0.046669878 -0.20749502 0.14531174 0.25050205 -0.4577617 -0.15741682
0.09203306 -0.69301116 0.10381764 -0.0061021517 0.2247641 0.2454602 0.24668013 0.030007157
-0.16168186 0.7193062 -0.42573142 -0.11373253 -0.010845964 -0.2634953 -0.38144255 -0.21453618
0.5552069 -0.3846761 0.07558534 0.086858526 0.009296617 -0.5003302 -0.16415644 4.145716e-06
-0.0428377 0.11781643 0.14959358 -0.16407016 -0.017432056 -0.16903779 -0.006738548 -0.077586524

layers.4.bias f4 [100]
00000000: b5c7 753d fae5 21be 7252 ffbd c24b 6f3e
00000010: 1a9a 80be bffb 8f3e 0397 923e 3b2e 8cbe
00000020: 4159 c13e 8155 42be 3e76 2ebd 4778 923e
00000030: bf61 6b3e 1a18 cd3d 3109 a7bd fe46 9a3e
00000040: 57e5 5d3e dd08 f73d 0dfd 70be fee9 ae3d
00000050: a11c 883e 3dfd 8a3e 74b7 c0bd 6cb3 193e
00000060: 7dff 123e 91ee e4be 6d42 3d3e 1e0c b4bd
00000070: 5c29 f2be 2295 873e 3dba 6a3e ac05 8cbd
00000080: 6789 99be ee0b 783e 3e33 04be fb7b c73e
00000090: 4429 ae3e cb4c d6bd a6bb 673e adb5 7fbd
000000a0: 5f0c aabe f25d 833e a4e0 5a3e 82b5 ba3d
000000b0: e67a 4f3e 421e 503e 92df 2b3e 2f70 6dbe
000000c0: 32e2 c3bd 2985 80be 32de 82be 3ac5 1cbe
000000d0: 03ab 8d3e 0c73 ffbd c7df 07be f137 4bbe
000000e0: 97a5 5c3e 5b06 84be 8af0 813e a909 4f3e
000000f0: de86 7fbe 4cd9 473e 9fb4 9c3e 6ab0 c33e
00000100: 987e 2cbf b98d 423e a636 1b3e f59d 4c3e
00000110: ce7f 383e 6d37 4b3d d920 c43e e1b5 5e3e
00000120: 124f 3f3d 5b7d 56be 7a57 423e 2145 20be
00000130: c0d0 56be f976 87be b72b bc3d fa2e a2bd
00000140: 2c29 8bbe 549c 19be 9b74 6fbe 76e5 3fbe
00000150: 7ae8 5f3e 7b04 84be 54c3 a6be 6733 a83e
00000160: a198 c03e 51f0 943e bdd2 11be d427 493e
00000170: 644a 13be a9ba 993e efc0 20be 7fcf dfbd
00000180: 78f8 953e e755 fdbe 1770 febd f882 c43d
0.06000491 -0.15810385 -0.12466897 0.23368743 -0.2511757 0.28121755 0.28630838 -0.2737902
0.37763408 -0.1897793 -0.042593233 0.2860739 0.22986506 0.10014363 -0.0815605 0.30132288
0.21669517 0.120622374 -0.23534031 0.08540724 0.26584342 0.2714633 -0.09409991 0.1500985
0.14355274 -0.44713262 0.1848237 -0.08791374 -0.4729718 0.26480967 0.22922607 -0.06837019
-0.29987642 0.24223301 -0.12910172 0.38961777 0.34015858 -0.10463866 0.22630176 -0.06242912
-0.33212563 0.25657612 0.21374756 0.09116651 0.20261726 0.20324042 0.16784504 -0.23187326
-0.09564628 -0.25101593 -0.25560147 -0.15309611 0.27669534 -0.12473115 -0.13268958 -0.19845559
0.21547543 -0.257861 0.2537883 0.20218529 -0.24953791 0.19516486 0.30606553 0.3822053
-0.67380667 0.18999375 0.15157565 0.19982131 0.18017504 0.049613405 0.3830631 0.21749069
0.046706267 -0.20946257 0.18978682 -0.1565137 -0.2097807 -0.26457956 0.091880254 -0.07919116
-0.2717985 -0.1500104 -0.23384325 -0.18739876 0.21866027 -0.25784668 -0.325709 0.32851717
0.37616447 0.29089597 -0.14240547 0.196441 -0.14383847 0.30025223 -0.15698598 -0.109282486
0.2929113 -0.494796 -0.12423723 0.09595293

layers.6.weight f4 [1, 100]
00000000: 87cd a3be a19b ed3d a2b4 853e 6f2b 34be
00000010: e78a 043e 59ae dfbd 5d81 26be 23b7 073e
00000020: d7a2 40bf 902b cd3d 2a92 003f 49c8 73be
00000030: a9f1 3abe f2a6 8fbe 9ff2 c63d 1406 edbd
00000040: 8e6a 06be ec32 24be 4942 713d 44c7 4cbe
00000050: 6c78 64bd 9edb 46be 9ad8 293e 4824 713e
00000060: a66d 5dbd d5e6 2b3f 7578 77be 2830 013e
00000070: 8e70 073f 0805 a7be 8c1a 46be b0c8 bb3e
00000080: 0ea8 473e 5800 ecbd 0e21 79ba 404d 03bf
00000090: 5140 29be 5a13 273e 1f0d 8bbe e9cf 223e
000000a0: da43 9d3e 1053 29be 6050 3ebe 0757 d0bd
000000b0: b6c9 97be ca76 55be 3efa 08be 4acb 043e
000000c0: 5c7f 313f 4dfe 983d 2986 3e3e aaad 443f
000000d0: 03fc ecbd 0e3c 833e c8b2 fd3d 185a 9e3e
000000e0: a7c3 61be 32da 203e 5d92 cbbd 4b98 29be
000000f0: 1c2d 1e3e 61c9 1dbe 97a4 b5bd c50b 7bbe
00000100: 87a6 1c3f f221 c6bd 2c37 c1bd 73de e9be
00000110: 04bc 30be a27d a9be cf46 3bbf bc36 49bf
00000120: e90e 49be d9c0 0a3e 68cf 0abe 42b6 ff3d
00000130: 6a19 c63d 1e5c e93d 6645 c9bd 4a82 983d
00000140: 494f 223e 0c4e 303c 6e13 433e 23bc 293e
00000150: 9f71 32be a80b 463d 8faa 8c3e a398 c0bd
00000160: ab39 72be 9a55 aebe f0d0 ee3d 86e5 6abe
00000170: 73b0 aa3d 9990 febd 0d1c a43d afd8 ed3d
00000180: 932c 85be b1ca 363f 963b abb9 5222 d6bd
-0.31992742 0.116019495 0.26114374 -0.17594694 0.12943612 -0.10921926 -0.16260286 0.13253455
-0.75248474 0.100180745 0.5022303 -0.23806871 -0.18256249 -0.28057057 0.09714245 -0.11573425
-0.13126585 -0.1603505 0.058901105 -0.19997889 -0.055778906 -0.19419715 0.16586533 0.23548996
-0.054059647 0.67149097 -0.24167044 0.12616026 0.5290612 -0.32621026 -0.19346064 0.3667655
0.19497702 -0.11523503 -0.0009503522 -0.5128975 -0.16528441 0.16315976 -0.27158448 0.15899624
0.3071583 -0.16535592 -0.18585348 -0.10172849 -0.2964608 -0.20846096 -0.1337671 0.12968174
0.6933496 0.07470379 0.18605866 0.7682749 -0.11571505 0.25631756 0.123876154 0.3092811
-0.22047292 0.15708235 -0.09940026 -0.16562001 0.15446895 -0.15408851 -0.08869284 -0.24516208
0.611916 -0.09674443 -0.09434351 -0.45677528 -0.17259222 -0.33103663 -0.7315492 -0.78599143
-0.19634594 0.13550128 -0.13555682 0.12485935 0.09672816 0.11394523 -0.0982769 0.07446726
0.15850557 0.010760795 0.1905038 0.16575675 -0.17426156 0.04835096 0.27473876 -0.09404113
-0.23654811 -0.34049684 0.116609454 -0.22939119 0.08334436 -0.124299236 0.08013163 0.11613595
-0.2601057 0.7140303 -0.00032660057 -0.10455765
