hddm/torch_models/ff29c116173611ecbdba3cecef05595c_race_no_bias_4_torch_state_dict.pt (torch, 124047 bytes, 7 tensors)

layers.0.weight f4 [120, 9]
00000000: 2d18 693e 10a3 4ebe ac1f ef3d d13b b5be
00000010: ab48 e0bd 1f1b a43e 7cfa a7be c982 a23e
00000020: 9346 6f3d ab0e 38be e20c 483e 1cbc c9bd
00000030: 0c14 b23d 05f4 cb3c 4ed9 c23e d9a6 323d
00000040: 915d 723b 0279 8bbe 05a6 2bbe 22cf 81be
00000050: 2c72 7dbe 580e ffbd 5cec 593e 6a91 993e
00000060: d16d 6b3e 130a b3bd a856 48bc 258a 0e3e
00000070: 244c 793e ba2c 023f 6246 58bf e8cc 053e
00000080: e401 0c3f 72ff bf3c 801b 80bc af40 653d
00000090: 891b f2bd 0fe6 b93d aaa4 c2be 6ac5 283e
000000a0: 1bf1 44bc 6b69 41bf fa54 59bd 3773 123d
000000b0: 9403 b33c 983a 58be 5300 31be 119f 583f
000000c0: b4b9 8cbe a6b3 f3bd 1541 89be 7d7d 53bd
000000d0: 041b 463d ccc2 2dbc 0e0e 833e b29d 6dbf
000000e0: 5894 f33e 923b ae3e 799a 9e3d 30e5 133f
000000f0: 5ed8 543d 8d63 6bbd c77f 873c 223d 6ebd
00000100: e629 c23d 5aa3 b9bd d33f 64bc 6e29 403e
00000110: efc1 c7bd f150 66bf be02 6e3f 4e68 0abe
00000120: 83c8 193d a41a 8e3d 7fd9 9b3c 54f8 7c3e
00000130: 2419 b5be e780 763e 43f0 dcbe 1f21 cf3e
00000140: 6aa2 5e3e 4790 fc3b 502c 3db9 13b8 eb3c
00000150: 2baf 67bd db88 a0bd 0b3d c9be 597c 9c3e
00000160: 9597 93be 3f91 debd 09ff 60bc 5e89 72bc
00000170: fb89 0abd 7a5f 3bbd ee07 603c 9f68 403d
00000180: f9d4 03bd 1f6b 41bb 9375 19bd 8a00 8dbd
00000190: fe89 5bbd 7fc4 903c 53a8 693c b07f 0fbe
000001a0: 762f b1be a7d4 313e 2376 32bc 99de fe3c
000001b0: 57c5 be3d a22b c03d 98b4 333d 1c3d 223d
000001c0: 77d2 c33d 6b84 9b3b d017 933e 9911 de3d
000001d0: 4a7a 10bd 3c93 48bd 6d78 763e 7cf0 94be
000001e0: d381 76bc 1774 08be f016 d4bd 6328 863d
000001f0: 8bd1 8fbd 991a 963f 2995 883b aacf 1a3c
00000200: 9135 6e38 ae66 933b 9d71 3db9 24f0 0cbb
00000210: 0116 0a3c e1ef 7cb9 e42d ad3a 85c6 05bd
00000220: 8a07 833c ed1c 83bd 22d2 cf3c d5eb 063e
00000230: faaf ef3e f827 133f 4a42 0dbf 7639 123d
00000240: e842 1bbc a93b 5d3d 0ead 223d bd5c f23c
00000250: 8adf ce3c f1f6 773f e071 20bf c4b8 193f
00000260: 3122 12be 1e0b c43c 1333 c33e 8e0d cbbc
00000270: 0469 f8be 5a8b 50bd ca29 323f 0de0 fe3d
00000280: 26ff d7bd 82ec 8cbb 6cbd 56bd db1f 183e
00000290: 61e0 c7bd 5094 1bbe 72cb e2be c915 f23d
000002a0: a96a 5cbe 9e72 723e bf7f a83e 883c 4d3d
000002b0: 7e40 603d 5cd4 53bd 457c db3d 19bc 61be
000002c0: d6a7 bc3c 7bed 4a3f 82ff 4bbf 728d d03d
000002d0: ba06 40bd 5225 043d 0073 83bd 1aff a43d
000002e0: cfc3 463e bb9c 5fbe 14f4 d93e 9989 afbe
000002f0: cfc5 51be 3566 943d d0bf 2e3e 1cbc 333d
00000300: fbf5 af3d 3955 973f 7e29 c4bf 59df 763d
00000310: fbf3 bfbd a3c8 e33a 6e26 c339 bb32 1c3d
00000320: 8098 12bd 806f 45bc 4e38 5b3d f356 1b3e
00000330: 2bd8 763d da28 423c c1e8 32bc 4a88 aebe
00000340: 9f70 f8bc 0de8 763e 99f5 a2be d378 84bf
00000350: c330 803d 5d40 33be 3c49 213e 7b17 92c0
00000360: 6ae1 393d 6ea1 81bd 663f b5bd 30ef aebe
00000370: 8709 533f 77b0 3a3f daaa 0f3e 1364 19be
00000380: 041b 1c3d cadb eebc 9d12 e23d eb01 72b9
00000390: b6ea 633d 4d87 8cbe 816d 3c3f 6109 28bf
000003a0: f8c1 2b3f 1310 cfbd 88ec 443e 9d12 0a3e
000003b0: 0057 a1be a9f0 173d 33e1 34be 1804 3bbc
000003c0: 8632 0fbd 576d b73c 54c4 6abe 419e 483d
000003d0: 4f4e 423e 2139 9b3e dcdb 41bc 375f 523e
000003e0: 3880 123e 69cb 0fbc 97db a83c e5a5 813d
000003f0: 2197 54bd a67f 49bd 274e 2dbd 0424 79bd
0.22763129 -0.20179391 0.11675963 -0.353972 -0.1095136 0.32051942 -0.32808292 0.31740406
0.058416914 -0.17974345 0.19536164 -0.09850332 0.0869523 0.024896631 0.38056415 0.04361615
0.003698204 -0.2724076 -0.1676255 -0.25353342 -0.24750584 -0.12453908 0.2128157 0.29993755
0.2299111 -0.08742156 -0.012227692 0.13919885 0.24345452 0.508495 -0.84482396 0.13066447
0.54690385 0.023437236 -0.015638113 0.05596989 -0.11821658 0.09077083 -0.38016254 0.16481557
-0.012020375 -0.7555148 -0.053059556 0.03575441 0.021852292 -0.21116102 -0.1728528 0.84617716
-0.2748543 -0.118994996 -0.26807466 -0.051633347 0.048365608 -0.010605525 0.2559666 -0.9281875
0.47574115 0.34029824 0.07744307 0.5777159 0.051964156 -0.057467986 0.016540421 -0.05816377
0.09480648 -0.0906436 -0.0139312325 0.18765804 -0.09753787 -0.89967257 0.92972934 -0.13516352
0.03754474 0.06938675 0.019024609 0.24704105 -0.35370743 0.2407261 -0.43152055 0.40454957
0.21741644 0.007707629 -0.00018040952 0.028774297 -0.056563538 -0.07838603 -0.39304385 0.3056362
-0.28826585 -0.10867547 -0.01373268 -0.014803259 -0.033822995 -0.04574535 0.013673766 0.046974774
-0.03218553 -0.0029513312 -0.037465643 -0.068848684 -0.053598396 0.017671822 0.014261323 -0.14013553
-0.34606522 0.17366277 -0.010892424 0.031112002 0.09314983 0.09383322 0.0438734 0.03960906
0.09561627 0.00474601 0.28729105 0.108432 -0.035272874 -0.04896854 0.24069376 -0.29089725
-0.015045601 -0.13325535 -0.103559375 0.06550672 -0.07022389 1.1726867 0.004168172 0.009448925
5.679351e-05 0.0044983244 -0.00018066769 -0.002150544 0.008428098 -0.00024121955 0.0013212529 -0.032660026
0.015994806 -0.064020015 0.025368754 0.131759 0.46813947 0.5748286 -0.55179274 0.03569933
-0.009476401 0.054011974 0.03971582 0.029585237 0.025253076 0.9686118 -0.6267376 0.60047555
-0.14270855 0.023931082 0.38124904 -0.024786737 -0.4851762 -0.050914146 0.69595015 0.12445078
-0.105467126 -0.004300655 -0.05242674 0.14855902 -0.09759594 -0.15193295 -0.4429584 0.118205614
-0.21525063 0.23676535 0.32909963 0.050106555 0.054749005 -0.051716194 0.10717062 -0.2204441
0.02302925 0.79268616 -0.7968675 0.101832286 -0.046881415 0.032262154 -0.06418419 0.08056469
0.19410633 -0.21837132 0.4256903 -0.34284666 -0.20485614 0.07246057 0.17065358 0.043880567
0.08591839 1.1822883 -1.5325162 0.060271595 -0.093727075 0.001737852 0.0003722193 0.038134318
-0.035789967 -0.012050509 0.053520493 0.15169887 0.060264748 0.01185056 -0.010919751 -0.34088355
-0.03032714 0.24111958 -0.31828 -1.0349373 0.062593006 -0.17505021 0.15750593 -4.5653663
0.045380987 -0.063296184 -0.08849983 -0.3416686 0.8243641 0.72925514 0.14030018 -0.14979582
0.0381117 -0.029157538 0.110387065 -0.00023079633 0.05564376 -0.27446976 0.7360459 -0.6563931
0.6709285 -0.10110488 0.19230855 0.13483663 -0.31511688 0.037094746 -0.17664032 -0.01141455
-0.034960292 0.022391004 -0.22926456 0.048979048 0.18975185 0.30317023 -0.011832204 0.20544134
0.14306724 -0.008776524 0.020612521 0.0633047 -0.05190194 -0.049194 -0.04231086 -0.060825363

layers.0.bias f4 [120]
00000000: 769c 9a3d 98b9 4d3d 0250 ba3e 8e6f 853f
00000010: 4f27 4d3f dec5 99bf 8854 ae3f 6de8 da3d
00000020: 62db e3be eeb8 1f3f c44c 3f3e f75f be3e
00000030: c938 64bf a0c9 b6be cb8c 43bb 906c eebe
00000040: 357b 59bf d26d 8bbe 026d 933e 106c e6bd
00000050: 625e 123e 66c1 14bf 2cf4 7fbe 0b89 27bf
00000060: 736f 88be 5b9a 0e3e fd1b 233f 87a9 a3bf
00000070: 7806 763c 8664 40bf 4ab6 b4be 3288 9e3d
00000080: c167 da3e decd ae3e 6048 09bf 417b ac3e
00000090: 33e7 ea3e 8c0e 313e 8c72 d6be 5f61 d53c
000000a0: 9473 003f b446 1dbf a7ca bc3d dac7 be3d
000000b0: b0a2 673f 5e75 e53e ced3 5c3e 4f2e 333e
000000c0: 6d13 e3be a2a0 aebe 49e7 a13f 5f81 303d
000000d0: 2a89 4c3e 4d24 2a3e 2dcf c7be 1108 fdbd
000000e0: 8744 eabe dd17 78ba e06c ff3d a4f3 ac3e
000000f0: c1ec 8f3e 40c0 fbbe 089a f43e 0e00 203e
00000100: 9ee0 bfbe 14d0 813e e586 fe3e 5988 e5be
00000110: 5d91 ce3e b780 0abf 03d9 eabb 4cd4 b13b
00000120: 48f8 ef3f 7f01 783b c091 21be bdf1 d63d
00000130: f9ad a03c 9efd 403e 4200 f1bc 2c9d b4be
00000140: 74de febe afeb 693d c5f6 6abf c695 243f
00000150: bdda 9d3e ce81 d8be 76c3 133f 5595 78bf
00000160: 464a 3fbe c126 39be d932 b4be 6adb b53e
00000170: ddc7 0bbf 46f5 9a3d a7b5 38be 705e adbb
00000180: 798a 1d3b 50f0 c6be b145 623d 3a85 3a3f
00000190: d6e2 dfb7 5441 2fbf 7b48 2c3e d794 46bf
000001a0: f95f 69bf 29ba 86be 4f04 143d 5104 1c3b
000001b0: ae9f 473e ea17 813f eae0 803e 7f87 9039
000001c0: 7d11 0abe df17 8fbf f5eb b2bd d1a7 5a3e
000001d0: 7490 d7be 41da 533f 0139 f4ba 07ea 18bf
0.07549374 0.050225824 0.36389166 1.0424669 0.80138105 -1.2013509 1.3619547 0.10688863
-0.44503313 0.62391555 0.18681628 0.3718259 -0.8914915 -0.35700703 -0.0029838558 -0.46567202
-0.84953624 -0.27232224 0.28794104 -0.1125108 0.14293817 -0.581076 -0.24995488 -0.65443486
-0.2664753 0.1392607 0.6371458 -1.2786111 0.015016191 -0.75153387 -0.35295326 0.07740821
0.42657283 0.3414144 -0.5362606 0.33687785 0.45879516 0.17290705 -0.41884267 0.026047407
0.5017636 -0.6143601 0.0921834 0.093154624 0.90482616 0.44816107 0.21565172 0.17498134
-0.44350758 -0.34106928 1.2648708 0.043092128 0.19974199 0.1661541 -0.3902525 -0.12355054
-0.45755407 -0.0009464005 0.12471938 0.33779633 0.28110316 -0.49170113 0.47773767 0.15625021
-0.37476057 0.25354064 0.4971229 -0.44830588 0.40345278 -0.54102653 -0.007166983 0.005426919
1.8747644 0.0037842689 -0.15778255 0.10495327 0.019614207 0.18846747 -0.029419068 -0.35276163
-0.49779093 0.05710953 -0.9178279 0.64291036 0.30830947 -0.42286533 0.57720125 -0.9710286
-0.18680677 -0.1808119 -0.35195044 0.35518962 -0.5460184 0.075663134 -0.18038045 -0.005290799
0.0024038835 -0.3885522 0.055242244 0.7285954 -2.66893e-05 -0.6845906 0.16824524 -0.7757086
-0.9116207 -0.26313904 0.03613692 0.0023806284 0.19494507 1.0085423 0.25171596 0.00027566773
-0.13483234 -1.117916 -0.087364115 0.2135308 -0.42102396 0.82754904 -0.0018632711 -0.597321

layers.2.weight f4 [120, 120]
00000000: e969 c0be 26c4 df3c f4d5 c6bd 56ac e83d
00000010: 26c3 d63d 9e47 a93d e672 1f3e bf19 ffbe
00000020: 5595 a13a f9c5 1c3f 15f9 36be 7e59 313e
00000030: 4098 5dbd 3b8e bfbd 9077 4bbc aedf c43f
00000040: e7ef c53d 14f6 c3bd 728d 4abe 1b27 873f
00000050: 4fe3 3f3e b628 9fbc e351 aabd 5961 92bd
00000060: 1cc3 3fbe b97a 863e c4a2 9bbd 8c43 64bc
00000070: 60cc 0340 3763 043e 34a7 58bf 3020 1a3d
00000080: c2c3 d43d d5ab e23e 6560 db3e 6c91 a73d
00000090: 7561 763d fcf2 87bf 94d3 e9bd f07a c5be
000000a0: 1ee6 43bf ce78 b33d 757e 21be bab9 85ba
000000b0: eca7 5cbc d87f 2f3f d0be 02be d61e 863e
000000c0: 40c6 4f3f f5ad 0d3e baea 7e3e 0aa0 c23e
000000d0: 57ad 8e3d d875 4abf 1cd0 2bbc ccb9 f43c
000000e0: bdef a43c 904a 97bd 2876 36bf 5f9b 093f
000000f0: 7b47 763f f79f 9ebd be51 6f3f d076 1e3e
00000100: fdbb a43c 34bf 63bd 1c93 85bd d74b b1bd
00000110: 37f7 a23e 5c2f 8a3e e3f7 96bf bc4b babd
00000120: bde2 913d b93c 2ebd 98d6 dc3e 7942 84be
00000130: d56e 1dbf ae0e 593d 511d 983d d019 d83c
00000140: 62d6 303e 6a77 813e e191 1d3d 8712 403d
00000150: a09e 12bf 054d c7bc 44a3 a13e a08b f1bd
00000160: 5295 56bf f409 cbba 25f7 ddbb 6141 f43e
00000170: b207 593d 9f40 863e 89de 40bd c373 b6bb
00000180: c4e6 293c 1b12 de3d 2fc0 9abe 02f6 91bd
00000190: eb6c 9d3c e74a ba3d 0b07 b6bd 5248 b23f
000001a0: b963 bdbe 9662 1e3e b468 30be 56a6 333d
000001b0: 3bc2 5e3e 86d5 ef3b 8265 023f 0ff7 fe3a
000001c0: 84db 7fbe e5cf 1e3f 164d 1fbe 7bba b3bd
000001d0: f878 cc3d 9630 173e 7395 c3bc 33ca 5c3e
000001e0: 30cf 2e3e fa5b 1a3e d691 c5be 4729 d13e
000001f0: ae4c 953d 5c2f ce3c 7a5e f6bc f195 9a3d
00000200: 4f7e 10bd 1906 07be d8be 2d3e 1418 84be
00000210: fa81 3c3e f248 cabc 901e c83c 0ff8 cebe
00000220: c312 bbbe d398 9cbd e051 6a3e 469b 743d
00000230: f8e4 4dbe da08 a33d 8754 803e 51b5 333e
00000240: 507d 743e e971 18bf 85d2 acbd 23e9 ab3e
00000250: a869 bfbe 2e49 85bd 65b5 783e 4a7c cf39
00000260: a704 ce3e 3833 8a3e 3439 6abe e7d2 91be
00000270: f9d6 b43d 8a75 263d d4f7 dfbe a12a b9bd
00000280: f3a4 063f e776 d23d ec83 b6be 306c 6abe
00000290: 7156 373e 00d3 65be c163 813d 6b2e 003e
000002a0: 832e 94bd 7e1d c73d d61c c0be 4cd8 cfbd
000002b0: c63b 99bd 277d 323d 1141 b9be 2aaf 963d
000002c0: 477d d53d ef97 103d 8036 823e fecd 83bd
000002d0: 5f47 e7bd e130 b5bd 4b17 2b3e 4b15 a5bd
000002e0: 568e 92be d420 7f3e b164 3c3e c497 003e
000002f0: f5d0 32be 4618 6c3e f325 883e d58f 2a3d
00000300: 599e 293e 4eeb 46b9 1b48 143e 6066 953e
00000310: 36cd 8a3e e228 113e 8725 dfbe fe17 99be
00000320: aa02 b43e 3f77 313e f726 03be 6945 37be
00000330: 588a aa3e 43f1 dc3d 0ad4 463d a4c7 e239
00000340: 7e85 a2be 5744 f4bd 4d60 aa3e cfe6 34be
00000350: 55e3 bf3c 5091 3fbf c571 4e3d 0c78 d5bc
00000360: 02f6 c3bc 3916 fcbd 64f8 78be 7a9a 5c3e
00000370: 71d4 923c ec27 2fbe 57c0 f63e bb43 97bd
00000380: c028 32bf 7d39 31be 2097 43be 737b 4c3c
00000390: b7c9 73bd 9394 79be c621 73bd 2350 b53b
000003a0: 1e4b fb3c 8116 82bf 34b8 b5bd 8f35 253e
000003b0: c25c 21be 0314 e53b 7b1f 92bd e04f dd3e
000003c0: e611 fdbd 1b8b cbbd c946 a23e cab1 7cbd
000003d0: f70b 873e 5b04 9ebe 1828 673e 0137 67be
000003e0: 8dd4 933e 02d8 083e 22e8 4a3d a0a3 25bd
000003f0: 9f55 163e 4c24 083d 1989 d0bc e974 9abd
-0.37580803 0.02731521 -0.09708777 0.113609955 0.1048644 0.08265613 0.15571174 -0.4982433
0.001232783 0.6123958 -0.17868455 0.17319295 -0.054100275 -0.093533 -0.012418643 1.5380762
0.09664898 -0.0956842 -0.1978052 1.0558809 0.18739055 -0.019428592 -0.083164 -0.07147474
-0.18726772 0.26265505 -0.075994045 -0.01393212 2.059349 0.12928472 -0.8463013 0.037628353
0.103889 0.44271722 0.4284698 0.08182034 0.060151536 -1.0621028 -0.114173084 -0.38570356
-0.76523006 0.08763276 -0.15770896 -0.0010202446 -0.01346777 0.6855445 -0.12768102 0.261954
0.8116188 0.1383589 0.24894229 0.38012725 0.06966656 -0.79086065 -0.010486629 0.029873751
0.020133847 -0.073872685 -0.7127404 0.537527 0.9620282 -0.077453546 0.93484104 0.15475011
0.020109171 -0.055602267 -0.065221995 -0.086570434 0.31829235 0.26989257 -1.1794399 -0.090964764
0.07123325 -0.04253838 0.43132472 -0.25831965 -0.6149724 0.052992515 0.07427467 0.026379496
0.1726928 0.25286418 0.0384692 0.04689267 -0.5727329 -0.024328718 0.31569874 -0.117942095
-0.83821595 -0.0015490637 -0.0067738467 0.4770613 0.052985854 0.26221177 -0.047087226 -0.005567999
0.01036996 0.10843297 -0.3022475 -0.071270004 0.019216975 0.09096318 -0.08888062 1.392832
-0.36990145 0.15467295 -0.17227441 0.043859802 0.2175378 0.007319155 0.5093614 0.0019452291
-0.24986082 0.6203597 -0.1555675 -0.08775803 0.099840105 0.14764628 -0.023874974 0.21561508
0.17071223 0.15074149 -0.38587826 0.40851805 0.07290016 0.025169067 -0.030074347 0.0754813
-0.035276707 -0.1318592 0.16967332 -0.2579962 0.18408957 -0.024692986 0.024428636 -0.4042363
-0.36537752 -0.076463364 0.22882795 0.059718393 -0.20106876 0.07960673 0.2506449 0.17549635
0.23875928 -0.59548813 -0.08438591 0.33576307 -0.37385297 -0.065080985 0.24287947 0.0003957472
0.40237924 0.26992202 -0.22873384 -0.28481218 0.08830065 0.040639438 -0.43743765 -0.09041334
0.5259544 0.10276585 -0.35647523 -0.22892833 0.17904069 -0.22443771 0.06317855 0.12517707
-0.07235434 0.09722422 -0.37522 -0.10148677 -0.07482104 0.043576386 -0.36182454 0.07357629
0.104242854 0.035301145 0.25432205 -0.06435774 -0.1129291 -0.088472135 0.16708104 -0.08060702
-0.2862422 0.24914867 0.18397786 0.12557894 -0.17462523 0.23056135 0.26591453 0.041641075
0.16564311 -0.0001897041 0.14480631 0.29179668 0.2710969 0.14175752 -0.4358332 -0.29901117
0.35158283 0.17330645 -0.12807833 -0.17897572 0.33308673 0.107882045 0.04854206 0.00043254823
-0.3174247 -0.11927097 0.33276597 -0.17666171 0.02342383 -0.74831104 0.050401468 -0.02605822
-0.023921017 -0.12308926 -0.24313504 0.21543303 0.017923566 -0.17105073 0.4819362 -0.073859654
-0.6959343 -0.17307086 -0.19100618 0.012480604 -0.059518542 -0.24373083 -0.05935838 0.0055332347
0.030675467 -1.0163118 -0.088730246 0.16133712 -0.1575804 0.006990911 -0.07134911 0.43225002
-0.123569295 -0.09938642 0.3169463 -0.06169299 0.26376316 -0.30862698 0.22573888 -0.22579576
0.288731 0.1336365 0.049537785 -0.040439248 0.146811 0.03323774 -0.025455998 -0.0754183

layers.2.bias f4 [120]
00000000: 2f31 223d cb91 72be ea5d af3b 62a5 e73d
00000010: 797d eabe bdf7 233e 0d28 d63d 7015 ecbe
00000020: 6d44 9abd 509d 443f b701 c8be e19a 18bf
00000030: 45ac 633e 7317 8d3e 3e42 d23d c389 35be
00000040: 645a c7be 7abe be3e a52c fa3e 4305 7dbe
00000050: f962 dd3d aefa 9abe ada2 a2bc 9645 ccbd
00000060: 9703 69be f51b 3bbe c43e bebd 99f1 923d
00000070: 2e74 19bf 8020 a43e 94bb 903d 2949 a83c
00000080: 5529 e5be b6b0 833e 1f19 8bbc 8c7d 003f
00000090: 8b07 b8bc ca71 a23e d367 4cbe 026a f2be
000000a0: b959 c4bd 0138 0fbd ae44 5f3f 9e9c aa3e
000000b0: f2f6 e13e d10b 493d ac24 023e 1f83 ab3e
000000c0: df98 143e 1bd8 e4be ae8e 9b3d cc8b 593e
000000d0: 35f0 23be 4813 14be f7aa 663e 2a67 993c
000000e0: 6f90 183d 110f e43e 4bc9 aebd a7d5 903c
000000f0: f31e 0b3e faff 6d3e 0ad3 7d3e 53e5 9b3e
00000100: 22d4 943c e489 5ebf 60c5 163d 88e9 313f
00000110: e86f 45bf 9099 a33e ec66 583e a635 213e
00000120: 59a0 05be 7efc a03d 3094 2c3f aab8 553e
00000130: 31f3 f4be d199 ffbd 5448 c7bc d7aa a7be
00000140: 4394 023d a4bd 853e 1584 29bf 1c07 b6be
00000150: 490d 953d 0d9a 0d3e db79 5a3f 0b09 013e
00000160: 661d 583d 521f 6e3e cd1b 10bd 2356 05bd
00000170: 6cd3 113a ddec 6abe 9a23 61bc bc12 73be
00000180: 910f 45bd 0b15 31bd 5041 bb3d d3b0 f4bd
00000190: 333f 0a3f 0e6b eb3d d0f9 13be e08d 32be
000001a0: 48cc 0d3d b793 bc3c 0b57 1d3d 7d2a d8be
000001b0: f047 0fbe 3b32 d63d da43 313d 980a 15be
000001c0: 6212 e53e ac87 403e fade 5f3d 06a6 b0bd
000001d0: d803 c63e ba58 e7bd f511 a13e 042c 1dbd
0.039597686 -0.23688428 0.0053517716 0.11310841 -0.45798853 0.16012473 0.10456858 -0.46110106
-0.075325824 0.7680254 -0.39063808 -0.59611326 0.22233684 0.27556953 0.10266541 -0.17728333
-0.3893615 0.37254697 0.48862186 -0.24709038 0.10809893 -0.30269378 -0.01985296 -0.0997421
-0.22755276 -0.18272384 -0.09289315 0.07174987 -0.599429 0.32056046 0.07067028 0.020542698
-0.44758096 0.25720757 -0.016979752 0.5019157 -0.022464534 0.3172744 -0.19961481 -0.47346503
-0.09587426 -0.03496552 0.8721417 0.33322614 0.44133717 0.049083535 0.12709302 0.33498475
0.1451144 -0.44696125 0.07595573 0.21244735 -0.160096 -0.1446048 0.22526155 0.01872595
0.037247118 0.44542745 -0.08534487 0.017680002 0.13586025 0.23242179 0.24787536 0.30448398
0.018167559 -0.86929154 0.036809325 0.69496965 -0.7712388 0.31953096 0.21133012 0.15743122
-0.13049449 0.07860659 0.67413616 0.20871225 -0.4784179 -0.1248051 -0.02432648 -0.32747528
0.031879675 0.26121247 -0.66217166 -0.355523 0.072779246 0.13828297 0.85342187 0.12601106
0.05276241 0.23254135 -0.035182763 -0.03255285 0.00055628153 -0.22941919 -0.013741398 -0.23737615
-0.04811055 -0.04323296 0.09143317 -0.11947789 0.54002684 0.114950284 -0.14450765 -0.17436934
0.034618646 0.023019655 0.03841309 -0.42219916 -0.13992286 0.104587995 0.0432776 -0.14554822
0.44740587 0.18801755 0.054656006 -0.086254165 0.38674808 -0.1129622 0.31459013 -0.038372055

layers.4.weight f4 [120, 120]
00000000: e085 b73e edb7 63bf 8908 1bbf 14f0 d73d
00000010: 33bd 73bd 7d92 2fbe 7615 723e 0999 5ebe
00000020: 20fb 03be 0435 333e b0c9 9b3d bf45 12be
00000030: 11a0 303e 1599 013d 5671 a23e 6b9e 983d
00000040: f366 41be b809 6c3e 2e6e 7b3e bd71 0ebe
00000050: 49f6 c83c c74e b5bd 3039 68be 050e 80be
00000060: d2b7 73be 56a7 24bf 3b53 a4be 8666 993d
00000070: 49c1 56be 8f5f e03d 41df 1fbd 230f b1bc
00000080: 67c4 5cbe 3f68 853e 372d 38be 1636 043e
00000090: 2665 46bc cb9f d23d c3f5 95be 92ea b0bd
000000a0: 3a07 c23e 2af2 47bf 14fe 533e 7cb3 dd3d
000000b0: 0071 7d3e 04e0 563e b227 843e 46af 363f
000000c0: 5533 d83d cb6c d13d 4ab4 f43d bfc2 2ebf
000000d0: 8a9b 6fbe ead8 5cbe 462a 243e 9591 6bbe
000000e0: bdd1 db3e abdd 9a3e a513 513e 426e e0bd
000000f0: 5e1a b3be 68c4 623e 9b9e 383e 82ff 153e
00000100: 6d0c 08be c98e 1abe 4d55 393e d67b 9e3d
00000110: 57cc 0fbe 42d2 97bd 18f4 2dbe 5974 c43e
00000120: 816c 8a3e 955f 743e 3846 e03c d1a4 113e
00000130: 4105 93be 8e0c 1bbe 0455 813d 2aaf cd3d
00000140: e12a 983d 0b7d 613e 1525 3ebe dd84 4abe
00000150: 0f6e 713e 27d4 f5bd 91a2 303e cb2d dcbd
00000160: 3a6a 24bd c8c3 0b3e 852c 29be e74c 053e
00000170: 25e9 f03d bde4 1abe 1368 56bf 1faf 2e3e
00000180: 01b8 c7bc 8dcd 32bf 7019 1c3e a583 d43e
00000190: 9556 1e3e 02f1 0dbe 72c0 66be 3509 dcbd
000001a0: c49c 2abe ee7a b03c a8a8 0abf 5c7d c1bd
000001b0: 4952 31be 7b4c 413d a5e6 a73d baf6 55bf
000001c0: 9c32 bb3d 2687 1a3d 1068 893e 53cc dabd
000001d0: e2fc 003f 2621 283d b464 113e af7a d33d
000001e0: 0e86 263e 7c1f b3be 11b0 c0be ae4f 2abe
000001f0: 530f 353e d54e 883c 5ddc 81bc f094 943e
00000200: 9635 3c3f 6817 0ebe 1bce 00bd 053a 8d3d
00000210: f4c2 4ebe ea81 1bbd 39ae 26be 055b bbbd
00000220: b690 d8be 5967 bd3e 56a0 41be 0592 103e
00000230: 616f 6dbf f1a3 bf3b 7627 89be d89f 7fbf
00000240: 1837 d4bd f4f6 ac3e d8e4 b2be 2a32 ee3e
00000250: 09e7 873e 26a4 6cbe 6478 8e3e 7a0e d0bd
00000260: 557d c73d c40b 7b3e 5e5c 213e b88b 9fbe
00000270: 7fee b7be 0a05 86be c033 363e e653 853e
00000280: 1fc5 54bd 4837 aa3d eb88 6cbe 09e7 283e
00000290: 01d4 84be 22ab 973d 4358 ae3e 2fb4 f23d
000002a0: b889 4ebc 9771 b13d 260e f23e a000 78bf
000002b0: 16c7 ea3d b8f9 1bbf bcf5 10be c048 843f
000002c0: 341f cf3e bd30 873e f4b7 cbbd 34e0 eb3d
000002d0: aa4f 4e3d 953a 8fbe 3fd1 933d 4261 81be
000002e0: 903b c73d c588 1b3e 667f b53e 062f 99be
000002f0: bac8 033e b26b 243e 53c5 1c3e b0a5 2d3e
00000300: 6c9d 2fbe 13d8 9a3e dda5 b63e 41ae 963d
00000310: fd3f 213e 654c 413e 296a a4be bbd6 343e
00000320: 9284 0abf 66ca a6bd 7ff9 483e 90cd a1be
00000330: 2d91 c03e b5f5 c43d 4eea dfbd 3e54 cb3c
00000340: 79f4 893e 6e44 f9bd f787 433e 4385 23bf
00000350: 867c 493f 9636 07bf c73c d5bd 0bbe a23b
00000360: f338 3ebd 36e1 a1be 2b18 dfbe 0a47 e4bd
00000370: 4f19 8fbe f8d3 ff3d 3242 7b3e eb34 453e
00000380: e4a2 4d3d ca30 2fbe 3e7c 75be 9434 05be
00000390: a9ee 4fbf 8ffb 47bf be19 76bc 3dda 29be
000003a0: 8d64 5abe 2e7c 0b3e dc90 0cbd 8ae1 f33b
000003b0: f682 a03e 5376 723e f0e9 59be 8cc4 1d3e
000003c0: d784 fe3d 3278 043f ec5f 853e b714 723e
000003d0: fdba 373e 86d6 07bd b40b 2e3c 348c 30be
000003e0: 0358 b03e 3d0c d73c 2ca5 0a3f 6750 0ebe
000003f0: 3aaf 9bbe cf12 83be 1f11 e2be 8efe 263d
0.35844326 -0.88952523 -0.605599 0.10543838 -0.059506606 -0.17145725 0.23640999 -0.21738066
-0.12888765 0.17500693 0.07606828 -0.14284419 0.1724856 0.03164013 0.31727093 0.07452091
-0.18886928 0.23050582 0.24553749 -0.13910575 0.0245315 -0.08852916 -0.22678065 -0.25010696
-0.2380059 -0.64317834 -0.3209475 0.07490258 -0.2097217 0.10955726 -0.03903127 -0.021613663
-0.21559297 0.26056096 -0.17985998 0.12911257 -0.012109077 0.10284384 -0.29289064 -0.08638491
0.37896138 -0.7810389 0.20702392 0.108252496 0.24750137 0.20983893 0.25811535 0.71361196
0.10556666 0.10225829 0.1194845 -0.6826591 -0.23399177 -0.21567121 0.16031751 -0.23004754
0.42933455 0.30247244 0.2041765 -0.1095853 -0.34981054 0.22145236 0.18029253 0.1464825
-0.1328599 -0.1509353 0.18098946 0.077384636 -0.14042793 -0.0741315 -0.16987646 0.38370016
0.27035907 0.23864587 0.027377233 0.14223029 -0.28714946 -0.15141508 0.063150436 0.100431755
0.074300535 0.22020356 -0.18568833 -0.19777246 0.2357714 -0.120033555 0.17249514 -0.10750922
-0.040140368 0.13648903 -0.16520889 0.13017617 0.11763219 -0.15126319 -0.83752555 0.17058991
-0.024379732 -0.69844896 0.15244079 0.41506687 0.15462716 -0.13861468 -0.2253435 -0.107439436
-0.16661364 0.021542992 -0.541636 -0.094477385 -0.17316546 0.047192078 0.08198289 -0.835796
0.09140512 0.037726544 0.26837206 -0.10683503 0.5038587 0.041047238 0.14198571 0.103261344
0.16262075 -0.34984958 -0.37634328 -0.16631958 0.17681627 0.016639153 -0.015852148 0.2901988
0.73519266 -0.13876116 -0.031446557 0.06895832 -0.20191556 -0.037965693 -0.16277398 -0.0914822
-0.42297906 0.3699291 -0.1890882 0.14118202 -0.92748076 0.0058484008 -0.2678792 -0.9985328
-0.10362071 0.3378216 -0.3494022 0.46522647 0.26543453 -0.23109493 0.27826226 -0.10159011
0.09740702 0.24516207 0.15757892 -0.31161284 -0.35924146 -0.2617572 0.17793179 0.26040572
-0.0519458 0.08311325 -0.23099105 0.16494383 -0.25942996 0.07405688 0.34051713 0.118507735
-0.012606077 0.08664244 0.4727642 -0.96875954 0.11463754 -0.60927916 -0.1415624 1.0334702
0.40453494 0.26404372 -0.09947196 0.11517373 0.050368942 -0.27974382 0.07217645 -0.25269514
0.097281575 0.15188892 0.3544876 -0.2991869 0.1286954 0.16056708 0.15309648 0.16957736
-0.17149895 0.30242977 0.3567342 0.07357455 0.15747066 0.18876798 -0.32112244 0.17660038
-0.54108536 -0.08144073 0.19626425 -0.31602144 0.3761076 0.096171774 -0.10933362 0.024820443
0.2694433 -0.12171255 0.19094835 -0.63875216 0.7870563 -0.52817667 -0.10411983 0.0049665025
-0.04644103 -0.31617135 -0.43573126 -0.11146362 -0.27948996 0.12491602 0.2453697 0.19258468
0.050204173 -0.17108455 -0.23973176 -0.13008338 -0.8122354 -0.7811822 -0.015020786 -0.16587158
-0.2132742 0.1362159 -0.034317836 0.007442658 0.31349915 0.2367795 -0.21280646 0.15407008
0.12427681 0.51745903 0.26049745 0.23640715 0.17942424 -0.03316357 0.010622907 -0.17240983
0.34442148 0.026250953 0.5415828 -0.13897859 -0.30407125 -0.25600287 -0.44153687 0.040770106

layers.4.bias f4 [120]
00000000: 79f5 f33d 0f09 5ebe 7634 6e3e 04a8 1ebe
00000010: 48c1 73bd a31b 64be 2178 69be 8888 86bd
00000020: f102 34be 275a c63e a74f 443e 7725 abbe
00000030: ba37 4e3d 2055 06be 1c12 163d 6b38 16bc
00000040: 099b 383e fcb0 67be 180e 983d 5751 8b3d
00000050: 53ae 8abe 69bc d63d 6d39 5d3e eb17 8c3e
00000060: d9cb 3f3d 477f c2be 1909 103e 56ff 6abe
00000070: 8b9b 04bf 9ff1 663e 97d9 963e c1d3 bc3e
00000080: 84dd 0e3e 5fb1 843d 34b6 dfbe 0905 2c3e
00000090: 16f5 df3c a4e5 10bf bd00 103e 652d bebe
000000a0: 97ab 8ebd 8838 4c3e 5251 05be 8177 d73e
000000b0: 7ea7 263e 5c72 e5be 6930 17be 0a57 88be
000000c0: 2ace 75be a378 8bbd 7fe7 203e 82a7 94be
000000d0: 99a7 e6bd b86f 96bc 38b2 f33d a32a c7bd
000000e0: ae4e 3f3e adcb 073f 7fc1 7e3e c072 ba3e
000000f0: e7a7 bb3d 286b a43c 83d8 d6be da73 88be
00000100: 92d0 66bd f08c 4dbd 638c 1b3e b294 0ebe
00000110: 46e4 c8bc f59a a1be a4d8 97be 4e24 cd3c
00000120: 5c1b d6bd 56d1 cebd d203 bebd 31e2 6abb
00000130: 76a3 923d 0d17 703e 8dd3 ccbe 38f8 b83e
00000140: df84 52be 6b0e 7c3b 45a1 42be 8577 1a3e
00000150: ccdb 653e df02 abbe b956 50be 2998 a9bd
00000160: 1dc7 83be 8620 01be f528 5bbe 61d2 b8be
00000170: 3004 edbd cbb8 833e 4e68 07bf 6cd3 7d3e
00000180: e622 dd3e f1ab 1bbe 5970 fe3d 9bf5 d83e
00000190: 96f5 d83d c48d a43e 34a8 4bbe 0ff8 29be
000001a0: 3f13 aa3e dfd0 f0bd 382f 9bbc 936c 2a3c
000001b0: 5bf6 77bc d0c6 b4bd 6f89 cb3e 19fc 1a3e
000001c0: 04c8 9a3e e52a e3be e1aa fc3d 3d13 aa3d
000001d0: 33cc 853d edf9 923e 0724 b2be d8ad 04be
0.119120546 -0.21683143 0.232622 -0.1549378 -0.0595105 -0.22276168 -0.22799732 -0.0656901
-0.17579247 0.38740656 0.1917101 -0.3342702 0.050346114 -0.1311841 0.036638364 -0.0091687245
0.18027891 -0.22626108 0.07424563 0.06802624 -0.27086124 0.10485155 0.21603937 0.27361998
0.046825264 -0.3798773 0.1406597 -0.22948965 -0.5179984 0.22553109 0.29462883 0.36880305
0.13951689 0.06479143 -0.43693697 0.16798796 0.027338546 -0.56600404 0.14062782 -0.37144008
-0.06966322 0.1994344 -0.13019302 0.42083362 0.1627483 -0.44813812 -0.14764561 -0.26628906
-0.24004427 -0.06810119 0.15713309 -0.29034048 -0.112624355 -0.018363819 0.11899227 -0.09724929
0.18682358 0.5304516 0.248785 0.36415672 0.09162884 0.020070627 -0.4196206 -0.26650888
-0.056351252 -0.050183237 0.15190272 -0.1392391 -0.024522912 -0.31563535 -0.2965747 0.025041725
-0.10454437 -0.100985214 -0.092780724 -0.0035840387 0.07160084 0.23446293 -0.4000515 0.36126876
-0.20558499 0.0038460742 -0.19006832 0.15084656 0.22447127 -0.33400628 -0.20345582 -0.08280975
-0.2573785 -0.12610063 -0.21402343 -0.36098006 -0.11573064 0.25726923 -0.5289353 0.24787682
0.43190688 -0.15202309 0.12423772 0.42374882 0.10593717 0.3213941 -0.19888383 -0.16598533
0.3321781 -0.11758589 -0.018943414 0.010401863 -0.015134419 -0.08826983 0.3975329 0.1513523
0.30230725 -0.44368663 0.1233728 0.08304451 0.065330885 0.28706303 -0.34793112 -0.12956941

layers.6.weight f4 [1, 120]
00000000: 4a53 9fbd d7a5 773d 7dda f0bd 8513 023f
00000010: dfad c03d 1b6a 803e b758 ef3d 68aa cb37
00000020: 0962 803d cac1 31be fbf5 73be d6a8 8c3e
00000030: 47a8 4039 4120 663d 769e 21ba d518 603e
00000040: 7300 febe 80d5 e03d 94f0 94bd 69d9 27bd
00000050: ef62 823e b6f0 1cbe c198 1abe fa2c 64be
00000060: 3874 6fb9 612a 103e 8f53 07bd dff4 783e
00000070: 48d5 ba3e 4d97 8bbe 7ff1 35be bdda cebd
00000080: 6939 65be 33e0 14be 1ea8 963e c294 d6bd
00000090: 47f8 27be a4b7 133f a516 0cbd 1ab5 cf3d
000000a0: 6e80 aab8 bf7c 45be c937 9f3d ec1e 31be
000000b0: eb4f 65be 9d3e fc3e f999 b73d 81d0 793e
000000c0: ffdd 223e 8276 1a3f 54b9 53be 7eba 483e
000000d0: af29 133f 2aa5 5bbf 39bc 62be 6ce7 143e
000000e0: 3242 87be 796b 19bf e384 21be 5e51 5abe
000000f0: b437 e338 800f cb3e c075 113f 3506 9a3d
00000100: 68e6 03bf c3c8 32bf c521 a4bd 6ee4 683e
00000110: 1e40 eabe a88a 983e 65f7 0f3e fd7f 79bd
00000120: c9cf 3f3d fae4 5ebf c407 423d 52cd 8dba
00000130: fe1e a4bc 8377 a2be 77e1 ee3e e6c1 0fbe
00000140: f314 2b3d 7b84 8b3e 17a1 a23d 49fa fdbd
00000150: 2a46 04be f79d 9f3e 2d62 9b3d 5b30 233e
00000160: 8801 303e 7fd6 143d 9658 6c3e c884 0b3e
00000170: 5739 1d3e 0be5 f8bd 299c 1c3e 8ca5 b1bd
00000180: c0c4 d4be 13fd 283e 8cc2 2cbe 1dcd 1dbe
00000190: 11ba a938 e9d5 4bbe edd3 063f c060 523e
000001a0: 1e91 3ebe faff e73d dba0 06ba 12a3 083f
000001b0: 4c59 6b3e f31b 193e 04fe 1cbe 9044 6cbe
000001c0: bd81 64be b9b6 603e efef 98be f864 503f
000001d0: ee55 e33d bdad 65be 20e0 9c3e 893a d13d
-0.07779558 0.06046089 -0.11760423 0.50811034 0.09408163 0.25080952 0.11686843 2.4278837e-05
0.06268699 -0.17359081 -0.23824303 0.27472562 0.00018373235 0.056183103 -0.0006165275 0.21884473
-0.49609718 0.10978222 -0.07272449 -0.040978823 0.25466105 -0.15326199 -0.15097333 -0.22282782
-0.00022836111 0.14078666 -0.033038672 0.24312161 0.36490846 -0.2726387 -0.17767905 -0.10100315
-0.22385181 -0.1453865 0.29425138 -0.10477592 -0.16403304 0.5770209 -0.034201283 0.10141964
-8.1301536e-05 -0.19285868 0.07774312 -0.17296952 -0.22393768 0.4926652 0.08964915 0.24395944
0.15904997 0.6033708 -0.20676166 0.19602391 0.5748548 -0.85798895 -0.22142114 0.14541405
-0.2641769 -0.59929615 -0.15773349 -0.21320102 0.00010834579 0.39660263 0.568203 0.07520715
-0.5152345 -0.6983759 -0.080142535 0.22743389 -0.45752043 0.29793286 0.14059217 -0.060913075
0.04682902 -0.8706814 0.047370687 -0.0010818637 -0.02003431 -0.31731805 0.4665639 -0.1403881
0.041768026 0.27249512 0.07940882 -0.12401254 -0.1291739 0.31175205 0.07587085 0.15936415
0.17188084 0.036337372 0.23080668 0.13624871 0.15353905 -0.121530615 0.15293945 -0.08674154
-0.41556358 0.1650279 -0.16871089 -0.15410276 8.0932055e-05 -0.19905819 0.52667123 0.2054472
-0.18610045 0.113281205 -0.00051356637 0.53373826 0.22983283 0.14952068 -0.15331274 -0.2307303
-0.22315116 0.21944703 -0.29870555 0.81404066 0.11100374 -0.22429557 0.30639744 0.10216243
